python-Linux/neural-sparse-linear-solvers-master/stand_small_test/1223741437425012180_a00fb88b3ec1ab4256f399a1ddb6b3f85aae2c78_b15761bbb18892c9ccdfd00a1a8760ff341890f6.npz (npz, 69611 bytes, 3 tensors)

A_values f8 [16692]
0	0x41c5ec21c32a7c70	735593350.3319225
1	0xc16d8fe7e46c9bd6	-15499071.138257902
2	0xc153e8dbc7461151	-5219183.1136515895
3	0xc15e6df8444e3e58	-7976929.067275606
4	0x4171092f73bdcad1	17863415.233836
5	0xc1428f113b730f43	-2432546.464448841
6	0xc153e8dbc7461151	-5219183.1136515895
7	0xc1c4ff460e60fed3	-704547868.7577766
8	0x41c85332d6caeab5	816211373.5852877
9	0x41508bc0d88598e6	4337411.38315413
10	0x414e6dad1c1ddd8a	3988314.2196614193
11	0xc140558fe26de812	-2140959.768979081
12	0xc1524a104b2df2b0	-4794433.174679443
13	0xc1c80b62c53d533e	-806798730.4791028
14	0xc138c4ef65ac2eb8	-1623279.3971585464
15	0x414e6dad1c1ddd8a	3988314.2196614193
16	0x41dbb2dde4db71a4	1858828179.428811
17	0x4172825a1c67e20c	19408289.77536206
18	0xc16c72a928743312	-14914889.264184508
19	0xc1c7097fd97f03e8	-772997042.9923067
20	0xc16140e220a60f33	-9045777.02027092
21	0x4172825a1c67e20c	19408289.77536206
22	0xc15728372e5e1d72	-6070492.724494325
23	0xc16c72a928743312	-14914889.264184508
24	0x41508bc0d88598e6	4337411.38315413
25	0x4172825a1c67e20c	19408289.77536206
26	0x41970cd9c6535544	96679537.58137995
27	0x41524a104b2df2b0	4794433.174679443
28	0x415b31dc0602d357	7128944.093922458
29	0xc172825a1c67e20c	-19408289.77536206
30	0x417a088bdc647754	27297981.774527863
31	0xc15922c019cacc4a	-6589184.403002808
32	0xc16d8fe7e46c9bd6	-15499071.138257902
33	0xc16c72a928743312	-14914889.264184508
34	0x41a5de02fa351326	183435645.10366172
35	0xc171092f73bdcad1	-17863415.233836
36	0x41790b3300e44f65	26260272.05573978
37	0xc15cc89fc907c8a3	-7545471.141100082
38	0x416c72a928743312	14914889.264184508
39	0x4177007d751013f0	24119255.316425264
40	0xc153e8dbc7461151	-5219183.1136515895
41	0x414e6dad1c1ddd8a	3988314.2196614193
42	0x418599074449d15b	45293800.536043845
43	0xc15b93e8689a8777	-7229345.634431711
44	0x4153e8dbc7461151	5219183.1136515895
45	0x415c5a7e20fa0135	7432696.515259077
46	0xc14e6dad1c1ddd8a	-3988314.2196614193
47	0x4158d64de11d1168	6510903.5173991695
48	0xc15e6df8444e3e58	-7976929.067275606
49	0xc171092f73bdcad1	-17863415.233836
50	0x41c5a44aa999a88e	726177107.2004564
51	0x41512e059f29f204	4503574.486935142
52	0xc153e8dbc7461151	-5219183.1136515895
53	0xc16566665d268bb4	-11219762.910955288
54	0x417554b0db884752	22366989.72077114
55	0xc1428f113b730f43	-2432546.464448841
56	0xc153e8dbc7461151	-5219183.1136515895
57	0xc1c4ff460e60fed3	-704547868.7577766
58	0xc140558fe26de812	-2140959.768979081
59	0x41524a104b2df2b0	4794433.174679443
60	0x41c83f35b211173d	813591396.1335217
61	0xc132f6d8ef3bb738	-1242840.9345049392
62	0x414e6dad1c1ddd8a	3988314.2196614193
63	0xc1471ae53e7fffec	-3028426.4882812407
64	0xc15707c686fce07e	-6037274.1091843825
65	0xc1c80b62c53d533e	-806798730.4791028
66	0xc138c4ef65ac2eb8	-1623279.3971585464
67	0x414e6dad1c1ddd8a	3988314.2196614193
68	0xc1c7097fd97f03e8	-772997042.9923067
69	0x41d8aed06259d8b1	1656439177.4038508
70	0x4172825a1c67e20c	19408289.77536206
71	0xc16c72a928743312	-14914889.264184508
72	0xc1c9e0ccf4555902	-868325864.6667788
73	0xc16140e220a60f33	-9045777.02027092
74	0x4172825a1c67e20c	19408289.77536206
75	0xc15728372e5e1d72	-6070492.724494325
76	0xc16c72a928743312	-14914889.264184508
77	0xc1524a104b2df2b0	-4794433.174679443
78	0x415b31dc0602d357	7128944.093922458
79	0xc132f6d8ef3bb738	-1242840.9345049392
80	0x4172825a1c67e20c	19408289.77536206
81	0x41962cb12cf3d66c	93006923.23812264
82	0x415707c686fce07e	6037274.1091843825
83	0x415e73df199d5f69	7982972.400230267
84	0xc172825a1c67e20c	-19408289.77536206
85	0x417a088bdc647754	27297981.774527863
86	0xc15922c019cacc4a	-6589184.403002808
87	0x4171092f73bdcad1	17863415.233836
88	0x41790b3300e44f65	26260272.05573978
89	0x41512e059f29f204	4503574.486935142
90	0xc16c72a928743312	-14914889.264184508
91	0x41a452eb8e108ed1	170489287.0323396
92	0xc17554b0db884752	-22366989.72077114
93	0x417bcd21ceb1b614	29151772.918386534
94	0xc15cc89fc907c8a3	-7545471.141100082
95	0x416c72a928743312	14914889.264184508
96	0x4177007d751013f0	24119255.316425264
97	0xc15b93e8689a8777	-7229345.634431711
98	0xc153e8dbc7461151	-5219183.1136515895
99	0x414e6dad1c1ddd8a	3988314.2196614193
100	0x4184b1f8cfe848b0	43400985.98841989
101	0xc15efa8fbe23fdc3	-8120894.970946732
102	0x4153e8dbc7461151	5219183.1136515895
103	0x415c5a7e20fa0135	7432696.515259077
104	0xc14e6dad1c1ddd8a	-3988314.2196614193
105	0x4158d64de11d1168	6510903.5173991695
106	0xc16566665d268bb4	-11219762.910955288
107	0xc17554b0db884752	-22366989.72077114
108	0x41c5676eb9110c11	718200178.1331807
109	0xc17554b0db884752	-22366989.72077114
110	0xc153e8dbc7461151	-5219183.1136515895
111	0xc1428f113b730f43	-2432546.464448841
112	0xc153e8dbc7461151	-5219183.1136515895
113	0xc1c4ff460e60fed3	-704547868.7577766
114	0xc1471ae53e7fffec	-3028426.4882812407
115	0x415707c686fce07e	6037274.1091843825
116	0x41c82ee0222ea955	811450436.3645426
117	0x415707c686fce07e	6037274.1091843825
118	0x414e6dad1c1ddd8a	3988314.2196614193
119	0xc1c80b62c53d533e	-806798730.4791028
120	0xc138c4ef65ac2eb8	-1623279.3971585464
121	0x414e6dad1c1ddd8a	3988314.2196614193
122	0xc1c9e0ccf4555902	-868325864.6667788
123	0x41ca5420eb34ad7a	883442134.4115441
124	0x4172825a1c67e20c	19408289.77536206
125	0xc16c72a928743312	-14914889.264184508
126	0xc16140e220a60f33	-9045777.02027092
127	0x4172825a1c67e20c	19408289.77536206
128	0xc15728372e5e1d72	-6070492.724494325
129	0xc16c72a928743312	-14914889.264184508
130	0xc15707c686fce07e	-6037274.1091843825
131	0x415e73df199d5f69	7982972.400230267
132	0x415707c686fce07e	6037274.1091843825
133	0x4172825a1c67e20c	19408289.77536206
134	0x4192c130bfc39688	78662703.94100392
135	0xc172825a1c67e20c	-19408289.77536206
136	0x417a088bdc647754	27297981.774527863
137	0xc15922c019cacc4a	-6589184.403002808
138	0x417554b0db884752	22366989.72077114
139	0x417bcd21ceb1b614	29151772.918386534
140	0xc17554b0db884752	-22366989.72077114
141	0xc16c72a928743312	-14914889.264184508
142	0x419bd5741c89c0a1	116743431.13452388
143	0xc15cc89fc907c8a3	-7545471.141100082
144	0x416c72a928743312	14914889.264184508
145	0x4177007d751013f0	24119255.316425264
146	0xc15efa8fbe23fdc3	-8120894.970946732
147	0xc153e8dbc7461151	-5219183.1136515895
148	0x414e6dad1c1ddd8a	3988314.2196614193
149	0x41813f7bc2d4f7c1	36171640.35398818
150	0x4153e8dbc7461151	5219183.1136515895
151	0x415c5a7e20fa0135	7432696.515259077
152	0xc14e6dad1c1ddd8a	-3988314.2196614193
153	0x4158d64de11d1168	6510903.5173991695
154	0xc1428f113b730f43	-2432546.464448841
155	0x4153e8dbc7461151	5219183.1136515895
156	0x41c5f4b0ec3e0763	736715224.4846004
157	0xc16d8fe7e46c9bd6	-15499071.138257902
158	0x414005a927dd7750	2100050.311446108
159	0xc15e6df8444e3e58	-7976929.067275606
160	0x4171092f73bdcad1	17863415.233836
161	0xc1311e522715e51b	-1121874.1526778403
162	0xc147cc0e66aeab52	-3119132.8022054816
163	0xc1c4ff460e60fed3	-704547868.7577766
164	0xc1c80b62c53d533e	-806798730.4791028
165	0x41d570ac17142bdc	1438822492.315177
166	0x41508bc0d88598e6	4337411.38315413
167	0x414e6dad1c1ddd8a	3988314.2196614193
168	0xc140558fe26de812	-2140959.768979081
169	0xc1524a104b2df2b0	-4794433.174679443
170	0xc1c28e25575d6d02	-622611118.7298892
171	0xc138c4ef65ac2eb8	-1623279.3971585464
172	0x414e6dad1c1ddd8a	3988314.2196614193
173	0xc16140e220a60f33	-9045777.02027092
174	0xc172825a1c67e20c	-19408289.77536206
175	0x41dbc2ef622984e1	1863040392.6487353
176	0xc15d5cb9643accf2	-7697125.566088902
177	0xc16c72a928743312	-14914889.264184508
178	0xc1c7097fd97f03e8	-772997042.9923067
179	0xc150117d4e133d42	-4212213.219924273
180	0x4166565786b25d9f	11711164.209273158
181	0xc15728372e5e1d72	-6070492.724494325
182	0xc16c72a928743312	-14914889.264184508
183	0x4172825a1c67e20c	19408289.77536206
184	0x417a088bdc647754	27297981.774527863
185	0x41508bc0d88598e6	4337411.38315413
186	0xc15d5cb9643accf2	-7697125.566088902
187	0x41a0b9e4bb33ebd4	140309085.6014086
188	0x41524a104b2df2b0	4794433.174679443
189	0x415b31dc0602d357	7128944.093922458
190	0xc166565786b25d9f	-11711164.209273158
191	0x41747ee3d62de8fd	21491261.386208523
192	0xc15922c019cacc4a	-6589184.403002808
193	0xc15cc89fc907c8a3	-7545471.141100082
194	0xc16d8fe7e46c9bd6	-15499071.138257902
195	0xc16c72a928743312	-14914889.264184508
196	0x41a68fb63f419fda	189258527.6281727
197	0xc171092f73bdcad1	-17863415.233836
198	0x41790b3300e44f65	26260272.05573978
199	0xc1563668a1919685	-5822882.524510984
200	0x416c72a928743312	14914889.264184508
201	0x4177007d751013f0	24119255.316425264
202	0xc153e8dbc7461151	-5219183.1136515895
203	0x415c5a7e20fa0135	7432696.515259077
204	0x414005a927dd7750	2100050.311446108
205	0x414e6dad1c1ddd8a	3988314.2196614193
206	0x418b1e576c654e2e	56871661.54946552
207	0xc15b93e8689a8777	-7229345.634431711
208	0x4147cc0e66aeab52	3119132.8022054816
209	0x4155ff29e1e4c98f	5766311.529589071
210	0xc14e6dad1c1ddd8a	-3988314.2196614193
211	0x4158d64de11d1168	6510903.5173991695
212	0xc1428f113b730f43	-2432546.464448841
213	0x4153e8dbc7461151	5219183.1136515895
214	0xc15e6df8444e3e58	-7976929.067275606
215	0xc171092f73bdcad1	-17863415.233836
216	0x41c5acd9d2ad3381	727298981.3531343
217	0x41512e059f29f204	4503574.486935142
218	0x414005a927dd7750	2100050.311446108
219	0xc16566665d268bb4	-11219762.910955288
220	0x417554b0db884752	22366989.72077114
221	0xc1311e522715e51b	-1121874.1526778403
222	0xc147cc0e66aeab52	-3119132.8022054816
223	0xc1c4ff460e60fed3	-704547868.7577766
224	0xc1c80b62c53d533e	-806798730.4791028
225	0xc140558fe26de812	-2140959.768979081
226	0x41524a104b2df2b0	4794433.174679443
227	0x41d566ad84b74220	1436202514.863411
228	0xc132f6d8ef3bb738	-1242840.9345049392
229	0x414e6dad1c1ddd8a	3988314.2196614193
230	0xc1471ae53e7fffec	-3028426.4882812407
231	0xc15707c686fce07e	-6037274.1091843825
232	0xc1c28e25575d6d02	-622611118.7298892
233	0xc138c4ef65ac2eb8	-1623279.3971585464
234	0x414e6dad1c1ddd8a	3988314.2196614193
235	0xc16140e220a60f33	-9045777.02027092
236	0xc172825a1c67e20c	-19408289.77536206
237	0xc1c7097fd97f03e8	-772997042.9923067
238	0x41d8bee1dfa7ebee	1660651390.623775
239	0xc15d5cb9643accf2	-7697125.566088902
240	0xc16c72a928743312	-14914889.264184508
241	0xc1c9e0ccf4555902	-868325864.6667788
242	0xc150117d4e133d42	-4212213.219924273
243	0x4166565786b25d9f	11711164.209273158
244	0xc15728372e5e1d72	-6070492.724494325
245	0xc16c72a928743312	-14914889.264184508
246	0x4172825a1c67e20c	19408289.77536206
247	0x417a088bdc647754	27297981.774527863
248	0xc1524a104b2df2b0	-4794433.174679443
249	0x415b31dc0602d357	7128944.093922458
250	0xc132f6d8ef3bb738	-1242840.9345049392
251	0xc15d5cb9643accf2	-7697125.566088902
252	0x41a049d06e842c68	136636471.2581513
253	0x415707c686fce07e	6037274.1091843825
254	0x415e73df199d5f69	7982972.400230267
255	0xc166565786b25d9f	-11711164.209273158

x f8 [1584]
0	0xbe638768c097ad24	-3.6375489353144904e-08
1	0xbe81f6396ba4513b	-1.3382594039240224e-07
2	0xbe20df051c7af244	-1.9640628878843323e-09
3	0x3e5a9e9031cb054e	2.4791236718671433e-08
4	0xbe4f4643db3873f1	-1.4563311313012781e-08
5	0x3e14d9e6e0162b38	1.2136983643336213e-09
6	0xbe8278b0bb07f70b	-1.376230023413753e-07
7	0xbe9c2652010c5720	-4.1946305011482503e-07
8	0xbe2c82d49fa47c27	-3.3191238621618728e-09
9	0x3e5279cc5c141008	1.7206905904474913e-08
10	0xbe4a640f0b2ea89c	-1.2289199302136241e-08
11	0xbe404d7ce8b40d66	-7.591530312804058e-09
12	0xbe88870e0155e467	-1.8274454364664745e-07
13	0xbea0f0d12903e33c	-5.048719504955309e-07
14	0xbe2e85a26eb0d1c1	-3.5532295903549545e-09
15	0x3e25bf867f883674	2.531817419133004e-09
16	0xbe32b6f35fd7b750	-4.357344261000108e-09
17	0xbe3d76fe3e6cbd5e	-6.860312296363476e-09
18	0xbe6e74b47803286c	-5.6728494791917276e-08
19	0xbe81d4b57afa7c45	-1.328505141355668e-07
20	0xbde3510c40fe4087	-1.4054671358727273e-10
21	0x3e49bb06061fb847	1.1981726003693227e-08
22	0xbe54127a30b89100	-1.8693671539669195e-08
23	0x3e48c807b492ad20	1.15397235259927e-08
24	0xbe85e1cd8de8c804	-1.630339232102882e-07
25	0xbe9c12f7f2930101	-4.1833662807121114e-07
26	0xbdf31ed66a20166a	-2.7823930149930947e-10
27	0x3e43536dc50c92fb	8.999320540135018e-09
28	0xbe499eb6154ea423	-1.193022628762619e-08
29	0x3e47068f3df5e44e	1.0722141340361172e-08
30	0xbe8ae82ce74f145b	-2.0047228912863007e-07
31	0xbea0ec3a26c98292	-5.043376184004497e-07
32	0xbdf8b000f72a70cb	-3.592506215824503e-10
33	0x3e29e8c5d8ff2719	3.0162358790934036e-09
34	0xbe25f468810ef0f8	-2.555865748615524e-09
35	0x3e4021bcfc7bff57	7.511950075432953e-09
36	0xbe709a2c5df4ab76	-6.184816169335445e-08
37	0xbe81b7ab1b614b14	-1.3200532372972333e-07
38	0xbe1dee473e43ada5	-1.7422003779367658e-09
39	0x3e48f7f95ff0eca8	1.1626933192374375e-08
40	0xbe565f5ac8d5fc1e	-2.083599475376942e-08
41	0x3e31c04305175c57	4.132982027327991e-09
42	0xbe88a916a848a39a	-1.837350575167857e-07
43	0xbe9c02ae63ea6890	-4.1738858051201966e-07
44	0xbe28a83cc18f3639	-2.870473203294013e-09
45	0x3e4257327d1aadde	8.54051399335519e-09
46	0xbe4e790144fd331e	-1.418994535731969e-08
47	0x3df67fe6efce6b58	3.274125274773573e-10
48	0xbe8f23ea56b58a5d	-2.320132737972458e-07
49	0xbea0e86d5766c950	-5.038952355844893e-07
50	0xbe2a56a04aadc23c	-3.0661913749587338e-09
51	0x3e2521f9e2bbd7e5	2.4601723070794212e-09
52	0xbe2ff94d52897db6	-3.7222444191983454e-09
53	0x3e04c0071eb14eb2	6.039076438448793e-10
54	0xbe712b3a18855c99	-6.39589697917096e-08
55	0xbe81adc183e8b85b	-1.3171683295579186e-07
56	0x3dfb280bbf190fae	3.9517805616199426e-10
57	0x3e5749455726641c	2.168697705584394e-08
58	0xbe579f50c79caece	-2.2000005795555073e-08
59	0x3e3aa99cae91bb62	6.207857985569352e-09
60	0xbe8ad77d6c8db546	-1.999866781303915e-07
61	0xbe9bfd430a7c1432	-4.17073133793518e-07
62	0x3e066c56d3f656b4	6.526010078900324e-10
63	0x3e52138820ebc7ce	1.6834862444138206e-08
64	0xbe505da878076e84	-1.524188730944898e-08
65	0x3e06eb60f7dc7d40	6.670437394476587e-10
66	0xbe906cb27888b97e	-2.447455860502149e-07
67	0xbea0e74c95758797	-5.037639238365091e-07
68	0x3e0708048960379d	6.702996098725971e-10
69	0x3e36a29260bbc1a8	5.270132340715379e-09
70	0xbe2e4d021d7a5520	-3.5274789580837338e-09
71	0xbdcd4b0599cce400	-5.3283755207595785e-11
72	0xbe72c61012009963	-6.993741807955545e-08
73	0x3e76330e19e81d7b	8.26993358031158e-08
74	0xbe01ad37970c6aa8	-5.144576276242375e-10
75	0xbe5047b713470deb	-1.5162059345683383e-08
76	0xbe5a2176871f3cd3	-2.433612462227185e-08
77	0x3e2a948fdc920b7c	3.094356524974749e-09
78	0xbe8e114df2b78666	-2.2402104469993778e-07
79	0x3e8daa1297f1489e	2.2101660232754585e-07
80	0xbe0ada547e8a3d4f	-7.815208455039212e-10
81	0xbe41781b885b294a	-8.134716243837735e-09
82	0xbe51fb1b14c47ec5	-1.6746001294951593e-08
83	0x3e577856492872f5	2.185820286759755e-08
84	0xbe6e3a04cda9fb36	-5.630149653867871e-08
85	0x3e764d250a09a50f	8.307898947405575e-08
86	0xbe0d435747c35adf	-8.516668616230262e-10
87	0xbe3bd00b496addbd	-6.475642375345452e-09
88	0xbe52f920e6b67cd9	-1.767013062053083e-08
89	0xbe430a4c4dea3e3d	-8.866296527937694e-09
90	0xbe84cdf1941c6750	-1.5500536148447327e-07
91	0x3e8da5f5b19375e4	2.2089690147098723e-07
92	0xbe194be3c10ede1c	-1.472446834800955e-09
93	0xbe3f996532f4f984	-7.357262173892269e-09
94	0xbe4488ef5a040522	-9.562309000613148e-09
95	0xbe3ab5d66dd88170	-6.218977081164438e-09
96	0xbe6cee14e7a1247d	-5.388633624086736e-08
97	0x3e766c1e8d75cb57	8.352973012385111e-08
98	0xbdf6c60e870f9520	-3.3140035772960994e-10
99	0xbe0ff94c5c7ea1fe	-9.305606779840327e-10
100	0xbe4997d7e487d233	-1.1917733592507783e-08
101	0xbe247ffbbc1e78bc	-2.3865065210059555e-09
102	0xbe6d58e05e0c68d2	-5.466337050213648e-08
103	0x3e76c3c01618897c	8.480492887837873e-08
104	0x3df93d80f92ff644	3.6729396710468524e-10
105	0xbe4e5f6fce953936	-1.4143437048833147e-08
106	0xbe523f2b1930d939	-1.699361147304926e-08
107	0xbe2b303a7c04f576	-3.165145451423729e-09
108	0xbe84f2abb8369c3f	-1.5607426116540496e-07
109	0x3ea06dd09a143ffa	4.896212894307105e-07
110	0x3e140b8b2699cafc	1.1667779194228287e-09
111	0xbe5953ffd4636294	-2.3588652164242715e-08
112	0xbe4658522dff2b00	-1.0405203309991892e-08
113	0xbe4b013dc566d2f4	-1.257511265677792e-08
114	0xbe88b85d00bac371	-1.8417961233010192e-07
115	0x3ea4e2389000b8a3	6.223820321388326e-07
116	0x3e167640fa846a54	1.3074563463737457e-09
117	0xbe41733260b5f55b	-8.125783621270451e-09
118	0xbe1a3a31440723ea	-1.526630613687587e-09
119	0xbe505627362bb2a6	-1.5214584601669063e-08
120	0xbe677891b67da349	-4.3718094754427204e-08
121	0x3e770bd31bcad3df	8.585374806464494e-08
122	0xbe1b24f6a45752ae	-1.5800113590435696e-09
123	0xbe539eb692c9bf94	-1.827252409314803e-08
124	0xbe4bd8f8dd38acf8	-1.2967524754586548e-08
125	0xbe33fe12b308bd11	-4.6548603171178e-09
126	0xbe7e447cf886d687	-1.1275534295734045e-07
127	0x3ea074a331a84eb4	4.904155475625965e-07
128	0xbe29961777fee620	-2.97863683715107e-09
129	0xbe59e6e47eb4ee51	-2.4123046599531318e-08
130	0xbe39d93fb2b2e1bb	-6.01835274253666e-09
131	0xbe48848aa5716e3a	-1.1416962637597288e-08
132	0xbe7ff7e0093e0a6d	-1.1909105729176397e-07
133	0x3ea4e52c267413fc	6.227256336427266e-07
134	0xbe2b2f3e8b3af18e	-3.164697915046868e-09
135	0xbe324abc8db32dca	-4.258924070353851e-09
136	0x3e0d7bf0cbb15a77	8.581014990460591e-10
137	0xbe4e8179a29f3c78	-1.4205352522667537e-08
138	0xbe4dc2674cdc5ed0	-1.3857795268546517e-08
139	0x3e76fe7cc5a29a7f	8.565966550192925e-08
140	0xbdf4e13f9007123a	-3.0384218754517754e-10
141	0xbe2cf4f1e07abbc5	-3.3710170244076995e-09
142	0xbe2bee9b17cc054f	-3.2517190592728784e-09
143	0xbe36f461ce262bbc	-5.344538341738104e-09
144	0xbe63269f9d14bdb0	-3.5671280716023035e-08
145	0xbe5b15b490a5d661	-2.5224673052981617e-08
146	0xbe03c5675e075564	-5.754149900114141e-10
147	0x3e519cbd718adb1c	1.6402700616780277e-08
148	0xbe4586c7c7b6c3f4	-1.0024051136756848e-08
149	0x3e51ff16b315b337	1.6760490944276776e-08
150	0xbe826753730200b2	-1.3711763236293666e-07
151	0xbe9a643d0c41bc00	-3.932648378117908e-07
152	0xbe0eb709213231a5	-8.939236593939575e-10
153	0x3e57fc26e6730e82	2.2337742680536017e-08
154	0xbe4c011454f7e709	-1.304047950091339e-08
155	0x3e585ed477b18a34	2.2696731144162544e-08
156	0xbe8880137a3f3f78	-1.8254143896315176e-07
157	0xbea0ea0fe7d65d05	-5.040855765467655e-07
158	0xbe0d984369f3f15a	-8.613214203550085e-10
159	0x3e30d70ed88b6fd3	3.920884402495648e-09
160	0xbe35d74724bea1f0	-5.08523763021821e-09
161	0x3e4f91852b810622	1.4700199599371184e-08
162	0xbe6dec3f02c44cd0	-5.573562619951534e-08
163	0xbe583340d142568c	-2.253819982085032e-08
164	0x3e08ad14e4780b77	7.181690320020531e-10
165	0x3e47ea5a589c216b	1.1136495076388279e-08
166	0xbe4a8db61d92ce39	-1.2364964984508653e-08
167	0x3e06d8e0a5744678	6.649403899963024e-10
168	0xbe85b7ae7818dacc	-1.618080283525674e-07
169	0xbe9a54ee1194a129	-3.923737651062212e-07
170	0x3e1502a223ed8773	1.2229596360874563e-09
171	0x3e48b229938db9e2	1.1499946427174157e-08
172	0xbe43032deba0d3d2	-8.85334771128599e-09
173	0x3e0eb986d68a6b42	8.942068588034173e-10
174	0xbe8ad4dd3b9083ad	-1.9991025881993939e-07
175	0xbea0e682db9bca29	-5.036721894820912e-07
176	0x3e14d63a436f1b7d	1.212862933121274e-09
177	0x3e2131c4e98b00ed	2.0016928777218312e-09
178	0xbe29ed18c608d4e3	-3.0182021745379816e-09
179	0x3e0cf3c37b45dba4	8.426199655951807e-10
180	0xbe7057a8961db1f3	-6.08802444270743e-08
181	0xbe51fa494127217c	-1.6743019479340242e-08
182	0xbe028e7532078200	-5.400645244022773e-10
183	0x3e443e0c975d45bc	9.426092555507451e-09
184	0xbe4de4153515c90e	-1.3919057603314886e-08
185	0x3e3e384f3b8f2313	7.0361325038449515e-09
186	0xbe887bc899a518c9	-1.8241651107194088e-07
187	0xbe9a310ed462ed77	-3.902857382933042e-07
188	0xbe1426a75ee73709	-1.1729420729938417e-09
189	0x3e47fc2268c1663d	1.1168839429849983e-08
190	0xbe46ad3f2ecacbf0	-1.0559682428250959e-08
191	0x3e4cfe1808cc816c	1.350071012759107e-08
192	0xbe8f1112cf490c6b	-2.3146490203866753e-07
193	0xbea0df3ab0bdc1db	-5.02824464272392e-07
194	0xbe164051be13f0ea	-1.2951930572418183e-09
195	0x3e31834616c7befe	4.077513754145141e-09
196	0xbe32229c4f2fe13d	-4.222429727904634e-09
197	0x3e43febf90269edb	9.31094890496313e-09
198	0xbe710d86a4196b49	-6.35267634273114e-08
199	0xbe493ecbf496c3c4	-1.175575871617331e-08
200	0x3e183b884fbbb6cf	1.4105199776697573e-09
201	0x3e46f202f1d1056d	1.0684764679038923e-08
202	0xbe4f93a6401de760	-1.4704072629401536e-08
203	0x3e40c5518e4f21db	7.8095009989096e-09
204	0xbe8ad415a4408666	-1.9988756794300267e-07
205	0xbe9a2475b6cbe586	-3.895524319088315e-07
206	0x3e28879e97dcc46a	2.855640334353621e-09
207	0x3e5718c56682552a	2.151053593630392e-08
208	0xbe4757e045d311d4	-1.0870055239933529e-08
209	0x3e4e6b3840d9e23a	1.4164870189323447e-08
210	0xbe906a6d78035937	-2.4461348148204115e-07
211	0xbea0dd7224ec14e6	-5.026168511118703e-07
212	0x3e2ba038ad582d7e	3.2160739442707875e-09
213	0x3e3af6dffed55825	6.278128223310645e-09
214	0xbe3889ff32f2db18	-5.713442870878488e-09
215	0x3e2d0acefbe22460	3.3809594837908542e-09
216	0xbe726e813c61c430	-6.866328225594294e-08
217	0xbe31006b34a5f876	-3.958501813121663e-09
218	0xbde8a9ff0f58c2b8	-1.7945456897684781e-10
219	0x3de7237a9b7aa74e	1.6835539710550123e-10
220	0xbe4e918a9a629f0a	-1.4234576916772858e-08
221	0xbdd7509f9dd9fb80	-8.481924144195784e-11
222	0xbe72a06d8acd7632	-6.938975856187407e-08
223	0x3e33a694a1050e6a	4.575286386140231e-09
224	0x3e00b8ecdb1df052	4.866848506093553e-10
225	0xbe45e1d42e56c660	-1.0189667286024786e-08
226	0xbe51e26f1d8664d0	-1.6656246022704645e-08
227	0xbe470532b5681b1f	-1.0719664861509988e-08
228	0xbe8e1fb578f9ed1f	-2.2444026769375932e-07
229	0x3e96696bbfc0cd0c	3.339618499548258e-07
230	0x3e0e284ca987faa6	8.77696432080522e-10
231	0xbe54fabb4ca159b0	-1.9538607877749013e-08
232	0xbe45d285e065bf5f	-1.0161826058326144e-08
233	0xbe66185abccc9209	-4.1155395180581347e-08
234	0xbe6ddc3e5ef562be	-5.561919269131831e-08
235	0x3e49411bdb1c6462	1.1759964422011957e-08
236	0x3e0f553de697b182	9.119096148211969e-10
237	0xbe40074eb48da01a	-7.463872757441209e-09
238	0xbe4ba52b88293994	-1.2873297321498301e-08
239	0xbe13c242c1063b08	-1.15011533985527e-09
240	0xbe84c5f966f7cb0e	-1.5477342028799784e-07
241	0x3e968d97ac4acbe8	3.3606731290463e-07
242	0x3e1c321df63d56d3	1.641209800838671e-09
243	0xbe3715d7ce4e772e	-5.374970889295089e-09
244	0xbe48aafd2e834a18	-1.1486898058100918e-08
245	0x3e4fb4963998d6d7	1.4763985411920483e-08
246	0xbe6d46dbe2cbba64	-5.453227589444918e-08
247	0x3e505efe403d08c2	1.5246744324760302e-08
248	0xbdfae443a30e8458	-3.9132511385548104e-10
249	0xbe3cb0f6fc81ab0d	-6.680206561617223e-09
250	0xbe4f28bf6319a88e	-1.450961936989093e-08
251	0xbe21f5974559f500	-2.0907422831297946e-09
252	0xbe88251c87429dfb	-1.7989401935213282e-07
253	0x3e96ae91e9798af7	3.3798685581378923e-07
254	0xbe08b1d6757a7f18	-7.187097401219578e-10
255	0xbe4a8d134e2d6aa6	-1.2363808148879956e-08

b f8 [1584]
0	0xbfdcccfc7b013c00	-0.4500113679141009
1	0xbff02caf0c9458ac	-1.0109091273675785
2	0xbcc4000000000000	-5.551115123125783e-16
3	0x3fbc8d59c840b7d9	0.11153184069618706
4	0xbfaa99a7d1c0cdc0	-0.051953548769599234
5	0xbfce07b39484fa1e	-0.2346100306694589
6	0xbfe025edfce67100	-0.5046300830322537
7	0xbff2969ea3edee0c	-1.1617723849766461
8	0xbc90000000000000	-5.551115123125783e-17
9	0xbfa8bff1b90437a4	-0.04833941825391655
10	0x3f997baefd313120	0.024885877803442757
11	0xbfd2b31e887880df	-0.292182572624382
12	0xbfce5fa94aa3b000	-0.23729435104849017
13	0xbfe14c8ac7de5947	-0.5405935195620167
14	0x3cb7000000000000	3.191891195797325e-16
15	0xbfc7a11277c52f2f	-0.18460303161770628
16	0x3fb43e1619e81585	0.07907236225590537
17	0xbfc0b7f39ecb9c6c	-0.13061375859908553
18	0xbfef17c3d9ea3400	-0.971651006331399
19	0x3d20466000000000	2.891003408889148e-14
20	0x3cb6000000000000	3.0531133177191805e-16
21	0xbcaa000000000000	-1.8041124150158794e-16
22	0xbfbd25e711728eba	-0.11385959793056602
23	0x3fab8b3735ec67cc	0.053796506245091885
24	0xbff201504d4c5c00	-1.1253207225288406
25	0xbd1308a000000000	-1.690531395426298e-14
26	0x0000000000000000	0.0
27	0x3ca0000000000000	1.1102230246251565e-16
28	0x3faa7a9fed89e590	0.05171680235521159
29	0x3fb87994d8a58e15	0.09560518540597969
30	0xbfe0b1823b102300	-0.5216685441565403
31	0xbd48192c00000000	-1.712289164623737e-13
32	0xbcae000000000000	-2.0816681711721685e-16
33	0xbcac400000000000	-1.960237527853792e-16
34	0x3fc73c98d3ce71cc	0.18153677312956373
35	0x3fa27385076e2495	0.03603759494496576
36	0xbfedd967755db580	-0.9327885906511
37	0xbd2bda0000000000	-4.947431353485854e-14
38	0x3cbc000000000000	3.885780586188048e-16
39	0xbcbc800000000000	-3.95516952522712e-16
40	0xbfbe04c7628cf386	-0.11726041942615781
41	0xbfb61bcd7a7bdcc2	-0.08636173477485712
42	0xbff135cf526c6780	-1.0756371707597907
43	0xbd350d8000000000	-7.479433739021601e-14
44	0xbcc4000000000000	-5.551115123125783e-16
45	0x3cce800000000000	8.465450562766819e-16
46	0x3fac7880e160e340	0.05560686827852246
47	0xbfc1ae178aa0ada4	-0.1381253649609394
48	0xbfdfe9a5b893d600	-0.4986357023729795
49	0xbd32e58000000000	-6.713379852030243e-14
50	0xbcd2800000000000	-1.0269562977782698e-15
51	0x3cd5d00000000000	1.2108369862318114e-15
52	0x3fc682af4500b109	0.17586317891380812
53	0xbfab8c5bcd7b1c5a	-0.05380522616683754
54	0xbfda5043b1e83e00	-0.41114895223378767
55	0x3d12080000000000	1.6014967130217883e-14
56	0x3cba000000000000	3.608224830031759e-16
57	0x3cd5c00000000000	1.2073675392798577e-15
58	0xbfac576873f596d0	-0.05535437026519008
59	0xbfbee3786d933de5	-0.12065842318701632
60	0xbfdd1dd80e4d1600	-0.454946531263289
61	0xbd2d1a0000000000	-5.169475958410885e-14
62	0x3cac000000000000	1.942890293094024e-16
63	0x3cba000000000000	3.608224830031759e-16
64	0x3f9d7770e4df2b70	0.028775943726752684
65	0xbfc11c6bd233fd88	-0.13367984546492218
66	0xbfcb6cebcf8ac800	-0.21426150926487253
67	0x3d3b1b8000000000	9.630490849232842e-14
68	0xbc88000000000000	-4.163336342344337e-17
69	0xbcc7000000000000	-6.38378239159465e-16
70	0x3fb2ca42fc4c9378	0.07339876804014789
71	0xbfb11c6bd233fd96	-0.06683992273246128
72	0xbfe09ef1df10fb80	-0.5194024426235586
73	0x3cfb200000000000	6.022959908591474e-15
74	0xbca0000000000000	-1.1102230246251565e-16
75	0xbcbe000000000000	-4.163336342344337e-16
76	0xbfaf22ba5f0e5ff0	-0.06081182871201907
77	0x3fca6242effd8bc7	0.20612370222360551
78	0xbfd5410608a13a00	-0.332093723704844
79	0xbd10180000000000	-1.429412144204889e-14
80	0xbc80000000000000	-2.7755575615628914e-17
81	0x3c90000000000000	5.551115123125783e-17
82	0x3fc041dce5a7b158	0.1270099755632923
83	0x3fc2df0631964ff4	0.1474311582684319
84	0xbfe521de8ce7da40	-0.6603844406188912
85	0xbcd4280000000000	-1.1188966420050406e-15
86	0xbcba000000000000	-3.608224830031759e-16
87	0x3cb8800000000000	3.400058012914542e-16
88	0xbf962e9e48eb2510	-0.021662209702104696
89	0xbfc5d071f7b5f614	-0.17042374224904278
90	0xbfd5410608a13800	-0.3320937237048156
91	0xbd24fe0000000000	-3.7289615839597445e-14
92	0xbc80000000000000	-2.7755575615628914e-17
93	0xbc96000000000000	-7.632783294297951e-17
94	0x3fc041dce5a7b118	0.12700997556329052
95	0xbfc2df0631964fe7	-0.14743115826843153
96	0xbfd48d8cc9264700	-0.3211395229674139
97	0xbd1d740000000000	-2.615963001773025e-14
98	0xbca0000000000000	-1.1102230246251565e-16
99	0xbc8c000000000000	-4.85722573273506e-17
100	0x3fb704103ee14570	0.08990575347094931
101	0x3f98e4ff7e208628	0.02431105811422732
102	0xbfe502c0279a4a80	-0.6565857671251507
103	0x3d23de8000000000	3.529468384222412e-14
104	0x3cba000000000000	3.608224830031759e-16
105	0x3ccbc00000000000	7.7021722333370235e-16
106	0xbf4686b8f6d8d000	-0.000687446894238608
107	0x3fbdb3b4448c6123	0.1160233180384052
108	0xbfe14dee673a4400	-0.5407630935825409
109	0x3d24080000000000	3.558264793923627e-14
110	0xbcca000000000000	-7.216449660063518e-16
111	0xbcd3c00000000000	-1.096345236817342e-15
112	0x3f96d4da9f872c90	0.02229634855920587
113	0x3fca7c9c9433f950	0.20692784534908037
114	0xbfd031b21d049800	-0.2530331881883967
115	0xbd3d2c0000000000	-1.0363931934875836e-13
116	0xbca6800000000000	-1.5612511283791264e-16
117	0xbcd8e00000000000	-1.3808398868775384e-15
118	0x3fb5cc378afa3834	0.08514735358241482
119	0x3fb89fcaa67c09c2	0.09618822636188099
120	0xbfe50b33c38f7380	-0.6576174563921171
121	0x3fe3e0b27ffd7add	0.6211788654144034
122	0x3cca000000000000	7.216449660063518e-16
123	0xbfcdd10ee6063d61	-0.23294244987162485
124	0x3f924f1e5d5c6288	0.017879938553138547
125	0x3fc048fc93298a45	0.12722737489373706
126	0xbfe14dee673a4380	-0.5407630935825267
127	0x3ff2969ea3edeb8f	1.1617723849765047
128	0x3ccb800000000000	7.632783294297951e-16
129	0x3fa8bff1b904388c	0.04833941825391816
130	0x3f96d4da9f872d0c	0.0222963485592063
131	0x3fd0bbacb69f7671	0.26145475229518583
132	0xbfd031b21d049900	-0.2530331881884109
133	0x3fe14c8ac7de5f26	0.5405935195621836
134	0x3ca2a00000000000	1.2923689896027213e-16
135	0x3fc7a11277c52f85	0.18460303161770866
136	0x3fb5cc378afa37f6	0.08514735358241396
137	0x3fbe78f3cc55a8b2	0.1190330861915381
138	0xbfc731354ac5b880	-0.18118921423905832
139	0x3fd8f15732566cae	0.3897302619531712
140	0x3c70000000000000	1.3877787807814457e-17
141	0x3fbf14c403cbc2cc	0.12141060917543739
142	0x3fb1bf2faad9a8fe	0.0693235199084121
143	0x3fb5a6823b2c1838	0.08457197136530759
144	0xbcf0000000000000	-3.552713678800501e-15
145	0xbff66a0f2ceb2e2a	-1.4008933786998434
146	0x3ca4000000000000	1.3877787807814457e-16
147	0xbf8b1f6b94b2e9e2	-0.013243523097448088
148	0x3cd4c00000000000	1.1518563880486e-15
149	0x3fd0493e462df91c	0.2544704137179836
150	0xbcf87a0000000000	-5.434888650235337e-15
151	0xbff2969ea3eded00	-1.1617723849765866
152	0xbca8000000000000	-1.6653345369377348e-16
153	0xbfa8bff1b9043768	-0.04833941825391613
154	0x3ce2000000000000	1.9984014443252818e-15
155	0x3fddf9fb00b972f7	0.4683825976442643
156	0x3d02d58000000000	8.363969239422175e-15
157	0xbfe14c8ac7de5e00	-0.540593519562151
158	0x3c8c000000000000	4.85722573273506e-17
159	0xbfc7a11277c52f86	-0.1846030316177087
160	0xbcb9000000000000	-3.469446951953614e-16
161	0x3fcb8c5f3968d918	0.21522131255341814
162	0x0000000000000000	0.0
163	0xbfe45bc5f9873283	-0.6362028001399981
164	0xbca4000000000000	-1.3877787807814457e-16
165	0x3fcea4997de8b076	0.23939818046472155
166	0xbcc0000000000000	-4.440892098500626e-16
167	0xbfd0feaa16fc0ca2	-0.2655434822519941
168	0x0000000000000000	0.0
169	0xbff2fd96e15b5348	-1.1869114687917364
170	0xbcc5800000000000	-5.967448757360216e-16
171	0xbfa96f899fe3e2d0	-0.04967908932480258
172	0xbcb6000000000000	-3.0531133177191805e-16
173	0xbfdf47e4cfc0ff5c	-0.4887630490156789
174	0x0000000000000000	0.0
175	0xbfe19f67c92f7da4	-0.5507086686520108
176	0xbca7000000000000	-1.5959455978986625e-16
177	0xbfc848b715efb7c9	-0.18971909113991917
178	0xbcb8800000000000	-3.400058012914542e-16
179	0xbfcc92757189e57a	-0.22321956676368498
180	0x3d18000000000000	2.1316282072803006e-14
181	0xbcf56d0000000000	-4.7574791328663935e-15
182	0x3cbc000000000000	3.885780586188048e-16
183	0xbcb6800000000000	-3.122502256758253e-16
184	0x3cd2000000000000	9.992007221626409e-16
185	0xbcb5000000000000	-2.914335439641036e-16
186	0x3d10000000000000	1.4210854715202004e-14
187	0xbd3a840000000000	-9.420242363944453e-14
188	0xbcb8000000000000	-3.3306690738754696e-16
189	0xbccf400000000000	-8.673617379884035e-16
190	0x3cda000000000000	1.4432899320127035e-15
191	0x3cce000000000000	8.326672684688674e-16
192	0x3d30000000000000	5.684341886080802e-14
193	0xbd44570000000000	-1.4452328223057975e-13
194	0xbccd400000000000	-8.118505867571457e-16
195	0xbcc1800000000000	-4.85722573273506e-16
196	0x3ca8000000000000	1.6653345369377348e-16
197	0x3cdf000000000000	1.7208456881689926e-15
198	0xbfc87b9cb0760100	-0.19127234092957934
199	0x3cd7f00000000000	1.3287981825982342e-15
200	0x3cdb000000000000	1.4988010832439613e-15
201	0xbcc3200000000000	-5.30825383648903e-16
202	0x3faf6414b6473d00	0.061310431719556746
203	0x3fb0baa9c5b6a37a	0.06534825398433766
204	0xbd20000000000000	-2.842170943040401e-14
205	0xbceae00000000000	-2.9837243786801082e-15
206	0xbcc1000000000000	-4.718447854656915e-16
207	0x3cc8c00000000000	6.869504964868156e-16
208	0xbcb0000000000000	-2.220446049250313e-16
209	0xbcc9000000000000	-6.938893903907228e-16
210	0xbd32a30000000000	-6.621092563108277e-14
211	0x3d35480000000000	7.560618797697316e-14
212	0x3c9c000000000000	9.71445146547012e-17
213	0x3cd4000000000000	1.1102230246251565e-15
214	0x0000000000000000	0.0
215	0x3ccc000000000000	7.771561172376096e-16
216	0xbfd8208dfcf0f980	-0.37698697758960265
217	0xbcd8480000000000	-1.3478801408339791e-15
218	0x0000000000000000	0.0
219	0x3c80000000000000	2.7755575615628914e-17
220	0x3fc072266a29deec	0.1284835832955119
221	0xbf824c9ecb2d3602	-0.008935204101045539
222	0xbfc7c57f496bf100	-0.1857146366600162
223	0x3ce5080000000000	2.3349377986647823e-15
224	0x3cb6000000000000	3.0531133177191805e-16
225	0x3cb4c00000000000	2.8796409701215e-16
226	0x3fb1324279301f44	0.06717315157595488
227	0xbface22bd8a1f924	-0.05641304988329157
228	0x0000000000000000	0.0
229	0xbd1ab00000000000	-2.3703261575747092e-14
230	0xbca0000000000000	-1.1102230246251565e-16
231	0x3cbc800000000000	3.95516952522712e-16
232	0x3cc8000000000000	6.661338147750939e-16
233	0x0000000000000000	0.0
234	0xbfc8fef6848ccb00	-0.19528085205237034
235	0x3cee184000000000	3.341185834948579e-15
236	0x3cc3800000000000	5.412337245047638e-16
237	0x3c8a400000000000	4.5536491244391186e-17
238	0xbfb842311b5041d1	-0.09476000706513978
239	0x3fa24743e11e571b	0.03569995997456329
240	0xbfc8fef6848ccdba	-0.1952808520523897
241	0x3d30000000000000	5.684341886080802e-14
242	0x3ca8000000000000	1.6653345369377348e-16
243	0x3cb4000000000000	2.7755575615628914e-16
244	0x3fb842311b504132	0.09476000706513757
245	0x3fa24743e11e5728	0.03569995997456338
246	0xbfdd325a1d58e800	-0.45619824281641286
247	0xbcd6100000000000	-1.2247147740396258e-15
248	0x3cac000000000000	1.942890293094024e-16
249	0xbc78000000000000	-2.0816681711721685e-17
250	0xbfc967376cdb6392	-0.1984624177482855
251	0x3fa951daac241096	0.04945262290314749
252	0xbfe60588f7c5c000	-0.6881756629281881
253	0xbd305c0000000000	-5.812017533912694e-14
254	0xbca0000000000000	-1.1102230246251565e-16
255	0xbccd000000000000	-8.049116928532385e-16
