python-Linux/neural-sparse-linear-solvers-master/stand_small_test/1403075288388366397_ea1cdf16944762a51ac1ea1b141b697d37047b3c_b7e867de25cda87d0bbb7744c0437dc3f099d4a9.npz (npz, 83848 bytes, 3 tensors)

A_values f8 [21136]
00000000: 7932 50ac 4903 ca41 9011 f8ac 6e29 3bc1
00000010: 0e42 a3ee 0087 58c1 f8a8 5ef8 28a7 4bc1
00000020: ddf3 65f0 7267 6341 e2d1 97bd c22c 41c1
00000030: 0e42 a3ee 0087 58c1 63cc e4a4 30b3 c9c1
00000040: 642b 7c15 7c62 c341 acf5 1d45 3ae3 3141
00000050: 5cb7 07b2 941c 6641 6e83 f819 5317 42c1
00000060: d02d f9a4 9a63 59c1 dd5e 932c 8b0f c3c1
00000070: 06c2 7614 5ee0 54c1 5cb7 07b2 941c 6641
00000080: 5a41 af0a 9f66 d441 67de 648c c3bf 6241
00000090: d153 61d4 4bd4 70c1 4509 b8e3 6965 c3c1
000000a0: 6e92 cb0f e641 4ac1 67de 648c c3bf 6241
000000b0: f30d e6d3 3fc7 5fc1 d153 61d4 4bd4 70c1
000000c0: acf5 1d45 3ae3 3141 67de 648c c3bf 6241
000000d0: 885b 55d1 7478 9741 d02d f9a4 9a63 5941
000000e0: a98a b732 caa0 6741 67de 648c c3bf 62c1
000000f0: 35da 3d79 b8b5 7141 d4fc 1884 16d0 60c1
00000100: 9011 f8ac 6e29 3bc1 d153 61d4 4bd4 70c1
00000110: 339f cfb7 c441 a041 ddf3 65f0 7267 63c1
00000120: 477a 9337 ab01 7241 935f ee33 5ef0 58c1
00000130: d153 61d4 4bd4 7041 2325 fbc7 376d 7741
00000140: 0e42 a3ee 0087 58c1 5cb7 07b2 941c 6641
00000150: 0160 1d20 f200 9141 4796 3044 b860 59c1
00000160: 0e42 a3ee 0087 5841 c24a 321c 693b 6741
00000170: 5cb7 07b2 941c 66c1 9787 146c 97ef 6e41
00000180: f8a8 5ef8 28a7 4bc1 ddf3 65f0 7267 63c1
00000190: dec2 9a90 04e0 c941 ddf3 65f0 7267 63c1
000001a0: 0e42 a3ee 0087 58c1 e2d1 97bd c22c 41c1
000001b0: 0e42 a3ee 0087 58c1 63cc e4a4 30b3 c9c1
000001c0: 6e83 f819 5317 42c1 d02d f9a4 9a63 5941
000001d0: e444 d63b 634b c341 d02d f9a4 9a63 5941
000001e0: 5cb7 07b2 941c 6641 dd5e 932c 8b0f c3c1
000001f0: 06c2 7614 5ee0 54c1 5cb7 07b2 941c 6641
00000200: 4509 b8e3 6965 c3c1 f3a0 6f49 3abf c341
00000210: 67de 648c c3bf 6241 d153 61d4 4bd4 70c1
00000220: 6e92 cb0f e641 4ac1 67de 648c c3bf 6241
00000230: f30d e6d3 3fc7 5fc1 d153 61d4 4bd4 70c1
00000240: d02d f9a4 9a63 59c1 a98a b732 caa0 6741
00000250: d02d f9a4 9a63 5941 67de 648c c3bf 6241
00000260: 9853 9e92 2204 9141 67de 648c c3bf 62c1
00000270: 35da 3d79 b8b5 7141 d4fc 1884 16d0 60c1
00000280: ddf3 65f0 7267 6341 477a 9337 ab01 7241
00000290: ddf3 65f0 7267 63c1 d153 61d4 4bd4 70c1
000002a0: 85e5 486e 2ba4 9641 935f ee33 5ef0 58c1
000002b0: d153 61d4 4bd4 7041 2325 fbc7 376d 7741
000002c0: 4796 3044 b860 59c1 0e42 a3ee 0087 58c1
000002d0: 5cb7 07b2 941c 6641 e575 f8bf 5b90 8e41
000002e0: 0e42 a3ee 0087 5841 c24a 321c 693b 6741
000002f0: 5cb7 07b2 941c 66c1 9787 146c 97ef 6e41
00000300: e2d1 97bd c22c 41c1 0e42 a3ee 0087 5841
00000310: 6d4c 354d dd12 ca41 9011 f8ac 6e29 3bc1
00000320: 10ef 869f 06a9 1841 f8a8 5ef8 28a7 4bc1
00000330: ddf3 65f0 7267 6341 5ce8 33ca 4127 3fc1
00000340: 1dd3 aa84 70fc 56c1 63cc e4a4 30b3 c9c1
00000350: dd5e 932c 8b0f c3c1 4d7f dbdf 5aea d241
00000360: acf5 1d45 3ae3 3141 5cb7 07b2 941c 6641
00000370: 6e83 f819 5317 42c1 d02d f9a4 9a63 59c1
00000380: 35d3 3aaa 3972 c2c1 06c2 7614 5ee0 54c1
00000390: 5cb7 07b2 941c 6641 6e92 cb0f e641 4ac1
000003a0: 67de 648c c3bf 62c1 0eb9 3148 8872 d441
000003b0: 90a9 b039 45c1 22c1 d153 61d4 4bd4 70c1
000003c0: 4509 b8e3 6965 c3c1 3566 ef04 7bd2 47c1
000003d0: ced3 c938 af93 6141 f30d e6d3 3fc7 5fc1
000003e0: d153 61d4 4bd4 70c1 67de 648c c3bf 6241
000003f0: 35da 3d79 b8b5 7141 acf5 1d45 3ae3 3141
00000400: 90a9 b039 45c1 22c1 5d4e e424 fc12 a041
00000410: d02d f9a4 9a63 5941 a98a b732 caa0 6741
00000420: ced3 c938 af93 61c1 7260 1783 142a 7141
00000430: d4fc 1884 16d0 60c1 935f ee33 5ef0 58c1
00000440: 9011 f8ac 6e29 3bc1 d153 61d4 4bd4 70c1
00000450: 5740 56fc d802 a141 ddf3 65f0 7267 63c1
00000460: 477a 9337 ab01 7241 8624 d490 8822 58c1
00000470: d153 61d4 4bd4 7041 2325 fbc7 376d 7741
00000480: 0e42 a3ee 0087 58c1 c24a 321c 693b 6741
00000490: 10ef 869f 06a9 1841 5cb7 07b2 941c 6641
000004a0: fe48 9d17 abab 9641 4796 3044 b860 59c1
000004b0: 1dd3 aa84 70fc 5641 de38 3a84 3f81 6641
000004c0: 5cb7 07b2 941c 66c1 9787 146c 97ef 6e41
000004d0: e2d1 97bd c22c 41c1 0e42 a3ee 0087 5841
000004e0: f8a8 5ef8 28a7 4bc1 ddf3 65f0 7267 63c1
000004f0: d2dc 7f31 98ef c941 ddf3 65f0 7267 63c1
00000500: 10ef 869f 06a9 1841 5ce8 33ca 4127 3fc1
00000510: 1dd3 aa84 70fc 56c1 63cc e4a4 30b3 c9c1
00000520: dd5e 932c 8b0f c3c1 6e83 f819 5317 42c1
00000530: d02d f9a4 9a63 5941 0c8c 0873 cede d241
00000540: d02d f9a4 9a63 5941 5cb7 07b2 941c 6641
00000550: 35d3 3aaa 3972 c2c1 06c2 7614 5ee0 54c1
00000560: 5cb7 07b2 941c 6641 6e92 cb0f e641 4ac1
00000570: 67de 648c c3bf 62c1 4509 b8e3 6965 c3c1
00000580: 5990 74c4 0cd7 c341 90a9 b039 45c1 22c1
00000590: d153 61d4 4bd4 70c1 3566 ef04 7bd2 47c1
000005a0: ced3 c938 af93 6141 f30d e6d3 3fc7 5fc1
000005b0: d153 61d4 4bd4 70c1 67de 648c c3bf 6241
000005c0: 35da 3d79 b8b5 7141 d02d f9a4 9a63 59c1
000005d0: a98a b732 caa0 6741 d02d f9a4 9a63 5941
000005e0: 90a9 b039 45c1 22c1 c994 110b a6b1 9941
000005f0: ced3 c938 af93 61c1 7260 1783 142a 7141
00000600: d4fc 1884 16d0 60c1 935f ee33 5ef0 58c1
00000610: ddf3 65f0 7267 6341 477a 9337 ab01 7241
00000620: ddf3 65f0 7267 63c1 d153 61d4 4bd4 70c1
00000630: cc27 56f7 5326 9841 8624 d490 8822 58c1
00000640: d153 61d4 4bd4 7041 2325 fbc7 376d 7741
00000650: 0e42 a3ee 0087 58c1 c24a 321c 693b 6741
00000660: 4796 3044 b860 59c1 10ef 869f 06a9 1841
00000670: 5cb7 07b2 941c 6641 ef23 7cd7 e6f2 9441
00000680: 1dd3 aa84 70fc 5641 de38 3a84 3f81 6641
00000690: 5cb7 07b2 941c 66c1 9787 146c 97ef 6e41
000006a0: 5ce8 33ca 4127 3fc1 1dd3 aa84 70fc 5641
000006b0: aa39 0584 fc19 ca41 9011 f8ac 6e29 3bc1
000006c0: ac69 80d4 4295 3fc1 f8a8 5ef8 28a7 4bc1
000006d0: ddf3 65f0 7267 6341 bc0e 858d f94b 48c1
000006e0: 88ed ca39 c1e1 5ec1 63cc e4a4 30b3 c9c1
000006f0: 35d3 3aaa 3972 c2c1 a2f3 5d5c db17 d441
00000700: acf5 1d45 3ae3 3141 5cb7 07b2 941c 6641
00000710: 6e83 f819 5317 42c1 d02d f9a4 9a63 59c1
00000720: 8647 9825 8c6a c5c1 06c2 7614 5ee0 54c1
00000730: 5cb7 07b2 941c 6641 3566 ef04 7bd2 47c1
00000740: ced3 c938 af93 61c1 f0f0 f24f f377 d441
00000750: c413 68f9 7ffc 4741 d153 61d4 4bd4 70c1
00000760: 4509 b8e3 6965 c3c1 cdaa 1dc9 fa8b 52c1
00000770: bfd8 2337 cf92 6741 f30d e6d3 3fc7 5fc1
00000780: d153 61d4 4bd4 70c1 ced3 c938 af93 6141
00000790: 7260 1783 142a 7141 acf5 1d45 3ae3 3141
000007a0: c413 68f9 7ffc 4741 87ca f4b6 d19c a041
000007b0: d02d f9a4 9a63 5941 a98a b732 caa0 6741
000007c0: bfd8 2337 cf92 67c1 6eb8 9df2 cac6 7341
000007d0: d4fc 1884 16d0 60c1 8624 d490 8822 58c1
000007e0: 9011 f8ac 6e29 3bc1 d153 61d4 4bd4 70c1
000007f0: 06bc 6eb8 801b a141 ddf3 65f0 7267 63c1
872846168.6265403 -1780078.6756602265 -6429699.728714479 -3624529.940388795 10173335.512445385 -2251141.4811956743 -6429699.728714479 -862347593.7874874
650442794.9700742 1172282.269988398 11592869.563441925 -2371238.202896527 -6655594.577708676 -639571545.1513325 -5472632.319748407 11592869.563441925
1369078826.7383637 9829916.387313081 -17646781.273761574 -650826695.4377829 -3441612.123400024 9829916.387313081 -8330495.310916412 -17646781.273761574
1172282.269988398 9829916.387313081 98442548.33335698 6655594.577708676 12387921.584904986 -9829916.387313081 18570119.577600677 -8814772.128050245
-1780078.6756602265 -17646781.273761574 136372827.90551147 -10173335.512445385 18881203.473505285 -6537592.811424154 17646781.273761574 24564604.498814713
-6429699.728714479 11592869.563441925 71318664.02868654 -6652641.065465516 6429699.728714479 12180296.881139163 -11592869.563441925 16219323.37750606
-3624529.940388795 -10173335.512445385 868223265.2090719 -10173335.512445385 -6429699.728714479 -2251141.4811956743 -6429699.728714479 -862347593.7874874
-2371238.202896527 6655594.577708676 647415415.6739774 6655594.577708676 11592869.563441925 -639571545.1513325 -5472632.319748407 11592869.563441925
-650826695.4377829 662598802.8720993 9829916.387313081 -17646781.273761574 -3441612.123400024 9829916.387313081 -8330495.310916412 -17646781.273761574
-6655594.577708676 12387921.584904986 6655594.577708676 9829916.387313081 71370916.65461576 -9829916.387313081 18570119.577600677 -8814772.128050245
10173335.512445385 18881203.473505285 -10173335.512445385 -17646781.273761574 94964443.57118805 -6537592.811424154 17646781.273761574 24564604.498814713
-6652641.065465516 -6429699.728714479 11592869.563441925 64097143.996318616 6429699.728714479 12180296.881139163 -11592869.563441925 16219323.37750606
-2251141.4811956743 6429699.728714479 874887834.4163948 -1780078.6756602265 404033.65578816924 -3624529.940388795 10173335.512445385 -2041665.789854548
-6025666.07292631 -862347593.7874874 -639571545.1513325 1269394303.4296448 1172282.269988398 11592869.563441925 -2371238.202896527 -6655594.577708676
-618951508.4595705 -5472632.319748407 11592869.563441925 -3441612.123400024 -9829916.387313081 1372201248.7769198 -614562.6126759518 -17646781.273761574
-650826695.4377829 -3122422.038555885 9215353.77463713 -8330495.310916412 -17646781.273761574 9829916.387313081 18570119.577600677 1172282.269988398
-614562.6126759518 134839826.44591036 6655594.577708676 12387921.584904986 -9215353.77463713 17998152.19320721 -8814772.128050245 -6537592.811424154
-1780078.6756602265 -17646781.273761574 142699646.16845962 -10173335.512445385 18881203.473505285 -6326818.262948161 17646781.273761574 24564604.498814713
-6429699.728714479 12180296.881139163 404033.65578816924 11592869.563441925 95087301.90359876 -6652641.065465516 6025666.07292631 11799036.132107195
-11592869.563441925 16219323.37750606 -2251141.4811956743 6429699.728714479 -3624529.940388795 -10173335.512445385 870264930.9989264 -10173335.512445385
404033.65578816924 -2041665.789854548 -6025666.07292631 -862347593.7874874 -639571545.1513325 -2371238.202896527 6655594.577708676 1266366924.1335478
6655594.577708676 11592869.563441925 -618951508.4595705 -5472632.319748407 11592869.563441925 -3441612.123400024 -9829916.387313081 -650826695.4377829
665721224.9106551 -614562.6126759518 -17646781.273761574 -3122422.038555885 9215353.77463713 -8330495.310916412 -17646781.273761574 9829916.387313081
18570119.577600677 -6655594.577708676 12387921.584904986 6655594.577708676 -614562.6126759518 107768194.76716913 -9215353.77463713 17998152.19320721
-8814772.128050245 -6537592.811424154 10173335.512445385 18881203.473505285 -10173335.512445385 -17646781.273761574 101291261.83413619 -6326818.262948161
17646781.273761574 24564604.498814713 -6429699.728714479 12180296.881139163 -6652641.065465516 404033.65578816924 11592869.563441925 87865781.87123083
6025666.07292631 11799036.132107195 -11592869.563441925 16219323.37750606 -2041665.789854548 6025666.07292631 875821320.0408223 -1780078.6756602265
-2069826.8300844235 -3624529.940388795 10173335.512445385 -3184627.1056230944 -8095492.903010733 -862347593.7874874 -618951508.4595705 1348431217.4679952
1172282.269988398 11592869.563441925 -2371238.202896527 -6655594.577708676 -718608459.1896827 -5472632.319748407 11592869.563441925 -3122422.038555885
-9215353.77463713 1373621567.7959557 3143935.9484886844 -17646781.273761574 -650826695.4377829 -4861931.142435742 12359289.723125814 -8330495.310916412
-17646781.273761574 9215353.77463713 17998152.19320721 1172282.269988398 3143935.9484886844 139356379.47810766 6655594.577708676 12387921.584904986
-12359289.723125814 20737199.163505964 -8814772.128050245 -6326818.262948161 -1780078.6756602265 -17646781.273761574 143507548.21627825 -10173335.512445385

x f8 [1932]
00000000: 5a06 a634 c2d3 b9be c2bf 9a24 40db e1be
00000010: 8113 4ec9 91ca e6be 5697 d684 e9e0 eb3e
00000020: e575 f6db 1819 cdbe 0895 8ac0 6a99 82be
00000030: b1b6 4b57 33cc d53e 8b3e b64e 8de5 ec3e
00000040: fed4 373e 2753 f7be d620 0705 0437 1bbf
00000050: 880d 07f5 735a 023f 5213 2733 8520 abbe
00000060: bd1e ecc5 ccb8 b6be 0932 cc08 4e96 dfbe
00000070: ad2f 3fee 7946 fbbe 11d9 fb17 6f15 d1be
00000080: 66f6 34b4 032a d7be cfab 1fac 6342 71be
00000090: 2b05 80c4 9bd6 ed3e 1125 67be d806 eb3e
000000a0: 0227 69a4 6e76 0cbf c7c7 1ddc 6d5a dd3e
000000b0: 3afd 7bba 8587 103f d816 076e e694 92be
000000c0: 6c13 5e70 38f4 a73e 366e 71f1 d62b dcbe
000000d0: bd65 e4ec c733 f8be 9c81 0231 d9a3 d0be
000000e0: 7c3f c9f9 cb55 91be a822 bfea a628 8fbe
000000f0: 19a8 b1c1 165f d43e 58d9 963c ec55 e93e
00000100: 357b d317 bf1b 09bf 3d83 b3d7 318e 093f
00000110: f405 42f4 9e9d f53e ba2b a2dc 2cfc a93e
00000120: 6454 c98c 06d8 f53e 89a6 67a8 2a99 b23e
00000130: 2877 6564 3b8b 0cbf 6dea 8a03 3e50 0ebf
00000140: e1cf 1ba9 edc1 fb3e 5036 1c80 e794 883e
00000150: a037 e01c 2709 d03e 3a1d 2dad eb91 dbbe
00000160: 5501 3025 bdbd f2be d31f a568 ffc2 b83e
00000170: 7823 352b c700 c53e 94ae 3557 bb1b 5f3e
00000180: 4ccb 4c28 04a2 943e f289 5e92 86c3 e93e
00000190: 8e3c 526d d76d 03bf 38c7 c743 fe57 e4be
000001a0: e942 a11f 2be7 c7be 7a64 bd44 cb4b 9ebe
000001b0: 1487 8548 54ce f43e b6c9 e85f 4844 a83e
000001c0: bcd8 3408 569c 09bf 58d9 484e e4b9 013f
000001d0: 769a 1529 a088 093f 88d1 edfc ae0e 9fbe
000001e0: e61f 656c cab7 c43e 5650 02f8 362d dbbe
000001f0: cf5b 26df d808 f3be 3a94 44c4 eb9d b9be
00000200: 5516 ea42 01f8 c93e 4216 12a4 19d1 933e
00000210: 3830 c345 942d d23e f993 bdeb 3a6b e93e
00000220: 591e ebd7 dbc9 03bf 5725 506d 133f d63e
00000230: 6ce3 66ad 8a45 d1be d4d1 9eee 92fa aabe
00000240: b42f 36db 8074 f73e bc7a 6825 d470 a93e
00000250: 82c4 d1af b4c3 09bf 5c50 5797 73d7 fcbe
00000260: a540 f8ef af51 0a3f f851 6328 ebcb 85be
00000270: 4697 44ca 5ca1 b73e 605b e245 e92c dbbe
00000280: 9276 f499 dc95 f7be a444 0b79 11e6 66be
00000290: af28 8dcf bc0e cb3e 99e9 a1db 2558 893e
000002a0: d215 a55c 139c dd3e e41d fc22 cca1 ea3e
000002b0: 5b78 27a7 d585 08bf 85c9 f307 918e d4be
000002c0: 1b59 9493 75af 9d3e 16d4 4a36 d406 a4be
000002d0: 8936 d117 2ddf f13e c0de de84 e208 763e
000002e0: 4816 de8c c40b 10bf 3a39 0876 2d3e 003f
000002f0: f80b cf0f f622 f83e 7e68 0f29 4951 953e
00000300: 64e0 f272 1795 f23e c10f 74ea 6bc7 f6be
00000310: 12d2 c2ac de25 12bf 6854 9a2a cae4 e23e
00000320: cb4c 9891 2a3e 713e d024 891d df56 9fbe
00000330: 45f9 557c 1d0a 043f 5205 3279 9af4 00bf
00000340: 88ad 2172 5d6d 14bf 4add d942 14e7 10bf
00000350: a3c1 bbf6 837d 023f 0932 4c33 6b13 9b3e
00000360: 244c bd8b 6792 a93e fff8 dca8 c861 dbbe
00000370: e67e 88ec 52b0 f5be 9b2a 0cdd 82a7 b3be
00000380: 898c b34d 3234 d03e 0709 5fbe ef99 753e
00000390: b1fd 623a 0bab e63e 79b2 8ea9 5de5 ea3e
000003a0: 0c9a 31ba f077 06bf ffb4 5ab2 94cb c53e
000003b0: e6af 2d61 763e a5be fd06 f4fb 471d 7dbe
000003c0: 4363 72d5 1818 f03e fa85 ff30 148c a6be
000003d0: 007f 755b 103c 0dbf dd57 f233 e05f eebe
000003e0: 6a5d b7a8 2db7 f83e 9a6c 178a 0dd8 8e3e
000003f0: 3b7f a5fe 6cbe f93e 1420 0c46 cc44 f5be
00000400: a902 3131 bfb1 10bf 500d 0430 437d d2be
00000410: a8e9 51d9 7c74 8abe 789f 8d17 43c8 acbe
00000420: e3fa 3360 9ad6 013f f459 4a09 876a 01bf
00000430: b53d 326a 32f9 12bf ad83 c92c da04 123f
00000440: 8ee8 f301 3cae 013f 0048 f8a3 4103 4e3e
00000450: 07be dd70 099c c13e 6de0 9cfe 380d dcbe
00000460: 26e7 1f61 95be f7be 1425 adf3 a781 c43e
00000470: 38aa 1bb8 87c0 d53e c8e5 8979 3740 41be
00000480: f8f0 4b46 71bd d93e f059 ca51 c744 ec3e
00000490: ca4d 9e73 00e4 08bf 0cc2 0bc9 fc32 d23e
000004a0: 7548 18b5 0991 dabe 3042 de76 1afe 323e
000004b0: 919f 2c63 1e53 e93e e50d 7779 e354 b5be
000004c0: 4b40 7116 6153 10bf 0237 092b 405c f6be
000004d0: cbb9 8377 54c8 0b3f 6d89 2ac9 0fd5 753e
000004e0: 0161 a257 2b9e d13e 82bd 1480 c48b ddbe
000004f0: 9d6c 65b0 6be0 f6be 9bf4 d860 db5d f9be
00000500: b28f a523 01d6 f83e ec14 f0c4 4d06 91be
00000510: 2ca4 cec3 c242 e13e 8bda a6ee a9cf ef3e
00000520: 21bc 6791 d325 02bf b525 37e6 305e e0be
00000530: ec6a 535b 9bb5 d4be 0028 4319 fb3a b0be
00000540: e1f9 d5cf 7bd4 f03e d50e b34d e7cc c6be
00000550: 39fb 0e3c c0fd 05bf 4018 0124 bb9d 123f
00000560: 1821 6333 e56c 023f 1477 94ab 0b8f 96be
00000570: 7856 1cf5 5740 e03e cb32 60e6 8313 dfbe
00000580: 1aa5 7e9b 1883 e2be 33a1 05b8 adc8 063f
00000590: ab70 770b bb4a 003f 0000 4183 e664 d43d
000005a0: 6d0c 155c e95f b3be 908e cd2d 91ef e1be
000005b0: 9e8c d5b7 10b7 f8be b386 7f32 4f1e f53e
000005c0: 3d2a a5be 612a c13e 2bcd 14a4 8547 8e3e
000005d0: 37cd 1567 7c4a d43e bdb5 b5ae e781 e63e
000005e0: b0ed 7705 8ec8 09bf 7dd7 47a1 2f47 26bf
000005f0: b9aa 9d18 511e c1be 840a a9e0 173b c4be
00000600: 924b 3a3d efab a6be 1ca7 e7fe fbe1 dcbe
00000610: 0179 dc4a 00f2 09bf faba 5a52 65ff e4be
00000620: bb75 c3cb 092b d63e ad0a 6b6e c6dc 843e
00000630: 67d2 f06b be9f ec3e 7b65 b95b e09a e33e
00000640: d57b aae1 8b4c 1bbf b392 14e7 7aa9 0d3f
00000650: 52bd ab3d 1536 f0be d68e 5078 a7a2 b2be
00000660: d4f6 914b e308 ee3e ade9 6ed5 7854 b83e
00000670: 358f 87ac 99fe 1cbf 78a0 bee9 0903 15bf
00000680: 6295 662e a427 f43e d957 392d 0333 ae3e
00000690: aa0d c984 1e73 af3e a2e5 53b4 d0c5 d8be
000006a0: 3f0c a9a8 c736 08bf 12b4 722b 1826 b4be
000006b0: c6d3 5206 ee9f ce3e e8ba 13b2 67d5 253e
000006c0: b80a 5175 d475 d83e e9a3 1fcf 6fb4 e33e
000006d0: e9ca 8296 6e4d 19bf 57c3 07cc cdd0 023f
000006e0: 66d6 62e7 ff7d e2be 67a8 bd96 8b72 9cbe
000006f0: fa3b 9d2a e996 f43e 1519 fe49 a85e a23e
00000700: 3069 94a2 bc30 1fbf dd1a bc6d 57cc edbe
00000710: 5eba 8793 409a f03e 92bd 6faa f57a 8b3e
00000720: f606 3c8d 2f1a d03e fb7c ac5e 87fc d6be
00000730: 6c3f ad77 ae0a 02bf 861e f629 f5b6 b73e
00000740: 9263 ce18 67dd a63e 7682 f186 39b4 853e
00000750: 78c2 f4e5 25bc b63e 8367 3def 66cd e33e
00000760: 7d84 d025 dbd3 12bf fbbb 6656 ca4b e0be
00000770: 81cd a9a2 d2e5 df3e 5e08 971c 65ac acbe
00000780: 5ef3 bff9 d6a1 f33e 1082 5872 17b3 803e
00000790: 20eb c751 53d4 18bf 605c 2620 8f85 063f
000007a0: f03d 7f25 a1c3 e5be 70fa 802b 83e8 8d3e
000007b0: fccb 5a2f de30 f93e 1e40 6bc8 a7fe f8be
000007c0: 446a 97d9 b305 1abf 090d 2f25 6f76 c4be
000007d0: 5bf6 d4f4 47ba b0be c8f4 03dc 7e74 c93e
000007e0: 34d3 49da 3dd1 003f 5c2a 4bde 7bab 00bf
000007f0: 96fd 74a9 8f62 1bbf 6562 7764 0b0a eebe
-1.5394200142130445e-06 -8.514617678784148e-06 -1.0867732535899253e-05 1.3293534858526263e-05 -3.46875614783028e-06 -1.3857547311483766e-07 5.196966743820843e-06 1.3779014316011507e-05
-2.224427943349916e-05 -0.00010381662401137982 3.500620244125801e-05 -8.084485670292426e-07 -1.3543292635714864e-06 -7.530958225709675e-06 -2.6011751188367568e-05 -4.073077775271101e-06
-5.522756342300067e-06 -6.429602719653434e-08 1.4228017008124393e-05 1.2887356160800588e-05 -5.4288150341875674e-05 6.998357493391859e-06 6.305459703169906e-05 -2.768880289740248e-07
7.138844188991624e-07 -6.716549044129578e-06 -2.3081082695863268e-05 -3.96729298315947e-06 -2.583137701838156e-07 -2.3215112798641194e-07 4.856930014710361e-06 1.2080972640809873e-05
-4.78904430367605e-05 4.8743148875157804e-05 2.0614344308450162e-05 7.744151216000001e-07 2.0831918663273197e-05 1.1085454915078858e-06 -5.4443120961462845e-05 -5.781831027236871e-05
2.647164598719432e-05 1.831476197856413e-07 3.8232214603205075e-06 -6.5732007950633035e-06 -1.7872969987565757e-05 1.4759129124009606e-06 2.5037573664659793e-06 2.8971887511813627e-08
3.0745381023320656e-07 1.228512389756396e-05 -3.705800706043607e-05 -9.700643311713963e-06 -2.849459858324559e-06 -4.5144662829327444e-07 1.984212261286259e-05 7.232048913673734e-07
-4.884851025581521e-05 3.380992874151234e-05 4.8701656065121385e-05 -4.627906919276534e-07 2.4697700126453837e-06 -6.479411126875879e-06 -1.8152770232395505e-05 -1.5268849589769458e-06
3.0957185324666857e-06 2.9529329387991876e-07 4.333983351933377e-06 1.2120660691736564e-05 -3.7743589009372933e-05 5.303952737464638e-06 -4.117881607639727e-06 -8.040310295250017e-07
2.2368518057855078e-05 7.581930486255622e-07 -4.914183771454699e-05 -2.7505500346539403e-05 5.019968193320624e-05 -1.6239700446084337e-07 1.4084769555748737e-06 -6.47912847120163e-06
-2.249278770448963e-05 -4.265216014198893e-08 3.225513520642679e-06 1.8882995595269432e-07 7.059495553745367e-06 1.2699137271989431e-05 -4.6773512526008316e-05 -4.901147007562567e-06
4.4234674907837913e-07 -5.968414425657519e-07 1.704385930550179e-05 8.208567800384845e-08 -6.121050975423884e-05 3.098083721307867e-05 2.301842413366878e-05 3.1765584035187204e-07
1.772154717791275e-05 -2.1723738112391708e-05 -6.922885512745277e-05 9.00922289596481e-06 6.423457357017032e-08 -4.669925864104467e-07 3.822233660865036e-05 -3.2340015558860805e-05
-7.792361114560529e-05 -6.447850383916212e-05 3.526743861737298e-05 4.034616723359705e-07 7.62101783883372e-07 -6.528369920931345e-06 -2.0684018439464257e-05 -1.1714899878524147e-06
3.863309042648142e-06 8.047116714565294e-08 1.0809011495970353e-05 1.2824993335624719e-05 -4.285529509999797e-05 2.598194799605297e-06 -6.331203529059075e-07 -1.0845951602461304e-07
1.5348557408675965e-05 -6.719584195702632e-07 -5.576062124634622e-05 -1.448369732618895e-05 2.3570576144963362e-05 2.2980538454020522e-07 2.4551249148684783e-05 -2.0283452957264926e-05
-6.368379062938558e-05 -4.408194172581093e-06 -1.9710533353033258e-07 -8.577786011322789e-07 3.4023843932464726e-05 -3.321861837439827e-05 -7.237787444779635e-05 6.873685487952695e-05
3.3723074233508584e-05 1.3975761991298592e-08 2.0992182560503696e-06 -6.68803475339245e-06 -2.2644488190316042e-05 2.444561599733298e-06 5.186097838930921e-06 -8.033051377938706e-09
6.1368965347220075e-06 1.34795505400244e-05 -4.747511270788601e-05 4.339020180252784e-06 -6.333960145281816e-06 4.422057260203247e-09 1.2075749599896136e-05 -1.2714622011779957e-06
-6.227760387500604e-05 -2.1324495437283736e-05 5.2990987514312306e-05 8.133155153048565e-08 4.200422489962714e-06 -7.0443074958037735e-06 -2.1816867069684836e-05 -2.4191502282490227e-05
2.3685412295817734e-05 -2.5368666894982116e-07 8.230583370254651e-06 1.5168755869915805e-05 -3.461410431159656e-05 -7.80483896435894e-06 -4.9375061525701404e-06 -9.674068666581416e-07
1.6050352305446955e-05 -2.718020011367948e-06 -4.1944912943395235e-05 7.101492610769953e-05 3.514360871431833e-05 -3.361518952793059e-07 7.74924379557815e-06 -7.40915093012653e-06
-8.827254404613619e-06 4.3456841924807003e-05 3.107436480906505e-05 7.419345763929171e-11 -1.1548194012868182e-06 -8.552460195771703e-06 -2.3570154998775302e-05 2.014007182527559e-05
2.0462934930177977e-06 2.2559898308627507e-07 4.8377420268531435e-06 1.0732384416479714e-05 -4.917796530531525e-05 -0.0001699681894390923 -2.0406752740305924e-06 -2.4117032400306237e-06
-6.75666905940836e-07 -6.886184549229222e-06 -4.948676483550359e-05 -1.0012454889488695e-05 5.285291248405815e-06 1.554370136683277e-07 1.3648986508221426e-05 9.348385780305214e-06
-0.00010413745659797133 5.657583541055413e-05 -1.5460263834419126e-05 -1.1107544832877618e-06 1.4321669697499503e-05 1.4501791463077506e-06 -0.00011060536338153018 -8.015392307803178e-05
1.9221161801437853e-05 9.000082976200416e-07 9.372736343233696e-07 -5.906275707839692e-06 -4.6184509376455834e-05 -1.2009624421980197e-06 3.650751795614894e-06 2.5417671445168066e-09
5.831783558343344e-06 9.39599565082275e-06 -9.652125811747025e-05 3.588798563559117e-05 -8.817761436889781e-06 -4.23899925597527e-07 1.9635672891479113e-05 5.474613722224046e-07
-0.00011898185097828219 -1.4208893325496345e-05 1.5833423477157992e-05 2.0474427239691123e-07 3.839084644631629e-06 -5.480394501571795e-06 -3.441185886876485e-05 1.4135049822577743e-06
6.814257616948659e-07 1.617074220942691e-07 1.3551088143376417e-06 9.442497208734173e-06 -7.182145186891867e-05 -7.770565116553196e-06 7.605015108869281e-06 -8.545344424781323e-07
1.8722712056262892e-05 1.244215407795111e-07 -9.471663037878249e-05 4.2956762644035624e-05 -1.0377968621271488e-05 2.2283383827207243e-07 2.402390506146475e-05 -2.383684889190062e-05
-9.926710335809394e-05 -2.4393359949484694e-06 -9.970462600672792e-07 3.0344797040659004e-06 3.2076549619930455e-05 -3.17952324500783e-05 -0.00010446550219444235 -1.4323824088545084e-05

b f8 [1932]
00000000: 0000 0000 0000 503d 0000 0000 00e0 323d
00000010: 0000 0000 00a0 813d 0000 0000 0000 30bd
00000020: 0000 0000 0000 2c3d 0000 0000 0080 1fbd
00000030: 0000 0000 0000 803d 0000 0000 0000 203d
00000040: 7665 bb99 7acd c0c0 2e33 4a4f 4021 b4c0
00000050: ae88 612a 5899 a140 0000 0000 0000 0000
00000060: 0000 0000 0000 50bd 0000 0000 800b 8f3d
00000070: 0000 0000 0060 83bd 0000 0000 0000 503d
00000080: 0000 0000 0000 693d 0000 0000 0000 13bd
00000090: 0000 0000 0000 0000 0000 0000 0054 83bd
000000a0: 8c38 df2f 2115 d1c0 a591 05cd 1f5a 7cc0
000000b0: ab88 612a 5899 b140 0000 0000 0000 103d
000000c0: 0000 0000 0000 0000 0000 0000 2638 81bd
000000d0: 0000 0000 00e0 97bd 0000 0000 0000 403d
000000e0: 0000 0000 0000 533d 0000 0000 0000 f63c
000000f0: 0000 0000 0000 80bd 0000 0000 00f6 8e3d
00000100: a70b 03c6 c75c c1c0 478c 1a4c e2e6 b540
00000110: ae88 612a 5899 a140 0000 0000 0000 0ebd
00000120: 0000 0000 0000 903d 0000 0000 00c8 543d
00000130: 77b1 5f9b c0e8 bdc0 dc88 2ce7 6491 adc0
00000140: af88 612a 5899 a140 0000 0000 0040 233d
00000150: 0000 0000 0000 0000 0000 0000 80e8 853d
00000160: 0000 0000 00e4 90bd 0000 0000 0040 4f3d
00000170: 0000 0000 0060 643d 0000 0000 0080 12bd
00000180: 0000 0000 0000 50bd 0000 0000 00f8 96bd
00000190: 0000 0000 00d8 b53d 0000 0000 0000 613d
000001a0: 0000 0000 0000 4cbd 0000 0000 0000 08bd
000001b0: 0000 0000 0000 80bd 0000 0000 00a0 323d
000001c0: 5300 70c2 afa2 c8c0 d65a ac05 9b43 a240
000001d0: 6413 b65d 73d6 ae40 0000 0000 00b0 463d
000001e0: 0000 0000 0000 70bd 0000 0000 00aa 70bd
000001f0: 0000 0000 0064 8bbd 0000 0000 0040 473d
00000200: 0000 0000 0000 383d 0000 0000 0000 043d
00000210: 0000 0000 0000 70bd 0000 0000 00c0 503d
00000220: 0000 0000 00d0 adbd 0000 0000 0000 3a3d
00000230: 0000 0000 0000 6a3d 0000 0000 0000 2cbd
00000240: 0000 0000 0000 0000 0000 0000 0088 453d
00000250: 76f7 d1b5 dea2 c8c0 7bb2 adfe 9644 a2c0
00000260: 6413 b65d 73d6 ae40 0000 0000 0000 223d
00000270: 0000 0000 0000 50bd 0000 0000 00b8 5c3d
00000280: 0000 0000 00fc 913d 0000 0000 0040 4cbd
00000290: 0000 0000 0000 3c3d 0000 0000 0000 0000
000002a0: 0000 0000 0000 70bd 0000 0000 00a0 603d
000002b0: 0000 0000 00c0 af3d 0000 0000 0000 323d
000002c0: 0000 0000 0000 58bd 0000 0000 0000 203d
000002d0: 0000 0000 0000 903d 0000 0000 0040 62bd
000002e0: cc9f 2382 1ee9 bdc0 78e0 2de0 6092 ad40
000002f0: a988 612a 5899 a140 0000 0000 0000 0c3d
00000300: 0000 0000 0000 80bd 0000 0000 0020 523d
00000310: 0000 0000 005a b5bd 0000 0000 0080 703d
00000320: 0000 0000 0000 0000 0000 0000 0080 333d
00000330: 0000 0000 0000 a83d 0000 0000 c8c3 94bd
00000340: beae b08b 9b6f bdc0 7a3b 8256 934f acc0
00000350: b388 612a 5899 a140 0000 0000 002a 58bd
00000360: 0000 0000 0000 0000 0000 0000 0018 4f3d
00000370: 0000 0000 0040 6b3d 0000 0000 00c0 43bd
00000380: 0000 0000 0000 423d 0000 0000 0000 fcbc
00000390: 0000 0000 0000 98bd 0000 0000 0013 943d
000003a0: 0000 0000 00cc b1bd 0000 0000 0000 613d
000003b0: 0000 0000 0000 61bd 0000 0000 0000 253d
000003c0: 0000 0000 0000 80bd 0000 0000 0038 623d
000003d0: a355 49b2 36cd bac0 273a 3221 cfc6 a5c0
000003e0: b088 612a 5899 a140 0000 0000 00c0 303d
000003f0: 0000 0000 0000 90bd 0000 0000 0026 843d
00000400: 0000 0000 80d3 d23d 0000 0000 0080 64bd
00000410: 0000 0000 0000 73bd 0000 0000 0000 303d
00000420: 0000 0000 0000 90bd 0000 0000 0010 87bd
00000430: dbae b08b 9b6f bdc0 803b 8256 934f ac40
00000440: ad88 612a 5899 a140 0000 0000 0000 2d3d
00000450: 0000 0000 0000 0000 0000 0000 00d7 663d
00000460: 0000 0000 0002 b73d 0000 0000 0000 593d
00000470: 0000 0000 0000 4fbd 0000 0000 0060 343d
00000480: 0000 0000 0000 80bd 0000 0000 00a0 8e3d
00000490: 0000 0000 00c0 883d 0000 0000 0040 40bd
000004a0: 0000 0000 0000 67bd 0000 0000 0000 303d
000004b0: 0000 0000 0000 0000 0000 0000 00e0 43bd
000004c0: 45d8 e297 41ca cdc0 e6f4 9bbf 05ea 9fc0
000004d0: ad88 612a 5899 b140 0000 0000 0000 e8bc
000004e0: 0000 0000 0000 883d 0000 0000 80a7 56bd
000004f0: 19f4 8b98 4cf1 b9c0 7e0b ed0e ddd0 a3c0
00000500: b088 612a 5899 a140 0000 0000 0060 12bd
00000510: 0000 0000 0000 80bd 0000 0000 00b8 773d
00000520: 0000 0000 0000 b23d 0000 0000 00d0 6dbd
00000530: 0000 0000 0000 483d 0000 0000 0000 423d
00000540: 0000 0000 0000 90bd 0000 0000 00a0 52bd
00000550: 852d be3e a663 c0c0 481a 8000 e9dd b240
00000560: ac88 612a 5899 a140 0000 0000 0000 003d
00000570: 0000 0000 0000 80bd 0000 0000 0070 42bd
00000580: 13f4 8b98 4cf1 b9c0 7c0b ed0e ddd0 a340
00000590: ac88 612a 5899 a140 0000 0000 0080 123d
000005a0: 0000 0000 0000 50bd 0000 0000 0054 7a3d
000005b0: 0000 0000 00e8 9ebd 0000 0000 0000 303d
000005c0: 0000 0000 0000 00bd 0000 0000 0000 083d
000005d0: 0000 0000 0000 70bd 0000 0000 00e0 723d
000005e0: 0815 c158 6981 d0c0 f36d cdf6 eef9 c3c0
000005f0: e4c8 0d74 3dd5 6cc0 0000 0000 0000 34bd
00000600: 0000 0000 0000 383d 0000 0000 0060 353d
00000610: 0000 0000 00f0 803d 0000 0000 0080 61bd
00000620: 0000 0000 0000 443d 0000 0000 0000 fe3c
00000630: 0000 0000 0000 90bd 0000 0000 00c8 913d
00000640: dc9a c23b cd2f d9c0 aa4f 80a1 fb0c b240
00000650: 3a65 a201 ac66 a3c0 0000 0000 0000 143d
00000660: 0000 0000 0000 803d 0000 0000 0000 0c3d
00000670: 9eaa acc8 93bf c0c0 e9c1 1515 a88b b5c0
00000680: 4658 41a6 0898 9f40 0000 0000 0000 17bd
00000690: 0000 0000 0000 40bd 0000 0000 0011 5fbd
000006a0: 0000 0000 0090 7c3d 0000 0000 0000 1cbd
000006b0: 0000 0000 0020 633d 0000 0000 0000 d23c
000006c0: 0000 0000 0000 903d 0000 0000 006c 83bd
000006d0: 930b 03c6 c75c c1c0 4b8c 1a4c e2e6 b540
000006e0: ae88 612a 5899 a1c0 0000 0000 0000 1bbd
000006f0: 0000 0000 0000 a0bd 0000 0000 0018 6b3d
00000700: 8227 63ba 7610 d7c0 e04d d96c 6e70 9fc0
00000710: 349f bff7 60fd 9b40 0000 0000 0000 253d
00000720: 0000 0000 0000 78bd 0000 0000 0007 803d
00000730: 0000 0000 00db b13d 0000 0000 0078 243d
00000740: 0000 0000 0000 463d 0000 0000 0080 17bd
00000750: 0000 0000 0000 74bd 0000 0000 00de 95bd
00000760: 0000 0000 00ac ce3d 0000 0000 00aa 713d
00000770: 0000 0000 0000 20bd 0000 0000 0080 30bd
00000780: 0000 0000 0000 983d 0000 0000 0098 493d
00000790: 1ae6 6c90 d487 d3c0 62fe 8bbf dec0 b740
000007a0: 80ce 2a15 de14 9ec0 0000 0000 0080 2c3d
000007b0: 0000 0000 0000 a83d 0000 0000 00d0 953d
000007c0: 0000 0000 0040 973d 0000 0000 00a0 7c3d
000007d0: 0000 0000 0000 4abd 0000 0000 0000 203d
000007e0: 0000 0000 0000 90bd 0000 0000 0040 83bd
000007f0: 292c a1db 71de b2c0 2d8f 9dcd e1ce 95c0
2.2737367544323206e-13 6.705747068735946e-14 2.0037305148434825e-12 -5.684341886080802e-14 4.973799150320701e-14 -2.7977620220553945e-14 1.8189894035458565e-12 2.842170943040401e-14
-8602.957816528837 -5153.251209866996 2252.672198341307 0.0 -2.2737367544323206e-13 3.5293989952833726e-12 -2.2026824808563106e-12 2.2737367544323206e-13
7.105427357601002e-13 -1.687538997430238e-14 0.0 -2.19735341033811e-12 -17492.51854687235 -453.6327638833557 4505.344396682612 1.4210854715202004e-14
0.0 -1.957611156511163e-12 -5.4285465012071654e-12 1.1368683772161603e-13 2.7000623958883807e-13 4.884981308350689e-15 -1.8189894035458565e-12 3.5198510772715963e-12
-8889.560730343523 5606.88397375035 2252.672198341307 -1.3322676295501878e-14 3.637978807091713e-12 2.9531932455029164e-13 -7656.752370816065 -3784.6970762173714
2252.6721983413076 3.419486915845482e-14 0.0 2.490674333444076e-12 -3.8404834867833415e-12 2.220446049250313e-13 5.790923296444817e-13 -1.6431300764452317e-14
-2.2737367544323206e-13 -5.222489107836736e-12 1.98667748918524e-11 4.831690603168681e-13 -1.9895196601282805e-13 -1.0658141036401503e-14 -1.8189894035458565e-12 6.616929226765933e-14
-12613.373121261748 2337.802777658547 3947.2253243349714 1.6120438317557273e-13 -9.094947017729282e-13 -9.472422846101836e-13 -3.113953539468639e-12 1.652011860642233e-13
8.526512829121202e-14 8.881784197001252e-15 -9.094947017729282e-13 2.3803181647963356e-13 -1.3557155398302712e-11 9.237055564881302e-14 7.389644451905042e-13 -4.973799150320701e-14
0.0 1.5298873279334657e-13 -12613.739923711615 -2338.2949117927906 3947.2253243349714 3.197442310920451e-14 -2.2737367544323206e-13 4.0811798385220754e-13
4.0891734442993766e-12 -2.007283228522283e-13 9.947598300641403e-14 0.0 -9.094947017729282e-13 4.725109192804666e-13 1.4438228390645236e-11 6.394884621840902e-14
-3.410605131648481e-13 2.842170943040401e-14 3.637978807091713e-12 -5.186961971048731e-13 -7657.119173265946 3785.189210351611 2252.672198341305 1.2434497875801753e-14
-1.8189894035458565e-12 2.575717417130363e-13 -1.9419132968323538e-11 9.379164112033322e-13 0.0 6.927791673660977e-14 1.0913936421275139e-11 -4.721362190096556e-12
-7535.6076002527825 -3623.7877693841556 2252.6721983413095 -3.433919815165609e-13 0.0 2.2093438190040615e-13 7.744915819785092e-13 -1.4033219031261979e-13
1.2789769243681803e-13 -6.217248937900877e-15 -5.4569682106375694e-12 4.5643488988389436e-12 -1.6186163520615082e-11 4.831690603168681e-13 -4.831690603168681e-13 3.730349362740526e-14
-1.8189894035458565e-12 5.17808018685173e-13 -6861.213657935531 -2787.4045501419055 2252.672198341308 5.950795411990839e-14 -3.637978807091713e-12 2.290612144406623e-12
6.848921429991606e-11 -5.826450433232822e-13 -1.0800249583553523e-12 5.684341886080802e-14 -3.637978807091713e-12 -2.6219026949547697e-12 -7535.607600252809 3623.7877693841583
2252.6721983413067 5.1514348342607263e-14 0.0 6.49147402498329e-13 2.092548356813495e-11 3.552713678800501e-13 -2.2026824808563106e-13 7.238654120556021e-14
-1.8189894035458565e-12 3.481659405224491e-12 2.8137492336099967e-12 -1.1546319456101628e-13 -6.536993168992922e-13 5.684341886080802e-14 0.0 -1.412203687323199e-13
-15252.512447696305 -2042.5056137436127 4505.3443966826135 -2.6645352591003757e-15 2.7284841053187847e-12 -3.2193692156567977e-13 -6641.2992026778165 -2536.4317545010117
2252.672198341308 -1.63202784619898e-14 -1.8189894035458565e-12 1.3482548411047901e-12 1.6370904631912708e-11 -8.473222123939195e-13 1.7053025658242404e-13 1.2789769243681803e-13
-3.637978807091713e-12 -2.646771690706373e-13 -8391.298789760805 4829.910163885514 2252.6721983413063 7.105427357601002e-15 -1.8189894035458565e-12 -1.3100631690576847e-13
-6641.299202677811 2536.431754501011 2252.6721983413063 1.6431300764452317e-14 -2.2737367544323206e-13 1.496580637194711e-12 -7.027267656667391e-12 5.684341886080802e-14
-7.105427357601002e-15 1.0658141036401503e-14 -9.094947017729282e-13 1.0729195309977513e-12 -16901.646042128123 -10227.866906813322 -230.6637516278489 -7.105427357601002e-14
8.526512829121202e-14 7.593925488436071e-14 1.9255708139098715e-12 -4.973799150320701e-13 1.4210854715202004e-13 6.661338147750939e-15 -3.637978807091713e-12 4.04298816647497e-12
-25791.206772471647 4620.982933062982 -2483.335949969155 1.7763568394002505e-14 1.8189894035458565e-12 1.2434497875801753e-14 -8575.154561599073 -5515.656571731416
2022.0084467134598 -2.042810365310288e-14 -1.1368683772161603e-13 -4.414801857421935e-13 1.623590151211829e-12 -2.4868995751603507e-14 5.435651928564766e-13 9.992007221626409e-16
3.637978807091713e-12 -2.2080115513745113e-12 -8889.560730343486 5606.883973750354 -2252.672198341307 -2.398081733190338e-14 -7.275957614183426e-12 7.700506898800086e-13
-23617.855126179296 -2012.1078371003896 1791.3446950856132 3.730349362740526e-14 -1.3642420526593924e-12 1.822098028014807e-12 1.623945422579709e-11 3.6359804056473877e-14
1.5631940186722204e-13 -2.0872192862952943e-14 -1.1368683772161603e-12 -4.972022793481301e-12 5.5791815611883067e-11 1.0040857034709916e-12 -2.842170943040401e-14 -5.861977570020827e-14
5.4569682106375694e-12 1.8185453143360064e-13 -19999.321315026005 6080.870110272985 -1925.2168776215112 5.062616992290714e-14 1.0913936421275139e-11 4.959588295605499e-12
5.286437954055145e-12 1.6271428648906294e-12 -1.8474111129762605e-13 2.842170943040401e-14 -3.637978807091713e-12 -2.1884716261411086e-12 -4830.444757531434 -1395.7205109232557
