python-Linux/neural-sparse-linear-solvers-master/stand_small_test/1451150405322532068_9b4e51f0336d4e342d4df7877d390e1cc67988d9_b8d0ddfadb90b3f10e24b431786cd49230ce1f24.npz (npz, 78196 bytes, 3 tensors)

A_values f8 [19708]
0	0x41d3f97cdbd161f9	1340470127.2716048
1	0x415f3e3ad634022c	8190187.346924346
2	0xc149c2105e4bf026	-3376160.7366924463
3	0xc1667ae3b39cd403	-11786013.612894064
4	0x417904f94369520b	26234772.213213008
5	0xc1318a6fb535adeb	-1149551.7078503321
6	0xc149c2105e4bf026	-3376160.7366924463
7	0xc1d3aea3de4343e3	-1320849273.0510185
8	0x41c62c23900c2f07	743982880.0951852
9	0xc13c712b53d0275e	-1863979.3273949246
10	0x4164b00cc148ee85	10846310.040152797
11	0xc14413f92b968d91	-2631666.3405320127
12	0xc156589868a988c0	-5857889.635347545
13	0xc1c5da03bbde0d5b	-733218679.7347826
14	0xc15960ea472e1714	-6652841.112188119
15	0x4164b00cc148ee85	10846310.040152797
16	0x41dad0c940a910cc	1799562498.6416502
17	0x416d2ddd1d5c26da	15298280.917498995
18	0xc186a21c5d134cac	-47465355.634423584
19	0xc1ccd4dff34fd8ab	-967426022.6237997
20	0xc153ded7050e1c31	-5208924.078986214
21	0x416d2ddd1d5c26da	15298280.917498995
22	0xc17bc3e8fe519bfa	-29113999.89492414
23	0xc186a21c5d134cac	-47465355.634423584
24	0xc13c712b53d0275e	-1863979.3273949246
25	0x416d2ddd1d5c26da	15298280.917498995
26	0x419945c6e6c6edb3	106000825.69426613
27	0x4156589868a988c0	5857889.635347545
28	0x416083c773c72c17	8658491.618063016
29	0xc16d2ddd1d5c26da	-15298280.917498995
30	0x417c447751e1ed3a	29640565.117657878
31	0xc16aa486fa7d5ccb	-13968439.827803036
32	0x415f3e3ad634022c	8190187.346924346
33	0xc186a21c5d134cac	-47465355.634423584
34	0x41ae9696b2d40b52	256592729.41414887
35	0xc17904f94369520b	-26234772.213213008
36	0x418239ece1bf18e5	38223260.2183092
37	0xc15d944e8d100673	-7754042.2041031
38	0x4186a21c5d134cac	47465355.634423584
39	0x4187c41901e60d95	49840928.23733059
40	0xc149c2105e4bf026	-3376160.7366924463
41	0x4164b00cc148ee85	10846310.040152797
42	0x418a7f317ec22ffa	55567919.84481807
43	0xc163838a46724d75	-10230866.20145295
44	0x4149c2105e4bf026	3376160.7366924463
45	0x415928cf37af9f7c	6595388.870094176
46	0xc164b00cc148ee85	-10846310.040152797
47	0x416651d547b03bfd	11701930.24026298
48	0xc1667ae3b39cd403	-11786013.612894064
49	0xc17904f94369520b	-26234772.213213008
50	0x41d3f45458a80419	1339117922.62525
51	0xc16466adeae38fde	-10696047.340278562
52	0xc149c2105e4bf026	-3376160.7366924463
53	0xc15458171039228b	-5333084.25348724
54	0x416da3449bef1438	15538724.872934446
55	0xc1318a6fb535adeb	-1149551.7078503321
56	0xc149c2105e4bf026	-3376160.7366924463
57	0xc1d3aea3de4343e3	-1320849273.0510185
58	0xc14413f92b968d91	-2631666.3405320127
59	0x4156589868a988c0	5857889.635347545
60	0x41c629d4dc6d6a72	743680440.854811
61	0x414285c60441dca0	2427788.033259943
62	0x4164b00cc148ee85	10846310.040152797
63	0xc131f6a5aad4b54c	-1177253.6673081694
64	0xc14a2b6acd1134e0	-3430101.602087602
65	0xc1c5da03bbde0d5b	-733218679.7347826
66	0xc15960ea472e1714	-6652841.112188119
67	0x4164b00cc148ee85	10846310.040152797
68	0xc1ccd4dff34fd8ab	-967426022.6237997
69	0x41d9f0bbd6ed11a2	1740828507.7042012
70	0x416d2ddd1d5c26da	15298280.917498995
71	0xc186a21c5d134cac	-47465355.634423584
72	0xc1c606bac48da181	-739079561.1064912
73	0xc153ded7050e1c31	-5208924.078986214
74	0x416d2ddd1d5c26da	15298280.917498995
75	0xc17bc3e8fe519bfa	-29113999.89492414
76	0xc186a21c5d134cac	-47465355.634423584
77	0xc156589868a988c0	-5857889.635347545
78	0x416083c773c72c17	8658491.618063016
79	0x414285c60441dca0	2427788.033259943
80	0x416d2ddd1d5c26da	15298280.917498995
81	0x419905913a0a6e49	104948814.51018633
82	0x414a2b6acd1134e0	3430101.602087602
83	0x41595b95f89cb21f	6647383.884563952
84	0xc16d2ddd1d5c26da	-15298280.917498995
85	0x417c447751e1ed3a	29640565.117657878
86	0xc16aa486fa7d5ccb	-13968439.827803036
87	0x417904f94369520b	26234772.213213008
88	0x418239ece1bf18e5	38223260.2183092
89	0xc16466adeae38fde	-10696047.340278562
90	0xc186a21c5d134cac	-47465355.634423584
91	0x41ae0884592cc980	251937324.58747482
92	0xc16da3449bef1438	-15538724.872934446
93	0x417c7aae0e6379e8	29862624.89928618
94	0xc15d944e8d100673	-7754042.2041031
95	0x4186a21c5d134cac	47465355.634423584
96	0x4187c41901e60d95	49840928.23733059
97	0xc163838a46724d75	-10230866.20145295
98	0xc149c2105e4bf026	-3376160.7366924463
99	0x4164b00cc148ee85	10846310.040152797
100	0x418a335f1bed2f33	54946787.49081268
101	0xc15dd0d5c3db0f6b	-7816023.060245375
102	0x4149c2105e4bf026	3376160.7366924463
103	0x415928cf37af9f7c	6595388.870094176
104	0xc164b00cc148ee85	-10846310.040152797
105	0x416651d547b03bfd	11701930.24026298
106	0xc15458171039228b	-5333084.25348724
107	0xc16da3449bef1438	-15538724.872934446
108	0x41d3dd66911119d9	1333107268.2672026
109	0x4129ad1298e7be50	841353.2986430619
110	0xc149c2105e4bf026	-3376160.7366924463
111	0xc15607ffd04f67aa	-5775359.254846493
112	0x416f3e15c57d901d	16380078.171577508
113	0xc1318a6fb535adeb	-1149551.7078503321
114	0xc149c2105e4bf026	-3376160.7366924463
115	0xc1d3aea3de4343e3	-1320849273.0510185
116	0xc131f6a5aad4b54c	-1177253.6673081694
117	0x414a2b6acd1134e0	3430101.602087602
118	0x41c61f7d207b32d3	742324800.9624885
119	0xc107112c66623bc0	-188965.54999205284
120	0x4164b00cc148ee85	10846310.040152797
121	0xc133787a72bdddd1	-1276026.4482096324
122	0xc14b9c7d9377589c	-3619067.152079655
123	0xc1c5da03bbde0d5b	-733218679.7347826
124	0xc15960ea472e1714	-6652841.112188119
125	0x4164b00cc148ee85	10846310.040152797
126	0xc1c606bac48da181	-739079561.1064912
127	0x41d6d6a5cc5a23c9	1532663601.4084342
128	0x416d2ddd1d5c26da	15298280.917498995
129	0xc186a21c5d134cac	-47465355.634423584
130	0xc1c6a0b3de29fcf9	-759261116.3280326
131	0xc153ded7050e1c31	-5208924.078986214
132	0x416d2ddd1d5c26da	15298280.917498995
133	0xc17bc3e8fe519bfa	-29113999.89492414
134	0xc186a21c5d134cac	-47465355.634423584
135	0xc14a2b6acd1134e0	-3430101.602087602
136	0x41595b95f89cb21f	6647383.884563952
137	0xc107112c66623bc0	-188965.54999205284
138	0x416d2ddd1d5c26da	15298280.917498995
139	0x419822ac4caed218	101231379.17072332
140	0x414b9c7d9377589c	3619067.152079655
141	0x415a0a4d39f6c319	6826292.905686163
142	0xc16d2ddd1d5c26da	-15298280.917498995
143	0x417c447751e1ed3a	29640565.117657878
144	0xc16aa486fa7d5ccb	-13968439.827803036
145	0x416da3449bef1438	15538724.872934446
146	0x417c7aae0e6379e8	29862624.89928618
147	0x4129ad1298e7be50	841353.2986430619
148	0xc186a21c5d134cac	-47465355.634423584
149	0x41ac17af421d34f1	235657121.05704454
150	0xc16f3e15c57d901d	-16380078.171577508
151	0x417d34b69bfe388a	30624617.74956564
152	0xc15d944e8d100673	-7754042.2041031
153	0x4186a21c5d134cac	47465355.634423584
154	0x4187c41901e60d95	49840928.23733059
155	0xc15dd0d5c3db0f6b	-7816023.060245375
156	0xc149c2105e4bf026	-3376160.7366924463
157	0x4164b00cc148ee85	10846310.040152797
158	0x418926a4da71f981	52745371.30565167
159	0xc15ea142810aed4f	-8029450.01629193
160	0x4149c2105e4bf026	3376160.7366924463
161	0x415928cf37af9f7c	6595388.870094176
162	0xc164b00cc148ee85	-10846310.040152797
163	0x416651d547b03bfd	11701930.24026298
164	0xc15607ffd04f67aa	-5775359.254846493
165	0xc16f3e15c57d901d	-16380078.171577508
166	0x41d3c90e7a00e0b6	1327774184.0137153
167	0xc16f3e15c57d901d	-16380078.171577508
168	0xc149c2105e4bf026	-3376160.7366924463
169	0xc1318a6fb535adeb	-1149551.7078503321
170	0xc149c2105e4bf026	-3376160.7366924463
171	0xc1d3aea3de4343e3	-1320849273.0510185
172	0xc133787a72bdddd1	-1276026.4482096324
173	0x414b9c7d9377589c	3619067.152079655
174	0x41c61681cda5c878	741147547.2951803
175	0x414b9c7d9377589c	3619067.152079655
176	0x4164b00cc148ee85	10846310.040152797
177	0xc1c5da03bbde0d5b	-733218679.7347826
178	0xc15960ea472e1714	-6652841.112188119
179	0x4164b00cc148ee85	10846310.040152797
180	0xc1c6a0b3de29fcf9	-759261116.3280326
181	0x41c7a690d426a611	793584040.301943
182	0x416d2ddd1d5c26da	15298280.917498995
183	0xc186a21c5d134cac	-47465355.634423584
184	0xc153ded7050e1c31	-5208924.078986214
185	0x416d2ddd1d5c26da	15298280.917498995
186	0xc17bc3e8fe519bfa	-29113999.89492414
187	0xc186a21c5d134cac	-47465355.634423584
188	0xc14b9c7d9377589c	-3619067.152079655
189	0x415a0a4d39f6c319	6826292.905686163
190	0x414b9c7d9377589c	3619067.152079655
191	0x416d2ddd1d5c26da	15298280.917498995
192	0x4194f469e29ab308	87890552.65107358
193	0xc16d2ddd1d5c26da	-15298280.917498995
194	0x417c447751e1ed3a	29640565.117657878
195	0xc16aa486fa7d5ccb	-13968439.827803036
196	0x416f3e15c57d901d	16380078.171577508
197	0x417d34b69bfe388a	30624617.74956564
198	0xc16f3e15c57d901d	-16380078.171577508
199	0xc186a21c5d134cac	-47465355.634423584
200	0x41a4dbb1283513c1	174971028.10366634
201	0xc15d944e8d100673	-7754042.2041031
202	0x4186a21c5d134cac	47465355.634423584
203	0x4187c41901e60d95	49840928.23733059
204	0xc15ea142810aed4f	-8029450.01629193
205	0xc149c2105e4bf026	-3376160.7366924463
206	0x4164b00cc148ee85	10846310.040152797
207	0x41856c8a21f69793	44929348.24540629
208	0x4149c2105e4bf026	3376160.7366924463
209	0x415928cf37af9f7c	6595388.870094176
210	0xc164b00cc148ee85	-10846310.040152797
211	0x416651d547b03bfd	11701930.24026298
212	0xc1318a6fb535adeb	-1149551.7078503321
213	0x4149c2105e4bf026	3376160.7366924463
214	0x41d3fdf981198205	1341646340.3985608
215	0x415f3e3ad634022c	8190187.346924346
216	0xc0e95a4f9ef5bcc0	-51922.48815428605
217	0xc1667ae3b39cd403	-11786013.612894064
218	0x417904f94369520b	26234772.213213008
219	0xc131f29520802cfd	-1176213.1269558065
220	0xc14a27799cc7c719	-3428083.2248467323
221	0xc1d3aea3de4343e3	-1320849273.0510185
222	0xc1c5da03bbde0d5b	-733218679.7347826
223	0x41d61899cdb34070	1482843958.800808
224	0xc13c712b53d0275e	-1863979.3273949246
225	0x4164b00cc148ee85	10846310.040152797
226	0xc14413f92b968d91	-2631666.3405320127
227	0xc156589868a988c0	-5857889.635347545
228	0xc1c605100b5a51d9	-738861078.7056228
229	0xc15960ea472e1714	-6652841.112188119
230	0x4164b00cc148ee85	10846310.040152797
231	0xc153ded7050e1c31	-5208924.078986214
232	0xc16d2ddd1d5c26da	-15298280.917498995
233	0x41dae51cca0959ba	1804890920.1461015
234	0x410c40c946177880	231449.1592244543
235	0xc186a21c5d134cac	-47465355.634423584
236	0xc1ccd4dff34fd8ab	-967426022.6237997
237	0xc15453896048eea4	-5328421.504451428
238	0x416d9ee0427484bc	15529730.076723449
239	0xc17bc3e8fe519bfa	-29113999.89492414
240	0xc186a21c5d134cac	-47465355.634423584
241	0x416d2ddd1d5c26da	15298280.917498995
242	0x417c447751e1ed3a	29640565.117657878
243	0xc13c712b53d0275e	-1863979.3273949246
244	0x410c40c946177880	231449.1592244543
245	0x41a3de59be05356c	166669535.0101732
246	0x4156589868a988c0	5857889.635347545
247	0x416083c773c72c17	8658491.618063016
248	0xc16d9ee0427484bc	-15529730.076723449
249	0x417c78a911dbc142	29854353.116151102
250	0xc16aa486fa7d5ccb	-13968439.827803036
251	0xc15d944e8d100673	-7754042.2041031
252	0x415f3e3ad634022c	8190187.346924346
253	0xc186a21c5d134cac	-47465355.634423584
254	0x41af850b53e4ecf8	264406441.94712043
255	0xc17904f94369520b	-26234772.213213008

x f8 [1776]
0	0xbec55bdc012fee65	-2.546170443815977e-06
1	0xbefcdebaa49161e0	-2.7532611316468075e-05
2	0xbf2fd37510758a9e	-0.00024281314856996068
3	0xbf3f07c5beb5ad11	-0.00047348573453716384
4	0x3f0c9211fa3df4f6	5.4494069700242455e-05
5	0x3ed17d4d9c0645b2	4.169813508163159e-06
6	0x3f04513fd4bf4a50	3.875232741247915e-05
7	0x3f20b7c94f5e9bce	0.00012754757306973483
8	0xbf39eae16980dbf5	-0.0003954696962895071
9	0xbf3cd834cd084c0f	-0.0004401329906908455
10	0x3f17bed96bdb5dac	9.058191332244361e-05
11	0xbea8bef36eeb09f8	-7.374853490882331e-07
12	0x3f36631790f01e9d	0.0003415997061328809
13	0x3f32264747ce532a	0.00027693977590930125
14	0xbf415b6cdb833851	-0.0005296975641842038
15	0xbf4498714611fbeb	-0.0006285241216942272
16	0x3f232609bea3d169	0.00014609211877537477
17	0x3e9fac38979f4a00	4.719605822798049e-07
18	0x3f54a85384676bde	0.001260835227745664
19	0x3f30d09d37bd6f84	0.000256574996219554
20	0xbf437f5e10591b8a	-0.000595017366045934
21	0xbf46b3e722dc81c2	-0.0006928328127493932
22	0x3f2ee26bbe471989	0.0002356297037648498
23	0x3ee81fa316b575c7	1.1503020423015994e-05
24	0xbf01d95d4d9f91b9	-3.4044418228326924e-05
25	0xbef898a7134c9677	-2.3456858985990204e-05
26	0xbf3c9b31502f4031	-0.0004364962953191691
27	0x3f11b0e17e31e0a3	6.748558330283093e-05
28	0x3f1f805d3781259f	0.00012016838979991014
29	0x3eb4966c5f92e624	1.2271160570301169e-06
30	0x3f148939c97eb3c1	7.833876804737209e-05
31	0x3f20754382680f5d	0.0001255650433479261
32	0xbf46557102502924	-0.0006815721322948371
33	0x3efe980defb4dcd7	2.9176676418188364e-05
34	0x3f29775596128505	0.0001942913031927411
35	0xbee05700410f48a5	-7.791446508341045e-06
36	0x3f334c746a67eadd	0.0002944740503207208
37	0x3f3248ac87af0068	0.00027898990782305186
38	0xbf4bb41fa1b12e16	-0.0008454470111102809
39	0x3f40583308932ef2	0.0004987954318038375
40	0x3f2c02f8e4f63352	0.00021371162663932436
41	0xbed0e5536a42b804	-4.028273597507171e-06
42	0x3f4f666c70d7de3a	0.000958254766088857
43	0x3f306d0fba0b1a8f	0.00025064119294563534
44	0xbf4e44ad8f8a5e5a	-0.0009237143959408098
45	0x3f415d10d9f8aa16	0.000529893139121387
46	0x3f38425eba54a248	0.00037016689960237383
47	0x3eb6646096abd040	1.3346730962067937e-06
48	0x3ec3e5f35207e6e8	2.372055533547745e-06
49	0xbef588655aa64aa6	-2.0535275021391984e-05
50	0xbf2f0ec0a730e471	-0.00023695089075362636
51	0x3f202df49f604bed	0.00012343989482185795
52	0x3f20d2df25594ee0	0.00012835477780247847
53	0x3e9085cf14a311f2	2.4620728268320187e-07
54	0x3f2b7931cf3a7d2b	0.0002096055319400295
55	0x3f1ffeb882296a1f	0.00012205124998258169
56	0xbf3613b3df8a55cd	-0.00033686772761973017
57	0x3f2565e4b50a4aec	0.00016325394473833772
58	0x3f354e05bbf53d4b	0.00032508506770497343
59	0xbedb6f0566d29af1	-6.540698092616661e-06
60	0x3ebe14cf9426855d	1.7929847478742732e-06
61	0xbef5189bb85d5ba0	-2.0118833638473423e-05
62	0xbf29dfc9873dfe0b	-0.00019740424215440618
63	0xbf038f54e9764787	-3.730752831211577e-05
64	0x3f20926e6f6ba997	0.00012643430792220737
65	0x3ed93ce4f43050f2	6.017176761314646e-06
66	0x3f29e80188dc6e9e	0.00019764918072772293
67	0x3f1fd61178082d1c	0.00012144548055219691
68	0xbf325861776ad5c2	-0.00027992610504709245
69	0xbf0ccbb75d224c06	-5.492356616900594e-05
70	0x3f34f012c7bf5eaf	0.0003194852686170075
71	0x3ee38f607c6df1fb	9.326966290628706e-06
72	0xbefc45036d1ae731	-2.69599757476209e-05
73	0xbef4be29f80d881d	-1.9781902213529644e-05
74	0xbf3aa7f6887f0a42	-0.0004067398917834455
75	0xbf186df20299b471	-9.319104779033513e-05
76	0x3f21b81b687313c1	0.00013518652506241786
77	0x3ede923bb0de81d3	7.28874762315241e-06
78	0x3f16bee301c3ca4c	8.676777401087874e-05
79	0x3f1faee3c43ca538	0.00012086167504023616
80	0xbf454a27c3a18f35	-0.0006497091446928451
81	0xbf263431ac179ae3	-0.00016940218306090498
82	0x3f2c2e83ecdcb88c	0.00021500931182444718
83	0x3ee29c5d4297d7c6	8.874320047685165e-06
84	0x3f21824195d19e8d	0.00013358164406728317
85	0x3f2729385d692a1f	0.0001767045311729812
86	0xbf4b22b06cb7b1af	-0.0008281098793623732
87	0xbf3bae248a5d4604	-0.0004223670206232324
88	0x3f2d9b6fbcc6f859	0.00022588480932300944
89	0x3eea57ddec458fa7	1.2561430943143342e-05
90	0x3f3644aeee09ad4a	0.00033978720424584065
91	0x3f2aabe16319b442	0.0002034866934538544
92	0xbf4ded848148196f	-0.0009133240697003895
93	0xbf422a0e0d640d9e	-0.0005543297400269381
94	0x3f3f4bec7791b9f1	0.00047754786607515006
95	0xbeafa624c7f7106c	-9.432136635558207e-07
96	0xbf04beebb1e8ac79	-3.9569442595721026e-05
97	0xbef35c4a78a76d28	-1.8463622419290536e-05
98	0xbf380702c03ce1ca	-0.00036662881051399406
99	0xbf03a4a6a99927e2	-3.7466369758279235e-05
100	0x3f2251c37449db57	0.0001397658435455483
101	0x3eadf674a475c204	8.929585612449239e-07
102	0x3f129770bf108bbf	7.092118882261101e-05
103	0x3f1fd5c1f05c3870	0.00012144085129881118
104	0xbf42501e69d41c46	-0.0005588673117537044
105	0x3f37a945b09f3095	0.00036104155935557633
106	0x3f26d6dd7d7e6412	0.00017425016153252475
107	0x3e824510c4593700	1.361205212317953e-07
108	0x3f2337baf238498a	0.00014661938722377823
109	0x3f275fd7a51f9f4a	0.0001783323992292591
110	0xbf4801784ceeb86c	-0.0007325971035834328
111	0x3f3c1c5ca4b1ecf3	0.00042893659401217684
112	0x3f2e7eaa6f648a9b	0.0002326567698186136
113	0x3eec325fbc0d7c72	1.3445269247901028e-05
114	0x3f39a1614d17a4d1	0.00039108872905886405
115	0x3f2a1093914068fa	0.00019885827407579282
116	0xbf4aaec8c41ed283	-0.0008142929366302263
117	0x3f42f694b6812a4f	0.0005787111413238596
118	0x3f3d7d30da63ee54	0.0004499668379051903
119	0xbeacd0b975438bc0	-8.587637503578292e-07
120	0x3f034cd4ab5acafe	3.681205764162995e-05
121	0xbef57cc2b8607008	-2.0491930193697355e-05
122	0xbf09bcd00818ad1d	-4.909047948972233e-05
123	0x3f3f469cf24741d1	0.00047723132800306123
124	0x3f1da93a1b900e71	0.00011314789925625527
125	0x3ec79e17379d2e6e	2.815430374980037e-06
126	0xbeaa118e95c71795	-7.7690428273361e-07
127	0xbee38c7d2c51d043	-9.321587081091822e-06
128	0xbf4120174bb88373	-0.0005226243733354854
129	0xbf4cb66f00371af8	-0.0008762399669926804
130	0x3f1cd6ac8f6065f0	0.0001100104162507149
131	0x3ed44213bed861dc	4.829910705627231e-06
132	0x3f03cfd7cce84f30	3.778817482582989e-05
133	0x3f20e082e671fae8	0.0001287612715010413
134	0xbf4b162e78f099c6	-0.0008266188541526324
135	0xbf4bb2c745a39cfe	-0.0008452866561840242
136	0x3f203ac781535e3d	0.00012382207265802968
137	0x3eb97b7d7901cd96	1.518868405295291e-06
138	0x3f3655b8d80a5a95	0.0003408027915069803
139	0x3f3131cfa902f4b3	0.0002623683913148364
140	0xbf515fe3a37f2392	-0.0010604594262863848
141	0xbf51dcb0c10109ab	-0.0010902143585701334
142	0x3f2a250f6c436650	0.00019946873920311187
143	0x3ee0026790d71960	7.63387336178968e-06
144	0x3f54a64be0965d10	0.0012603512753680025
145	0x3f2c97e6ec521644	0.00021815008054575276
146	0xbf52624c5e227fb1	-0.0011220689562278891
147	0xbf43febe5bbad166	-0.0006102017864209441
148	0x3f19df90e66ea0cb	9.869882488422741e-05
149	0x3eddbbcb869306a0	7.089036537512354e-06
150	0xbf0013d1fd85b234	-3.066525067904995e-05
151	0xbeac1b4c5842dce6	-8.376429581268197e-07
152	0xbf52236ae248fa46	-0.0011070770061817488
153	0x3f156f15fb29c6e0	8.176395093941911e-05
154	0x3f2ee27e12edf5ed	0.00023563183773582467
155	0x3ec7f7b5374f01f5	2.8571616277064295e-06
156	0x3f142c6bb56276f7	7.695586586683652e-05
157	0x3f204b1a90a20f52	0.0001243085792489393
158	0xbf5c6f76e8c2ceb3	-0.0017355595801235412
159	0x3ef8d1881def1f69	2.366875002815465e-05
160	0x3f31bccee0c1f493	0.0002706532548087472
161	0xbec9b1d7e9515de7	-3.0630470271677203e-06
162	0x3f3352839cdcbafe	0.0002948352165387662
163	0x3f31238acc72cf36	0.00026151789320326706
164	0xbf61ff6928a3cfc8	-0.0021969846612765777
165	0x3f37213e9b2cd833	0.000352933678345993
166	0x3f39e491d656b967	0.0003950935409545914
167	0x3ee71411bc4c6c0f	1.1004636584701866e-05
168	0x3f4f4018b25083cb	0.0009536858166293514
169	0x3f2b66c510914b64	0.0002090564305797473
170	0xbf63604e68f15a1f	-0.0023652583545683693
171	0xbf1e9f97836cf060	-0.00011681902183807843
172	0x3f36fe89a66c3def	0.00035086498830680287
173	0x3f0206bce60ed85e	3.438247654889767e-05
174	0x3ee0595b0fb9cdef	7.795832508628523e-06
175	0x3edcb09ead951f61	6.840210255383426e-06
176	0xbf502544c4b20f04	-0.0009854480329360435
177	0x3f2dd1f1ad31b533	0.00022750926163742912
178	0x3f2f53ed042e8597	0.00023901241555983048
179	0x3ec4c5b9e663d278	2.476259214673819e-06
180	0x3f2a8c256595e9f7	0.000202540936509468
181	0x3f1f43dd2b1e3b02	0.00011926686673134279
182	0xbf59aad18d343f82	-0.001566605224812862
183	0x3f3029928fd0e225	0.00024661853950960967
184	0x3f31c7dd07e9e745	0.00027131220114250495
185	0xbea9953727b52f20	-7.624290242840287e-07
186	0x3f28c203623cb1bd	0.00018888751321223348
187	0x3f311db1cfbd164c	0.00026116934872208865
188	0xbf609985592bbaf1	-0.0020263294658130417
189	0x3f168807f17dc1e5	8.595036012849047e-05
190	0x3f348c6ebd4aee63	0.00031354621505006434
191	0x3ef35d8076ba39b2	1.8468133403498704e-05
192	0x3f2c3bbd82fefaef	0.00021540344596179077
193	0x3f2a4d7588846f0e	0.0002006727193098957
194	0xbf62c6dfed7a77f7	-0.002292096480075219
195	0x3f2ae4f74179bbdf	0.0002051879716762064
196	0x3f364e54ff461a55	0.00034036231161175173
197	0x3f03e3c60987f384	3.793666946092566e-05
198	0x3f4497b7147e9f6d	0.0006284374185172422
199	0xbf3327f0cdbc934e	-0.00029229763980458546
200	0xbf63650723218b00	-0.0023675097846064252
201	0xbf2fd268e1cec08d	-0.00024278192804905556
202	0x3f3859885b4002d8	0.0003715474988439777
203	0xbf0fb77609e23344	-6.049469924205309e-05
204	0x3ede3e51eac2c481	7.210597385108186e-06
205	0x3ee601540954705b	1.0492891571227557e-05
206	0xbf4db7bb25401e04	-0.0009069122120317079
207	0xbf07b48e08317467	-4.5214256737515644e-05
208	0x3f2bfaa4136aef66	0.0002134633338836081
209	0x3ed83be6f910892c	5.777834204886191e-06
210	0x3f28fdcd040c3a0f	0.00019066932329576998
211	0x3f1ec050ac69a7f7	0.00011730663673295548
212	0xbf57fed12fde237d	-0.0014645617334016752
213	0xbf0f1292a393d2b6	-5.926618582378e-05
214	0x3f301bcc9f419958	0.000245797592702953
215	0x3edcb5d122a3305c	6.845050430647698e-06
216	0x3f2530cf7f23d776	0.00016167195241905866
217	0x3f311d9000277738	0.0002611614765138828
218	0xbf5fecd7006cc56e	-0.001948556864317243
219	0xbeeccea75c8971bd	-1.3736363045407295e-05
220	0x3f3265b9ff009bf9	0.0002807215778397039
221	0x3ed9cc15e5a7c674	6.150533943914694e-06
222	0x3f2180eae2a984a8	0.0001335417485562086
223	0x3f29c073bef20457	0.00019647038377360273
224	0xbf628edb24b20c66	-0.0022653846877474402
225	0xbf0c7b40bf9ad9b5	-5.4324067560274266e-05
226	0x3f32aa0a3e791b22	0.00028479337786217935
227	0xbef226d5b6274fe0	-1.7310808638828948e-05
228	0x3f4c4ac7a01f390f	0.0008634066327830886
229	0xbf332d635e9a5c64	-0.00029262233747701636
230	0xbf63f358d3fe1f3f	-0.0024353728221661315
231	0x3eea9a7c8049ac12	1.2685519331165035e-05
232	0x3f441c454c7aba8a	0.0006137216923514804
233	0xbf0620c07069cb29	-4.2205689216331874e-05
234	0xbef8210fb70a1d57	-2.3011346856919215e-05
235	0x3eee58c4eada3e31	1.4470460281828294e-05
236	0xbf52f85b1d7429e7	-0.0011578454776236481
237	0xbf27574b455225a1	-0.0001780776389391061
238	0x3f2e7cf40a6ad568	0.00023260573398934813
239	0x3eddcb6b881000e3	7.103588473889225e-06
240	0x3f16756c86cebf7f	8.567309278251048e-05
241	0x3f1e1bfbb2905a0c	0.0001148579000445975
242	0xbf5ee0b27c313da2	-0.0018846266764461568
243	0xbf2fc3db337b02ef	-0.00024234820170045783
244	0x3f326ab9fa8855f7	0.0002810195969983049
245	0x3ee0397f578f781c	7.736491839990165e-06
246	0x3f21de125973ed0d	0.00013631795875555138
247	0x3f311f2d461e1293	0.00026125769920096984
248	0xbf64d3a4e4a75c41	-0.002542326027860337
249	0xbf3a01613af61984	-0.0003968107584672242
250	0x3f3b30c2e6d261d5	0.0004148937067127966
251	0x3eed61c70fc02aa0	1.401040253059166e-05
252	0x3f35c0a830b14a01	0.00033191782194311187
253	0x3f293b01b8f828ef	0.00019249340083177894
254	0xbf683b8f6d93408b	-0.0029580880478548613
255	0xbf39c830968dbcd3	-0.00039340196831623187

b f8 [1776]
0	0xbd68000000000000	-6.821210263296962e-13
1	0xbd79400000000000	-1.4352963262354024e-12
2	0xc0e8da788d85fcf0	-50899.76727580454
3	0xc0e193e80c8ffdf5	-35999.251533504495
4	0x40bdfd7f4a909bda	7677.4972315197465
5	0xbd00000000000000	-7.105427357601002e-15
6	0xbda0000000000000	-7.275957614183426e-12
7	0x3dc64b0000000000	4.055067392982892e-11
8	0xc0e8da788d85fcd0	-50899.767275804305
9	0xc0e193e80c8ffdf7	-35999.25153350451
10	0x40bdfd7f4a909bdf	7677.497231519751
11	0xbd22000000000000	-3.197442310920451e-14
12	0xbde8000000000000	-1.7462298274040222e-10
13	0xbdc1840000000000	-3.186073627148289e-11
14	0xc0e8da788d85fd04	-50899.76727580468
15	0xc0e193e80c8ffdfa	-35999.25153350453
16	0x40bdfd7f4a909bf0	7677.4972315197665
17	0x3d68000000000000	6.821210263296962e-13
18	0xbdf0000000000000	-2.3283064365386963e-10
19	0xbda4980000000000	-9.36495325731812e-12
20	0xc0e8da788d85fcd4	-50899.76727580433
21	0xc0e193e80c8ffdf8	-35999.25153350452
22	0x40bdfd7f4a909bed	7677.497231519764
23	0x3d72400000000000	1.0373923942097463e-12
24	0xbda0000000000000	-7.275957614183426e-12
25	0x3d9b200000000000	6.16751094639767e-12
26	0xc0f8c22d520bab7a	-101410.83253066047
27	0x4084644d08452044	652.5376134300682
28	0x40cdfd7f4a909bd1	15354.994463039477
29	0x3d4d000000000000	2.0605739337042905e-13
30	0x3dc8000000000000	4.3655745685100555e-11
31	0xbdd2b30000000000	-6.802736152167199e-11
32	0xc0f8c22d520bab6e	-101410.8325306603
33	0x4084644d08452022	652.5376134300643
34	0x40cdfd7f4a909bc9	15354.994463039462
35	0xbd61800000000000	-4.973799150320701e-13
36	0x3dd0000000000000	5.820766091346741e-11
37	0x3dcad40000000000	4.880007509200368e-11
38	0xc0e8da788d85fd08	-50899.76727580471
39	0x40e193e80c8ffdf8	35999.25153350452
40	0x40bdfd7f4a909bf8	7677.497231519774
41	0x3d67000000000000	6.536993168992922e-13
42	0x3df0000000000000	2.3283064365386963e-10
43	0x3dc9900000000000	4.6497916628140956e-11
44	0xc0e8da788d85fce7	-50899.76727580447
45	0x40e193e80c8ffdf7	35999.25153350451
46	0x40bdfd7f4a909c04	7677.497231519785
47	0xbd62000000000000	-5.115907697472721e-13
48	0xbd80000000000000	-1.8189894035458565e-12
49	0x3da0220000000000	7.336353746723034e-12
50	0xc0f57f2f061c5921	-88050.93899187866
51	0x40d2029f0e20236c	18442.48523715457
52	0x40cdfd7f4a909bd7	15354.994463039488
53	0xbd10000000000000	-1.4210854715202004e-14
54	0xbdd0000000000000	-5.820766091346741e-11
55	0x3dcc644000000000	5.164402239188348e-11
56	0xc0f57f2f061c5929	-88050.93899187878
57	0x40d2029f0e202362	18442.485237154535
58	0x40cdfd7f4a909bc3	15354.994463039451
59	0xbd5b000000000000	-3.836930773104541e-13
60	0xbd80000000000000	-1.8189894035458565e-12
61	0xbdb8060000000000	-2.184918912462308e-11
62	0xc0f28bd5a1fca68e	-75965.35204758702
63	0xc090753211da738c	-1053.2988962300324
64	0x40cdfd7f4a909bdb	15354.994463039495
65	0x3d3c000000000000	9.947598300641403e-14
66	0xbdc0000000000000	-2.9103830456733704e-11
67	0xbdabc00000000000	-1.261923898709938e-11
68	0xc0f28bd5a1fca688	-75965.35204758693
69	0xc090753211da7396	-1053.2988962300346
70	0x40cdfd7f4a909be7	15354.994463039517
71	0xbd46000000000000	-1.5631940186722204e-13
72	0x3da8000000000000	1.0913936421275139e-11
73	0x3da2c00000000000	8.526512829121202e-12
74	0xc0f521fd7e865f34	-86559.84338986577
75	0xc0ca6ad81eff6c2c	-13525.688445976084
76	0x40cdfd7f4a909bcc	15354.994463039468
77	0xbd10000000000000	-1.4210854715202004e-14
78	0x3dc8000000000000	4.3655745685100555e-11
79	0xbdd1bd0000000000	-6.45314912617323e-11
80	0xc0f521fd7e865f3e	-86559.84338986591
81	0xc0ca6ad81eff6c27	-13525.688445976075
82	0x40cdfd7f4a909bd0	15354.994463039475
83	0xbd78800000000000	-1.3926637620897964e-12
84	0xbde0000000000000	-1.1641532182693481e-10
85	0xbd78800000000000	-1.3926637620897964e-12
86	0xc0e780cbaebac9c1	-48134.36507930188
87	0xc0debecdd35b0cce	-31483.216025125985
88	0x40bdfd7f4a909bdc	7677.497231519748
89	0x3d85c00000000000	2.4726887204451486e-12
90	0x3dd0000000000000	5.820766091346741e-11
91	0xbdb0100000000000	-1.460875864722766e-11
92	0xc0e780cbaebac9ac	-48134.36507930173
93	0xc0debecdd35b0cd0	-31483.216025125992
94	0x40bdfd7f4a909bf4	7677.49723151977
95	0xbd54000000000000	-2.8421709430404007e-13
96	0x0000000000000000	0.0
97	0x3d85a00000000000	2.4584778657299466e-12
98	0xc0f6fdcc0494eb6f	-94172.75111858336
99	0x40a935b7936a8e15	3226.858546571583
100	0x40cdfd7f4a909bd7	15354.994463039488
101	0xbd10000000000000	-1.4210854715202004e-14
102	0xbdd8000000000000	-8.731149137020111e-11
103	0x3dd3a18000000000	7.141665037124767e-11
104	0xc0e780cbaebac9c4	-48134.365079301904
105	0x40debecdd35b0cce	31483.216025125985
106	0x40bdfd7f4a909bc4	7677.4972315197265
107	0x3d56400000000000	3.161915174132446e-13
108	0x0000000000000000	0.0
109	0x3dbca80000000000	2.6062707547680475e-11
110	0xc0e780cbaebac9a7	-48134.36507930169
111	0x40debecdd35b0cd1	31483.216025125996
112	0x40bdfd7f4a909bfc	7677.497231519777
113	0x3d73600000000000	1.1013412404281553e-12
114	0xbdd0000000000000	-5.820766091346741e-11
115	0xbdb3c80000000000	-1.7990942069445737e-11
116	0xc0e780cbaebac9ae	-48134.365079301744
117	0x40debecdd35b0cd1	31483.216025125996
118	0x40bdfd7f4a909c0c	7677.497231519792
119	0x3d40000000000000	1.1368683772161603e-13
120	0x3da0000000000000	7.275957614183426e-12
121	0xbd87f00000000000	-2.7213786779611837e-12
122	0xc0e67acc5a6f0d12	-46038.386039281395
123	0x40db9816e0edbb0c	28256.357478554404
124	0x40bdfd7f4a909bd9	7677.497231519746
125	0x0000000000000000	0.0
126	0xbd70000000000000	-9.094947017729282e-13
127	0x3d858c0000000000	2.4495960815329454e-12
128	0xc10041af7c7d7aa3	-133173.9357862073
129	0xc0f3a185e05bc6fd	-80408.36727502565
130	0x40d82a8dfd198b00	24746.21857298445
131	0x3d3a000000000000	9.237055564881302e-14
132	0xbdb8000000000000	-2.1827872842550278e-11
133	0x3d91cc0000000000	4.0465408801537706e-12
134	0xc10041af7c7d7a9b	-133173.93578620706
135	0xc0f3a185e05bc6fc	-80408.36727502564
136	0x40d82a8dfd198aff	24746.218572984446
137	0x3d36800000000000	7.993605777301127e-14
138	0xbde8000000000000	-1.7462298274040222e-10
139	0x3dc9be5000000000	4.682698673263985e-11
140	0xc10041af7c7d7a9b	-133173.93578620706
141	0xc0f3a185e05bc6fa	-80408.36727502561
142	0x40d82a8dfd198b07	24746.218572984475
143	0xbd54800000000000	-2.913225216616411e-13
144	0xbdbb380000000000	-2.475530891388189e-11
145	0x3dc0000000000000	2.9103830456733704e-11
146	0xc0e8da788d85fcf1	-50899.767275804545
147	0xc0e193e80c8ffdf3	-35999.25153350448
148	0xc0bdfd7f4a909bd6	-7677.497231519743
149	0xbd52000000000000	-2.5579538487363607e-13
150	0x3db0000000000000	1.4551915228366852e-11
151	0xbd6a780000000000	-7.522871214860061e-13
152	0xc11031cb7e35018e	-265330.8732490771
153	0x4099084237b1e0c7	1602.064665583939
154	0x40e82a8dfd198b06	49492.43714596894
155	0xbcd0000000000000	-8.881784197001252e-16
156	0xbdd6000000000000	-8.003553375601768e-11
157	0xbdc4344000000000	-3.675104665035178e-11
158	0xc11031cb7e350196	-265330.8732490776
159	0x4099084237b1e0b4	1602.0646655839346
160	0x40e82a8dfd198b0c	49492.43714596899
161	0xbd00000000000000	-7.105427357601002e-15
162	0xbdec000000000000	-2.0372681319713593e-10
163	0xbdd6e48000000000	-8.328271405844134e-11
164	0xc10a391e76c5ac97	-214819.80799422108
165	0x40e20a98ea2c7879	36948.77858565836
166	0x40ebea3de66b9e84	57169.93437748871
167	0x3d63000000000000	5.400124791776761e-13
168	0x3df0000000000000	2.3283064365386963e-10
169	0x3dbcc00000000000	2.6147972675971687e-11
170	0xc1002e0d1da9b144	-132545.6394838189
171	0xc0bd24564fd8bc26	-7460.337155862746
172	0x40d82a8dfd198b0d	24746.218572984497
173	0x3d71000000000000	9.663381206337363e-13
174	0x3da0000000000000	7.275957614183426e-12
175	0x3d882c4000000000	2.74813505285465e-12
176	0xc10bf2c4b2761ef6	-228952.58713936032
177	0x40e38785ed30a9ba	39996.18520386839
178	0x40e4bca59967b6f2	42469.1749762128
179	0x3d5bbc0000000000	3.9412917374193057e-13
180	0x0000000000000000	0.0
181	0x3dcf680000000000	5.7127635955112055e-11
182	0xc10bf2c4b2761f1f	-228952.5871393615
183	0x40e38785ed30a9bd	39996.18520386841
184	0x40e4bca59967b6f4	42469.17497621282
185	0xbd5a000000000000	-3.694822225952521e-13
186	0xbdc0000000000000	-2.9103830456733704e-11
187	0x3dd2a88000000000	6.787814754716237e-11
188	0xc101332d2f67f271	-140901.648147482
189	0x40d50c6ccc41300a	21553.699966713823
190	0x40ec3c056c0bdde5	57824.16943925227
191	0xbd3c000000000000	-9.947598300641403e-14
192	0xbdd0000000000000	-5.820766091346741e-11
193	0xbda7000000000000	-1.0459189070388675e-11
194	0xc101332d2f67f285	-140901.64814748257
195	0x40d50c6ccc41300a	21553.699966713823
196	0x40ec3c056c0bdde0	57824.16943925223
197	0x3d83c00000000000	2.2453150450019166e-12
198	0x3de0000000000000	1.1641532182693481e-10
199	0x3dd3b80000000000	7.173639460233971e-11
200	0xc0eceef8d47f01f2	-59255.77593946819
201	0xc0d56478e0d4fad8	-21905.888722653355
202	0x40d8ce1d085a09d6	25400.453634748083
203	0x3d72c00000000000	1.0658141036401503e-12
204	0x0000000000000000	0.0
205	0xbd88280000000000	-2.7462476737127872e-12
206	0xc107f41d0a84e4ee	-196227.63013628818
207	0xc0a0661c7ade629f	-2099.0556249137294
208	0x40e1c061ed4c481a	36355.060217037986
209	0x3d3a000000000000	9.237055564881302e-14
210	0xbdd8000000000000	-8.731149137020111e-11
211	0x3dc8360000000000	4.403943876241101e-11
212	0xc107f41d0a84e526	-196227.6301362898
213	0xc0a0661c7ade628b	-2099.0556249137203
214	0x40e1c061ed4c4821	36355.06021703804
215	0x3d67400000000000	6.608047442568932e-13
216	0x3dd0000000000000	5.820766091346741e-11
217	0x3dbee80000000000	2.8109070626669563e-11
218	0xc0fd5c64730d22d4	-120262.27808869939
219	0xc0905706e3e251ae	-1045.756728683696
220	0x40e93fc1bff06f0a	51710.05468007743
221	0xbd66600000000000	-6.359357485052897e-13
222	0xbdb0000000000000	-1.4551915228366852e-11
223	0x3dbf700000000000	2.859223968698643e-11
224	0xc0fd5c64730d236e	-120262.27808870163
225	0xc0905706e3e251ef	-1045.756728683711
226	0x40e93fc1bff06f11	51710.05468007748
227	0x3d18000000000000	2.1316282072803006e-14
228	0x0000000000000000	0.0
229	0x3dc30c0000000000	3.4646063795662485e-11
230	0xc0fd5c64730d2333	-120262.27808870077
231	0xc0905706e3e25125	-1045.756728683665
232	0x40e93fc1bff06f10	51710.054680077475
233	0xbd30000000000000	-5.684341886080802e-14
234	0xbdb4000000000000	-1.8189894035458565e-11
235	0x3d9c2c0000000000	6.405542762877303e-12
236	0xc10b82d43cb269c4	-225370.52963717107
237	0xc0dbc408111cfb53	-28432.12604450744
238	0x40e52e4a50fe1c28	43378.32238679408
239	0x3d2c000000000000	4.973799150320701e-14
240	0xbdc0000000000000	-2.9103830456733704e-11
241	0xbdb41d0000000000	-1.829292273214378e-11
242	0xc10b82d43cb269cc	-225370.5296371713
243	0xc0dbc408111cfb52	-28432.126044507437
244	0x40e52e4a50fe1c29	43378.32238679409
245	0x3d66000000000000	6.252776074688882e-13
246	0x3de4000000000000	1.4551915228366852e-10
247	0xbdb5270000000000	-1.9237944570704713e-11
248	0xc106d208691dec57	-186945.05132660523
249	0xc0e6a6b4ea7c28fb	-46389.653623657265
250	0x40e8edfa3a502f94	51055.81961831372
251	0x3d69900000000000	7.265299473147024e-13
252	0x3de0000000000000	1.1641532182693481e-10
253	0xbdab300000000000	-1.2363443602225743e-11
254	0xc106d208691decb6	-186945.051326608
255	0xc0e6a6b4ea7c2901	-46389.65362365731
