python-Linux/neural-sparse-linear-solvers-master/stand_small_test/1556244564325596619_b5ecd5ff4595e5e4dcda9aba4352c958786b665e_6480e92e13826ae0a9cfa4aae69e4a523cf3a7f0.npz (npz, 63161 bytes, 3 tensors)

A_values f8 [15164]
00000000: a8af 0679 5476 d741 f1cb f43c e720 80c1
00000010: 925a d156 29f3 64c1 ec97 9b73 0f0e 5bc1
00000020: 22bb d8a7 fd66 7341 5963 bba8 d7e3 4dc1
00000030: 925a d156 29f3 64c1 692f 47df 92d4 d6c1
00000040: e15f 4f3c bced cd41 8052 80aa fa1f 7141
00000050: 2b65 dcd7 a3be 7941 9eff ad45 33eb 4bc1
00000060: 103a dd8c 9405 64c1 6a5e 42ab d5df ccc1
00000070: cd04 0484 de0a 6dc1 2b65 dcd7 a3be 7941
00000080: 4eb9 a5c0 870e e341 c098 f9c2 ad4a 7441
00000090: f602 d725 778a 88c1 2cdb 40da 5e38 ccc1
000000a0: 3219 9811 76f3 5cc1 c098 f9c2 ad4a 7441
000000b0: 6aa9 ef0b 38af 7bc1 f602 d725 778a 88c1
000000c0: 8052 80aa fa1f 7141 c098 f9c2 ad4a 7441
000000d0: 29ef d0a9 329d a841 103a dd8c 9405 6441
000000e0: 6e33 2651 7709 7341 c098 f9c2 ad4a 74c1
000000f0: 5f7f 6463 90be 8241 21bb 2d69 2f4f 73c1
00000100: f1cb f43c e720 80c1 f602 d725 778a 88c1
00000110: 015b d187 fa52 b441 22bb d8a7 fd66 73c1
00000120: c2a8 8f08 0d59 8241 35d2 5840 d16b 68c1
00000130: f602 d725 778a 8841 e697 94d8 2a2b 8c41
00000140: 925a d156 29f3 64c1 2b65 dcd7 a3be 7941
00000150: 2676 fc41 3c8b a041 a393 ed40 2ede 67c1
00000160: 925a d156 29f3 6441 6f48 00d1 8276 7341
00000170: 2b65 dcd7 a3be 79c1 69cb 5ff5 eefa 7d41
00000180: ec97 9b73 0f0e 5bc1 22bb d8a7 fd66 73c1
00000190: b328 8fda 92fe d641 22bb d8a7 fd66 73c1
000001a0: 925a d156 29f3 64c1 5963 bba8 d7e3 4dc1
000001b0: 925a d156 29f3 64c1 692f 47df 92d4 d6c1
000001c0: 9eff ad45 33eb 4bc1 103a dd8c 9405 6441
000001d0: 7d1c 9858 ec6f cd41 103a dd8c 9405 6441
000001e0: 2b65 dcd7 a3be 7941 6a5e 42ab d5df ccc1
000001f0: cd04 0484 de0a 6dc1 2b65 dcd7 a3be 7941
00000200: 2cdb 40da 5e38 ccc1 a988 c386 bf4f cd41
00000210: c098 f9c2 ad4a 7441 f602 d725 778a 88c1
00000220: 3219 9811 76f3 5cc1 c098 f9c2 ad4a 7441
00000230: 6aa9 ef0b 38af 7bc1 f602 d725 778a 88c1
00000240: 103a dd8c 9405 64c1 6e33 2651 7709 7341
00000250: 103a dd8c 9405 6441 c098 f9c2 ad4a 7441
00000260: 7632 1c20 e8bf a041 c098 f9c2 ad4a 74c1
00000270: 5f7f 6463 90be 8241 21bb 2d69 2f4f 73c1
00000280: 22bb d8a7 fd66 7341 c2a8 8f08 0d59 8241
00000290: 22bb d8a7 fd66 73c1 f602 d725 778a 88c1
000002a0: 01af d648 d490 a941 35d2 5840 d16b 68c1
000002b0: f602 d725 778a 8841 e697 94d8 2a2b 8c41
000002c0: a393 ed40 2ede 67c1 925a d156 29f3 64c1
000002d0: 2b65 dcd7 a3be 7941 1788 15c6 b620 9c41
000002e0: 925a d156 29f3 6441 6f48 00d1 8276 7341
000002f0: 2b65 dcd7 a3be 79c1 69cb 5ff5 eefa 7d41
00000300: 5963 bba8 d7e3 4dc1 925a d156 29f3 6441
00000310: 68f9 94d2 1783 d741 f1cb f43c e720 80c1
00000320: f084 bffd c1ad 3041 ec97 9b73 0f0e 5bc1
00000330: 22bb d8a7 fd66 7341 707f 931c b386 49c1
00000340: f469 1917 71dd 62c1 692f 47df 92d4 d6c1
00000350: 6a5e 42ab d5df ccc1 2631 28da 02a8 dc41
00000360: 8052 80aa fa1f 7141 2b65 dcd7 a3be 7941
00000370: 9eff ad45 33eb 4bc1 103a dd8c 9405 64c1
00000380: 6c02 0178 4962 cbc1 cd04 0484 de0a 6dc1
00000390: 2b65 dcd7 a3be 7941 3219 9811 76f3 5cc1
000003a0: c098 f9c2 ad4a 74c1 a752 d4f0 e71a e341
000003b0: 204e dd31 e9fc 3fc1 f602 d725 778a 88c1
000003c0: 2cdb 40da 5e38 ccc1 60b2 325d 60c0 58c1
000003d0: dec3 db2f df4a 7241 6aa9 ef0b 38af 7bc1
000003e0: f602 d725 778a 88c1 c098 f9c2 ad4a 7441
000003f0: 5f7f 6463 90be 8241 8052 80aa fa1f 7141
00000400: 204e dd31 e9fc 3fc1 f4ae 016d 34d6 b041
00000410: 103a dd8c 9405 6441 6e33 2651 7709 7341
00000420: dec3 db2f df4a 72c1 dd32 e623 94d6 8141
00000430: 21bb 2d69 2f4f 73c1 35d2 5840 d16b 68c1
00000440: f1cb f43c e720 80c1 f602 d725 778a 88c1
00000450: 4c37 5872 430c b541 22bb d8a7 fd66 73c1
00000460: c2a8 8f08 0d59 8241 5b89 db50 1d29 67c1
00000470: f602 d725 778a 8841 e697 94d8 2a2b 8c41
00000480: 925a d156 29f3 64c1 6f48 00d1 8276 7341
00000490: f084 bffd c1ad 3041 2b65 dcd7 a3be 7941
000004a0: e407 b515 1d34 a541 a393 ed40 2ede 67c1
000004b0: f469 1917 71dd 6241 ca87 49e2 af7d 7241
000004c0: 2b65 dcd7 a3be 79c1 69cb 5ff5 eefa 7d41
000004d0: 5963 bba8 d7e3 4dc1 925a d156 29f3 6441
000004e0: ec97 9b73 0f0e 5bc1 22bb d8a7 fd66 73c1
000004f0: b328 8fda 92fe d641 22bb d8a7 fd66 73c1
00000500: 925a d156 29f3 6441 692f 47df 92d4 d6c1
00000510: 6a5e 42ab d5df ccc1 9eff ad45 33eb 4bc1
00000520: 103a dd8c 9405 6441 7d1c 9858 ec6f cd41
00000530: 103a dd8c 9405 6441 2b65 dcd7 a3be 7941
00000540: cd04 0484 de0a 6dc1 2b65 dcd7 a3be 7941
00000550: 3219 9811 76f3 5cc1 c098 f9c2 ad4a 74c1
00000560: 2cdb 40da 5e38 ccc1 a988 c386 bf4f cd41
00000570: c098 f9c2 ad4a 74c1 f602 d725 778a 88c1
00000580: 6aa9 ef0b 38af 7bc1 f602 d725 778a 88c1
00000590: c098 f9c2 ad4a 7441 5f7f 6463 90be 8241
000005a0: 103a dd8c 9405 64c1 6e33 2651 7709 7341
000005b0: 103a dd8c 9405 6441 c098 f9c2 ad4a 74c1
000005c0: 7632 1c20 e8bf a041 21bb 2d69 2f4f 73c1
000005d0: 35d2 5840 d16b 68c1 22bb d8a7 fd66 7341
000005e0: c2a8 8f08 0d59 8241 22bb d8a7 fd66 73c1
000005f0: f602 d725 778a 88c1 01af d648 d490 a941
00000600: f602 d725 778a 8841 e697 94d8 2a2b 8c41
00000610: 925a d156 29f3 64c1 6f48 00d1 8276 7341
00000620: a393 ed40 2ede 67c1 925a d156 29f3 6441
00000630: 2b65 dcd7 a3be 7941 1788 15c6 b620 9c41
00000640: 2b65 dcd7 a3be 79c1 69cb 5ff5 eefa 7d41
00000650: 707f 931c b386 49c1 f469 1917 71dd 6241
00000660: 657e 03ab b465 d741 8229 e110 66d4 89c1
00000670: 00a1 ed3a 7ff3 f240 fa8d fc6c a739 49c1
00000680: b28e a318 8ab7 62c1 692f 47df 92d4 d6c1
00000690: 6c02 0178 4962 cbc1 526c b5e5 59cd db41
000006a0: 88ef eef0 c422 7b41 2b65 dcd7 a3be 7941
000006b0: c182 a2f5 6e46 cbc1 cd04 0484 de0a 6dc1
000006c0: 2b65 dcd7 a3be 7941 60b2 325d 60c0 58c1
000006d0: dec3 db2f df4a 72c1 552f fc26 2315 d841
000006e0: 0075 3cd9 ca31 02c1 f602 d725 778a 88c1
000006f0: b7b5 8f85 2876 58c1 f44a 299a 7b26 7241
00000700: 6aa9 ef0b 38af 7bc1 f602 d725 778a 88c1
00000710: dec3 db2f df4a 7241 dd32 e623 94d6 8141
00000720: 88ef eef0 c422 7b41 0075 3cd9 ca31 02c1
00000730: 64ab 3108 ad5c ac41 f44a 299a 7b26 72c1
00000740: 217b 8bf3 8bc5 8141 21bb 2d69 2f4f 73c1
00000750: 5b89 db50 1d29 67c1 8229 e110 66d4 89c1
00000760: f602 d725 778a 88c1 34d5 2922 8c57 b041
00000770: 15c6 4185 8e11 67c1 f602 d725 778a 8841
00000780: e697 94d8 2a2b 8c41 f469 1917 71dd 62c1
00000790: ca87 49e2 af7d 7241 00a1 ed3a 7ff3 f240
000007a0: 2b65 dcd7 a3be 7941 f853 cd30 bd71 a341
000007b0: b28e a318 8ab7 6241 bbe9 5368 786b 7241
000007c0: 2b65 dcd7 a3be 79c1 69cb 5ff5 eefa 7d41
000007d0: fa8d fc6c a739 49c1 b28e a318 8ab7 6241
000007e0: b56a 93e8 f0a2 d741 f1cb f43c e720 80c1
000007f0: a26e a87e d503 6ac1 ec97 9b73 0f0e 5bc1
1574523364.1044712 -33823975.61952961 -10983754.713055883 -7092285.80637167 20344794.49041284 -3917743.3182186303 -10983754.713055883 -1532119933.1122687
1004238968.6201135 17956778.656328678 26995261.49130742 -3659366.544372513 -10497188.402005225 -968862550.5185063 -15226612.12549057 26995261.49130742
2557754885.17887 21277404.18593669 -51465956.72998612 -946912692.5066886 -7589336.274908351 21277404.18593669 -29029248.746011175 -51465956.72998612
17956778.656328678 21277404.18593669 206477652.90807465 10497188.402005225 19961717.07182639 -21277404.18593669 39309836.424071066 -20247286.57366479
-33823975.61952961 -51465956.72998612 340982407.81779486 -20344794.49041284 38478241.0701461 -12803722.010842422 51465956.72998612 59073883.07255535
-10983754.713055883 26995261.49130742 138780192.9930889 -12513650.029001063 10983754.713055883 20408365.062569078 -26995261.49130742 31436527.335887346
-7092285.80637167 -20344794.49041284 1543129962.236859 -20344794.49041284 -10983754.713055883 -3917743.3182186303 -10983754.713055883 -1532119933.1122687
-3659366.544372513 10497188.402005225 987748529.1883694 10497188.402005225 26995261.49130742 -968862550.5185063 -15226612.12549057 26995261.49130742
-946912692.5066886 983531277.527608 21277404.18593669 -51465956.72998612 -7589336.274908351 21277404.18593669 -29029248.746011175 -51465956.72998612
-10497188.402005225 19961717.07182639 10497188.402005225 21277404.18593669 140506128.0550725 -21277404.18593669 39309836.424071066 -20247286.57366479
20344794.49041284 38478241.0701461 -20344794.49041284 -51465956.72998612 214460964.41930392 -12803722.010842422 51465956.72998612 59073883.07255535
-12513650.029001063 -10983754.713055883 26995261.49130742 117976497.52102695 10983754.713055883 20408365.062569078 -26995261.49130742 31436527.335887346
-3917743.3182186303 10983754.713055883 1577869130.3277225 -33823975.61952961 1093057.9912036024 -7092285.80637167 20344794.49041284 -3345766.2232512757
-9890696.72185228 -1532119933.1122687 -968862550.5185063 1923091304.6279998 17956778.656328678 26995261.49130742 -3659366.544372513 -10497188.402005225
-918852336.0078864 -15226612.12549057 26995261.49130742 -7589336.274908351 -21277404.18593669 2564243334.6350894 -2096361.194783099 -51465956.72998612
-946912692.5066886 -6488449.456219286 19181042.99115359 -29029248.746011175 -51465956.72998612 21277404.18593669 39309836.424071066 17956778.656328678
-2096361.194783099 282473581.0065758 10497188.402005225 19961717.07182639 -19181042.99115359 37409412.4874017 -20247286.57366479 -12803722.010842422
-33823975.61952961 -51465956.72998612 353125234.34459376 -20344794.49041284 38478241.0701461 -12142826.526798895 51465956.72998612 59073883.07255535
-10983754.713055883 20408365.062569078 1093057.9912036024 26995261.49130742 177868426.85357583 -12513650.029001063 9890696.72185228 19389182.142951764
-26995261.49130742 31436527.335887346 -3917743.3182186303 10983754.713055883 -7092285.80637167 -20344794.49041284 1543129962.236859 -20344794.49041284
10983754.713055883 -1532119933.1122687 -968862550.5185063 -3659366.544372513 10497188.402005225 987748529.1883694 10497188.402005225 26995261.49130742
-15226612.12549057 26995261.49130742 -7589336.274908351 -21277404.18593669 -946912692.5066886 983531277.527608 -21277404.18593669 -51465956.72998612
-29029248.746011175 -51465956.72998612 21277404.18593669 39309836.424071066 -10497188.402005225 19961717.07182639 10497188.402005225 -21277404.18593669
140506128.0550725 -20247286.57366479 -12803722.010842422 20344794.49041284 38478241.0701461 -20344794.49041284 -51465956.72998612 214460964.41930392
51465956.72998612 59073883.07255535 -10983754.713055883 20408365.062569078 -12513650.029001063 10983754.713055883 26995261.49130742 117976497.52102695
-26995261.49130742 31436527.335887346 -3345766.2232512757 9890696.72185228 1570165420.0545895 -54168770.10994245 77623.95188677683 -3306318.8514573546
-9813072.769965503 -1532119933.1122687 -918852336.0078864 1865770902.8347363 28453967.058333904 26995261.49130742 -915201515.2696153 -15226612.12549057
26995261.49130742 -6488449.456219286 -19181042.99115359 1616153755.940389 -149049.3560723439 -51465956.72998612 -6412450.086896352 19031993.635081246
-29029248.746011175 -51465956.72998612 19181042.99115359 37409412.4874017 28453967.058333904 -149049.3560723439 237917828.09701073 -19031993.635081246
37269886.44310594 -20247286.57366479 -12142826.526798895 -54168770.10994245 -51465956.72998612 274172962.1634095 -12094580.164279023 51465956.72998612
59073883.07255535 -9890696.72185228 19389182.142951764 77623.95188677683 26995261.49130742 163110552.40103126 9813072.769965503 19314566.520486575
-26995261.49130742 31436527.335887346 -3306318.8514573546 9813072.769965503 1586217890.3033879 -33823975.61952961 -13639339.958060566 -7092285.80637167

x f8 [1428]
00000000: eca6 684a 672d dabe b2d2 f925 b8da fa3e
00000010: 150e 8859 18c2 11bf d40e 2fb9 4de1 27bf
00000020: 4a1d 0cb8 cbe1 013f 8482 f135 b9db 843e
00000030: d6cf a2e5 d605 dabe 39d0 0d3d 32be 383f
00000040: 0428 21c7 1e90 20bf 79c0 4d5e d5a5 3bbf
00000050: 212d 5dbc 5e82 1a3f 3f2b 27fa 346a f1be
00000060: 42f5 e1c8 3dc1 dfbe 9aea 1e33 ef09 fb3e
00000070: 771c 58b6 e493 1cbf 61f2 40bc 1948 02bf
00000080: 4d14 76d7 f1ad 123f 2605 1f60 38bd b0be
00000090: 1588 7fc5 050a 0c3f 39a2 79db 5e68 383f
000000a0: f5ff ae4c 5d1a 26bf d60b 03cd 7ea4 393f
000000b0: 03b4 388a 45f4 1b3f 1537 6d9d cb8a e7be
000000c0: b798 c430 632d e93e 6ae4 726a e4b8 f43e
000000d0: 1ff0 9603 373d 13bf 3b3b ebc5 e6f6 f1be
000000e0: 529d 83c8 23cb 183f e07d 2b82 e5b2 84be
000000f0: c538 9f21 da7e a8be 5481 6ead 7351 ec3e
00000100: 9cc9 cf24 14d1 15bf 7af3 4a00 4c83 1e3f
00000110: 5183 a8c0 efc9 113f 554d 9e71 03b5 ad3e
00000120: 0832 796d a369 c4be 5a90 2349 f59e debe
00000130: 244f a994 d39f 1fbf 67eb 4687 6828 23bf
00000140: 0184 f053 6454 103f 079f 2403 ee5a d03e
00000150: 3bc2 f323 229e c0be 4937 86ae 06bc e93e
00000160: 50b9 905c 4b37 11bf d3c7 87d7 c4d0 f6be
00000170: e82a 9def f6b2 123f 765d 77bb 712b 85be
00000180: f3ab 7118 4b61 e03e 5db1 ef7e 0364 e0be
00000190: 4218 4e8a d027 1bbf 71ca d652 f1f0 213f
000001a0: f9a3 8b4e d043 103f d98c c63e 928d d33e
000001b0: 4653 c9aa cc1e ba3e ef9a 14ce 12ef e43e
000001c0: e965 84b4 21e1 08bf 1d3e d7c6 848e c5be
000001d0: 6892 c772 c8c2 193f a646 7ded 2175 81be
000001e0: 39fe 24a3 e7ba c0be 9a08 5c0f 332e e03e
000001f0: 7e81 55f7 2658 11bf ed10 4ca6 ebe2 f33e
00000200: 9ffb c5b2 27b7 123f 452a 95c5 423e a93e
00000210: 3e74 0f32 6f20 da3e a6b0 fd30 9a9d 093f
00000220: fe26 ab49 1308 1bbf d689 66d4 813f 21bf
00000230: 2f6a 3c10 11bc 103f 5fef c4b9 57a1 c13e
00000240: ada6 e8f2 02ec cfbe 9fd3 732a 55f5 db3e
00000250: 1dc9 b076 ed59 16bf ceb3 5536 ad08 1cbf
00000260: e2ac 0061 2903 133f f54d f235 dfb1 a1be
00000270: dfc1 167f 6922 fdbe 2fb0 a88e 495d 093f
00000280: 83da 437c 7086 20bf a90d 8f17 2343 1f3f
00000290: 3f31 3b86 9375 193f b8a6 0228 d60c b53e
000002a0: 8af9 3d80 8ac5 e53e b412 3ba0 ebf2 bd3e
000002b0: 955d 1750 0844 10bf a3ad d2e4 8c09 1a3f
000002c0: d90a 45fd ae79 1b3f 7b78 770f f64c a5be
000002d0: ff6e 9ed2 ded5 e13e f027 144d 4638 9d3e
000002e0: ece8 e4ed fe11 f4be 86e0 ab00 16fd 103f
000002f0: 1664 51e5 6dd7 0a3f e8e9 9f79 5e9c 883e
00000300: d9d7 7402 6b33 d8be c2f8 1507 c62e 003f
00000310: 7fbb b7b9 1d4f 27bf 37d5 ffb1 d6de 36bf
00000320: 1ae6 c613 4e27 f13e 08f1 9530 320b bcbe
00000330: 8dda 79bb b5ad e0be 52df 9bc0 1860 323f
00000340: df41 3f1f deaa 37bf f545 443d 8d8d 39bf
00000350: 4087 97e6 66b1 e83e 9966 0693 6a25 02bf
00000360: 4b73 ec17 4b2d 08bf fed7 b645 98c8 373f
00000370: fa4e f658 bce2 39bf 234f 43a1 1cb4 31bf
00000380: 20f7 179b 4d5c 0f3f 7de4 0098 9fc2 f7be
00000390: f7ed 1828 fe37 e1be 4688 9238 49b4 fd3e
000003a0: 3ad8 c4f9 ba44 31bf 8c78 eb8f b313 f6be
000003b0: d8d0 45f8 294f fc3e f6f8 fd7d 0ba3 c3be
000003c0: c942 33be 9aec 0a3f c67f 51a7 476c 333f
000003d0: 68d0 2482 634d 3dbf 700c 9bb8 1047 373f
000003e0: fdf7 0a99 d4b4 fa3e 0c3b f7c2 27a5 01bf
000003f0: 42fe ee8d 0747 103f d825 26c1 2157 363f
00000400: 4a26 5749 2a8d 3fbf 04e4 12de 4e10 2e3f
00000410: 3a14 04c3 b4f2 143f be65 d627 5c0b f8be
00000420: 8e1c 9834 68cd e23e 72a2 7bed 53c5 f53e
00000430: 8d9e 6135 5cd9 24bf 7b30 7093 dc7f febe
00000440: 872c 7a55 7a34 f73e 4878 f5dd 3f6e 9ebe
00000450: cf79 9f87 fc05 b8be 46a1 8822 4da8 ea3e
00000460: c892 a86d cd47 27bf 4fe9 8a51 e3e8 2a3f
00000470: 066e 3d0d 26b9 f13e 64df cb67 1b68 a03e
00000480: a557 98ac 0d62 d2be acb3 2950 e65f 013f
00000490: efe5 032f 3bd3 30bf c413 0544 8a8f 2abf
000004a0: 5387 81a7 7a17 023f c4fb 1521 34a0 d93e
000004b0: 6447 814c 5ed6 c7be a5d7 b753 318d e83e
000004c0: 63a1 8f23 fea0 26bf 825e 261d 049f 01bf
000004d0: ef83 14a5 ab54 ea3e 4c2d 1992 c176 45be
000004e0: 65c7 a7bc 9d6a da3e dc7b 813c 947a 013f
000004f0: d7eb b8ef 89fd 33bf a522 41b7 4664 183f
00000500: 0278 36ad 45ad 183f 3296 3f4b fd11 cf3e
00000510: 938d 2159 4ae7 bebe d9bd ffe4 735c e43e
00000520: 498b d6f6 69b1 23bf ff6a 80d7 c6ce c6be
00000530: 866c 5f2e 358a d43e 2248 ccde e695 55be
00000540: 5853 11be 142d e63e 1e06 0782 5ae7 013f
00000550: b527 c7a9 88f9 2dbf 44fc 18d3 b4ff cbbe
00000560: 4f86 947b 8e68 273f a394 8800 0f72 bf3e
00000570: 2617 290f 5591 c7be eda0 9691 5a31 e03e
00000580: 0673 c501 3fe7 26bf 9fd0 f6b0 b1e8 f43e
00000590: 517d b8c3 ada1 eb3e 7bf8 7b7b b25e 8d3e
000005a0: e69a 2f9a f0aa d33e b2a1 a2ee a643 023f
000005b0: 6ea3 f207 1e01 34bf 8207 8fd9 c3db 16bf
000005c0: f74a fe3c 9dd2 193f d9bf b054 b6a2 c93e
000005d0: 2001 ce0b 7f4a d1be b114 872a 39dd db3e
000005e0: 7d0c 7838 23a9 30bf cf8f 89ff bace 27bf
000005f0: a371 e73d a5e9 f73e 3ccd 5b60 dcdc 75be
00000600: 8a5c 7020 5bd7 ffbe 1183 3146 c435 023f
00000610: 32e5 5aac 69a7 3ebf e55b 58f3 48a1 cd3e
00000620: 3ddf 493d d746 133f 2cfa 82cd 6c25 d83e
00000630: 497c 9747 7819 b2be 765d 4be1 b0ce 1ebf
00000640: 1cc7 10e7 e877 40bf f459 43d2 75f9 31bf
00000650: 8eba 17bf 4305 153f 5c58 6b73 08fa f03e
00000660: be96 ff63 6818 dd3e c671 a0a9 ed2d bc3e
00000670: 2af6 49f6 13f2 2abf 2a63 a3f5 0d83 243f
00000680: 33f9 7274 0735 ee3e 005f 8e1c 5a88 8b3e
00000690: c856 de3c f545 13bf 241b 1115 7ee4 073f
000006a0: ceee ccc1 508c 35bf abfc 6360 d511 263f
000006b0: 0754 c8b8 1699 0a3f 9939 5f82 308a e43e
000006c0: 123b 8158 a39e a1be 9c66 4688 443e 21bf
000006d0: dfc8 bcfc 1cc0 37bf e675 8058 5e97 363f
000006e0: 1997 c5c5 12c1 163f 2096 7343 e5dc e73e
000006f0: 2826 74c5 51b9 dc3e ff5c de9e 65c4 b2be
00000700: 6ee9 71f3 412c 08bf c649 a169 8b0d 223f
00000710: db02 fa34 b40a d43e 05b3 28bf c4af 91be
00000720: 3c05 5f11 fe53 d7be d38f 9428 6bf2 f73e
00000730: ec11 4934 0fca 2abf eebb 3270 87a9 37bf
00000740: 1ecf 2022 0d1c e5be 50ae cef7 210e c6be
00000750: 5a92 fbf6 0bb7 d6be 63dc 52dc 9c77 0c3f
00000760: 3f0f cebe 7a70 3cbf 4907 5ea1 6368 34bf
00000770: acad 3025 225a e0be dec3 96ee 50d0 00bf
00000780: 7b34 1277 d87d 0abf 628b cd1a fc65 313f
00000790: 78cc a4ba 414b 40bf 0c5f e869 5b9b 41bf
000007a0: 35b2 2af5 0a5a f1be ef96 3d02 0998 01bf
000007b0: fcca 41a2 945e e4be 4d3b f01f 3fb7 f43e
000007c0: c69d 3f80 8c87 35bf d20c 9a99 59dc d13e
000007d0: de0a b50a 204b e9be be65 016e 31a3 c2be
000007e0: 80c0 aba6 b3b1 0b3f 8b05 fa5e 74b3 123f
000007f0: 589b cde7 0989 44bf 7d9e a44a 1c5c 183f
-6.241168341728056e-06 2.561032522270757e-05 -6.77420961281916e-05 -0.0001821906449476137 3.41072363934611e-05 1.5540640682916063e-07 -6.2043214603020235e-06 0.00037754751706775867
-0.0001263654299371032 -0.00042187174977126974 0.00010112479421058421 -1.6608115069687053e-05 -7.570945980470591e-06 2.578621496927367e-05 -0.00010901530693995126 -3.4869466191332595e-05
7.12565287042815e-05 -9.977305812511343e-07 5.348043549681395e-05 0.0003724319062486134 -0.0001686324015661708 0.0003912744114240007 0.0001066367572597066 -1.1225781162995126e-05
1.2005469692665976e-05 1.976226363062766e-05 -7.339142111723082e-05 -1.7132242983215777e-05 9.457975295711532e-05 -1.5421818585265676e-07 -7.300232625019731e-07 1.350315635112511e-05
-8.322415779086215e-05 0.0001163973939339434 6.785894235196195e-05 8.853400885626561e-07 -2.4333774993111466e-06 -7.300598684010444e-06 -0.00012063721548233021 -0.0001461627576995986
6.229269364201041e-05 3.89938218096193e-06 -1.9809852173024643e-06 1.2271154859157636e-05 -6.56738040027739e-05 -2.1758559769886735e-05 7.13313310402409e-05 -1.5772658710945013e-07
7.810617502287584e-06 -7.815684481792576e-06 -0.00010359011009883435 0.00013688035816768502 6.204565910263017e-05 4.661801522951047e-06 1.556891827144209e-06 9.982052179125534e-06
-4.7453728770640285e-05 -2.569760502814173e-06 9.82699245422686e-05 -1.3006887544324964e-07 -1.9943829780153815e-06 7.715447718496371e-06 -6.616342382904057e-05 1.896515677214741e-05
7.139377402685811e-05 7.523061739481495e-07 6.2290899060765165e-06 4.8857944533549095e-05 -0.00010311715815727524 -0.0001315923675067737 6.38375677763168e-05 2.1016889616680424e-06
-3.8053894038284374e-06 6.665785498007151e-06 -8.526336539274979e-05 -0.00010694081500668627 7.252636010040032e-05 -5.273464970416733e-07 -2.7784750221195267e-05 4.837876061389333e-05
-0.00012607691872519944 0.0001192560356591462 9.711945454710535e-05 1.2546862820185695e-06 1.0381529143674269e-05 1.7850940147594732e-06 -6.204891908311577e-05 9.932444045784041e-05
0.00010481005239619134 -6.348082299231133e-07 8.504596354978309e-06 4.3540928824968574e-07 -1.9140525972385325e-05 6.480643075324104e-05 5.119613766941409e-05 1.833648724523686e-07
-5.769932648383056e-06 3.086606819645419e-05 -0.00017783391818634514 -0.0003489755781623418 1.635888587412345e-05 -1.671536838137332e-06 -7.952954418783266e-06 0.00028038601213563775
-0.0003611366548712784 -0.00038990686631831746 1.1774528689781718e-05 -3.4611048593547254e-05 -4.611382882144815e-05 0.0003629085310551393 -0.00039498422935334255 -0.00027013491604786967
5.981551965915225e-05 -2.265953799016452e-05 -8.210526405530944e-06 2.8328172935084232e-05 -0.00026349606357045955 -2.105422845032809e-05 2.6997789534147953e-05 -2.340900195407017e-06
5.135390508715293e-05 0.00029637097697409983 -0.00044711760905902795 0.00035518797140471955 2.5469178185792686e-05 -3.365542977073173e-05 6.209357842034641e-05 0.0003408868225497053
-0.00048143656144059423 0.00022936785447827412 7.991054804186516e-05 -2.293050282773322e-05 8.965669297657135e-06 2.0762264141634857e-05 -0.00015906572906775434 -2.9086551162336022e-05
2.2130004565340297e-05 -4.534522001965394e-07 -1.4319053023220093e-06 1.2711251728595438e-05 -0.00017761595411615858 0.0002053048599657916 1.6902195809504978e-05 4.889568142310051e-07
-4.382853782588645e-06 3.313943490899167e-05 -0.0002567309848156831 -0.00020264208616019134 3.450720845489413e-05 6.109665734554041e-06 -2.841636703756447e-06 1.1707083664252145e-05
-0.00017264463693257145 -3.3609688802002844e-05 1.2555477186428395e-05 -9.994903185604682e-09 6.298177093176865e-06 3.333821183625744e-05 -0.0003050290831400604 9.304696669788311e-05
9.413469097416252e-05 3.7038649569494847e-06 -1.841990841210853e-06 9.70894976146015e-06 -0.00015024584301411907 -2.71889228643568e-06 4.8970875692013704e-06 -2.010311377353833e-08
1.0574387433384742e-05 3.414864500285115e-05 -0.00022868912937062743 -3.3377233641658625e-06 0.00017859210292052666 1.8743003257296139e-06 -2.809489268148791e-06 7.721323117618597e-06
-0.0001747383511298205 1.9940339425609227e-05 1.3175753443893603e-05 2.18822888468866e-07 4.689153146642259e-06 3.483632265616504e-05 -0.00030524237804257267 -8.71980941062039e-05
9.850582796237435e-05 3.05600102514651e-06 -4.1224959063115515e-06 6.643331893878603e-06 -0.00025422201039777115 -0.00018163712208540828 2.2804906501737475e-05 -8.144504456599763e-08
-3.0366167290987507e-05 3.473286849309786e-05 -0.00046774225152608755 3.5321735605375593e-06 7.353485791294647e-05 5.756900655905352e-06 -1.0788137657575454e-06 -0.000117520852949018
-0.0005025756091809638 -0.0002742684030300473 8.01870917468228e-05 1.6190234613265887e-05 6.936870306594669e-06 1.6796235855549073e-06 -0.00020557874372066745 0.00015649361996030706
1.44038891803892e-05 2.0513404155592644e-07 -7.35217028860715e-05 4.557142040844387e-05 -0.0003287980232930921 0.0001683781594649982 5.073166457606614e-05 9.794141146016177e-06
-5.251073824737908e-07 -0.00013155542923186804 -0.00036240298935576 0.0003447156273085047 8.680035666016848e-05 1.1378704682883537e-05 6.848312373416934e-06 -1.1186108354927402e-06
-4.610611215923292e-05 0.00013773276151825118 4.7783403968055335e-06 -2.6355081597893603e-07 -5.561851386505248e-06 2.2837588891225072e-05 -0.0002043860969413025 -0.0003610568675850846
-1.0065829943873733e-05 -2.6291854155669178e-06 -5.415684298991179e-06 5.429694605523711e-05 -0.00043395039283943346 -0.00031139786130306553 -7.797281034247306e-06 -3.206965432001723e-05
-5.052868699193747e-05 0.0002654781808841181 -0.0004972525542029779 -0.0005373188358275007 -1.654789896103817e-05 -3.355767719774398e-05 -9.712913261438517e-06 1.9756133038891042e-05
-0.0003285139102886216 4.258332774068068e-06 -1.2060860476230945e-05 -2.2217599138617936e-06 5.2822394385533024e-05 7.133863231880402e-05 -0.0006266878477675193 9.292528799120267e-05

b f8 [1428]
00000000: 0000 0000 0000 803d 0000 0000 0040 70bd
00000010: 8dc4 5380 95c6 eac0 38f0 5971 671c e1c0
00000020: ce12 d1d2 3903 c440 0000 0000 0000 283d
00000030: 0000 0000 0000 803d 0000 0000 0020 bfbd
00000040: 8ec4 5380 95c6 eac0 3af0 5971 671c e1c0
00000050: d012 d1d2 3903 c440 0000 0000 0000 86bd
00000060: 0000 0000 0000 80bd 0000 0000 00d0 83bd
00000070: f9a0 2be0 1e81 fbc0 2059 2a26 49f0 b2c0
00000080: d012 d1d2 3903 d440 0000 0000 0000 65bd
00000090: 0000 0000 0000 b03d 0000 0000 0070 c8bd
000000a0: 8dc4 5380 95c6 eac0 38f0 5971 671c e140
000000b0: ca12 d1d2 3903 c440 0000 0000 0000 743d
000000c0: 0000 0000 0000 80bd 0000 0000 00b0 873d
000000d0: 46e3 7fb7 124a fcc0 ecdc 972f 2a35 78c0
000000e0: d112 d1d2 3903 d440 0000 0000 0080 3c3d
000000f0: 0000 0000 0000 80bd 0000 0000 00e2 9ebd
00000100: 1dc2 a1a0 fd45 f7c0 7ca8 d29e 57f7 da40
00000110: ce12 d1d2 3903 d440 0000 0000 0040 4f3d
00000120: 0000 0000 0000 0000 0000 0000 0000 67bd
00000130: 033b 4712 7e33 e2c0 665b 546c bcbc c8c0
00000140: d312 d1d2 3903 c440 0000 0000 0000 60bd
00000150: 0000 0000 0000 80bd 0000 0000 8009 683d
00000160: 30e2 8fcd 9916 f2c0 1a5a 1a3a 5bf1 7b40
00000170: d112 d1d2 3903 d440 0000 0000 0042 413d
00000180: 0000 0000 0000 0000 0000 0000 0000 793d
00000190: 033b 4712 7e33 e2c0 625b 546c bcbc c840
000001a0: d012 d1d2 3903 c440 0000 0000 0000 54bd
000001b0: 0000 0000 0000 703d 0000 0000 8048 86bd
000001c0: 0302 649f 0f24 f2c0 2e4e 8f5d e68e 84c0
000001d0: d112 d1d2 3903 d440 0000 0000 0080 fbbc
000001e0: 0000 0000 0000 703d 0000 0000 00e8 76bd
000001f0: c8cd 8539 ad4e f2c0 0070 ed4c 0e95 10c0
00000200: d212 d1d2 3903 d440 0000 0000 0040 33bd
00000210: 0000 0000 0000 903d 0000 0000 00b0 9f3d
00000220: ef20 1cbd f04e e2c0 271b 269a 3228 c9c0
00000230: d412 d1d2 3903 c440 0000 0000 0000 48bd
00000240: 0000 0000 0000 883d 0000 0000 00c8 633d
00000250: b67e 2957 5592 f6c0 72e0 025b 6dd4 d5c0
00000260: d112 d1d2 3903 d440 0000 0000 0050 48bd
00000270: 0000 0000 0000 0000 0000 0000 0080 93bd
00000280: ea20 1cbd f04e e2c0 251b 269a 3228 c940
00000290: d212 d1d2 3903 c440 0000 0000 0000 30bd
000002a0: 0000 0000 0000 80bd 0000 0000 0080 58bd
000002b0: 6d1b c121 15c4 f6c0 4895 3da1 350e d540
000002c0: d112 d1d2 3903 d440 0000 0000 0000 063d
000002d0: 0000 0000 0000 0000 0000 0000 00b8 623d
000002e0: 5e5a 4b52 70b2 e2c0 78b1 b00d a2b4 ca40
000002f0: d212 d1d2 3903 c440 0000 0000 0000 04bd
00000300: 0000 0000 0000 883d 0000 0000 00d0 983d
00000310: 9988 8292 34cc fbc0 cfcb 2201 6370 f1c0
00000320: 72df 9da7 4fc4 a340 0000 0000 0000 383d
00000330: 0000 0000 0000 0000 0000 0000 0058 e23d
00000340: 8c88 8292 34cc fbc0 cfcb 2201 6370 f1c0
00000350: 77df 9da7 4fc4 a340 0000 0000 0000 88bd
00000360: 0000 0000 0000 b03d 0000 0000 00d0 ce3d
00000370: db4c b1a4 d3d1 ecc0 6ca7 eb90 5ec4 e1c0
00000380: b28a b8bc 4df4 c840 0000 0000 0080 99bd
00000390: 0000 0000 0000 a4bd 0000 0000 00e0 813d
000003a0: 2e40 2091 dc8d 0cc1 6cf7 4d5d 1a85 c3c0
000003b0: 8bdf 9da7 4fc4 b340 0000 0000 0000 51bd
000003c0: 0000 0000 0000 d0bd 0000 0000 0020 c4bd
000003d0: a988 8292 34cc fbc0 d2cb 2201 6370 f140
000003e0: 87df 9da7 4fc4 a340 0000 0000 0000 8abd
000003f0: 0000 0000 0000 b0bd 0000 0000 0020 c53d
00000400: c44c b1a4 d3d1 ecc0 6aa7 eb90 5ec4 e140
00000410: b38a b8bc 4df4 c840 0000 0000 0000 85bd
00000420: 0000 0000 0000 88bd 0000 0000 0024 8bbd
00000430: 13f2 33e2 7b5e 0dc1 973a 8d8e e5f4 88c0
00000440: 81df 9da7 4fc4 b340 0000 0000 0000 48bd
00000450: 0000 0000 0000 923d 0000 0000 001a 8a3d
00000460: 11e3 8bf5 6329 08c1 80fb 1041 b9bd eb40
00000470: 255d d217 d9b3 b340 0000 0000 0000 fc3c
00000480: 0000 0000 0000 903d 0000 0000 405e a0bd
00000490: a7d9 6db6 54e5 f2c0 c99d 84dd 4dd0 d8c0
000004a0: d5da 0688 62a3 a340 0000 0000 0008 6bbd
000004b0: 0000 0000 0000 70bd 0000 0000 2067 9fbd
000004c0: 65ee e1f5 37c7 02c1 c690 44e4 9ac9 8740
000004d0: 8159 ce40 be02 b340 0000 0000 0080 1e3d
000004e0: 0000 0000 0000 703d 0000 0000 4077 b1bd
000004f0: 2098 5727 9591 fcc0 add1 c740 cb59 c940
00000500: 893f 38f3 9884 cd40 0000 0000 00c8 70bd
00000510: 0000 0000 0000 883d 0000 0000 805d 9d3d
00000520: 20a7 7d90 31d5 02c1 148b ba29 c964 92c0
00000530: d8db 99d0 3413 b340 0000 0000 0000 50bd
00000540: 0000 0000 0000 803d 0000 0000 005d c93d
00000550: 504c 9781 5386 f3c0 d2c7 e5f5 ab3a 80c0
00000560: c889 f706 07c8 d840 0000 0000 0000 403d
00000570: 0000 0000 0000 603d 0000 0000 0018 8dbd
00000580: 76da e602 8e01 03c1 a0b0 31da a002 21c0
00000590: 7fdf 9da7 4fc4 b340 0000 0000 0000 04bd
000005a0: 0000 0000 0000 70bd 0000 0000 0028 b3bd
000005b0: 94f7 d52a e7db fcc0 ec09 93a0 602a c9c0
000005c0: 9b02 a0a6 61e5 cd40 0000 0000 0080 623d
000005d0: 0000 0000 0000 80bd 0000 0000 001c 91bd
000005e0: 8fd3 d388 e06e 07c1 0c9b 58f3 ba74 e6c0
000005f0: 7edf 9da7 4fc4 b340 0000 0000 0000 3fbd
00000600: 0000 0000 0000 b0bd 0000 0000 00b0 a53d
00000610: 781c 860c 72b9 00c1 3990 367d de01 c5c0
00000620: 7c02 a0a6 61e5 cd40 0000 0000 0000 643d
00000630: 0000 0000 0000 803d 0000 0000 0058 b03d
00000640: e79d c7fd 1fe2 ecc0 2258 da95 aedd e1c0
00000650: ad8a b8bc 4df4 c840 0000 0000 0000 5a3d
00000660: 0000 0000 0000 703d 0000 0000 00a8 823d
00000670: fccb d96a 86a2 07c1 ebe6 e7da 5ca9 e540
00000680: 78df 9da7 4fc4 b340 0000 0000 00c0 40bd
00000690: 0000 0000 0000 0000 0000 0000 00b0 b83d
000006a0: 4c9e c7fd 1fe2 ecc0 2458 da95 aedd e140
000006b0: b28a b8bc 4df4 c840 0000 0000 0000 20bd
000006c0: 0000 0000 0000 0000 0000 0000 0000 403d
000006d0: 309e c7fd 1fe2 ecc0 2258 da95 aedd e140
000006e0: ae8a b8bc 4df4 c840 0000 0000 0000 40bd
000006f0: 0000 0000 0000 0000 0000 0000 0000 20bd
00000700: 9a5a 34de 1f69 f3c0 78d0 fa1d 2ad1 da40
00000710: 7cdf 9da7 4fc4 a340 0000 0000 0000 333d
00000720: 0000 0000 0000 903d 0000 0000 0014 98bd
00000730: d67b 0e05 c91b fbc0 0272 ff7d 1731 f1c0
00000740: b43f 491e d480 afc0 0000 0000 00c0 4d3d
00000750: 0000 0000 0000 90bd 0000 0000 00d0 b2bd
00000760: f07b 0e05 c91b fbc0 0272 ff7d 1731 f1c0
00000770: d63f 491e d480 afc0 0000 0000 00a0 93bd
00000780: 0000 0000 0000 b03d 0000 0000 00a0 b7bd
00000790: c97b 0e05 c91b fbc0 0472 ff7d 1731 f1c0
000007a0: bc3f 491e d480 afc0 0000 0000 0000 93bd
000007b0: 0000 0000 0000 0000 0000 0000 0070 a73d
000007c0: 753f c1f5 a3d8 0bc1 38e7 eb77 d91d c3c0
000007d0: 943f 491e d480 bfc0 0000 0000 0000 203d
000007e0: 0000 0000 0000 c03d 0000 0000 0000 30bd
000007f0: 1923 e3bd cb3f 04c1 b1c0 fd4a 4b00 df40
1.8189894035458565e-12 -9.237055564881302e-13 -54836.67191494359 -35043.23258683126 10246.451746114904 4.263256414560601e-14 1.8189894035458565e-12 -2.830802259268239e-11
-54836.671914943596 -35043.23258683128 10246.451746114908 -2.5011104298755527e-12 -1.8189894035458565e-12 -2.2524204723595176e-12 -112657.92972910767 -4848.2857386081305
20492.903492229816 -5.968558980384842e-13 1.4551915228366852e-11 -4.445155354915187e-11 -54836.67191494359 35043.23258683126 10246.451746114897 1.1368683772161603e-12
-1.8189894035458565e-12 2.6929569685307797e-12 -115873.16979969767 -387.32279929467654 20492.90349222982 1.0125233984581428e-13 -1.8189894035458565e-12 -7.02193858614919e-12
-95327.8517167647 27613.369068779502 20492.90349222981 2.220446049250313e-13 0.0 -6.536993168992922e-13 -37275.93973123098 -12665.472055954579
10246.451746114913 -4.547473508864641e-13 -1.8189894035458565e-12 6.831757382030901e-13 -74089.61268604617 447.08477220815405 20492.90349222982 1.2262413306984854e-13
0.0 1.4210854715202004e-12 -37275.93973123098 12665.472055954571 10246.451746114908 -2.8421709430404007e-13 9.094947017729282e-13 -2.533306897589682e-12
-74304.9764137343 -657.8624831386312 20492.90349222982 -6.106226635438361e-15 9.094947017729282e-13 -1.3020695632803836e-12 -74986.8265436209 -4.145562364570651
20492.903492229823 -6.838973831690964e-14 3.637978807091713e-12 7.204903340607416e-12 -37495.52308470185 -12880.395329249628 10246.451746114915 -1.7053025658242404e-13
2.7284841053187847e-12 5.622169396701793e-13 -92453.33377980706 -22353.708679885087 20492.90349222982 -1.7275070263167436e-13 0.0 -4.433786671143025e-12
-37495.52308470181 12880.395329249624 10246.451746114912 -5.684341886080802e-14 -1.8189894035458565e-12 -3.481659405224491e-13 -93249.32074080194 21560.83796634272
20492.90349222982 9.769962616701378e-15 0.0 5.32018873400375e-13 -38291.510045696734 13673.266042791991 10246.451746114912 -8.881784197001252e-15
2.7284841053187847e-12 5.6417093219351955e-12 -113859.28576901778 -71430.1877773248 2530.155575688864 8.526512829121202e-14 0.0 1.3346834748517722e-10
-113859.28576901759 -71430.1877773248 2530.155575688866 -2.7284841053187847e-12 1.4551915228366852e-11 5.60476109967567e-11 -59022.61385407458 -36386.95519049358
12776.607321803782 -5.7980287238024175e-12 -9.094947017729282e-12 2.0321522242738865e-12 -233915.57086229458 -9994.205972429096 5060.31115137775 -2.4158453015843406e-13
-5.820766091346741e-11 -3.660716174636036e-11 -113859.28576901801 71430.18777732484 2530.1555756888733 -2.9558577807620168e-12 -1.4551915228366852e-11 3.842615114990622e-11
-59022.613854074414 36386.955190493565 12776.607321803784 -2.3874235921539366e-12 -2.7284841053187847e-12 -3.085531830038235e-12 -240591.48545064087 -798.6120883019929
5060.311151377741 -1.7053025658242404e-13 4.092726157978177e-12 2.9674041002181184e-12 -197932.4948957195 56813.78919266816 5043.848019740811 6.217248937900877e-15
3.637978807091713e-12 -7.4433792462969e-12 -77397.29453835507 -25409.216645387733 2513.6924440519456 -7.682743330406083e-13 -9.094947017729282e-13 -7.140177338271769e-12
-153830.99505983587 761.2006306988412 4866.743176361896 2.708944180085382e-14 9.094947017729282e-13 -1.588507103633674e-11 -117017.32210502075 12979.587914445287
15113.19492247679 -9.539036227579345e-13 2.7284841053187847e-12 6.6768812700956914e-12 -154278.19555216376 -1177.1964482447993 4883.206307998822 -2.2737367544323206e-13
1.8189894035458565e-12 4.6135539832903305e-11 -79973.21913842973 -519.3339651061635 25376.109800228645 1.1368683772161603e-13 4.547473508864641e-13 -3.3075764349632664e-12
-155697.75141688035 -8.505133455815951 5060.311151377739 -8.881784197001252e-15 -9.094947017729282e-13 -1.7422507880837657e-11 -118206.44795796118 -12884.754900340886
15306.762897492668 5.258016244624741e-13 -1.8189894035458565e-12 -3.8902214782865485e-12 -191964.0668102768 -45989.842205336405 5060.3111513777385 -1.1013412404281553e-13
-1.4551915228366852e-11 9.86233317235019e-12 -137006.25611517183 -10755.738196201726 15306.762897492612 5.684341886080801e-13 1.8189894035458565e-12 1.4864554032101296e-11
-59152.99972897377 -36589.45579259122 12776.607321803773 3.694822225952521e-13 9.094947017729282e-13 2.120970066243899e-12 -193616.80217322696 44362.90172190763
5060.311151377733 -1.1901590823981678e-13 0.0 2.2453150450019166e-11 -59152.99972897451 36589.45579259124 12776.607321803782 -2.842170943040401e-14
0.0 1.1368683772161603e-13 -59152.999728974304 36589.45579259122 12776.607321803775 -1.1368683772161603e-13 0.0 -2.842170943040401e-14
-79505.99174914733 27460.658079818328 2530.1555756888683 6.750155989720952e-14 3.637978807091713e-12 -5.474731779031572e-12 -111036.56373451589 -70417.46826118979
-4032.4142935648215 2.113864638886298e-13 -3.637978807091713e-12 -1.7109869077103212e-11 -111036.56373451627 -70417.46826118979 -4032.414293564837 -4.462208380573429e-12
1.4551915228366852e-11 -2.148681232938543e-11 -111036.5637345157 -70417.46826118982 -4032.414293564825 -4.320099833421409e-12 0.0 1.0658141036401503e-11
-228116.49499749733 -9787.69897221365 -8064.828587129614 2.842170943040401e-14 2.9103830456733704e-11 -5.684341886080802e-14 -165881.4677183859 31745.17645210092
