python-Linux/neural-sparse-linear-solvers-master/stand_small_test/1809348080520423090_b8ec5c543a50a7c35d0cc76e757fea50c21776bb_9e8c31b40e89ebc68f5d8a1d900b00423d26cf5a.npz (npz, 65476 bytes, 3 tensors)

A_values f8 [15804]
797390240.0619099 -27488900.93671857 -7899680.75647001 -3121992.6464896277 -7899680.75647001 -778510881.9513024 838589996.7194431 16422289.397067351
7016475.412349386 -826564570.0353607 -2611735.813617571 7016475.412349386 1208573291.5160031 13330964.551428147 -11850545.218890239 -5268462.6864301525
13330964.551428147 -4411116.912715967 -11850545.218890239 16422289.397067351 13330964.551428147 90744106.84720188 -13330964.551428147 22277588.725189872
-7138698.996390857 -27488900.93671857 -11850545.218890239 114772790.44474325 -7579336.144633062 11850545.218890239 21048422.10538382 -7899680.75647001
7016475.412349386 62913000.02777509 7899680.75647001 13252605.17510829 -7016475.412349386 12505291.831086237 -3121992.6464896277 7899680.75647001
813026610.0780438 -8483823.05072878 -5124033.423429856 -9003913.498465523 19005077.88598979 -6632456.517668369 -13023714.179899866 -778510881.9513024
-826564570.0353607 1909051786.6297472 5123595.317803649 7016475.412349386 -5352909.61424106 -11298694.079263702 -1065108880.296063 -2611735.813617571
7016475.412349386 -5268462.6864301525 -13330964.551428147 2210579851.600686 8539706.392690204 -11850545.218890239 -990868702.4777515 -11137857.606931394
21870670.94411835 -4411116.912715967 -11850545.218890239 13330964.551428147 22277588.725189872 5123595.317803649 8539706.392690204 180373970.6588331
11298694.079263702 15773563.93405463 -21870670.94411835 28186145.375755988 -7138698.996390857 -7579336.144633062 -8483823.05072878 -11850545.218890239
178385661.498029 -19005077.88598979 26384062.220874768 -9766712.156622248 11850545.218890239 21048422.10538382 -7899680.75647001 13252605.17510829
-5124033.423429856 7016475.412349386 106253026.56969862 -9085953.165103605 13023714.179899866 16893531.010145128 -7016475.412349386 12505291.831086237
-9003913.498465523 -19005077.88598979 794147251.9674363 -19005077.88598979 -13023714.179899866 -6632456.517668369 -13023714.179899866 -778510881.9513024
-5352909.61424106 11298694.079263702 1073073525.7239215 11298694.079263702 7016475.412349386 -1065108880.296063 -2611735.813617571 7016475.412349386
-990868702.4777515 1006417676.9973989 21870670.94411835 -11850545.218890239 -11137857.606931394 21870670.94411835 -4411116.912715967 -11850545.218890239
-11298694.079263702 15773563.93405463 11298694.079263702 21870670.94411835 96768562.80802205 -21870670.94411835 28186145.375755988 -7138698.996390857
19005077.88598979 26384062.220874768 -19005077.88598979 -11850545.218890239 106237856.2793321 -9766712.156622248 11850545.218890239 21048422.10538382
-9085953.165103605 -13023714.179899866 7016475.412349386 68534510.43502334 13023714.179899866 16893531.010145128 -7016475.412349386 12505291.831086237
-6632456.517668369 13023714.179899866 815560671.5325139 -8483823.05072878 1304669.6869565286 -9003913.498465523 19005077.88598979 -5656054.100959682
-11719044.492943337 -778510881.9513024 -1065108880.296063 2091916274.8198886 5123595.317803649 7016475.412349386 -5352909.61424106 -11298694.079263702
-1009429058.2255023 -2611735.813617571 7016475.412349386 -11137857.606931394 -21870670.94411835 2214821395.6919374 -2166440.6509644426 -11850545.218890239
-990868702.4777515 -9510006.777681923 19704230.293153908 -4411116.912715967 -11850545.218890239 21870670.94411835 28186145.375755988 5123595.317803649
-2166440.6509644426 190002374.06388277 11298694.079263702 15773563.93405463 -19704230.293153908 26837871.358346414 -7138698.996390857 -9766712.156622248
-8483823.05072878 -11850545.218890239 180062471.1208393 -19005077.88598979 26384062.220874768 -9256145.76744338 11850545.218890239 21048422.10538382
-13023714.179899866 16893531.010145128 1304669.6869565286 7016475.412349386 112035726.4609072 -9085953.165103605 11719044.492943337 16054739.648720492
-7016475.412349386 12505291.831086237 -6632456.517668369 13023714.179899866 -9003913.498465523 -19005077.88598979 794147251.9674363 -19005077.88598979
13023714.179899866 -778510881.9513024 -1065108880.296063 -5352909.61424106 11298694.079263702 1073073525.7239215 11298694.079263702 7016475.412349386
-2611735.813617571 7016475.412349386 -11137857.606931394 -21870670.94411835 -990868702.4777515 1006417676.9973989 -21870670.94411835 -11850545.218890239
-4411116.912715967 -11850545.218890239 21870670.94411835 28186145.375755988 -11298694.079263702 15773563.93405463 11298694.079263702 -21870670.94411835
96768562.80802205 -7138698.996390857 -9766712.156622248 19005077.88598979 26384062.220874768 -19005077.88598979 -11850545.218890239 106237856.2793321
11850545.218890239 21048422.10538382 -13023714.179899866 16893531.010145128 -9085953.165103605 13023714.179899866 7016475.412349386 68534510.43502335
-7016475.412349386 12505291.831086237 -5656054.100959682 11719044.492943337 801855710.2162306 -27488900.93671857 5977808.091726326 -1931408.6998506263
00000000: aaec 07d0 9ac3 c741 9ccc fc4e 2837 7ac1
00000010: 3001 6a30 8822 5ec1 102c c052 a4d1 47c1
00000020: 3001 6a30 8822 5ec1 47c4 f910 9133 c7c1
00000030: b616 5c16 effd c841 97c6 b42c b252 6f41
00000040: aeee 63da 06c4 5a41 b386 04ed 2fa2 c8c1
00000050: dd9e 24e8 0bed 43c1 aeee 63da 06c4 5a41
00000060: 3206 e15a 5702 d241 a44c a591 426d 6941
00000070: 1a26 0127 669a 66c1 bc78 eeab fb18 54c1
00000080: a44c a591 426d 6941 3bf0 693a bbd3 50c1
00000090: 1a26 0127 669a 66c1 97c6 b42c b252 6f41
000000a0: a44c a591 426d 6941 e488 63ab 94a2 9541
000000b0: a44c a591 426d 69c1 b260 9a4b dd3e 7541
000000c0: 28de c4bf 623b 5bc1 9ccc fc4e 2837 7ac1
000000d0: 1a26 0127 669a 66c1 c66a c7d9 2c5d 9b41
000000e0: 08ab 4109 b2e9 5cc1 1a26 0127 669a 6641
000000f0: f2a6 af61 c612 7441 3001 6a30 8822 5ec1
00000100: aeee 63da 06c4 5a41 25e2 3840 cfff 8d41
00000110: 3001 6a30 8822 5e41 b37c 9aa5 ff46 6941
00000120: aeee 63da 06c4 5ac1 2a42 987a 19da 6741
00000130: 102c c052 a4d1 47c1 3001 6a30 8822 5e41
00000140: 57fd 0999 e63a c841 f691 9fe1 7d2e 60c1
00000150: 8a79 195b f08b 53c1 f86d f32f 712c 61c1
00000160: a103 2d5e e91f 7241 837a 2121 024d 59c1
00000170: 5dbd c145 3cd7 68c1 47c4 f910 9133 c7c1
00000180: b386 04ed 2fa2 c8c1 c74d a862 7472 dc41
00000190: 1ee5 56d4 828b 5341 aeee 63da 06c4 5a41
000001a0: bcb9 4f67 736b 54c1 0854 89c2 f08c 65c1
000001b0: 64e5 25c8 22be cfc1 dd9e 24e8 0bed 43c1
000001c0: aeee 63da 06c4 5a41 bc78 eeab fb18 54c1
000001d0: a44c a591 426d 69c1 d238 73b1 5878 e041
000001e0: 0ceb 904c c749 6041 1a26 0127 669a 66c1
000001f0: f626 3d6f ba87 cdc1 63fb 6b33 683e 65c1
00000200: d81b 1bef 84db 7441 3bf0 693a bbd3 50c1
00000210: 1a26 0127 669a 66c1 a44c a591 426d 6941
00000220: b260 9a4b dd3e 7541 1ee5 56d4 828b 5341
00000230: 0ceb 904c c749 6041 9252 51a5 9380 a541
00000240: 0854 89c2 f08c 6541 89c6 e37d ef15 6e41
00000250: d81b 1bef 84db 74c1 b618 0316 62e1 7a41
00000260: 28de c4bf 623b 5bc1 08ab 4109 b2e9 5cc1
00000270: f691 9fe1 7d2e 60c1 1a26 0127 669a 66c1
00000280: a8fd fefa e543 a541 a103 2d5e e91f 72c1
00000290: fbb3 88e3 6b29 7941 a90c 0305 e7a0 62c1
000002a0: 1a26 0127 669a 6641 f2a6 af61 c612 7441
000002b0: 3001 6a30 8822 5ec1 b37c 9aa5 ff46 6941
000002c0: 8a79 195b f08b 53c1 aeee 63da 06c4 5a41
000002d0: 135f 478a 2b55 9941 5b87 4825 8054 61c1
000002e0: 5dbd c145 3cd7 6841 f08d 29b0 651c 7041
000002f0: aeee 63da 06c4 5ac1 2a42 987a 19da 6741
00000300: f86d f32f 712c 61c1 a103 2d5e e91f 72c1
00000310: f4d4 fbd9 dcaa c741 a103 2d5e e91f 72c1
00000320: 5dbd c145 3cd7 68c1 837a 2121 024d 59c1
00000330: 5dbd c145 3cd7 68c1 47c4 f910 9133 c7c1
00000340: bcb9 4f67 736b 54c1 0854 89c2 f08c 6541
00000350: 76a9 dcba e6fa cf41 0854 89c2 f08c 6541
00000360: aeee 63da 06c4 5a41 64e5 25c8 22be cfc1
00000370: dd9e 24e8 0bed 43c1 aeee 63da 06c4 5a41
00000380: f626 3d6f ba87 cdc1 c4aa 7f86 5bfe cd41
00000390: d81b 1bef 84db 7441 1a26 0127 669a 66c1
000003a0: 63fb 6b33 683e 65c1 d81b 1bef 84db 7441
000003b0: 3bf0 693a bbd3 50c1 1a26 0127 669a 66c1
000003c0: 0854 89c2 f08c 65c1 89c6 e37d ef15 6e41
000003d0: 0854 89c2 f08c 6541 d81b 1bef 84db 7441
000003e0: 226a 3bcb 4812 9741 d81b 1bef 84db 74c1
000003f0: b618 0316 62e1 7a41 28de c4bf 623b 5bc1
00000400: a103 2d5e e91f 7241 fbb3 88e3 6b29 7941
00000410: a103 2d5e e91f 72c1 1a26 0127 669a 66c1
00000420: 3c09 1e81 3e54 9941 a90c 0305 e7a0 62c1
00000430: 1a26 0127 669a 6641 f2a6 af61 c612 7441
00000440: 5b87 4825 8054 61c1 5dbd c145 3cd7 68c1
00000450: aeee 63da 06c4 5a41 c276 bdb9 0357 9041
00000460: 5dbd c145 3cd7 6841 f08d 29b0 651c 7041
00000470: aeee 63da 06c4 5ac1 2a42 987a 19da 6741
00000480: 837a 2121 024d 59c1 5dbd c145 3cd7 6841
00000490: 6a29 c4ef 3b4e c841 f691 9fe1 7d2e 60c1
000004a0: 1062 dcaf 5de8 3341 f86d f32f 712c 61c1
000004b0: a103 2d5e e91f 7241 991f 7686 7d93 55c1
000004c0: 1b31 c68f 305a 66c1 47c4 f910 9133 c7c1
000004d0: 64e5 25c8 22be cfc1 0e79 b4fc 062c df41
000004e0: 1ee5 56d4 828b 5341 aeee 63da 06c4 5a41
000004f0: bcb9 4f67 736b 54c1 0854 89c2 f08c 65c1
00000500: 42dd 1c21 5515 cec1 dd9e 24e8 0bed 43c1
00000510: aeee 63da 06c4 5a41 63fb 6b33 683e 65c1
00000520: d81b 1bef 84db 74c1 5a24 76c2 6f80 e041
00000530: 88cd 5253 5487 40c1 1a26 0127 669a 66c1
00000540: f626 3d6f ba87 cdc1 33c5 e2d8 8e23 62c1
00000550: 27c2 b064 9aca 7241 3bf0 693a bbd3 50c1
00000560: 1a26 0127 669a 66c1 d81b 1bef 84db 7441
00000570: b618 0316 62e1 7a41 1ee5 56d4 828b 5341
00000580: 88cd 5253 5487 40c1 3eb5 208c 69a6 a641
00000590: 0854 89c2 f08c 6541 89c6 e37d ef15 6e41
000005a0: 27c2 b064 9aca 72c1 73c9 bbf5 3698 7941
000005b0: 28de c4bf 623b 5bc1 a90c 0305 e7a0 62c1
000005c0: f691 9fe1 7d2e 60c1 1a26 0127 669a 66c1
000005d0: a6de 3d0e 1277 a541 a103 2d5e e91f 72c1
000005e0: fbb3 88e3 6b29 7941 6be5 8e38 9aa7 61c1
000005f0: 1a26 0127 669a 6641 f2a6 af61 c612 7441
00000600: 5dbd c145 3cd7 68c1 f08d 29b0 651c 7041
00000610: 1062 dcaf 5de8 3341 aeee 63da 06c4 5a41
00000620: 0ff8 d739 1eb6 9a41 5b87 4825 8054 61c1
00000630: 1b31 c68f 305a 6641 7a51 c274 3a9f 6e41
00000640: aeee 63da 06c4 5ac1 2a42 987a 19da 6741
00000650: 837a 2121 024d 59c1 5dbd c145 3cd7 6841
00000660: f86d f32f 712c 61c1 a103 2d5e e91f 72c1
00000670: f4d4 fbd9 dcaa c741 a103 2d5e e91f 72c1
00000680: 5dbd c145 3cd7 6841 47c4 f910 9133 c7c1
00000690: 64e5 25c8 22be cfc1 bcb9 4f67 736b 54c1
000006a0: 0854 89c2 f08c 6541 76a9 dcba e6fa cf41
000006b0: 0854 89c2 f08c 6541 aeee 63da 06c4 5a41
000006c0: dd9e 24e8 0bed 43c1 aeee 63da 06c4 5a41
000006d0: 63fb 6b33 683e 65c1 d81b 1bef 84db 74c1
000006e0: f626 3d6f ba87 cdc1 c4aa 7f86 5bfe cd41
000006f0: d81b 1bef 84db 74c1 1a26 0127 669a 66c1
00000700: 3bf0 693a bbd3 50c1 1a26 0127 669a 66c1
00000710: d81b 1bef 84db 7441 b618 0316 62e1 7a41
00000720: 0854 89c2 f08c 65c1 89c6 e37d ef15 6e41
00000730: 0854 89c2 f08c 6541 d81b 1bef 84db 74c1
00000740: 226a 3bcb 4812 9741 28de c4bf 623b 5bc1
00000750: a90c 0305 e7a0 62c1 a103 2d5e e91f 7241
00000760: fbb3 88e3 6b29 7941 a103 2d5e e91f 72c1
00000770: 1a26 0127 669a 66c1 3c09 1e81 3e54 9941
00000780: 1a26 0127 669a 6641 f2a6 af61 c612 7441
00000790: 5dbd c145 3cd7 68c1 f08d 29b0 651c 7041
000007a0: 5b87 4825 8054 61c1 5dbd c145 3cd7 6841
000007b0: aeee 63da 06c4 5a41 c376 bdb9 0357 9041
000007c0: aeee 63da 06c4 5ac1 2a42 987a 19da 6741
000007d0: 991f 7686 7d93 55c1 1b31 c68f 305a 6641
000007e0: 72ad 1b6f ace5 c741 9ccc fc4e 2837 7ac1
000007f0: 19d8 de05 b4cd 5641 2069 29b3 9078 3dc1

x f8 [1488]
3.9570463324251275e-05 5.5629799933857854e-05 -5.850234632332869e-05 -0.00046170293723968807 0.0003669612340243965 1.4088285079958746e-06 -9.70183652003769e-06 4.7212246432077714e-05
-0.00015839460141649935 0.00016666641407935196 0.00035933609422922797 2.898044872994888e-06 1.9713575513510006e-05 -7.50064970959303e-05 -0.00021328231690188957 -0.0003090746339888096
0.00019531720636054242 8.939725341794059e-06 -5.700413963780859e-06 4.5892473808688925e-05 -0.00013292813242732696 -2.6468066624326456e-05 0.000323528172114402 -8.605572565005851e-06
2.8725239752726648e-05 -7.73519521854184e-05 -0.00018747345223392662 0.00032482577267917644 0.0001995133940570482 5.199026113230513e-06 7.452308001708335e-05 4.179728200698928e-05
-0.00012328239368802806 -0.00021436558427016377 0.000643766509625264 -1.1697678505155757e-05 0.00010067636919032314 3.140399308575422e-05 -0.00014609400317042986 3.729271444181465e-05
0.0007750592911419315 -1.6009124560129862e-07 7.856291181873994e-05 2.2339239412834878e-05 -0.0001474579096355683 -6.01432769612909e-05 0.0007616009750025713 1.6049500503977825e-06
4.2390034276741444e-05 1.2180273919204419e-05 -0.00010031940789488074 0.0003016862895892308 0.0004617737944887149 1.2452183776661424e-05 -1.6182238862306675e-05 1.079024620758163e-05
-0.00016192154432818537 -0.00021313903736199535 0.00025783959385508414 7.828897363160723e-06 5.485672135194262e-05 -0.00010262144539594358 -0.0002456073739609708 -0.0006775108627016079
0.0003918162332606288 1.9399339732241255e-08 1.339364313431973e-05 1.8048964434936762e-05 -0.00013749736149568095 0.0003434348694455186 0.00020200766188887772 -4.038654113461244e-06
0.00017532065794109104 -0.00011733601984176388 -0.0002206937447891665 0.0007081666667693731 0.0004204750676327219 -4.601030319543888e-06 2.7568023613856473e-05 1.3283725595842035e-05
-0.00019088024537535544 -0.0005559247965670868 -0.0001388710788329033 -2.7928195048325184e-06 -5.8145975054175706e-05 3.863407519299864e-05 -0.0002904736118038151 -0.00018800496916127833
8.329817894562815e-05 -8.596826361320577e-06 -5.7161628549970844e-05 0.0004942600547910714 -0.00034193258792591133 -0.0005754138749733865 0.0001429023094598192 3.4948965536150983e-06
-9.478673568546301e-06 1.2367796971652246e-05 -0.0004015737905448253 0.00022524066252138373 -0.00016879034656040804 -5.881847372313769e-07 6.200233407592612e-06 3.5539960628447577e-05
-0.0006500530042007207 -0.00011431802242638186 1.0654915113923715e-05 -1.2712174661360738e-06 -4.04279791735721e-05 0.0004872998539261625 -0.0007509983382432078 0.00020173959491462227
0.00027277219134474946 -1.4415157631030055e-05 -5.2076590696831005e-06 1.3919949417565674e-05 -0.00034250147473148215 -2.297695498308568e-05 -0.00014011990869517834 -5.3078214822180475e-06
1.666815515302189e-05 3.187133748847156e-05 -0.0005640986625790559 0.00015315968005088866 3.0745293789722117e-06 5.0755409786378905e-06 0.0001296584438228945 0.0004842533127989132
-0.0006528033673726461 -0.00012018832151890145 0.00029455943734127676 -2.501639824821189e-05 5.3600100658432044e-05 1.3725202153142385e-05 -0.0003408627221840804 -0.0003000020726436467
-0.00024277550731641263 -6.1571753584612635e-06 -2.972600728973341e-05 2.7523179179112313e-05 -0.00048538286301832973 -0.00022008481939287173 0.0001906649026873458 -2.145639643794215e-06
0.0002943362703629595 0.00048248947287048616 -0.0005297701387961231 0.00024217084952339666 0.00018841344097476068 -1.2478869921694767e-05 7.536852365647804e-05 1.4835755322519192e-05
-0.0003626504353459376 3.7360020785888786e-05 -0.00031375531212463786 -9.833658531071237e-07 3.264238290680639e-05 9.826067296930143e-06 -0.0004840598089241883 3.745499787488767e-05
0.00031405362079341484 3.4042275773169376e-07 5.3202964979584666e-05 1.5843229771104928e-05 -0.00036671279344190863 -6.037440413925272e-05 -0.000315497882292909 1.3528207986088454e-06
-8.080500055063304e-05 -6.513997579236833e-06 -0.0004902527804559138 -3.0195524888223477e-05 0.0003286629251629176 3.737145748584223e-06 2.7485060139858854e-05 1.7296737138917416e-05
-0.00028032226840639596 0.0004400945654447599 -0.00015234463499917589 4.410463983762257e-06 -4.323546715015752e-05 -2.4271482467936444e-05 -0.00039756740764426674 0.0002572403507869574
0.00017551683091082047 -1.2027544747331923e-05 5.963783156058077e-05 -0.0006038608739637452 -0.00042560037268170125 -5.142053291967925e-05 0.0001189169906976261 3.727481193650547e-05
-1.1221417943116542e-05 1.7837479187762748e-05 -0.0003967244446886788 -0.00042656045679796505 -0.0001081312348503312 2.855730044598948e-06 3.9504917258433576e-05 -2.7451595754162527e-05
-0.0006693749640388897 -0.0004677819719497836 -9.482798647050524e-05 -9.444378023506434e-06 -8.051762673491868e-05 -0.0006042334820417461 -0.0007653279493661816 -0.00023714573137562618
0.0001879241221213122 3.392935658182184e-05 1.997271896711726e-05 2.3572278271830682e-05 -0.00028645775374230647 0.0006451314776988687 -9.479164849229497e-05 -4.609754617733993e-07
0.0001623112825374728 -3.401152678212448e-05 -0.0004890028299791312 0.0007155372457679194 -0.00018020792100226097 3.648743388924426e-06 -0.00024580551327572307 -0.0006180443841221567
-0.0005480434040306681 0.0005552324902755698 9.664104589198e-05 2.466443010690261e-05 2.2919752775576813e-05 4.053564845603069e-07 -0.00027236607917221106 -0.0005153687855553612
4.867169999620405e-05 1.268795278730775e-06 -5.454088799126483e-05 2.5532898908224842e-05 -0.000494775901256775 -0.00042612150340378665 3.2137850088640825e-05 9.063486358076993e-07
-6.0593105626125224e-05 0.0005275769292127558 -0.0006105748089598925 -0.0009371931561012742 4.45343501485767e-05 1.2270840690269336e-05 -8.214286880587689e-06 2.7767894309949213e-06
-0.00047385435989171913 0.00021725907042992226 6.83832093543277e-05 8.918091648267795e-07 4.3239893120461944e-06 2.6711303748290425e-05 -0.0008428336604398414 0.00011132579834458438
00000000: ebfc 54c4 0ebf 043f a368 065f 812a 0d3f
00000010: 7a05 4750 0dac 0ebf 5dc8 1204 1742 3ebf
00000020: 08bb c07f 960c 383f f839 7a53 dfa2 b73e
00000030: 05e7 1042 a258 e4be 246a 676f b8c0 083f
00000040: 089b 1144 d7c2 24bf 48de 7a98 65d8 253f
00000050: 5478 e2c5 a88c 373f 66fb 9004 814f c83e
00000060: a7c8 0898 d2ab f43e 44e6 dcce 99a9 13bf
00000070: 1c82 dd26 91f4 2bbf ceda eb71 6941 34bf
00000080: 530c ff06 c299 293f 5532 cc7e 7abf e23e
00000090: 6f90 ecdb c5e8 d7be faf5 a364 950f 083f
000000a0: 8058 86f6 536c 21bf ba88 4ab0 f7c0 fbbe
000000b0: 7524 27eb e633 353f e623 2ae3 140c e2be
000000c0: 0582 e671 df1e fe3e 5ea8 6f6b 0047 14bf
000000d0: 51d2 42b1 9092 28bf 5ce4 0f12 ac49 353f
000000e0: d957 5301 8f26 2a3f 0bf0 886a 69ce d53e
000000f0: 0cdc 10c4 2889 133f 63e3 9bac efe9 053f
00000100: df57 b8b2 ab28 20bf 6205 0059 ea18 2cbf
00000110: 8def 730d 4e18 453f b2d6 19b1 2488 e8be
00000120: 71a3 44da 4664 1a3f 6379 73fc f876 003f
00000130: 2fed 77ee 1926 23bf 38e5 47e9 578d 033f
00000140: bfc6 6927 ab65 493f 4984 047d b17c 85be
00000150: 2c01 3a8c 4498 143f 2a62 d7d7 a46c f73e
00000160: 7cf2 80cc dd53 23bf e9da cf42 4b88 0fbf
00000170: b1d4 dea3 c5f4 483f 24b7 0e3e 35ed ba3e
00000180: 487a b67c 7e39 063f 6499 b719 3c8b e93e
00000190: 7a5a e34d 524c 1abf 8f0d 58bf 74c5 333f
000001a0: 624d 7158 4743 3e3f eb0a 511b 371d ea3e
000001b0: 014e aefc e2f7 f0be ad66 7f25 f8a0 e63e
000001c0: 7875 8d79 2f39 25bf d532 d363 c2ef 2bbf
000001d0: df71 8b9f d4e5 303f ade7 de75 1b6b e03e
000001e0: 1eb0 e797 bec2 0c3f 2a59 e301 cfe6 1abf
000001f0: 30a1 89a3 9b18 30bf 6613 be7f 5f33 46bf
00000200: 78e4 6be8 95ad 393f 60e6 c12c 73d4 543e
00000210: 23b6 a94b a816 ec3e c39a 3f64 fbec f23e
00000220: 018c 8157 a505 22bf f6cd 5688 e181 363f
00000230: 8417 4b9a 407a 2a3f 7ad9 21ca 78f0 d0be
00000240: 21bb fdfb c8fa 263f 5120 b178 49c2 1ebf
00000250: ab6f 25d5 40ed 2cbf 0a16 4256 8834 473f
00000260: f854 0daa 668e 3b3f 0c79 8295 514c d3be
00000270: 7eb4 4a28 3ce8 fc3e 5e0d 1758 a5db eb3e
00000280: de1a 9bd2 e004 29bf 684c ff68 6f37 42bf
00000290: de8c e07b bd33 22bf da36 8ac2 886d c7be
000002a0: 398a 717d 387c 0ebf 077f 39b7 6041 043f
000002b0: fb89 bda9 5609 33bf 1c51 5863 66a4 28bf
000002c0: ff0a 4bd1 0bd6 153f 0dd3 7ad1 6207 e2be
000002d0: 0bc5 069a 1af8 0dbf 85a9 b162 2732 403f
000002e0: 6b0f 5748 ad68 36bf a78f 28e3 ebda 42bf
000002f0: 0034 c67d 01bb 223f a079 04b3 3b51 cd3e
00000300: 1b8b bef9 d2e0 e3be a0da 9112 e9ef e93e
00000310: ed36 1d4c 4a51 3abf 99ff fa8e d285 2d3f
00000320: 1926 6609 aa1f 26bf a072 6dea 77bc a3be
00000330: 402d 802e 7301 da3e f184 b1bf 17a2 023f
00000340: 7f0b 6532 0a4d 45bf dd4b b0ab c0f7 1dbf
00000350: 5476 f161 5058 e63e b1c1 ac62 d653 b5be
00000360: 82b8 82c9 2632 05bf 00f9 9aef 88ef 3f3f
00000370: c75f aba6 d49b 48bf c46b c8ec 4171 2a3f
00000380: f513 1ea4 5be0 313f 1630 cf2d 143b eebe
00000390: 22ca d66c aed7 d5be 0aee c347 3731 ed3e
000003a0: c668 ffa1 3872 36bf efee cb52 d417 f8be
000003b0: 6159 c9d9 a45d 22bf 81dd 05dc 3a43 d6be
000003c0: 5e1a 78e6 527a f13e 9f70 4ad1 b2b5 003f
000003d0: daf9 5ba7 007c 42bf bbab 3ea2 2f13 243f
000003e0: c7d4 ab66 80ca c93e 9f63 b014 d249 d53e
000003f0: 3cc7 3e8d 9dfe 203f d221 3624 6cbc 3f3f
00000400: 3bed 898e 1c64 45bf d6b3 21a4 b381 1fbf
00000410: 318a 6d26 e34d 333f 8bcc 24cc 493b fabe
00000420: f62a 646f 151a 0c3f 1cf4 8c6b a9c8 ec3e
00000430: 7a4b 843e ba56 36bf dc84 3a17 33a9 33bf
00000440: 219c 77ba 31d2 2fbf 7315 a879 37d3 d9be
00000450: 8b41 99aa 832b ffbe 031a a778 32dc fc3e
00000460: fdd5 cf85 5fcf 3fbf 7bf4 0934 d2d8 2cbf
00000470: 99eb 060b a7fd 283f 9b1a 62de b9ff c1be
00000480: ef83 bda7 244a 333f 565b b381 d49e 3f3f
00000490: e3d1 d3b5 085c 41bf 1a32 ebc1 e7bd 2f3f
000004a0: ceb0 5c22 1bb2 283f eab2 92d2 8a2b eabe
000004b0: dab1 8360 e5c1 133f bb83 7caf e21c ef3e
000004c0: 671b 7bc2 43c4 37bf fdf0 248a 6096 033f
000004d0: 8620 f5cd f08f 34bf 2cf4 9930 867f b0be
000004e0: 06ca 83bc 2f1d 013f abf1 f167 549b e43e
000004f0: 2080 730c 2db9 3fbf e040 74ed 1fa3 033f
00000500: 40b9 ce07 f294 343f f09b 371f 6bd8 963e
00000510: 1288 04f5 c7e4 0b3f 497e ad75 e29c f03e
00000520: 938f 7174 6b08 38bf 8c20 f8ba 50a7 0fbf
00000530: 69a8 1e16 2dad 34bf be38 c832 52b2 b63e
00000540: 3c60 c056 bb2e 15bf 5b2c 3a05 5a52 dbbe
00000550: d394 54d4 8910 40bf 1bdc 8aab 8ca9 ffbe
00000560: 68e3 d583 0c8a 353f 6e06 469a 7559 cf3e
00000570: bf1f 6cf3 f6d1 fc3e cc8d b5b9 0e23 f23e
00000580: 272b a3f9 065f 32bf d10c 07c4 8fd7 3c3f
00000590: d9c5 3873 d6f7 23bf f535 c71b b37f d23e
000005a0: c251 e956 f7aa 06bf fe53 2693 5373 f9be
000005b0: fb95 8703 130e 3abf c1cc d2e4 c6db 303f
000005c0: 16e7 e918 5e01 273f 3388 b429 3d39 e9be
000005d0: 3eb5 0c4a 7444 0f3f f6b5 3d5a 8dc9 43bf
000005e0: dda0 8cae 63e4 3bbf 4121 d00e 8cf5 0abf
000005f0: 6176 0c58 622c 1f3f 93c6 2dc9 f08a 033f
00000600: 6360 46f0 7388 e7be bf3c 6f3c 36b4 f23e
00000610: 364b f583 eeff 39bf dde4 3236 7ff4 3bbf
00000620: 0bc4 2c78 9058 1cbf fbcf e531 a2f4 c73e
00000630: 1e31 0a9f 42b6 043f fe2b b94b fbc8 fcbe
00000640: 76c5 26ca 1fef 45bf e63a 6c45 14a8 3ebf
00000650: 2837 0d67 ccdb 18bf c1d1 866e 69ce e3be
00000660: bc08 584b 721b 15bf e1bf b285 adcc 43bf
00000670: 17ee b141 0914 49bf c3f8 3f52 4a15 2fbf
00000680: 04ef d2ea afa1 283f 2268 add0 ebc9 013f
00000690: 8be2 e1cb 62f1 f43e 514a d9a0 a2b7 f83e
000006a0: da33 1baf f6c5 32bf d24c 964c c123 453f
000006b0: 05ef ee1e 5cd9 18bf e9a7 7785 7fef 9ebe
000006c0: 4639 f04c 4346 253f 8423 6729 f3d4 01bf
000006d0: 11e9 c994 0d06 40bf e710 ea88 5c72 473f
000006e0: d15f 1e41 c69e 27bf 48d8 35e4 9d9b ce3e
000006f0: 8fa2 04a4 ee1b 30bf c877 6935 8840 44bf
00000700: 00fb a03f 52f5 41bf 64a8 96b1 a031 423f
00000710: 3bf4 b686 7855 193f 93c0 1ebb cedc f93e
00000720: fa82 eb6a 7908 f83e 515a 34ac f833 9b3e
00000730: 53c5 0f67 8bd9 31bf 14cc 270a 3ae3 40bf
00000740: 5232 b7e0 9a84 093f 9505 8829 6f49 b53e
00000750: 48f5 48a4 5a98 0cbf 1bc5 d873 efc5 fa3e
00000760: 4e9f 4928 7b36 40bf 967d d6eb 21ed 3bbf
00000770: 89d8 e91e 78d9 003f d4b8 4fba 7969 ae3e
00000780: f384 9741 abc4 0fbf b39e 1bd4 a249 413f
00000790: ab0c 0a6b df01 44bf 057f 4dfa beb5 4ebf
000007a0: 9b28 979e 4c59 073f 7d70 b080 dbbb e93e
000007b0: e20e 0dfe 023a e1be 71b8 3522 1c4b c73e
000007c0: b3c3 92fa f40d 3fbf dde1 5a34 017a 2c3f
000007d0: 20a3 5197 1eed 113f 85c8 cc17 95ec ad3e
000007e0: e5f0 b921 d922 d23e 8261 07d1 4202 fc3e
000007f0: 72a1 f780 339e 4bbf 2a59 01a7 f22e 1d3f

b f8 [1488]
-1.0913936421275139e-11 8.348877145181177e-13 -75663.99626112862 -31970.0862688369 33814.119856420475 -2.842170943040401e-14 2.7284841053187847e-12 -3.5704772471945034e-13
-130507.71854812288 12716.60049748752 56585.61330578486 2.2115642650533118e-13 9.094947017729282e-13 2.348343741687131e-12 -54843.7222869942 -19253.485771349388
22771.493449364367 -8.881784197001252e-14 -4.092726157978177e-12 1.0260237104375847e-11 -114188.25002454728 -2182.614236130129 48120.501629072074 2.984279490192421e-13
1.8189894035458565e-12 -1.3223200312495464e-11 -54843.72228699427 19253.48577134939 22771.493449364367 -7.105427357601002e-15 -7.275957614183426e-12 6.302514066192089e-12
-148402.12521229085 -26931.235447837134 61387.61590764164 2.4158453015843406e-13 -7.275957614183426e-12 7.815081914941402e-12 -178234.83072645107 -183.6753178190558
72077.21545586777 3.375077994860476e-14 -7.275957614183426e-12 -1.2020606732221495e-11 -178720.42247450486 -563.8247907381171 72077.21545586773 -3.907985046680551e-14
7.275957614183426e-12 -6.643574579356937e-13 -120574.77964758218 37843.878467376315 43673.4376755794 -1.0658141036401503e-13 -1.8189894035458565e-12 4.014566457044566e-12
-115367.74042255172 -30101.90494578795 43673.437675579386 6.181721801112872e-13 0.0 -1.0942358130705543e-11 -84336.14999776149 -41372.86204228546
36038.607727933864 -7.958078640513122e-13 -3.637978807091713e-12 7.722711359292589e-13 -84336.14999776144 41372.86204228547 36038.60772793387 -1.1191048088221578e-13
-4.3655745685100555e-11 2.0548895918182097e-11 -84336.14999776133 41372.86204228546 36038.60772793386 -2.842170943040401e-14 3.637978807091713e-12 -6.394884621840902e-13
-128074.53902612501 -59951.44156044722 -21905.215812305138 -4.263256414560601e-14 -7.275957614183426e-12 -9.967138225874805e-12 -52410.542764996375 -27981.35529161033
11908.904044115347 1.0658141036401503e-13 1.4551915228366852e-11 7.929656931082718e-11 -52410.54276499648 -27981.35529161032 11908.904044115341 6.536993168992922e-13
-9.094947017729282e-12 -2.851052727237402e-12 -223590.81465229308 26666.407814538336 -32767.80521755419 -2.1671553440683056e-13 3.637978807091713e-12 4.1531222905177856e-12
-147926.8183911644 -5303.67845429857 1046.3146388663067 2.2737367544323206e-13 -7.275957614183426e-12 -9.393374966748524e-11 -93083.09610417024 13949.80731705085
23817.808088230693 -1.9326762412674725e-12 -9.094947017729282e-13 -2.4158453015843406e-13 -197776.84327050112 -4506.052240273378 -24302.693540841425 2.2026824808563106e-13
0.0 1.0938805417026742e-11 -138432.31553294795 16930.047767206117 1046.3146388663008 4.618527782440651e-13 -5.820766091346741e-11 1.5501200323342346e-10
-83588.59324595415 -2323.4380041432582 23817.80808823068 -1.7053025658242404e-13 -2.1827872842550278e-11 1.8616219676914625e-12 -252888.60249369452 -52524.08677749924
-37569.80781941099 -3.552713678800501e-13 1.8189894035458565e-11 -3.296918293926865e-12 -104486.4772814034 -25592.851329662222 23817.80808823068 4.973799150320701e-13
0.0 -4.6355808080988936e-11 -42916.03990678023 16354.985978702767 11908.904044115332 -1.1652900866465643e-12 1.4551915228366852e-11 4.600764214046649e-12
-301458.41629793966 -322.0905684685136 -48259.407367637104 7.105427357601002e-15 -7.275957614183426e-12 1.9319656985317124e-11 -123223.58557148858 -138.41525064945426
23817.80808823067 1.7053025658242404e-13 3.637978807091713e-11 -7.982947636264726e-12 -302279.7244493207 -988.59253392291 -48259.40736763703 -1.6342482922482304e-13
1.4551915228366852e-11 3.197442310920451e-12 -123559.30197481572 -424.767743184793 23817.808088230686 0.0 1.4551915228366852e-11 2.9984903449076228e-12
-212731.6303872534 72562.66343267672 -22669.059460024422 8.526512829121202e-14 -1.4551915228366852e-11 -1.809041805245215e-11 -92156.8507396709 34718.784965300416
21004.37821555501 -5.684341886080802e-14 7.275957614183426e-12 1.440412233932875e-10 -30250.696961720587 -7792.235336898859 9095.474171439673 2.1600499167107046e-12
0.0 1.028865881380625e-11 -203924.67726826412 -58970.73996869069 -22669.059460024404 2.1316282072803006e-14 -1.4551915228366852e-11 1.887201506178826e-11
-172893.08684347378 -70241.69706518819 -15034.229512378864 -2.4442670110147446e-12 0.0 -7.537437340943143e-11 -88556.936845712 -28868.83502290276
21004.378215555 3.240074875066057e-12 7.275957614183426e-12 -1.4289014416135615e-11 -142642.38988175266 78033.9324020871 -24129.703683818538 -7.105427357601002e-15
5.820766091346741e-11 -4.391154106997419e-12 -142642.3898817529 78033.93240208713 -24129.703683818527 -2.1032064978498966e-12 -5.820766091346741e-11 -7.66249286243692e-11
-58306.23988399141 36661.07035980165 11908.904044115341 -3.581135388230905e-12 1.4551915228366852e-11 -1.1427525592466736e-12 -114189.61069973705 -57545.96777203796
7595.823107826533 -3.466671394392051e-14 5.820766091346741e-11 -7.123190925995004e-12 -114189.61069973737 -57545.96777203797 7595.823107826533 2.4868995751603507e-13
7.275957614183426e-12 1.5437251477123937e-10 -114189.6106997371 -57545.967772037955 7595.8231078265335 5.968558980384842e-13 5.4569682106375694e-12 3.2382985182266566e-12
-202488.328675238 27824.044679468858 12949.683758237294 -1.1124434706744069e-13 2.5579538487363607e-13 -1.2514433933574765e-11 -202488.32867523743 27824.044679468832
00000000: 0000 0000 0000 a8bd 0000 0000 0060 6d3d
00000010: 5b82 aff0 ff78 f2c0 4aba 6d85 8538 dfc0
00000020: c521 ddd5 c382 e040 0000 0000 0000 20bd
00000030: 0000 0000 0000 883d 0000 0000 0020 59bd
00000040: 0651 2c7f bbdc ffc0 1d07 1add 4cd6 c840
00000050: 0d74 33a0 33a1 eb40 0000 0000 0020 4f3d
00000060: 0000 0000 0000 703d 0000 0000 00a8 843d
00000070: 4d9d f91c 77c7 eac0 bdb6 e016 5fcd d2c0
00000080: 8ca4 ac94 df3c d640 0000 0000 0000 39bd
00000090: 0000 0000 0000 92bd 0000 0000 0090 a63d
000000a0: 5cbd 1900 c4e0 fbc0 da75 287d 3a0d a1c0
000000b0: 6969 580d 107f e740 0000 0000 0000 553d
000000c0: 0000 0000 0000 803d 0000 0000 0014 adbd
000000d0: 579d f91c 77c7 eac0 beb6 e016 5fcd d240
000000e0: 8ca4 ac94 df3c d640 0000 0000 0000 00bd
000000f0: 0000 0000 0000 a0bd 0000 0000 00b8 9b3d
00000100: 324d 6f00 911d 02c1 1ace 9311 cf4c dac0
00000110: 46f1 83b5 73f9 ed40 0000 0000 0000 513d
00000120: 0000 0000 0000 a0bd 0000 0000 802f a13d
00000130: dae8 53a5 d6c1 05c1 0668 1d34 9cf5 66c0
00000140: 1dda 8172 d398 f140 0000 0000 0000 233d
00000150: 0000 0000 0000 a0bd 0000 0000 006f aabd
00000160: 2e50 3a61 03d1 05c1 0ef2 e22b 999e 81c0
00000170: 1ada 8172 d398 f140 0000 0000 0000 26bd
00000180: 0000 0000 0000 a03d 0000 0000 0060 67bd
00000190: 3ebe 6f79 ec6f fdc0 7c9d 671c 7c7a e240
000001a0: 7937 7001 2e53 e540 0000 0000 0000 3ebd
000001b0: 0000 0000 0000 80bd 0000 0000 00a8 913d
000001c0: 4e51 c5d8 7b2a fcc0 f9bc a1ea 7965 ddc0
000001d0: 7737 7001 2e53 e540 0000 0000 00c0 653d
000001e0: 0000 0000 0000 0000 0000 0000 0010 a8bd
000001f0: 810d 6466 0297 f4c0 fab3 d995 9b33 e4c0
00000200: 1ada 8172 d398 e140 0000 0000 0000 6cbd
00000210: 0000 0000 0000 90bd 0000 0000 002c 6b3d
00000220: 7e0d 6466 0297 f4c0 fcb3 d995 9b33 e440
00000230: 1bda 8172 d398 e140 0000 0000 0080 3fbd
00000240: 0000 0000 0000 c8bd 0000 0000 0098 b63d
00000250: 760d 6466 0297 f4c0 fab3 d995 9b33 e440
00000260: 19da 8172 d398 e140 0000 0000 0000 20bd
00000270: 0000 0000 0000 903d 0000 0000 0080 66bd
00000280: aadb d99f a844 ffc0 0160 4321 ee45 edc0
00000290: 296a decf 4d64 d5c0 0000 0000 0000 28bd
000002a0: 0000 0000 0000 a0bd 0000 0000 00eb a5bd
000002b0: 9bb2 545e 5197 e9c0 ba05 19bd 5653 dbc0
000002c0: c7b2 b7b7 7342 c740 0000 0000 0000 3e3d
000002d0: 0000 0000 0000 b03d 0000 0000 00cc d53d
000002e0: a9b2 545e 5197 e9c0 b805 19bd 5653 dbc0
000002f0: c4b2 b7b7 7342 c740 0000 0000 0000 673d
00000300: 0000 0000 0000 a4bd 0000 0000 0014 89bd
00000310: e36b 6884 364b 0bc1 3f26 a219 9a0a da40
00000320: 5a35 af88 f3ff dfc0 0000 0000 0080 4ebd
00000330: 0000 0000 0000 903d 0000 0000 0044 923d
00000340: b3aa 108c b60e 02c1 3050 2eaf adb7 b4c0
00000350: 5ae3 b030 4259 9040 0000 0000 0000 503d
00000360: 0000 0000 0000 a0bd 0000 0000 00d2 d9bd
00000370: c386 a489 b1b9 f6c0 7445 2a56 e73e cb40
00000380: c7b2 b7b7 7342 d740 0000 0000 0000 81bd
00000390: 0000 0000 0000 70bd 0000 0000 0000 51bd
000003a0: c09a 04bf 8624 08c1 b159 9e5f 0d9a b1c0
000003b0: 1720 f962 acbb d7c0 0000 0000 0000 4f3d
000003c0: 0000 0000 0000 0000 0000 0000 000e a83d
000003d0: 6223 3686 02e6 00c1 062f 9e0e 8388 d040
000003e0: 40e3 b030 4259 9040 0000 0000 0040 603d
000003f0: 0000 0000 0000 d0bd 0000 0000 004e e53d
00000400: 3978 ef7d 4968 f4c0 9d3d 1442 e026 a2c0
00000410: c3b2 b7b7 7342 d740 0000 0000 0000 48bd
00000420: 0000 0000 0000 b8bd 0000 0000 0060 803d
00000430: d036 e8d1 c4de 0ec1 289b e1c6 82a5 e9c0
00000440: e917 a8d9 3958 e2c0 0000 0000 0000 59bd
00000450: 0000 0000 0000 b43d 0000 0000 0000 8dbd
00000460: 29d3 f1a2 6782 f9c0 5768 2f7c 36fe d8c0
00000470: c3b2 b7b7 7342 d740 0000 0000 0080 613d
00000480: 0000 0000 0000 0000 0000 0000 007c c9bd
00000490: 7f95 ea46 81f4 e4c0 78d5 8c34 7ef1 cf40
000004a0: bfb2 b7b7 7342 c740 0000 0000 0080 74bd
000004b0: 0000 0000 0000 b03d 0000 0000 003c 943d
000004c0: d101 4aaa 4966 12c1 0925 ecf7 7221 74c0
000004d0: dada 2709 6d90 e7c0 0000 0000 0000 003d
000004e0: 0000 0000 0000 a0bd 0000 0000 003e b53d
000004f0: 8f35 805e 7915 fec0 90e1 babb 494d 61c0
00000500: c1b2 b7b7 7342 d740 0000 0000 0000 483d
00000510: 0000 0000 0000 c43d 0000 0000 008e a1bd
00000520: f00a d6e5 1e73 12c1 5ae5 6c82 bde4 8ec0
00000530: d0da 2709 6d90 e7c0 0000 0000 0000 47bd
00000540: 0000 0000 0000 b03d 0000 0000 0020 8c3d
00000550: 5c8b e3d4 742a fec0 9be6 13ad 488c 7ac0
00000560: c5b2 b7b7 7342 d740 0000 0000 0000 0000
00000570: 0000 0000 0000 b03d 0000 0000 0060 8a3d
00000580: e978 080b ddf7 09c1 1a95 6b9d 2ab7 f140
00000590: 146b 31ce 4323 d6c0 0000 0000 0000 383d
000005a0: 0000 0000 0000 b0bd 0000 0000 00e4 b3bd
000005b0: 7f33 a19c cd7f f6c0 b98c 6f1e d9f3 e040
000005c0: e703 af34 1883 d440 0000 0000 0000 30bd
000005d0: 0000 0000 0000 a03d 0000 0000 00cc e33d
000005e0: 1f55 059b ac8a ddc0 24fc 093f 3c70 bec0
000005f0: 0c55 a6b1 bcc3 c140 0000 0000 0000 833d
00000600: 0000 0000 0000 0000 0000 0000 00a0 a63d
00000610: a89f 0b6b a5e4 08c1 d2d1 d2ad 57cb ecc0
00000620: 0f6b 31ce 4323 d6c0 0000 0000 0000 183d
00000630: 0000 0000 0000 b0bd 0000 0000 00c0 b43d
00000640: befd dab1 e81a 05c1 a7d3 2d27 1b26 f1c0
00000650: a060 a960 1d5d cdc0 0000 0000 0080 85bd
00000660: 0000 0000 0000 0000 0000 0000 00b8 d4bd
00000670: e7ed 51fd ce9e f5c0 b1e6 0371 3531 dcc0
00000680: e403 af34 1883 d440 0000 0000 0080 8c3d
00000690: 0000 0000 0000 a03d 0000 0000 006c afbd
000006a0: 0853 7a1e 9369 01c1 6d73 1eeb 1e0d f340
000006b0: d6da 2709 6d90 d7c0 0000 0000 0000 00bd
000006c0: 0000 0000 0000 d03d 0000 0000 0050 93bd
000006d0: 1053 7a1e 9369 01c1 6f73 1eeb 1e0d f340
000006e0: d3da 2709 6d90 d7c0 0000 0000 0080 82bd
000006f0: 0000 0000 0000 d0bd 0000 0000 0010 d5bd
00000700: 3e31 21ad 4778 ecc0 e132 6340 a2e6 e140
00000710: c4b2 b7b7 7342 c740 0000 0000 0080 8fbd
00000720: 0000 0000 0000 b03d 0000 0000 801a 74bd
00000730: 6516 6dc5 d9e0 fbc0 a110 fdf7 3e19 ecc0
00000740: 0acc 31b7 d2ab bd40 0000 0000 0084 23bd
00000750: 0000 0000 0000 d03d 0000 0000 0054 9fbd
00000760: 7b16 6dc5 d9e0 fbc0 a210 fdf7 3e19 ecc0
00000770: 0acc 31b7 d2ab bd40 0000 0000 0080 513d
00000780: 0000 0000 0000 a03d 0000 0000 8037 e53d
00000790: 6816 6dc5 d9e0 fbc0 a010 fdf7 3e19 ecc0
000007a0: 0bcc 31b7 d2ab bd40 0000 0000 0000 653d
000007b0: 0000 0000 0000 983d 0000 0000 007c 8c3d
000007c0: b27b 20a1 c2b7 08c1 6346 07dc 022c db40
000007d0: c6d1 6385 d74a c940 0000 0000 0050 3fbd
000007e0: 0000 0000 0000 523d 0000 0000 0085 abbd
000007f0: 9e7b 20a1 c2b7 08c1 5c46 07dc 022c db40
