python-Linux/neural-sparse-linear-solvers-master/stand_small_test/1830459995001609486_2e03dcac5286013440665b8ef70bad3eafa56547_b7456c3917c589ac20231cb2f8c594f50acbc041.npz (npz, 110078 bytes, 3 tensors)

A_values f8 [28104]
1430041807.3047981 -17698633.745382395 -10452352.872866414 -8285617.0121639855 21775747.559017573 -3681864.476918484 -10452352.872866414 -1397675851.2528217
1092499362.5319767 10064256.144951653 17769525.60148799 -4632798.663469187 -12175635.687644597 -1068183935.3859206 -8190114.785401648 17769525.60148799
2742035927.187868 18718147.013053074 -31646133.591924246 -1153836008.8809502 -6593508.791690672 18718147.013053074 -14585953.077459242 -31646133.591924246
10064256.144951653 18718147.013053074 186933871.7376443 12175635.687644597 21208051.664787274 -18718147.013053074 35105069.28944608 -15278207.65055495
-17698633.745382395 -31646133.591924246 283486291.68606734 -21775747.559017573 37750262.34981915 -11676481.323752228 31646133.591924246 45064433.93379133
-10452352.872866414 17769525.60148799 121030180.6434721 -12612757.18727571 10452352.872866414 19682777.2559511 -17769525.60148799 25481605.7488036
-8285617.0121639855 -21775747.559017573 1437973545.9477139 27208000.20062377 -10452352.872866414 -28330213.20580976 48983747.75964134 -3681864.476918484
-10452352.872866414 -1397675851.2528217 -4632798.663469187 12175635.687644597 1097033765.9713373 -15535361.779195525 17769525.60148799 -16026917.13654584
-27710997.466840122 -1068183935.3859206 -8190114.785401648 17769525.60148799 -1153836008.8809502 2928856151.5503025 18718147.013053074 -31646133.591924246
-1753840680.8002024 -6593508.791690672 18718147.013053074 -14585953.077459242 -31646133.591924246 -12175635.687644597 21208051.664787274 -15535361.779195525
18718147.013053074 193556381.53609747 27710997.466840122 31510384.41917238 -18718147.013053074 35105069.28944608 -15278207.65055495 21775747.559017573
37750262.34981915 27208000.20062377 -31646133.591924246 294945169.2536949 -48983747.75964134 55085421.33810486 -11676481.323752228 31646133.591924246
45064433.93379133 -12612757.18727571 -10452352.872866414 17769525.60148799 123072340.97597986 -19171499.6601234 10452352.872866414 19682777.2559511
-17769525.60148799 25481605.7488036 -28330213.20580976 -48983747.75964134 1435503036.3729815 -31761117.640308965 -10452352.872866414 -5815107.437431529
17222630.119332377 -3681864.476918484 -10452352.872866414 -1397675851.2528217 -16026917.13654584 27710997.466840122 1095646094.4484649 18099889.66976952
17769525.60148799 -3245127.1405965677 -9611107.7970706 -1068183935.3859206 -8190114.785401648 17769525.60148799 -1753840680.8002024 2798903714.8055377
18718147.013053074 -31646133.591924246 -1023883572.1361854 -6593508.791690672 18718147.013053074 -14585953.077459242 -31646133.591924246 -27710997.466840122
31510384.41917238 18099889.66976952 18718147.013053074 188807013.73842582 9611107.7970706 18889433.330327738 -18718147.013053074 35105069.28944608
-15278207.65055495 48983747.75964134 55085421.33810486 -31761117.640308965 -31646133.591924246 286529937.57887655 -17222630.119332377 33722824.649604954
-11676481.323752228 31646133.591924246 45064433.93379133 -19171499.6601234 -10452352.872866414 17769525.60148799 121651811.09310147 -11192227.30439732
10452352.872866414 19682777.2559511 -17769525.60148799 25481605.7488036 -5815107.437431529 -17222630.119332377 1421059431.276613 13413785.780362967
-10452352.872866414 -13886608.109441182 30636415.899695344 -3681864.476918484 -10452352.872866414 -1397675851.2528217 -3245127.1405965677 9611107.7970706
1087413226.0728176 -7583999.712232046 17769525.60148799 -7794048.760898612 -17195107.509302646 -1068183935.3859206 -8190114.785401648 17769525.60148799
-1023883572.1361854 2419581344.2076006 18718147.013053074 -31646133.591924246 -1374518310.2022653 -6593508.791690672 18718147.013053074 -14585953.077459242
-31646133.591924246 -9611107.7970706 18889433.330327738 -7583999.712232046 18718147.013053074 175281886.18410137 17195107.509302646 25080450.089475363
-18718147.013053074 35105069.28944608 -15278207.65055495 17222630.119332377 33722824.649604954 13413785.780362967 -31646133.591924246 263021379.6259489
-30636415.899695344 44384537.12977321 -11676481.323752228 31646133.591924246 45064433.93379133 -11192227.30439732 -10452352.872866414 17769525.60148799
117505380.47451326 -15025069.041535188 10452352.872866414 19682777.2559511 -17769525.60148799 25481605.7488036 -13886608.109441182 -30636415.899695344
1415244323.8391814 -30636415.899695344 -10452352.872866414 -3681864.476918484 -10452352.872866414 -1397675851.2528217 -7794048.760898612 17195107.509302646
1084168098.932221 17195107.509302646 17769525.60148799 -1068183935.3859206 -8190114.785401648 17769525.60148799 -1374518310.2022653 1395697772.0714152
18718147.013053074 -31646133.591924246 -6593508.791690672 18718147.013053074 -14585953.077459242 -31646133.591924246 -17195107.509302646 25080450.089475363
17195107.509302646 18718147.013053074 137240796.2499817 -18718147.013053074 35105069.28944608 -15278207.65055495 30636415.899695344 44384537.12977321
00000000: d081 d333 2d4f d541 1716 ed9b f4e0 70c1
00000010: 8c85 ee1b b0ef 63c1 744b c740 6c9b 5fc1
00000020: 69bc f138 58c4 7441 36aa 0b3d 2417 4cc1
00000030: 8c85 ee1b b0ef 63c1 3b2e d0d2 b5d3 d4c1
00000040: e80b a2e8 8d47 d041 a671 a304 3032 6341
00000050: dfb1 9f59 43f2 7041 7747 76aa 37ac 51c1
00000060: 3e2f 0176 2239 67c1 d965 b1bf 98d5 cfc1
00000070: 4605 44b2 283e 5fc1 dfb1 9f59 43f2 7041
00000080: 0403 e6ba 046e e441 2477 3530 dcd9 7141
00000090: 8f85 7859 1b2e 7ec1 7d61 38fa 8831 d1c1
000000a0: 5a0f ab32 f926 59c1 2477 3530 dcd9 7141
000000b0: ce8b 7a22 0cd2 6bc1 8f85 7859 1b2e 7ec1
000000c0: a671 a304 3032 6341 2477 3530 dcd9 7141
000000d0: 84ac 79df c448 a641 3e2f 0176 2239 6741
000000e0: fbf7 a23a bf39 7441 2477 3530 dcd9 71c1
000000f0: 1bc9 506a 49bd 8041 9d58 d1f4 0f24 6dc1
00000100: 1716 ed9b f4e0 70c1 8f85 7859 1b2e 7ec1
00000110: 1ca2 af53 a8e5 b041 69bc f138 58c4 74c1
00000120: fc6d ccb2 2f00 8241 a22d 5c2a 6845 66c1
00000130: 8f85 7859 1b2e 7e41 9767 788f 077d 8541
00000140: 8c85 ee1b b0ef 63c1 dfb1 9f59 43f2 7041
00000150: 5aea 9292 18db 9c41 a129 fea5 920e 68c1
00000160: 8c85 ee1b b0ef 6341 2e60 1894 5dc5 7241
00000170: dfb1 9f59 43f2 70c1 7c19 fb5b 184d 7841
00000180: 744b c740 6c9b 5fc1 69bc f138 58c4 74c1
00000190: 58a7 7c0a 6f6d d541 45c1 3503 94f2 7941
000001a0: 8c85 ee1b b0ef 63c1 2dff 4a53 8e04 7bc1
000001b0: d7be 131e 765b 8741 36aa 0b3d 2417 4cc1
000001c0: 8c85 ee1b b0ef 63c1 3b2e d0d2 b5d3 d4c1
000001d0: 7747 76aa 37ac 51c1 3e2f 0176 2239 6741
000001e0: 642a 7e09 da58 d041 742b ef38 a0a1 6dc1
000001f0: dfb1 9f59 43f2 7041 6295 5ea4 a491 6ec1
00000200: 592d 7857 616d 7ac1 d965 b1bf 98d5 cfc1
00000210: 4605 44b2 283e 5fc1 dfb1 9f59 43f2 7041
00000220: 7d61 38fa 8831 d1c1 149c f18a 59d2 e541
00000230: 2477 3530 dcd9 7141 8f85 7859 1b2e 7ec1
00000240: 8436 330a 5f22 dac1 5a0f ab32 f926 59c1
00000250: 2477 3530 dcd9 7141 ce8b 7a22 0cd2 6bc1
00000260: 8f85 7859 1b2e 7ec1 3e2f 0176 2239 67c1
00000270: fbf7 a23a bf39 7441 742b ef38 a0a1 6dc1
00000280: 2477 3530 dcd9 7141 5e7b 123b df12 a741
00000290: 592d 7857 616d 7a41 19ee b406 f70c 7e41
000002a0: 2477 3530 dcd9 71c1 1bc9 506a 49bd 8041
000002b0: 9d58 d1f4 0f24 6dc1 69bc f138 58c4 7441
000002c0: fc6d ccb2 2f00 8241 45c1 3503 94f2 7941
000002d0: 8f85 7859 1b2e 7ec1 26f2 4091 8194 b141
000002e0: d7be 131e 765b 87c1 5270 b46a 4b44 8a41
000002f0: a22d 5c2a 6845 66c1 8f85 7859 1b2e 7e41
00000300: 9767 788f 077d 8541 a129 fea5 920e 68c1
00000310: 8c85 ee1b b0ef 63c1 dfb1 9f59 43f2 7041
00000320: 4467 e753 bd57 9d41 8edd 8fba 8a48 72c1
00000330: 8c85 ee1b b0ef 6341 2e60 1894 5dc5 7241
00000340: dfb1 9f59 43f2 70c1 7c19 fb5b 184d 7841
00000350: 2dff 4a53 8e04 7bc1 d7be 131e 765b 87c1
00000360: eede 176f 0264 d541 9db4 3eda 2d4a 7ec1
00000370: 8c85 ee1b b0ef 63c1 d0e0 fedb d02e 56c1
00000380: 11c9 e861 be6c 7041 36aa 0b3d 2417 4cc1
00000390: 8c85 ee1b b0ef 63c1 3b2e d0d2 b5d3 d4c1
000003a0: 6295 5ea4 a491 6ec1 592d 7857 616d 7a41
000003b0: a6b3 9ce3 8e53 d041 3f60 b71a eb42 7141
000003c0: dfb1 9f59 43f2 7041 7e11 ff91 23c2 48c1
000003d0: 349a 8179 ec54 62c1 d965 b1bf 98d5 cfc1
000003e0: 4605 44b2 283e 5fc1 dfb1 9f59 43f2 7041
000003f0: 8436 330a 5f22 dac1 f7c6 5934 7cda e441
00000400: 2477 3530 dcd9 7141 8f85 7859 1b2e 7ec1
00000410: 866e 119a 9c83 cec1 5a0f ab32 f926 59c1
00000420: 2477 3530 dcd9 7141 ce8b 7a22 0cd2 6bc1
00000430: 8f85 7859 1b2e 7ec1 592d 7857 616d 7ac1
00000440: 19ee b406 f70c 7e41 3f60 b71a eb42 7141
00000450: 2477 3530 dcd9 7141 f312 7acb ee81 a641
00000460: 349a 8179 ec54 6241 bd05 4995 ad03 7241
00000470: 2477 3530 dcd9 71c1 1bc9 506a 49bd 8041
00000480: 9d58 d1f4 0f24 6dc1 d7be 131e 765b 8741
00000490: 5270 b46a 4b44 8a41 9db4 3eda 2d4a 7ec1
000004a0: 8f85 7859 1b2e 7ec1 4131 9491 1914 b141
000004b0: 11c9 e861 be6c 70c1 1564 3245 8e14 8041
000004c0: a22d 5c2a 6845 66c1 8f85 7859 1b2e 7e41
000004d0: 9767 788f 077d 8541 8edd 8fba 8a48 72c1
000004e0: 8c85 ee1b b0ef 63c1 dfb1 9f59 43f2 7041
000004f0: fe55 5f8c 0901 9d41 739f bd69 f458 65c1
00000500: 8c85 ee1b b0ef 6341 2e60 1894 5dc5 7241
00000510: dfb1 9f59 43f2 70c1 7c19 fb5b 184d 7841
00000520: d0e0 fedb d02e 56c1 11c9 e861 be6c 70c1
00000530: 07b4 d159 e92c d541 c2bb f838 b395 6941
00000540: 8c85 ee1b b0ef 63c1 cb8a 8003 927c 6ac1
00000550: f226 65fe 9737 7d41 36aa 0b3d 2417 4cc1
00000560: 8c85 ee1b b0ef 63c1 3b2e d0d2 b5d3 d4c1
00000570: 7e11 ff91 23c2 48c1 349a 8179 ec54 6241
00000580: 0ba9 84fa 2634 d041 b835 95ed 3fee 5cc1
00000590: dfb1 9f59 43f2 7041 1890 b230 60bb 5dc1
000005a0: 881a 2638 0666 70c1 d965 b1bf 98d5 cfc1
000005b0: 4605 44b2 283e 5fc1 dfb1 9f59 43f2 7041
000005c0: 866e 119a 9c83 cec1 aaa4 0634 fc06 e241
000005d0: 2477 3530 dcd9 7141 8f85 7859 1b2e 7ec1
000005e0: eaf1 8c09 5f7b d4c1 5a0f ab32 f926 59c1
000005f0: 2477 3530 dcd9 7141 ce8b 7a22 0cd2 6bc1
00000600: 8f85 7859 1b2e 7ec1 349a 8179 ec54 62c1
00000610: bd05 4995 ad03 7241 b835 95ed 3fee 5cc1
00000620: 2477 3530 dcd9 7141 8942 5ebc 2de5 a441
00000630: 881a 2638 0666 7041 b87d 6e21 28eb 7741
00000640: 2477 3530 dcd9 71c1 1bc9 506a 49bd 8041
00000650: 9d58 d1f4 0f24 6dc1 11c9 e861 be6c 7041
00000660: 1564 3245 8e14 8041 c2bb f838 b395 6941
00000670: 8f85 7859 1b2e 7ec1 607c 4087 c65a af41
00000680: f226 65fe 9737 7dc1 89c6 09c9 082a 8541
00000690: a22d 5c2a 6845 66c1 8f85 7859 1b2e 7e41
000006a0: 9767 788f 077d 8541 739f bd69 f458 65c1
000006b0: 8c85 ee1b b0ef 63c1 dfb1 9f59 43f2 7041
000006c0: cee6 e591 f503 9c41 9a41 54a1 75a8 6cc1
000006d0: 8c85 ee1b b0ef 6341 2e60 1894 5dc5 7241
000006e0: dfb1 9f59 43f2 70c1 7c19 fb5b 184d 7841
000006f0: cb8a 8003 927c 6ac1 f226 65fe 9737 7dc1
00000700: 26b5 f588 ba16 d541 f226 65fe 9737 7dc1
00000710: 8c85 ee1b b0ef 63c1 36aa 0b3d 2417 4cc1
00000720: 8c85 ee1b b0ef 63c1 3b2e d0d2 b5d3 d4c1
00000730: 1890 b230 60bb 5dc1 881a 2638 0666 7041
00000740: 82a9 bbe8 c527 d041 881a 2638 0666 7041
00000750: dfb1 9f59 43f2 7041 d965 b1bf 98d5 cfc1
00000760: 4605 44b2 283e 5fc1 dfb1 9f59 43f2 7041
00000770: eaf1 8c09 5f7b d4c1 1192 041b 2acc d441
00000780: 2477 3530 dcd9 7141 8f85 7859 1b2e 7ec1
00000790: 5a0f ab32 f926 59c1 2477 3530 dcd9 7141
000007a0: ce8b 7a22 0cd2 6bc1 8f85 7859 1b2e 7ec1
000007b0: 881a 2638 0666 70c1 b87d 6e21 28eb 7741
000007c0: 881a 2638 0666 7041 2477 3530 dcd9 7141
000007d0: 9afd 7fb8 415c a041 2477 3530 dcd9 71c1
000007e0: 1bc9 506a 49bd 8041 9d58 d1f4 0f24 6dc1
000007f0: f226 65fe 9737 7d41 89c6 09c9 082a 8541

x f8 [2508]
-3.3825021278182364e-06 4.9397654566181597e-08 -1.080923028918203e-05 -7.214397930501567e-07 9.842562508136748e-07 1.457116488705964e-08 5.409372557390614e-06 -1.1593932410434064e-06
-2.5356119491496798e-05 -6.762229971196769e-07 3.5926980402545e-06 8.776520933259079e-07 1.286959058691424e-05 -3.060586408400382e-06 -3.474819385813229e-05 -3.6313709185787914e-06
5.495838603178576e-06 9.979911964254103e-07 2.7621632176523192e-05 -2.600379655855779e-05 -5.041852407478885e-05 1.808530667573699e-05 1.3983929998027352e-06 1.0825248921962053e-06
3.326552113847834e-05 -8.35904708608195e-06 -6.131379726214537e-05 -0.00011978480837969123 3.5071042432641246e-05 3.988703515070244e-07 -1.7088146708773905e-06 5.403948775199449e-08
-1.7469052577383926e-05 4.024106258083498e-07 8.553398103839735e-07 -8.544910018921568e-08 -3.2535078697491794e-06 -1.023891987757293e-06 -4.1136098887480426e-05 3.63379421725489e-07
4.205333355067911e-06 3.9211706542923605e-07 7.342066251397736e-06 -3.2610162675037076e-06 -5.666311381962918e-05 3.2148085340402183e-06 7.318533761441028e-06 7.65093544072263e-07
1.664942105365262e-05 -2.442639819267562e-05 -8.317260831506759e-05 -8.663027775547644e-06 -1.5299435733556062e-06 1.3078048342019794e-06 3.31026409184881e-05 -9.852131911105103e-06
-0.00010317347966109678 5.6893838405617405e-05 6.049996701340533e-05 -1.715750003334678e-06 -1.2461903880225824e-06 5.6527309366824264e-08 -1.2858101256591561e-05 7.532693874601249e-07
2.996580837606185e-07 -5.838814551058376e-08 -2.406651016518262e-06 -9.754294321355499e-07 -3.0128915455527068e-05 3.026164543071581e-06 4.634807429401509e-06 1.0425911532901963e-08
5.351644209440683e-06 -3.2793578853163057e-06 -4.131663936228314e-05 1.753150124684407e-06 3.3817817733133245e-06 7.633893442199298e-07 1.1002478574972194e-05 -2.4079336336520793e-05
-6.022876153513418e-05 1.0268521160997732e-05 -3.5864844837632483e-06 8.792196892415563e-07 4.4116074855674884e-05 -1.0226611395859406e-05 -7.378221768875674e-05 -1.2690830174239865e-05
5.987957191684147e-05 -5.416219870219215e-07 -9.690020283012853e-07 4.159830707540723e-08 -1.15704209412596e-05 -2.6184931602357704e-07 -1.7030913423157074e-06 1.1233668796284785e-07
-1.9710560046147762e-06 -9.596957010312666e-07 -2.7015040084907434e-05 -4.964877123046195e-06 1.6855822790495008e-05 -5.314824876715468e-07 2.037629572476368e-06 -3.274661329641377e-06
-3.3049881594834144e-05 3.7262736896328276e-06 -9.69917486851715e-07 6.027756696632669e-07 1.1599491093308148e-05 -2.3706544679248193e-05 -4.353932322163744e-05 -3.716141608715273e-06
7.495504566446285e-07 -3.574439412031159e-07 3.8942070843326743e-05 -1.062949067609414e-05 -5.104891270000704e-05 3.02874381632039e-05 3.8103020480512506e-05 -1.3395672776852755e-07
-1.8130492155964892e-06 6.026143442796983e-08 -1.4177255297951094e-05 8.198483774831326e-07 -5.506762609344827e-06 5.6341140049403104e-08 2.3809493301667037e-06 -9.575487198475142e-07
-3.337770768904781e-05 -1.5811073210831283e-05 5.019275901133192e-05 -2.9164166601342917e-07 -5.881886607788403e-07 2.420078902798763e-07 -1.4571085892055932e-05 -1.9081057030828445e-06
-2.027247399344213e-06 -5.3650234251420656e-08 -2.320743988080056e-06 -1.107953505251513e-06 -3.423989602931485e-05 2.2088394995978087e-05 2.0616239009716177e-05 7.656853858249892e-07
3.1765357249714896e-06 -6.849279628737067e-06 -3.9001334119990696e-05 -2.4038678257560423e-05 1.3607259969374514e-05 1.4422870422940322e-06 -4.104213572417474e-07 2.212055719097543e-07
-1.5585226709723776e-05 4.4866203672439615e-07 6.81610339802252e-07 5.646078983940487e-09 -3.3573277397336487e-06 -1.008410219782656e-06 -3.650948065799074e-05 -6.69839795861558e-06
5.807802038154343e-06 1.37350296374198e-07 4.1747571771009713e-07 -6.939849682503376e-06 -5.054469339788582e-05 1.7405697887240812e-05 7.322962745243585e-06 8.493571992120399e-07
5.342473546663779e-05 -1.862622341986093e-05 -6.664918498056796e-05 -0.00011620658887332027 5.7322627482628104e-05 2.0978566574153274e-06 -1.2851119907825958e-07 2.7070498359559644e-07
-1.8451851824818673e-05 1.1368967973037307e-08 7.431035135965467e-07 -1.2539272485991613e-09 -1.0629175619934118e-06 -1.0991850754175023e-06 -4.340357619378365e-05 2.314344843571322e-06
7.762322865761842e-06 -8.34789416100494e-08 2.1557964604578485e-06 -6.002813665856188e-06 -5.9504734296748045e-05 -4.561230399419748e-06 -8.962107024739052e-06 6.987895847251192e-07
4.8495247197436046e-05 -1.9705231321801742e-05 -8.79359725046606e-05 6.305114614771388e-05 8.360630405646265e-05 4.236986329779478e-06 -6.506157200540746e-09 2.8823758198557737e-07
-1.5062513923547464e-05 1.0708679383403318e-06 1.0180431605747103e-06 8.511756726151548e-10 7.612034009546366e-07 -1.0712544954403485e-06 -3.53704038952602e-05 1.259872053675085e-06
5.707739053656592e-06 6.514209860091805e-09 2.594543475709877e-07 -5.833577538633529e-06 -4.848378704114537e-05 8.944097946159668e-06 -5.906337101168085e-06 8.29666354074479e-07
1.0960631247205898e-05 -1.9942200019400287e-05 -7.067290301768525e-05 -3.367702448065051e-05 7.036647620508931e-05 4.186859486803664e-06 1.769645165517366e-07 3.12748967277327e-07
-8.29147159096127e-06 4.2264392403290413e-07 8.415359585496724e-07 5.3446009661252675e-08 1.4381773804687446e-06 -1.1922113319348511e-06 -1.9431869015317867e-05 3.761298955942062e-06
2.795022450959079e-06 2.964477713367321e-07 -4.4406178327503063e-08 -5.255568597592482e-06 -2.6595228577153264e-05 -5.862227860761777e-06 -1.4559106574144612e-06 5.660772626589023e-07
1.6803300752598703e-05 -2.0369957808746135e-05 -3.825917244164517e-05 7.331230836119742e-05 4.021538020936553e-05 -1.5813001530935434e-06 -3.444356058050496e-06 5.482524883362708e-07
-2.3473743488806264e-05 -1.5732159196955926e-06 1.199377157975858e-06 9.25522315908715e-08 5.5708148549969595e-06 2.7265787996454875e-07 -5.537269109209007e-05 -1.3016464720849828e-06
00000000: 8060 d335 de5f ccbe 95fb 6475 2985 6a3e
00000010: 4d0b 7d4c 29ab e6be 72d4 e4e1 1e35 a8be
00000020: bd6c 4631 5983 b03e c0b4 0b26 954a 4f3e
00000030: 1917 a701 45b0 d63e 5e6c 8559 8e73 b3be
00000040: 7d77 7543 7b96 fabe 061f bb18 b6b0 a6be
00000050: 4fc2 9aa2 4223 ce3e f3d4 0e5d f972 ad3e
00000060: 9046 d70f 4ffd ea3e e041 032c 8fac c9be
00000070: 24a4 87d9 d237 02bf 440b 5e46 4f76 cebe
00000080: 2574 b59c 1c0d d73e be72 c5ec 56be b03e
00000090: 048e 191c a0f6 fc3e cc56 eb4a 5744 fbbe
000000a0: 0de5 cd4b 0f6f 0abf f2ba b5cf bcf6 f23e
000000b0: 0744 0d5d 0d76 b73e 6cd3 d1b4 6829 b23e
000000c0: a9c4 5d9a d270 013f 2a1a fcae ba87 e1be
000000d0: f49d 2104 b312 10bf 1edb 9356 9f66 1fbf
000000e0: a991 9fd7 2763 023f 98a2 9a5b 8ac4 9a3e
000000f0: 7123 b099 4dab bcbe f06c ce71 2103 6d3e
00000100: 9805 f626 5051 f2be b72f 1ca6 5c01 9b3e
00000110: d440 6a22 50b3 ac3e a673 c577 04f0 76be
00000120: 88cb eedd da4a cbbe 8a80 6825 952d b1be
00000130: fd90 6298 3191 05bf acba 1199 cf62 983e
00000140: 0669 0b3b 71a3 d13e 902c 7017 8550 9a3e
00000150: 86b2 c7cd 7bcb de3e 3b6e f9a6 fa5a cbbe
00000160: f3dd 15c4 31b5 0dbf a5c4 9fae bff7 ca3e
00000170: 64b2 033e 37b2 de3e e998 ff7e 1aac a93e
00000180: 182a b580 4b75 f13e 8b89 664d e99c f9be
00000190: ebca d187 9ecd 15bf 98b6 ab78 ed2a e2be
000001a0: 8bcb adbf 0eab b9be 11c4 3f9f faf0 b53e
000001b0: bdbd cc14 f65a 013f da50 07b3 52a9 e4be
000001c0: e80e 43e2 da0b 1bbf 9e9b 0167 29d4 0d3f
000001d0: f1bf b009 2bb8 0f3f 1ddd 3a14 17c9 bcbe
000001e0: 6119 72d2 58e8 b4be c826 cde2 0d59 6e3e
000001f0: 77c1 f7fa 23f7 eabe c499 95e6 8846 a93e
00000200: 6639 9730 161c 943e 1088 ba3c ce58 6fbe
00000210: a99e 6963 3e30 c4be 5478 b100 705d b0be
00000220: c196 024e ab97 ffbe d44f 248d a362 c93e
00000230: 52f2 4f2a 9670 d33e 284a 5b9a b463 463e
00000240: 7dd3 4dc2 4872 d63e a099 3210 5e82 cbbe
00000250: fa16 32eb 6ca9 05bf 3f0d 84f2 b869 bd3e
00000260: 4623 f130 525e cc3e 065c c5eb 769d a93e
00000270: 14cb 1424 e912 e73e e07b a864 bf3f f9be
00000280: f24e 137d c493 0fbf 81a1 54cd de88 e53e
00000290: 7b2b 45b2 ea15 cebe dd0a 1b8b 7080 ad3e
000002a0: 7d88 34ca 2821 073f 824f 8fc4 5e72 e5be
000002b0: d669 16d9 7057 13bf 3375 f76a 569d eabe
000002c0: 62e5 b56c e664 0f3f d8ae 5d58 7f2c a2be
000002d0: 4543 59ff d441 b0be caf3 7c50 3a55 663e
000002e0: 2d27 9f8b d243 e8be 478b 8478 8992 91be
000002f0: 5218 eabb b892 bcbe 2aad 0cea b727 7e3e
00000300: a046 7f7f cf88 c0be 0ddb 1895 dc19 b0be
00000310: c3c9 2b6b cb53 fcbe 222a 2508 ffd2 d4be
00000320: e34b 7652 b3ac f13e 08cf ad59 66d5 a1be
00000330: e296 3ab4 c617 c13e f57f bf1a 4878 cbbe
00000340: 2991 e148 e153 01bf 18e3 00a0 1c42 cf3e
00000350: 23d9 058e c345 b0be 5a12 29b7 cd39 a43e
00000360: 1a05 abea 6d53 e83e 45b4 7758 addb f8be
00000370: 0977 2ec1 bfd3 06bf f920 6274 5a2c cfbe
00000380: 2eaf a7e2 9626 a93e db1f 1a14 d7fc 97be
00000390: 5985 9d5d b76a 043f d0fd 0f13 aa4a e6be
000003a0: d9b5 ca48 abc3 0abf e1cf f9e6 38c2 ff3e
000003b0: fedc 92d0 19fa 033f e08c a1d6 b7fa 81be
000003c0: 4a3c bcb1 fc6a bebe 3a76 a25d 222d 703e
000003d0: 56fa 9921 5bbb edbe bcaa eaa5 7182 ab3e
000003e0: 42da 4d61 d718 d7be bb0b aaa2 773f 6e3e
000003f0: af03 a1bc 0cf9 c33e 4d4f 9ef3 a310 b0be
00000400: 4370 b34d e17f 01bf 9da0 7cad 4094 f0be
00000410: d610 4e11 c250 0a3f 0590 989c 5d92 93be
00000420: 763a 308b 80bc a3be 0a0d 1ff5 a93d 903e
00000430: 74b1 c3cb ca8e eebe 6e19 2b34 a001 c0be
00000440: fb31 420b 7b01 c1be be50 f7cd a1cd 6cbe
00000450: 6c84 ff7f c277 c3be 1250 16c3 9f96 b2be
00000460: d769 8bde 99f3 01bf 6819 31f2 4e29 f73e
00000470: 59f0 3128 219e f53e 431a 49f8 2fb1 a93e
00000480: 407c 9afb 8ea5 ca3e 43f2 fea5 5bba dcbe
00000490: 04df e8a2 ab72 04bf 763a 2b64 d534 f9be
000004a0: 9137 df91 5789 ec3e 84c9 a35f 9332 b83e
000004b0: 237c e237 fc8a 9bbe 56ce 9cc9 90b0 8d3e
000004c0: 8e65 d29f a057 f0be d910 5a81 f41b 9e3e
000004d0: b10c 0bfd fcde a63e 42b3 54f3 ed3f 383e
000004e0: 2f00 ad71 ce29 ccbe dbcb 20c3 16eb b0be
000004f0: a168 0f34 3824 03bf 079a 599c 5918 dcbe
00000500: 787e db77 145c d83e e6f7 c8fb 516f 823e
00000510: 81c9 ad9f 2d04 9c3e 9184 f05a 9b1b ddbe
00000520: 2423 e870 fe7f 0abf e519 7773 4e40 f23e
00000530: 7ce8 0aac f8b6 de3e 7b06 bc3b ec7f ac3e
00000540: 69f5 d9ee 8b02 0c3f 5b01 b553 f087 f3be
00000550: 1fc2 7847 c078 11bf 6cf8 c2fe 7d76 1ebf
00000560: b254 9d7b b60d 0e3f 29e6 e4e4 1c99 c13e
00000570: 8c11 2476 9c3f 81be d7e6 cf1b ad2a 923e
00000580: 8a8c 2a9a 2159 f3be ea68 6aff 276a 483e
00000590: b0cb 5de8 35ef a83e 88d6 8792 d48a 15be
000005a0: c6e7 0138 32d5 b1be ccfb 80c5 f670 b2be
000005b0: 7c6f b285 87c1 06bf c6ea 7888 046a c33e
000005c0: 8d8c fb87 5d47 e03e 970b 5412 a168 76be
000005d0: 6c09 40a3 8915 c23e d6e5 32db 782d d9be
000005e0: b4ce 221a 9732 0fbf 06b6 1c77 9521 d3be
000005f0: 7b23 429c 7ecb e2be 1a1c 2c8c 8e72 a73e
00000600: 79ce 7b01 ec6c 093f a21d 762f 95a9 f4be
00000610: e81c 1381 480d 17bf 1f08 5671 4a87 103f
00000620: 9da0 dc5d b9ea 153f fedf 1fef 6dc5 d13e
00000630: 9fb2 4d72 98f1 3bbe 48c3 b44a e257 933e
00000640: d9b3 7a26 a096 efbe 1529 01c0 57f7 b13e
00000650: 14c8 e94a 7614 b13e aafe 9338 053f 0d3e
00000660: ff8e 1cfb af8a a93e f7be 27c6 00f9 b1be
00000670: a351 e5d2 558b 02bf 2873 f7f8 1b23 b53e
00000680: 13b4 4c5d a3f0 d73e 808c 9311 73fa 3b3e
00000690: 2f95 c249 6469 913e 4de8 7495 c177 d8be
000006a0: a201 e23c 626b 09bf d4fa 2276 d3c1 e23e
000006b0: cec7 7f94 e1c5 d8be 36a7 619b c7d6 ab3e
000006c0: e452 21b0 71fc e63e ac51 e08c 31e9 f4be
000006d0: dde8 8b3a c786 12bf 9a00 0bc0 0da8 01bf
000006e0: 5e27 2cdb 3672 123f 877c 222c 9b8f d13e
000006f0: fc6c 6659 74c0 873e 4267 1f81 fcfc 943e
00000700: fdcf 9e2d 7363 e1be 4c3d b2a2 f75c 9c3e
00000710: 50fb aa24 bd3c ac3e 5cc4 634a 90b1 6c3e
00000720: f158 acc0 ec20 b83e 96fa e338 8200 b4be
00000730: 727f e8de 3360 f4be 1447 03f8 538d cf3e
00000740: 450d a5d7 4372 c73e 12b9 2116 efe4 933e
00000750: 9d5e 5680 23d7 67be 49f3 26b2 1f0b d6be
00000760: 8ee6 0531 1ae3 fbbe 9526 a5ec 8496 d8be
00000770: ca76 63b2 166d b8be aa8d a510 91fe a23e
00000780: 76ff ff08 9a9e f13e 9605 7dd7 045c f5be
00000790: 2fd9 bf27 0f0f 04bf 374a 02de e737 133f
000007a0: 10bb 3ef1 9d15 053f 54ba c3e7 a187 babe
000007b0: 4a8a 9cc4 b2e4 ccbe 3da3 c5f8 7365 a23e
000007c0: b22d 9d5e 2f9d f8be 326e 5b32 e964 babe
000007d0: c3c9 9b21 491f b43e 0b78 b413 24d8 783e
000007e0: 1375 64ed 9d5d d73e 00e9 a609 3a4c 923e
000007f0: 516b bc2d ff07 0dbf 9a66 6a6e 87d6 b5be

b f8 [2508]
-1.8189894035458565e-12 5.329070518200751e-15 5.684341886080802e-14 -8.171241461241152e-14 3.552713678800501e-14 -3.9968028886505635e-15 -2.7284841053187847e-12 -7.833733661755105e-13
1.8602008822199423e-11 3.694822225952521e-13 3.979039320256561e-13 -2.842170943040401e-14 0.0 -3.4638958368304884e-13 -1.872990651463624e-11 -1.9895196601282805e-13
3.410605131648481e-13 -1.4210854715202004e-14 1.4551915228366852e-11 -6.465716850811987e-12 -2.3447910280083306e-11 5.684341886080801e-13 5.115907697472721e-13 -2.3359092438113294e-13
1.4551915228366852e-11 -1.319833131674386e-12 -16577.790778196704 -9692.810700486722 4581.427617951272 -2.1316282072803006e-14 4.547473508864641e-13 -8.789843852774482e-15
1.9809931472991593e-11 8.704148513061227e-14 4.263256414560601e-14 -1.4415552085367267e-15 0.0 4.334310688136611e-13 -1.6697754290362354e-11 -2.970956813896919e-13
-8.526512829121202e-13 8.348877145181177e-14 1.8189894035458565e-12 7.229772336359019e-13 1.4694023775518872e-11 -1.2789769243681803e-12 -7.958078640513122e-13 -3.552713678800501e-15
0.0 1.0874856570808333e-11 -1.3415046851150692e-11 -2.4442670110147446e-12 1.2505552149377763e-12 1.1723955140041653e-13 0.0 8.43769498715119e-13
-25716.30110074228 7050.737873459031 7711.344993900346 -3.623767952376511e-13 4.547473508864641e-13 3.985700658404312e-14 1.326583287664107e-11 6.039613253960852e-14
-2.2026824808563106e-13 -5.315192730392937e-15 9.094947017729282e-13 5.906386491005833e-14 2.914646302087931e-11 -5.684341886080802e-14 -1.1013412404281553e-13 1.9539925233402755e-14
1.8189894035458565e-12 4.227729277772596e-13 -1.944044925039634e-11 -2.6716406864579767e-12 2.2737367544323206e-13 6.394884621840902e-14 3.637978807091713e-12 -2.1080026613162772e-11
-2.7284841053187847e-12 -2.1600499167107046e-12 -2.2737367544323206e-13 -8.08242361927114e-14 -7.275957614183426e-12 3.765876499528531e-13 -19818.243630924328 -708.5907956786766
6935.5976674574085 -5.684341886080802e-14 4.547473508864641e-13 1.6431300764452317e-14 2.842170943040401e-14 -3.552713678800501e-15 1.4210854715202004e-13 7.105427357601002e-15
-4.547473508864641e-13 -1.8207657603852567e-14 -7904.897320560088 -2195.790832885864 2545.175272569067 -5.1514348342607263e-14 0.0 1.1759482276829658e-12
1.1368683772161603e-12 2.8421709430404007e-13 4.547473508864641e-13 7.105427357601002e-15 3.637978807091713e-12 3.623767952376511e-13 3.0098590286797844e-11 -2.842170943040401e-14
5.684341886080801e-13 -7.105427357601002e-14 -1.4551915228366852e-11 -1.9753088054130785e-12 -10679.733308378765 3350.663622706362 3805.680291508327 -2.842170943040401e-14
-4.547473508864641e-13 6.550315845288424e-14 -1.872990651463624e-11 1.7141843500212417e-13 9.663381206337363e-13 -2.3092638912203256e-14 9.094947017729282e-13 -5.529465774145592e-13
-21197.729618858153 -3083.7881161307387 7126.602890520343 -1.865174681370263e-14 -1.1368683772161603e-13 -1.6786572132332367e-13 -9.990230864787009e-12 9.237055564881302e-14
-4.263256414560601e-13 -3.3306690738754696e-15 4.547473508864641e-13 4.298783551348606e-13 -13292.832298298192 5279.5789490165935 4581.427617951274 1.8829382497642655e-13
-4.547473508864641e-13 -7.105427357601002e-14 -8304.923911681537 -2330.189320480176 2738.8536343835203 -3.730349362740526e-14 3.410605131648481e-13 -3.175237850427948e-14
-3.872457909892546e-11 4.618527782440651e-14 3.268496584496461e-13 9.325873406851315e-15 9.094947017729282e-13 4.440892098500626e-15 7.190692485892214e-12 2.8421709430404007e-13
5.400124791776761e-13 -3.552713678800501e-15 -1.1368683772161603e-13 -2.8483881919783016e-12 -8304.923911681542 2330.189320480178 2738.8536343835185 4.440892098500626e-15
-2.9103830456733704e-11 -2.1600499167107046e-12 -17078.699809120804 -10474.013900050113 4581.427617951275 -5.684341886080802e-14 1.7763568394002505e-14 -2.1094237467877974e-14
-7.148059921746608e-12 7.549516567451064e-14 1.8474111129762605e-13 2.220446049250313e-15 4.547473508864641e-13 -2.3092638912203256e-13 -3.083755473198835e-11 -2.1938006966593093e-13
2.0747847884194925e-12 -1.865174681370263e-14 9.094947017729282e-13 2.078337502098293e-12 2.6830093702301383e-11 9.663381206337363e-13 1.3642420526593924e-12 0.0
-1.4551915228366852e-11 -1.7053025658242404e-12 -27195.943811003068 7403.745239472126 8147.827358326453 8.810729923425242e-13 2.842170943040401e-14 7.549516567451064e-15
-1.6122214674396673e-11 -1.7053025658242404e-13 -9.947598300641403e-14 -2.220446049250313e-16 1.1368683772161603e-13 1.509903313490213e-14 2.0732748851060023e-11 5.755396159656812e-13
3.197442310920451e-14 -4.440892098500626e-15 -4.547473508864641e-13 1.1688428003253648e-12 1.3528733688872308e-11 -6.821210263296962e-13 1.2505552149377763e-12 -2.842170943040401e-14
-1.8189894035458565e-12 -8.078870905592339e-12 -23677.287390309764 -2522.270000212008 8147.827358326458 4.405364961712621e-13 0.0 9.992007221626409e-14
-4.916955731459893e-12 8.348877145181177e-14 -1.9184653865522705e-13 -4.440892098500626e-16 -4.547473508864641e-13 1.4566126083082054e-13 -3.218758592993254e-12 4.263256414560601e-13
3.410605131648481e-13 -5.329070518200751e-15 1.7053025658242404e-13 1.3571366253017914e-12 -7.702283255639486e-12 -5.684341886080801e-13 8.526512829121202e-13 1.0658141036401503e-14
0.0 2.9700686354772188e-12 -13560.043388427463 5592.538660789991 4581.427617951274 1.4210854715202004e-14 1.8189894035458565e-12 -2.4202861936828413e-13
-1.0334844091630657e-11 0.0 1.1368683772161603e-13 1.509903313490213e-14 0.0 4.796163466380676e-14 4.9054094120037917e-11 1.6342482922482304e-13
00000000: 0000 0000 0000 80bd 0000 0000 0000 f83c
00000010: 0000 0000 0000 303d 0000 0000 0000 37bd
00000020: 0000 0000 0000 243d 0000 0000 0000 f2bc
00000030: 0000 0000 0000 88bd 0000 0000 0090 6bbd
00000040: 0000 0000 0074 b43d 0000 0000 0000 5a3d
00000050: 0000 0000 0000 5c3d 0000 0000 0000 20bd
00000060: 0000 0000 0000 0000 0000 0000 0060 58bd
00000070: 0000 0000 0098 b4bd 0000 0000 0000 4cbd
00000080: 0000 0000 0000 583d 0000 0000 0000 10bd
00000090: 0000 0000 0000 b03d 0000 0000 c06f 9cbd
000000a0: 0000 0000 00c8 b9bd 0000 0000 0000 643d
000000b0: 0000 0000 0000 623d 0000 0000 0070 50bd
000000c0: 0000 0000 0000 b03d 0000 0000 0038 77bd
000000d0: 4f27 1c9c 7230 d0c0 a996 08c5 67ee c2c0
000000e0: e5bb 5e78 6de5 b140 0000 0000 0000 18bd
000000f0: 0000 0000 0000 603d 0000 0000 00cb 03bd
00000100: 0000 0000 00c8 b53d 0000 0000 0080 383d
00000110: 0000 0000 0000 283d 0000 0000 00f8 d9bc
00000120: 0000 0000 0000 0000 0000 0000 0080 5e3d
00000130: 0000 0000 005c b2bd 0000 0000 00e8 54bd
00000140: 0000 0000 0000 6ebd 0000 0000 0080 373d
00000150: 0000 0000 0000 803d 0000 0000 0070 693d
00000160: 0000 0000 0028 b03d 0000 0000 0080 76bd
00000170: 0000 0000 0000 6cbd 0000 0000 0000 f0bc
00000180: 0000 0000 0000 0000 0000 0000 00ea a73d
00000190: 0000 0000 0080 adbd 0000 0000 0080 85bd
000001a0: 0000 0000 0000 763d 0000 0000 0080 403d
000001b0: 0000 0000 0000 0000 0000 0000 00b0 6d3d
000001c0: 390c 3c45 131d d9c0 2067 46e5 bc8a bb40
000001d0: 4e2f 8551 581f be40 0000 0000 0080 59bd
000001e0: 0000 0000 0000 603d 0000 0000 0070 263d
000001f0: 0000 0000 002c ad3d 0000 0000 0000 313d
00000200: 0000 0000 0000 4fbd 0000 0000 00f0 f7bc
00000210: 0000 0000 0000 703d 0000 0000 00a0 303d
00000220: 0000 0000 0006 c03d 0000 0000 0000 30bd
00000230: 0000 0000 0000 3fbd 0000 0000 0000 163d
00000240: 0000 0000 0000 803d 0000 0000 00c0 5d3d
00000250: 0000 0000 0060 b5bd 0000 0000 0080 87bd
00000260: 0000 0000 0000 503d 0000 0000 0000 323d
00000270: 0000 0000 0000 903d 0000 0000 802d b7bd
00000280: 0000 0000 0000 88bd 0000 0000 0000 83bd
00000290: 0000 0000 0000 50bd 0000 0000 00c0 36bd
000002a0: 0000 0000 0000 a0bd 0000 0000 0080 5a3d
000002b0: 1229 a697 8f5a d3c0 46b4 15f3 b924 86c0
000002c0: 7407 bc00 9917 bb40 0000 0000 0000 30bd
000002d0: 0000 0000 0000 603d 0000 0000 0080 123d
000002e0: 0000 0000 0000 203d 0000 0000 0000 f0bc
000002f0: 0000 0000 0000 443d 0000 0000 0000 003d
00000300: 0000 0000 0000 60bd 0000 0000 0080 14bd
00000310: 9bdb ccb6 e5e0 bec0 c64a 0ce8 9427 a1c0
00000320: 0f80 53bd 59e2 a340 0000 0000 0000 2dbd
00000330: 0000 0000 0000 0000 0000 0000 00b0 743d
00000340: 0000 0000 0000 743d 0000 0000 0000 543d
00000350: 0000 0000 0000 603d 0000 0000 0000 003d
00000360: 0000 0000 0000 903d 0000 0000 0080 593d
00000370: 0000 0000 008c c03d 0000 0000 0000 20bd
00000380: 0000 0000 0000 643d 0000 0000 0000 34bd
00000390: 0000 0000 0000 b0bd 0000 0000 0060 81bd
000003a0: 5788 0cdd dddb c4c0 6af9 5ac6 532d aa40
000003b0: 0628 2b4f 5cbb ad40 0000 0000 0000 20bd
000003c0: 0000 0000 0000 60bd 0000 0000 0070 323d
000003d0: 0000 0000 0098 b4bd 0000 0000 0020 483d
000003e0: 0000 0000 0000 713d 0000 0000 0000 1abd
000003f0: 0000 0000 0000 703d 0000 0000 8074 63bd
00000400: 944b 13b2 6eb3 d4c0 f21d f583 9317 a8c0
00000410: f17b 0857 9ad6 bb40 0000 0000 0000 15bd
00000420: 0000 0000 0000 40bd 0000 0000 00a0 47bd
00000430: 0000 0000 00f8 a5bd 0000 0000 0000 3a3d
00000440: 0000 0000 0000 5ebd 0000 0000 0000 eebc
00000450: 0000 0000 0000 603d 0000 0000 0040 5e3d
00000460: a029 c088 6af6 c9c0 52b4 0036 949f b440
00000470: e8bb 5e78 6de5 b140 0000 0000 0080 4a3d
00000480: 0000 0000 0000 60bd 0000 0000 0000 34bd
00000490: 4cec bc42 7638 c0c0 a32d 9dee 6034 a2c0
000004a0: ecdf 900f b565 a540 0000 0000 0000 25bd
000004b0: 0000 0000 0000 583d 0000 0000 00e0 21bd
000004c0: 0000 0000 004a c5bd 0000 0000 0000 2a3d
000004d0: 0000 0000 0000 573d 0000 0000 0000 053d
000004e0: 0000 0000 0000 703d 0000 0000 0000 f43c
000004f0: 0000 0000 00a0 9f3d 0000 0000 0000 543d
00000500: 0000 0000 0000 633d 0000 0000 0000 f0bc
00000510: 0000 0000 0000 40bd 0000 0000 000e 89bd
00000520: 4fec bc42 7638 c0c0 a82d 9dee 6034 a240
00000530: e8df 900f b565 a540 0000 0000 0000 f43c
00000540: 0000 0000 0000 c0bd 0000 0000 0000 83bd
00000550: d331 acc9 acad d0c0 5312 7ac7 0175 c4c0
00000560: e9bb 5e78 6de5 b140 0000 0000 0000 30bd
00000570: 0000 0000 0000 143d 0000 0000 00c0 17bd
00000580: 0000 0000 0070 9fbd 0000 0000 0040 353d
00000590: 0000 0000 0000 4a3d 0000 0000 0000 e43c
000005a0: 0000 0000 0000 603d 0000 0000 0040 50bd
000005b0: 0000 0000 00f4 c0bd 0000 0000 00e0 4ebd
000005c0: 0000 0000 0040 823d 0000 0000 0000 15bd
000005d0: 0000 0000 0000 703d 0000 0000 0048 823d
000005e0: 0000 0000 0080 bd3d 0000 0000 0000 713d
000005f0: 0000 0000 0000 783d 0000 0000 0000 0000
00000600: 0000 0000 0000 b0bd 0000 0000 0000 7ebd
00000610: f243 6667 fc8e dac0 7898 03c8 beeb bc40
00000620: 305a c1cd d3d3 bf40 0000 0000 0000 6f3d
00000630: 0000 0000 0000 203d 0000 0000 0000 013d
00000640: 0000 0000 00ba b1bd 0000 0000 0000 48bd
00000650: 0000 0000 0000 3cbd 0000 0000 0000 b0bc
00000660: 0000 0000 0000 403d 0000 0000 0000 113d
00000670: 0000 0000 c0cb b63d 0000 0000 0040 643d
00000680: 0000 0000 0000 223d 0000 0000 0000 f4bc
00000690: 0000 0000 0000 60bd 0000 0000 0090 743d
000006a0: 0000 0000 00c0 ad3d 0000 0000 0000 68bd
000006b0: 0000 0000 0000 763d 0000 0000 0000 20bd
000006c0: 0000 0000 0000 80bd 0000 0000 00c4 a1bd
000006d0: 6853 9a64 521f d7c0 fac0 773d 8ab4 a3c0
000006e0: 365a c1cd d3d3 bf40 0000 0000 0000 5f3d
000006f0: 0000 0000 0000 0000 0000 0000 0020 3c3d
00000700: 0000 0000 00a0 95bd 0000 0000 0080 373d
00000710: 0000 0000 0000 4bbd 0000 0000 0000 c0bc
00000720: 0000 0000 0000 60bd 0000 0000 0080 443d
00000730: 0000 0000 0050 8cbd 0000 0000 0000 5e3d
00000740: 0000 0000 0000 583d 0000 0000 0000 f8bc
00000750: 0000 0000 0000 483d 0000 0000 00e0 773d
00000760: 0000 0000 00f0 a0bd 0000 0000 0000 64bd
00000770: 0000 0000 0000 6e3d 0000 0000 0000 083d
00000780: 0000 0000 0000 0000 0000 0000 0020 8a3d
00000790: 7d82 c08d 057c cac0 a66c ace5 89d8 b540
000007a0: e8bb 5e78 6de5 b140 0000 0000 0000 103d
000007b0: 0000 0000 0000 803d 0000 0000 0008 51bd
000007c0: 0000 0000 00ba a6bd 0000 0000 0000 0000
000007d0: 0000 0000 0000 403d 0000 0000 0000 113d
000007e0: 0000 0000 0000 0000 0000 0000 0000 2b3d
000007f0: 0000 0000 c0f7 ca3d 0000 0000 0000 473d
