python-Linux/neural-sparse-linear-solvers-master/stand_small_test/1862267505575855411_7d97654d8e1ffa773663af6fb2e5bfc5f0bab61e_b5f75324734c455bd71250785d1925c5ba7d922a.npz (npz, 136382 bytes, 3 tensors)

A_values f8 [34244]
1569715905.0526972 -79114575.76558945 -30319063.430046655 -12959733.157401532 -30319063.430046655 -1518815725.0340555 1936956834.044324 37971645.55966081
19266242.042449553 -1912205972.9282653 -6541053.5471128095 19266242.042449553 2186324283.732271 63517846.48840648 -40685712.13811439 -27150388.174812928
63517846.48840648 -13813146.38897726 -40685712.13811439 37971645.55966081 63517846.48840648 331550150.11397076 -63517846.48840648 96954071.93634087
-25072291.97401364 -79114575.76558945 -40685712.13811439 415337451.6862937 -31566295.816851173 40685712.13811439 78816961.64339584 -30319063.430046655
19266242.042449553 206361215.20181862 30319063.430046655 46816586.91425835 -19266242.042449553 37594066.67705007 -12959733.157401532 30319063.430046655
1685316348.5631552 41645836.92152342 -36602868.47088372 -72581712.17557392 120760412.68711287 -43018731.334884234 -66921931.900930375 -1518815725.0340555
-1912205972.9282653 4848012018.983188 -20852422.08517182 19266242.042449553 -35355556.111389175 -58824067.644832626 -2875699628.8274746 -6541053.5471128095
19266242.042449553 -27150388.174812928 -63517846.48840648 4962927606.233214 73087388.26423454 -40685712.13811439 -2688790796.3852563 -87812526.11568668
136605234.75264102 -13813146.38897726 -40685712.13811439 63517846.48840648 96954071.93634087 -20852422.08517182 73087388.26423454 753504640.5670534
58824067.644832626 63963018.62660532 -136605234.75264102 134842639.23107094 -25072291.97401364 -31566295.816851173 41645836.92152342 -40685712.13811439
736347110.199356 -120760412.68711287 128300677.31735933 -47471447.34882728 40685712.13811439 78816961.64339584 -30319063.430046655 46816586.91425835
-36602868.47088372 19266242.042449553 391118748.5918087 -44385995.478483886 66921931.900930375 67842178.78269464 -19266242.042449553 37594066.67705007
-72581712.17557392 -120760412.68711287 1674721792.858046 -38450676.26647946 -66921931.900930375 -40305624.31353248 82309736.4206334 -43018731.334884234
-66921931.900930375 -1518815725.0340555 -35355556.111389175 58824067.644832626 2936963059.901529 19274302.738093443 19266242.042449553 -19366821.415551968
-39549764.90673918 -2875699628.8274746 -6541053.5471128095 19266242.042449553 -2688790796.3852563 4981045476.502148 136605234.75264102 -40685712.13811439
-2190629007.612228 -87812526.11568668 136605234.75264102 -13813146.38897726 -40685712.13811439 -58824067.644832626 63963018.62660532 19274302.738093443
136605234.75264102 555418384.9812753 39549764.90673918 53140728.49961643 -136605234.75264102 134842639.23107094 -25072291.97401364 120760412.68711287
128300677.31735933 -38450676.26647946 -40685712.13811439 709119317.131582 -82309736.4206334 108923592.15852304 -47471447.34882728 40685712.13811439
78816961.64339584 -44385995.478483886 -66921931.900930375 19266242.042449553 296820803.5333549 -36162444.97624358 66921931.900930375 67842178.78269464
-19266242.042449553 37594066.67705007 -40305624.31353248 -82309736.4206334 1624056742.699864 -27139662.225846745 -66921931.900930375 -21916662.01739175
55170074.19478666 -43018731.334884234 -66921931.900930375 -1518815725.0340555 -19366821.415551968 39549764.90673918 2912038466.411928 13292254.46511814
19266242.042449553 -10430962.62178896 -26257510.441621043 -2875699628.8274746 -6541053.5471128095 19266242.042449553 -2190629007.612228 4069409381.8005724
136605234.75264102 -40685712.13811439 -1777154701.6836805 -87812526.11568668 136605234.75264102 -13813146.38897726 -40685712.13811439 -39549764.90673918
53140728.49961643 13292254.46511814 136605234.75264102 512148490.49560106 26257510.441621043 43685922.5001803 -136605234.75264102 134842639.23107094
-25072291.97401364 82309736.4206334 108923592.15852304 -27139662.225846745 -40685712.13811439 622456204.6778139 -55170074.19478666 90880435.79957268
-47471447.34882728 40685712.13811439 78816961.64339584 -36162444.97624358 -66921931.900930375 19266242.042449553 281771705.76351523 -29336897.708644193
66921931.900930375 67842178.78269464 -19266242.042449553 37594066.67705007 -21916662.01739175 -55170074.19478666 1669666363.1486633 79520948.6273525
-66921931.900930375 -85915244.76233205 134691022.82213917 -43018731.334884234 -66921931.900930375 -1518815725.0340555 -10430962.62178896 26257510.441621043
2934731922.2495627 -39681215.3233571 19266242.042449553 -42060277.25318608 -65938725.76497814 -2875699628.8274746 -6541053.5471128095 19266242.042449553
-1777154701.6836805 4732333572.041594 136605234.75264102 -40685712.13811439 -2853553197.8532495 -87812526.11568668 136605234.75264102 -13813146.38897726
-40685712.13811439 -26257510.441621043 43685922.5001803 -39681215.3233571 136605234.75264102 543115724.9847941 65938725.76497814 67388043.3604956
-136605234.75264102 134842639.23107094 -25072291.97401364 55170074.19478666 90880435.79957268 79520948.6273525 -40685712.13811439 683430186.3158842
00000000: 645f 43b0 fd63 d741 aef6 0f3f c5dc 92c1
00000010: 9a78 e176 1dea 7cc1 f06e 09a5 feb7 68c1
00000020: 9a78 e176 1dea 7cc1 f72d 427b d2a1 d6c1
00000030: 34d6 8268 e7dc dc41 722f 7aec 351b 8241
00000040: 95df ad20 ac5f 7241 b368 3ba5 7c7e dcc1
00000050: 72e5 0363 bff3 58c1 95df ad20 ac5f 7241
00000060: c46e 7727 154a e041 a841 e8b3 a449 8e41
00000070: b8db 1a81 8466 83c1 a408 cc42 83e4 79c1
00000080: a841 e8b3 a449 8e41 7080 724c b358 6ac1
00000090: b8db 1a81 8466 83c1 722f 7aec 351b 8241
000000a0: a841 e8b3 a449 8e41 302d 1dc6 0dc3 b341
000000b0: a841 e8b3 a449 8ec1 24d0 be5f 9b1d 9741
000000c0: 548f 953f 2ae9 77c1 aef6 0f3f c5dc 92c1
000000d0: b8db 1a81 8466 83c1 f2b0 afeb 8bc1 b841
000000e0: 89d2 117d 9d1a 7ec1 b8db 1a81 8466 8341
000000f0: 5cd6 9206 9bca 9241 9a78 e176 1dea 7cc1
00000100: 95df ad20 ac5f 7241 c554 67fe a499 a841
00000110: 9a78 e176 1dea 7c41 af66 5057 ea52 8641
00000120: 95df ad20 ac5f 72c1 3a99 6a95 1eed 8141
00000130: f06e 09a5 feb7 68c1 9a78 e176 1dea 7c41
00000140: bc0a 24bf f81c d941 ac47 5f67 b8db 8341
00000150: af5e c4a3 1f74 81c1 a6c9 b340 094e 91c1
00000160: 849a bf72 a1ca 9c41 c9d7 ad5a 4f83 84c1
00000170: fc1a 355f 2ee9 8fc1 f72d 427b d2a1 d6c1
00000180: b368 3ba5 7c7e dcc1 23bb 2faf 6c0f f241
00000190: 20dd 5c61 ece2 73c1 95df ad20 ac5f 7241
000001a0: 0220 e420 dddb 80c1 029e 281d ac0c 8cc1
000001b0: ac7a 9a35 f66c e5c1 72e5 0363 bff3 58c1
000001c0: 95df ad20 ac5f 7241 a408 cc42 83e4 79c1
000001d0: a841 e8b3 a449 8ec1 3fbb 633f 047d f241
000001e0: 8093 0e71 e66c 9141 b8db 1a81 8466 83c1
000001f0: 0554 8c21 7608 e4c1 9276 76b8 a6ef 94c1
00000200: 2a5a 8165 dc48 a041 7080 724c b358 6ac1
00000210: b8db 1a81 8466 83c1 a841 e8b3 a449 8e41
00000220: 24d0 be5f 9b1d 9741 20dd 5c61 ece2 73c1
00000230: 8093 0e71 e66c 9141 3595 48c0 c874 c641
00000240: 029e 281d ac0c 8c41 a649 0355 fc7f 8e41
00000250: 2a5a 8165 dc48 a0c1 ee4e 761e 1213 a041
00000260: 548f 953f 2ae9 77c1 89d2 117d 9d1a 7ec1
00000270: ac47 5f67 b8db 8341 b8db 1a81 8466 83c1
00000280: 7f84 19f3 e1f1 c541 849a bf72 a1ca 9cc1
00000290: d8f9 4415 da96 9e41 f565 caba daa2 86c1
000002a0: b8db 1a81 8466 8341 5cd6 9206 9bca 9241
000002b0: 9a78 e176 1dea 7cc1 af66 5057 ea52 8641
000002c0: af5e c4a3 1f74 81c1 95df ad20 ac5f 7241
000002d0: c680 979c ff4f b741 5cef d35b 362a 85c1
000002e0: fc1a 355f 2ee9 8f41 b47a 210b c22c 9041
000002f0: 95df ad20 ac5f 72c1 3a99 6a95 1eed 8141
00000300: a6c9 b340 094e 91c1 849a bf72 a1ca 9cc1
00000310: 3aea 3680 8ef4 d841 fcbf 21a2 af55 82c1
00000320: fc1a 355f 2ee9 8fc1 511d 82c2 1e38 83c1
00000330: 86ba aea1 c99f 9341 c9d7 ad5a 4f83 84c1
00000340: fc1a 355f 2ee9 8fc1 f72d 427b d2a1 d6c1
00000350: 0220 e420 dddb 80c1 029e 281d ac0c 8c41
00000360: 53d9 7cfe cfe1 e541 123b cfeb a361 7241
00000370: 95df ad20 ac5f 7241 d219 a656 3a78 72c1
00000380: 7900 4127 dadb 82c1 ac7a 9a35 f66c e5c1
00000390: 72e5 0363 bff3 58c1 95df ad20 ac5f 7241
000003a0: 0554 8c21 7608 e4c1 cc08 488e 4b8e f241
000003b0: 2a5a 8165 dc48 a041 b8db 1a81 8466 83c1
000003c0: 5f97 f311 4b52 e0c1 9276 76b8 a6ef 94c1
000003d0: 2a5a 8165 dc48 a041 7080 724c b358 6ac1
000003e0: b8db 1a81 8466 83c1 029e 281d ac0c 8cc1
000003f0: a649 0355 fc7f 8e41 123b cfeb a361 7241
00000400: 2a5a 8165 dc48 a041 6e9a 7d88 818d c041
00000410: 7900 4127 dadb 8241 e636 ffc3 e756 8941
00000420: 2a5a 8165 dc48 a0c1 ee4e 761e 1213 a041
00000430: 548f 953f 2ae9 77c1 849a bf72 a1ca 9c41
00000440: d8f9 4415 da96 9e41 fcbf 21a2 af55 82c1
00000450: b8db 1a81 8466 83c1 aed7 90aa 2622 c541
00000460: 86ba aea1 c99f 93c1 dd53 a220 2bf8 9941
00000470: f565 caba daa2 86c1 b8db 1a81 8466 8341
00000480: 5cd6 9206 9bca 9241 5cef d35b 362a 85c1
00000490: fc1a 355f 2ee9 8fc1 95df ad20 ac5f 7241
000004a0: f289 8843 20b1 b141 cb58 cf67 5c3e 81c1
000004b0: fc1a 355f 2ee9 8f41 b47a 210b c22c 9041
000004c0: 95df ad20 ac5f 72c1 3a99 6a95 1eed 8141
000004d0: 511d 82c2 1e38 83c1 86ba aea1 c99f 93c1
000004e0: 92ca ace9 4833 d841 7a11 9de3 e4e1 79c1
000004f0: fc1a 355f 2ee9 8fc1 923c 4760 bfe6 74c1
00000500: 4fec 8ed1 a04e 8a41 c9d7 ad5a 4f83 84c1
00000510: fc1a 355f 2ee9 8fc1 f72d 427b d2a1 d6c1
00000520: d219 a656 3a78 72c1 7900 4127 dadb 8241
00000530: 842e 4dc8 45b2 e541 703f e2ce 5b5a 6941
00000540: 95df ad20 ac5f 7241 f6b1 e553 3ee5 63c1
00000550: 3ae1 1067 860a 79c1 ac7a 9a35 f66c e5c1
00000560: 72e5 0363 bff3 58c1 95df ad20 ac5f 7241
00000570: 5f97 f311 4b52 e0c1 4a9e b94c c851 ee41
00000580: 2a5a 8165 dc48 a041 b8db 1a81 8466 83c1
00000590: 6cc1 6ba3 4e7b dac1 9276 76b8 a6ef 94c1
000005a0: 2a5a 8165 dc48 a041 7080 724c b358 6ac1
000005b0: b8db 1a81 8466 83c1 7900 4127 dadb 82c1
000005c0: e636 ffc3 e756 8941 703f e2ce 5b5a 6941
000005d0: 2a5a 8165 dc48 a041 b6df 7e0a c486 be41
000005e0: 3ae1 1067 860a 7941 875e 0014 c1d4 8441
000005f0: 2a5a 8165 dc48 a0c1 ee4e 761e 1213 a041
00000600: 548f 953f 2ae9 77c1 86ba aea1 c99f 9341
00000610: dd53 a220 2bf8 9941 7a11 9de3 e4e1 79c1
00000620: b8db 1a81 8466 83c1 9bc2 56c6 f68c c241
00000630: 4fec 8ed1 a04e 8ac1 2ec3 32cf e6aa 9541
00000640: f565 caba daa2 86c1 b8db 1a81 8466 8341
00000650: 5cd6 9206 9bca 9241 cb58 cf67 5c3e 81c1
00000660: fc1a 355f 2ee9 8fc1 95df ad20 ac5f 7241
00000670: bc75 c3b9 7ecb b041 4b9b 561b 54fa 7bc1
00000680: fc1a 355f 2ee9 8f41 b47a 210b c22c 9041
00000690: 95df ad20 ac5f 72c1 3a99 6a95 1eed 8141
000006a0: 923c 4760 bfe6 74c1 4fec 8ed1 a04e 8ac1
000006b0: b383 c98e 45e1 d841 b268 82d2 92f5 9241
000006c0: fc1a 355f 2ee9 8fc1 c6a0 0cb3 d97b 94c1
000006d0: 6def a49d 710e a041 c9d7 ad5a 4f83 84c1
000006e0: fc1a 355f 2ee9 8fc1 f72d 427b d2a1 d6c1
000006f0: f6b1 e553 3ee5 63c1 3ae1 1067 860a 7941
00000700: 6bfc 4792 8edd e541 3f3c 96fa e5eb 82c1
00000710: 95df ad20 ac5f 7241 6c86 06aa 4f0e 84c1
00000720: dcac 1e2e 2971 8fc1 ac7a 9a35 f66c e5c1
00000730: 72e5 0363 bff3 58c1 95df ad20 ac5f 7241
00000740: 6cc1 6ba3 4e7b dac1 5eaa 40e0 1aa1 f141
00000750: 2a5a 8165 dc48 a041 b8db 1a81 8466 83c1
00000760: d24d bb85 b842 e5c1 9276 76b8 a6ef 94c1
00000770: 2a5a 8165 dc48 a041 7080 724c b358 6ac1
00000780: b8db 1a81 8466 83c1 3ae1 1067 860a 79c1
00000790: 875e 0014 c1d4 8441 3f3c 96fa e5eb 82c1
000007a0: 2a5a 8165 dc48 a041 bc0d 7ee6 a42f c041
000007b0: dcac 1e2e 2971 8f41 c225 712d 0a11 9041
000007c0: 2a5a 8165 dc48 a0c1 ee4e 761e 1213 a041
000007d0: 548f 953f 2ae9 77c1 4fec 8ed1 a04e 8a41
000007e0: 2ec3 32cf e6aa 9541 b268 82d2 92f5 9241
000007f0: b8db 1a81 8466 83c1 e56e 2895 285e c441

x f8 [3048]
6.511602086920665e-06 3.809070541133602e-07 -1.5910759191433534e-05 -4.867816265296189e-05 4.354490423222229e-05 1.7487822088998534e-07 -6.648605508724332e-07 -5.502802282008167e-07
-0.00011495488062979372 5.943404745555455e-06 2.2264949665392117e-05 1.8412410936593593e-07 9.07241023352457e-06 -2.0128098160271728e-05 -0.0001876042430004133 -7.689502387510987e-06
1.8872013637755233e-05 6.588819037162109e-07 1.818633450164159e-05 -2.411190357046298e-05 -0.00025862953480706866 -7.145942970901294e-06 2.4331096901949472e-05 1.4608302102913075e-06
3.605709857316999e-05 -2.131087259842473e-05 -0.0003221300573473698 -6.62435149472287e-06 2.8184249550763886e-05 2.992947879968642e-06 7.826157801539573e-05 -2.498220501803693e-05
-0.0003475008123768229 -5.4747788822035555e-06 2.6507168875116123e-05 3.4621690492444913e-06 0.00014274197915264828 -3.2959865550722317e-05 -0.00036481799376486985 -1.247700295610726e-05
5.803903506803686e-05 3.0784124294051487e-06 5.8689269374674516e-08 -8.006395339006402e-07 -0.00011063950311767795 8.524166563293184e-06 2.1249466921815203e-05 -3.059525682329644e-07
1.108021229752307e-05 -2.019151121428131e-05 -0.0001835698753093524 1.7455257634694646e-05 2.0292164844953485e-05 -1.1395989459472235e-06 1.6996278307670713e-05 -2.4250036649708326e-05
-0.00025466976307015563 8.287276766115806e-06 2.2968571360877608e-05 1.0195289832711072e-06 2.9894458359106298e-05 -2.1122871292049487e-05 -0.00031807886300989316 8.658374003462168e-06
2.7169941327002322e-05 2.5803925287145255e-06 6.857446284254452e-05 -2.5107347934393308e-05 -0.0003433471064377205 8.414266518386888e-06 2.5635281319126917e-05 2.9984441856534186e-06
0.0001330555971039858 -3.3173400335950414e-05 -0.0003605960992262981 1.5500562648644913e-05 5.7818103552562996e-05 2.910300873978031e-06 -1.3971065929562686e-06 -1.246697518437765e-06
-4.6987758172967126e-05 2.7784530979429655e-06 2.1493032544499057e-05 -1.3350359961979294e-07 2.153942303916056e-05 -2.0327855578181355e-05 -6.424299878361126e-05 1.506737695092286e-05
4.335869910052597e-05 -1.4601488628171664e-06 -2.105064460675611e-06 -2.0612421852267633e-06 -4.94570767759028e-05 -6.580903780759926e-06 2.2355136278433767e-05 2.0473234004576942e-07
2.3753144988636116e-05 -2.038114441057532e-05 -6.743046850502505e-05 -1.6285608242352668e-05 4.7913803392275707e-05 1.7343233736718384e-06 -4.921173051355006e-06 -1.8987465884509198e-06
-0.00011528991733817538 -2.9829810374001335e-06 2.162635641446753e-05 3.217753778676466e-07 3.149441776219531e-06 -2.1706842287322302e-05 -0.00018570295420178033 -2.5362853506758537e-06
2.1547137943099074e-05 2.072736749216649e-06 7.386295790871961e-06 -2.792792172159241e-05 -0.0002456488410486425 -3.3731738743144456e-05 2.7088831832244754e-05 2.3635762201648862e-06
5.933768167907871e-06 -1.5217428769052967e-05 -0.00029192795209179216 -2.8054968963169995e-05 2.558436494201518e-05 1.85524829713404e-06 3.808956929850513e-05 1.0698030543106479e-05
-0.00030410277858790156 -4.54826447949462e-05 5.272463669081868e-05 2.3460469853677425e-07 -5.490222009153849e-06 -1.1763645968970638e-06 -0.00012246658048494142 1.1654332091027767e-05
1.994003698245809e-05 -1.5943975352973282e-07 -7.807356402941465e-07 -2.2677289727146947e-05 -0.00020026060929334737 1.0351301281668052e-05 1.7528388844790157e-05 7.050656670964357e-07
1.3573007282504835e-06 -2.800210352071402e-05 -0.00027142979845169463 1.3976351435021519e-05 2.255985187599287e-05 1.5360112547698974e-06 2.007038682427081e-07 -1.3849652711287819e-05
-0.00032645516641102235 8.526472132623813e-06 2.044991666206554e-05 2.281399806472458e-06 2.7247860074628913e-05 8.404806245846083e-06 -0.0003414161334471566 1.7356288402523632e-05
4.0410732525275756e-05 1.5563893056582739e-06 -3.8025635665266423e-06 -7.18190014193621e-07 -0.0001221194757867907 -6.00151035111974e-06 1.9704920159756763e-05 -3.3004423574076093e-07
-1.8491649249461443e-06 -2.351102505071214e-05 -0.00020053532001833519 -8.073949071142009e-06 1.6838548344087907e-05 2.6059345310158753e-07 -1.6729328336344462e-06 -2.803403390492229e-05
-0.0002728937491276761 -1.5608027131044963e-05 2.1479699643745112e-05 1.4299273169954831e-06 -1.1906975594722037e-05 -1.3737259863343125e-05 -0.00032997453456678783 -1.928331898112189e-05
1.937070077290845e-05 3.181333787108411e-06 1.1583067865824338e-05 8.010200976952992e-06 -0.000345642262385996 -3.0084758370591655e-05 3.7841422734311104e-05 4.133485330138633e-06
-2.0075663479536537e-06 5.479911731457464e-07 -0.00017418051950059946 -1.2504087582906433e-05 2.0325779400637138e-05 -1.7723893176210096e-07 1.8922633585400154e-06 -2.484793023516022e-05
-0.0002921559331067726 -1.4743249620471724e-05 1.6843294588885032e-05 3.310758946829024e-07 -3.8925163905143e-06 -2.8246801462778607e-05 -0.00041143752672236485 -2.2247434441503428e-05
2.062023452487277e-05 1.2253266670024848e-06 -2.3076606995757925e-05 -1.279518007950741e-05 -0.0005251410531768735 -2.6616964480471624e-05 1.9046341185842183e-05 1.7551131469537256e-06
-2.1495006407784815e-05 6.4391587384384236e-06 -0.0005764307909410425 -2.5080349414097913e-05 2.0555804050358977e-05 1.1912874998454028e-06 -2.9735573217101097e-05 -4.551429443222069e-05
-0.0006251239329300773 -2.5547844925754075e-05 2.5050836972102836e-05 -6.498517169781427e-06 4.715714230109952e-05 -9.162839811310278e-05 -0.0006479195615532202 -6.407397913528233e-05
6.358395328634792e-05 -7.351251497151433e-06 -2.5009563671191594e-06 3.5163800605876643e-06 -0.00015732944701372535 3.129036672483039e-05 2.0384004678740366e-05 5.330548509183833e-07
2.233350303960707e-06 -2.723514316572657e-05 -0.000263891039917234 3.9736436180121556e-05 1.8863163374412572e-05 -5.673205980498668e-07 -5.80163360507331e-06 -2.8845210205353194e-05
-0.00037196990196139673 3.666287588734235e-05 2.048290416756775e-05 1.727032837016012e-06 -2.455557314872113e-05 -1.0652056012586658e-05 -0.0004771627110489112 3.2203665764223024e-05
00000000: a2f6 708d c74f db3e 2aef bdf0 ee8f 993e
00000010: c5b8 cd0b 03af f0be d37a d8ee 7885 09bf
00000020: 640f 4584 7fd4 063f a8b9 3719 c578 873e
00000030: a632 25d0 1b4f a6be e995 d504 df76 a2be
00000040: 9130 b0cf 7d22 1ebf 1495 15a8 aeed d83e
00000050: 987b c8b0 b358 f73e 0649 2acb 74b6 883e
00000060: 681b 6691 b606 e33e ca46 8e5f 181b f5be
00000070: 21b9 322d f496 28bf 381e 2e29 4520 e0be
00000080: b3b9 f2e6 eac9 f33e f6d6 01a1 c01b a63e
00000090: 09d4 0464 db11 f33e 6221 7f65 7d48 f9be
000000a0: e881 ce64 15f3 30bf f8d8 d3d8 e5f8 ddbe
000000b0: 9422 5d3f 5483 f93e 0e83 6bcd 3782 b83e
000000c0: 4518 2979 80e7 023f ab34 8503 9858 f6be
000000d0: 38a7 b50f 721c 35bf 07d2 acdf d7c8 dbbe
000000e0: 8d89 9ee1 a68d fd3e 8eba 677f 4e1b c93e
000000f0: 0ce4 24ac 0b84 143f dc1f 7a0e 1c32 fabe
00000100: 45b3 de9f 18c6 36bf a94f 97c2 7ff6 d6be
00000110: aa9e 5cc6 76cb fb3e ba91 4090 f30a cd3e
00000120: ce3f b343 a0b5 223f 1435 625b cc47 01bf
00000130: 5198 2a5a a1e8 37bf 85a6 8f3a 8a2a eabe
00000140: 4ead 600f de6d 0e3f a0b1 6f21 d7d2 c93e
00000150: dc73 5f17 3182 6f3e 6d0e 51f4 70dd aabe
00000160: cd4e ad30 e400 1dbf b52e 1c88 60e0 e13e
00000170: 9ce8 6e3f 1c48 f63e 9d5e 12a0 3988 94be
00000180: 2c9f 4cc8 a43c e73e 3baf cc15 1e2c f5be
00000190: bbf4 d238 950f 28bf 4e44 c32b 9c4d f23e
000001a0: f045 32f3 2247 f53e 991d c54a 8a1e b3be
000001b0: 6f1c 0d5a 67d2 f13e e858 53d4 916d f9be
000001c0: 9114 bd4d a6b0 30bf 3397 57a5 3261 e13e
000001d0: bf14 8e34 9415 f83e 6c73 d2f8 d71a b13e
000001e0: 9183 2689 bb58 ff3e 78de 8fa9 2026 f6be
000001f0: 93dc 6d50 7ad8 34bf d340 9fdc 6d28 e23e
00000200: 45f7 a326 607d fc3e 8a4e 76cb 59a5 c53e
00000210: 3034 0e4d f4f9 113f 5898 f1cf b353 fabe
00000220: 7f3a e497 6880 36bf 419b 09fc 5fa5 e13e
00000230: 9a5b 441e 6be1 fa3e 8899 a91f 1c27 c93e
00000240: 3822 50e0 9a70 213f 9ecc 375b 7564 01bf
00000250: f8ac 0774 cca1 37bf 6378 e88d e640 f03e
00000260: b54b 37e9 3650 0e3f fcaa 5cd3 d269 c83e
00000270: 97f4 b6f1 8670 b7be 3fae f76a 86ea b4be
00000280: f75f cb13 97a2 08bf ac7f 84be ae4e c73e
00000290: c877 2ef3 7d89 f63e 770a c014 26eb 81be
000002a0: 61f0 64e1 f195 f63e 8923 3799 b750 f5be
000002b0: 3cc2 a950 46d7 10bf 0541 0b85 3c99 ef3e
000002c0: f932 9c8e 81bb 063f 4ed2 27a7 4a7f b8be
000002d0: 3684 056d 97a8 c1be f675 0ae0 7b4a c1be
000002e0: 1a65 ed37 04ee 09bf 7d2a 9b0e 319a dbbe
000002f0: f85e 7544 e970 f73e e39f 2bb5 8c7a 8b3e
00000300: f0b2 c7b1 2fe8 f83e edd9 4494 055f f5be
00000310: 8629 c0a0 2ead 11bf e8c2 0b7a a213 f1be
00000320: 94ad afbf e11e 093f f188 36b7 dc18 bd3e
00000330: 873b 81bf 11a4 d4be 3c7f c3f3 0ddb bfbe
00000340: 0bf2 b6b2 f938 1ebf 71e8 032b e705 c9be
00000350: d793 81e5 47ad f63e a526 f713 0f98 953e
00000360: 7575 4eed 5f6b ca3e 2993 f4d7 e2c2 f6be
00000370: 9f17 ea3a 2857 28bf 14ac 019e a146 c5be
00000380: 1171 6b0b 0498 f63e 1c46 1b14 2b63 c13e
00000390: 4aad ed86 f9fa de3e 9198 c22a d848 fdbe
000003a0: 922a 15bd 4d19 30bf 9717 c9b7 65af 01bf
000003b0: 7999 5159 9a67 fc3e b82b c3c4 bdd3 c33e
000003c0: 3a92 37c6 55e3 d83e 22b0 0b7c cbe9 efbe
000003d0: 093a cc01 bd21 33bf 586c 78c9 f26a fdbe
000003e0: cf5e e32b c0d3 fa3e 1771 3a13 3b20 bf3e
000003f0: a6b9 b9a2 4bf8 033f a710 3f1f 766f e63e
00000400: e5ac 187d ffed 33bf 132c 83c6 93d8 07bf
00000410: 0502 e5b8 94a4 0b3f 406d 74c0 f47c 8f3e
00000420: 216d 0abc 1407 d7be a3cc 838d 72bc b3be
00000430: 46aa 83ea 4b0d 20bf 30cf bc34 df70 e83e
00000440: c1f3 53e8 9ce8 f43e 7cd2 4ae7 4e66 85be
00000450: c283 56d4 7732 aabe a7f3 dc7b 63c7 f7be
00000460: 3fd0 0189 a13f 2abf 07d7 e503 50b5 e53e
00000470: 57cd 9db5 3d61 f23e 7e6e 73cc 77a8 a73e
00000480: 44a8 dfee 8fc5 b63e 4c7a c5e6 c15c fdbe
00000490: d0c4 851b d6c9 31bf 2686 551d 7f4f ed3e
000004a0: 4d41 5637 dda7 f73e c7e5 293c 1ec5 b93e
000004b0: 1166 1de5 21f0 8a3e 8088 4bc6 790b edbe
000004c0: a89d 6a43 0265 35bf ff89 1e68 9de1 e13e
000004d0: 3b09 8392 7b71 f53e f77f b2ce 4423 c33e
000004e0: 00be beaf 4a92 fc3e c8d3 49c6 4ba0 e13e
000004f0: 3dae a220 0360 36bf ea23 9e0e 0b33 f23e
00000500: e34c 6332 d62f 053f b018 9023 a41c ba3e
00000510: 9918 aa6d f1e5 cfbe 1db7 098b 3419 a8be
00000520: 4502 364f a601 20bf 26da 939a 122c d9be
00000530: 8fd8 70cd 7fa9 f43e 8543 46e6 1d26 96be
00000540: dbf1 2e56 1a06 bfbe 507c c956 31a7 f8be
00000550: 52a6 4748 d948 2abf 3368 581c abee e0be
00000560: f6e4 2f3b 10a8 f13e df24 9220 f67c 913e
00000570: 59c0 621a 3111 bcbe 5ee6 0724 5465 fdbe
00000580: 3c32 50ba 65e2 31bf d95c 1375 bf5d f0be
00000590: c599 4fb8 e985 f63e d4cd 3fb6 7dfd b73e
000005a0: e0ff c643 82f8 e8be 9c49 839e 22cf ecbe
000005b0: d14b a0d5 0da0 35bf d2d8 1197 5338 f4be
000005c0: a0c6 ce6b c84f f43e 064d d1be dcaf ca3e
000005d0: d5aa b8b9 9c4a e83e c2ef ada3 71cc e03e
000005e0: 1251 8b36 eaa6 36bf f753 5bda d08b ffbe
000005f0: dab4 7662 fdd6 033f 0d37 c2cb 4b56 d13e
00000600: 6586 8445 37d7 c0be e2ce 6555 3563 a23e
00000610: 2cc3 0b45 87d4 26bf 8ef8 25b6 1439 eabe
00000620: 6db9 b6ec 2850 f53e 2e09 8521 e2c9 87be
00000630: c385 c690 35bf bf3e e3fe 83c3 100e fabe
00000640: da1b 932d 9025 33bf 2cf9 71cc 38eb eebe
00000650: b231 0264 56a9 f13e ac37 fb2e d737 963e
00000660: 3d6a 17c2 8e53 d0be 992d 7e6a 719e fdbe
00000670: 4b11 bcb8 c6f6 3abf 52b4 b40d 0054 f7be
00000680: 5e82 0aba 339f f53e 5db6 0eeb bc8e b43e
00000690: 1e12 8b5b 9432 f8be 7a6a dc28 5cd5 eabe
000006a0: 8a62 18d3 3335 41bf 59fc 13df efe8 fbbe
000006b0: 8754 9b99 b6f8 f33e 5cd2 2950 2772 bd3e
000006c0: 166d c097 058a f6be 040b fc79 fe01 db3e
000006d0: adb7 9fb2 73e3 42bf 38a7 f37c 744c fabe
000006e0: 647f 2519 e88d f53e 7451 4675 8afc b33e
000006f0: 422f 2c08 152e ffbe 757d aa3f d3dc 07bf
00000700: 3362 876c eb7b 44bf cabe f788 f2c9 fabe
00000710: a2e1 9468 8844 fa3e 5427 41cc ba41 dbbe
00000720: 6d8b 5712 53b9 083f 69ae a3e4 1305 18bf
00000730: 1a49 e5a9 243b 45bf 5b73 6394 eecb 10bf
00000740: eec8 e9ff 0bab 103f ab1c fd9f 58d5 debe
00000750: c338 984d c3fa c4be f771 d461 5e7f cd3e
00000760: 6e2d c4a8 199f 24bf bc1d 69d0 b867 003f
00000770: 5a7e a322 ca5f f53e a2d9 7e03 e8e2 a13e
00000780: 4ca4 6550 15bc c23e 5d8c 84c9 e08e fcbe
00000790: afda da62 5b4b 31bf d9e9 028d 55d5 043f
000007a0: 8308 78b7 8ac7 f33e 7a43 3f30 3f09 a3be
000007b0: 11cb f7e6 7455 d8be 9540 6cc0 133f febe
000007c0: 2ea6 6390 9e60 38bf 6b48 c4d2 ce38 033f
000007d0: 1186 d874 567a f53e eade 93af 8cf9 bc3e
000007e0: 0e73 4223 96bf f9be a407 426e c756 e6be
000007f0: 8eaf 233d 7645 3fbf 02dc b787 4de2 003f

b f8 [3048]
2.7284841053187847e-12 -4.662936703425657e-13 -34745.95358968833 -8600.947502027175 13633.440521019704 1.5987211554602254e-14 2.2737367544323206e-13 9.392486788328824e-14
-49923.70253948997 4797.927628247205 13633.440521019702 2.6645352591003757e-14 -7.275957614183426e-12 -1.965272389270467e-11 -38691.26013687122 -3803.0198737799606
13633.440521019706 6.430411758628907e-13 3.637978807091713e-12 1.9834800468743197e-11 -42714.92466208096 -3803.0198737799797 13633.440521019695 -8.526512829121202e-14
-3.637978807091713e-11 1.4164669437377597e-11 -40478.30798370214 -3803.0198737799865 13633.440521019696 -9.094947017729282e-13 -1.4551915228366852e-11 4.496314431889914e-11
-39844.807393504205 -3803.019873779961 13633.44052101969 -1.5916157281026244e-12 2.9103830456733704e-11 -2.9203306439740118e-12 -32453.921004541928 -3803.0198737799756
13633.440521019698 6.821210263296962e-13 5.4569682106375694e-12 1.184830011879967e-12 -46598.095007902746 -393.10272064480256 13633.4405210197 1.900701818158268e-13
0.0 3.867128839374345e-11 -46394.94954754625 -393.1027206448072 13633.440521019698 3.410605131648481e-13 7.275957614183426e-12 -1.511324398961733e-11
-42714.92466208096 3803.019873779967 13633.440521019706 1.2221335055073723e-12 0.0 5.6417093219351955e-12 -40478.30798370173 3803.019873779966
13633.440521019704 5.968558980384842e-13 -2.9103830456733704e-11 -2.3945290195115376e-11 -39844.80739350429 3803.019873779968 13633.440521019686 -1.5063505998114124e-12
2.9103830456733704e-11 -1.828937001846498e-11 -32453.9210045416 3803.0198737799587 13633.440521019675 3.126388037344441e-13 -4.547473508864641e-13 2.1316282072803006e-14
-50861.257825781875 -5313.246613165853 13633.4405210197 3.552713678800501e-14 0.0 5.409006575973763e-13 -41030.609298084295 -5313.246613165842
13633.4405210197 -6.128431095930864e-13 1.8189894035458565e-12 -3.020694805400126e-12 -56496.69182947977 -3071.342760456529 13633.440521019704 1.1546319456101628e-13
3.637978807091713e-12 2.759037442956469e-11 -46666.04330178212 -3071.3427604565286 13633.440521019698 1.4210854715202004e-14 2.7284841053187847e-12 2.353672812205332e-13
-58005.47791917013 436.05025016006687 13633.440521019696 -2.3092638912203256e-14 -4.547473508864641e-13 -1.0931699989669141e-11 -57802.332458813275 436.0502501600629
13633.440521019696 5.684341886080802e-14 0.0 1.779909553079051e-12 -48486.87356965045 -12144.661717887102 13633.440521019696 -7.105427357601002e-14
-5.4569682106375694e-12 1.3750778293797339e-11 -46250.2568912714 -12144.661717887104 13633.440521019696 -1.4566126083082054e-13 -7.275957614183426e-12 1.4566126083082054e-13
-34382.81087196154 -12144.661717887095 13633.4405210197 1.0658141036401503e-13 0.0 4.007905118896815e-13 -53813.675901041854 6228.520730635887
13633.440521019695 -3.3306690738754696e-14 -9.094947017729282e-13 -2.6183499812759692e-11 -53610.53044068535 6228.520730635888 13633.4405210197 1.0658141036401503e-13
0.0 2.1312729359124205e-11 -57634.194965895025 6228.520730635894 13633.440521019702 2.5579538487363607e-13 0.0 -8.86046791492845e-12
-55397.578287516204 6228.520730635876 13633.440521019695 -1.0658141036401503e-13 0.0 -1.7852386235972517e-11 -43530.13226820644 6228.520730635913
13633.44052101971 1.2931877790833823e-12 -2.2737367544323206e-12 -8.131273432354647e-12 -51614.86200702118 -2495.281060708523 13633.440521019676 -4.600764214046649e-13
1.8189894035458565e-12 -8.947509400059062e-12 -51411.71654666466 -2495.2810607085235 13633.440521019695 -5.684341886080802e-14 4.547473508864641e-13 5.5067062021407764e-12
-55435.38107187413 -2495.281060708521 13633.440521019704 9.237055564881302e-14 1.0913936421275139e-11 -1.6413537196058314e-12 -53198.764393494734 -2495.2810607085316
13633.440521019695 1.0942358130705543e-12 0.0 1.9255708139098715e-12 -41331.31837418528 -2495.281060708534 13633.440521019711 1.1368683772161603e-13
-5.684341886080801e-13 -3.219646771412954e-14 -56417.55695279015 -5347.99615508408 13633.440521019707 -2.042810365310288e-14 -1.3642420526593924e-12 3.437605755607365e-11
-56214.41149243384 -5347.996155084093 13633.440521019704 9.237055564881302e-14 -9.094947017729282e-13 -1.8534507262302213e-11 -60238.07601764311 -5347.996155084075
13633.440521019704 -1.1013412404281553e-12 3.637978807091713e-12 2.390976305832737e-12 -58001.45933926394 -5347.996155084101 13633.440521019702 4.263256414560601e-14
-1.4551915228366852e-11 1.1937117960769683e-12 -57367.95874906658 -5347.996155084079 13633.440521019702 -2.4158453015843406e-13 0.0 5.8122395785176195e-12
-51123.932850799494 -13759.418203043815 13633.440521019713 7.105427357601002e-14 -2.9103830456733704e-11 -3.178968199790688e-11 -39889.98742168675 -13759.418203043819
13633.440521019704 7.673861546209082e-13 6.821210263296962e-13 -1.2398970739013748e-12 -53573.63098701558 9162.540272107593 13633.440521019691 -8.881784197001252e-14
1.8189894035458565e-12 3.526512415419347e-11 -53370.48552665892 9162.540272107599 13633.440521019693 1.5276668818842154e-13 0.0 -9.801937039810582e-12
-49330.97354839333 13759.41820304381 13633.440521019696 -7.815970093361102e-14 -7.275957614183426e-12 2.385758257616999e-12 -47094.356870014766 13759.418203043799
00000000: 0000 0000 0000 883d 0000 0000 0068 60bd
00000010: a685 ce83 3ef7 e0c0 ce15 bf47 79cc c0c0
00000020: 6a26 fe62 b8a0 ca40 0000 0000 0000 123d
00000030: 0000 0000 0000 503d 0000 0000 0070 3a3d
00000040: b218 347b 7660 e8c0 9778 0b79 edbd b240
00000050: 6926 fe62 b8a0 ca40 0000 0000 0000 1e3d
00000060: 0000 0000 0000 a0bd 0000 0000 c09b b5bd
00000070: 4c8f 0a53 68e4 e2c0 f565 e52c 0ab6 adc0
00000080: 6b26 fe62 b8a0 ca40 0000 0000 00a0 663d
00000090: 0000 0000 0000 903d 0000 0000 00cf b53d
000000a0: b2ee d496 5ddb e4c0 1f66 e52c 0ab6 adc0
000000b0: 6526 fe62 b8a0 ca40 0000 0000 0000 38bd
000000c0: 0000 0000 0000 c4bd 0000 0000 0026 af3d
000000d0: 0da3 00db c9c3 e3c0 2e66 e52c 0ab6 adc0
000000e0: 6626 fe62 b8a0 ca40 0000 0000 0000 70bd
000000f0: 0000 0000 0000 b0bd 0000 0000 00b8 c83d
00000100: f2e6 2ad6 9974 e3c0 f665 e52c 0ab6 adc0
00000110: 6226 fe62 b8a0 ca40 0000 0000 0000 7cbd
00000120: 0000 0000 0000 c03d 0000 0000 00b0 89bd
00000130: c308 bdf1 7ab1 dfc0 1666 e52c 0ab6 adc0
00000140: 6726 fe62 b8a0 ca40 0000 0000 0000 683d
00000150: 0000 0000 0000 983d 0000 0000 00d8 743d
00000160: 6503 4e0a c3c0 e6c0 d120 67be a491 78c0
00000170: 6826 fe62 b8a0 ca40 0000 0000 00c0 4a3d
00000180: 0000 0000 0000 0000 0000 0000 8042 c53d
00000190: 2589 b162 5ea7 e6c0 2321 67be a491 78c0
000001a0: 6726 fe62 b8a0 ca40 0000 0000 0000 583d
000001b0: 0000 0000 0000 a03d 0000 0000 009e b0bd
000001c0: b2ee d496 5ddb e4c0 0366 e52c 0ab6 ad40
000001d0: 6b26 fe62 b8a0 ca40 0000 0000 0080 753d
000001e0: 0000 0000 0000 0000 0000 0000 00d0 983d
000001f0: d4a2 00db c9c3 e3c0 0166 e52c 0ab6 ad40
00000200: 6a26 fe62 b8a0 ca40 0000 0000 0000 653d
00000210: 0000 0000 0000 c0bd 0000 0000 0054 babd
00000220: fee6 2ad6 9974 e3c0 0566 e52c 0ab6 ad40
00000230: 6026 fe62 b8a0 ca40 0000 0000 0080 7abd
00000240: 0000 0000 0000 c03d 0000 0000 001c b4bd
00000250: 6908 bdf1 7ab1 dfc0 f165 e52c 0ab6 ad40
00000260: 5a26 fe62 b8a0 ca40 0000 0000 0000 563d
00000270: 0000 0000 0000 60bd 0000 0000 0000 183d
00000280: a7da 1b40 a8d5 e8c0 1a5a 0a22 3fc1 b4c0
00000290: 6826 fe62 b8a0 ca40 0000 0000 0000 243d
000002a0: 0000 0000 0000 0000 0000 0000 0008 633d
000002b0: 32b2 5e7f d308 e4c0 0e5a 0a22 3fc1 b4c0
000002c0: 6826 fe62 b8a0 ca40 0000 0000 0090 65bd
000002d0: 0000 0000 0000 803d 0000 0000 0092 8abd
000002e0: c193 7723 1696 ebc0 4f6e 4c7e affe a7c0
000002f0: 6a26 fe62 b8a0 ca40 0000 0000 0040 403d
00000300: 0000 0000 0000 903d 0000 0000 0056 be3d
00000310: 426b ba62 41c9 e6c0 4e6e 4c7e affe a7c0
00000320: 6726 fe62 b8a0 ca40 0000 0000 0000 103d
00000330: 0000 0000 0000 883d 0000 0000 0090 503d
00000340: bb24 1d4b af52 ecc0 b2a1 1cd3 cd40 7b40
00000350: 6626 fe62 b8a0 ca40 0000 0000 0000 1abd
00000360: 0000 0000 0000 60bd 0000 0000 000a a8bd
00000370: 49aa 80a3 4a39 ecc0 6ca1 1cd3 cd40 7b40
00000380: 6626 fe62 b8a0 ca40 0000 0000 0000 303d
00000390: 0000 0000 0000 0000 0000 0000 0050 7f3d
000003a0: ef56 48f4 dbac e7c0 24f6 2bb3 54b8 c7c0
000003b0: 6626 fe62 b8a0 ca40 0000 0000 0000 34bd
000003c0: 0000 0000 0000 98bd 0000 0000 003d ae3d
000003d0: 290b 7438 4895 e6c0 25f6 2bb3 54b8 c7c0
000003e0: 6626 fe62 b8a0 ca40 0000 0000 0080 44bd
000003f0: 0000 0000 0000 a0bd 0000 0000 0080 443d
00000400: 82c1 a9f2 d9c9 e0c0 20f6 2bb3 54b8 c7c0
00000410: 6826 fe62 b8a0 ca40 0000 0000 0000 3e3d
00000420: 0000 0000 0000 0000 0000 0000 0034 5c3d
00000430: c338 fba0 b546 eac0 295b 9a4e 8554 b840
00000440: 6526 fe62 b8a0 ca40 0000 0000 00c0 22bd
00000450: 0000 0000 0000 70bd 0000 0000 00ca bcbd
00000460: 81be 5ef9 502d eac0 2a5b 9a4e 8554 b840
00000470: 6826 fe62 b8a0 ca40 0000 0000 0000 3e3d
00000480: 0000 0000 0000 0000 0000 0000 006f b73d
00000490: df1d 293d 4624 ecc0 315b 9a4e 8554 b840
000004a0: 6926 fe62 b8a0 ca40 0000 0000 0000 523d
000004b0: 0000 0000 0000 0000 0000 0000 007c a3bd
000004c0: 39d2 5481 b20c ebc0 1d5b 9a4e 8554 b840
000004d0: 6526 fe62 b8a0 ca40 0000 0000 0000 3ebd
000004e0: 0000 0000 0000 0000 0000 0000 00a1 b3bd
000004f0: 9f88 8a3b 4441 e5c0 465b 9a4e 8554 b840
00000500: 6d26 fe62 b8a0 ca40 0000 0000 00c0 763d
00000510: 0000 0000 0000 84bd 0000 0000 80e1 a1bd
00000520: 9cbf 8f95 db33 e9c0 986e 30e7 8f7e a3c0
00000530: 5b26 fe62 b8a0 ca40 0000 0000 0030 60bd
00000540: 0000 0000 0000 803d 0000 0000 00ad a3bd
00000550: 5945 f3ed 761a e9c0 996e 30e7 8f7e a3c0
00000560: 6526 fe62 b8a0 ca40 0000 0000 0000 30bd
00000570: 0000 0000 0000 603d 0000 0000 0038 983d
00000580: 9aa4 bd31 6c11 ebc0 946e 30e7 8f7e a3c0
00000590: 6a26 fe62 b8a0 ca40 0000 0000 0000 3a3d
000005a0: 0000 0000 0000 a83d 0000 0000 00e0 7cbd
000005b0: a558 e975 d8f9 e9c0 ab6e 30e7 8f7e a3c0
000005c0: 6526 fe62 b8a0 ca40 0000 0000 0040 733d
000005d0: 0000 0000 0000 0000 0000 0000 00f0 803d
000005e0: 350f 1f30 6a2e e4c0 b06e 30e7 8f7e a3c0
000005f0: 6e26 fe62 b8a0 ca40 0000 0000 0000 403d
00000600: 0000 0000 0000 64bd 0000 0000 0020 22bd
00000610: 64a8 8ed2 318c ebc0 de03 0504 ffe3 b4c0
00000620: 6c26 fe62 b8a0 ca40 0000 0000 0000 17bd
00000630: 0000 0000 0000 78bd 0000 0000 00e6 c23d
00000640: 3d2e f22a cd72 ebc0 ec03 0504 ffe3 b4c0
00000650: 6a26 fe62 b8a0 ca40 0000 0000 0000 3a3d
00000660: 0000 0000 0000 70bd 0000 0000 0061 b4bd
00000670: 628d bc6e c269 edc0 d903 0504 ffe3 b4c0
00000680: 6a26 fe62 b8a0 ca40 0000 0000 0060 73bd
00000690: 0000 0000 0000 903d 0000 0000 0008 853d
000006a0: 8d41 e8b2 2e52 ecc0 f503 0504 ffe3 b4c0
000006b0: 6926 fe62 b8a0 ca40 0000 0000 0000 283d
000006c0: 0000 0000 0000 b0bd 0000 0000 0000 753d
000006d0: c185 12ae fe02 ecc0 dd03 0504 ffe3 b4c0
000006e0: 6926 fe62 b8a0 ca40 0000 0000 0000 51bd
000006f0: 0000 0000 0000 0000 0000 0000 0090 993d
00000700: 7ceb e9d9 7df6 e8c0 2366 ad87 b5df cac0
00000710: 6f26 fe62 b8a0 ca40 0000 0000 0000 343d
00000720: 0000 0000 0000 c0bd 0000 0000 007a c1bd
00000730: 7e5d f598 3f7a e3c0 2566 ad87 b5df cac0
00000740: 6a26 fe62 b8a0 ca40 0000 0000 0000 6b3d
00000750: 0000 0000 0000 683d 0000 0000 00d0 75bd
00000760: 84ae 0b31 b428 eac0 87ec a227 45e5 c140
00000770: 6326 fe62 b8a0 ca40 0000 0000 0000 39bd
00000780: 0000 0000 0000 803d 0000 0000 2063 c33d
00000790: 2d34 6f89 4f0f eac0 8aec a227 45e5 c140
000007a0: 6426 fe62 b8a0 ca40 0000 0000 0080 453d
000007b0: 0000 0000 0000 0000 0000 0000 008e a5bd
000007c0: cef5 4e27 5f16 e8c0 2066 ad87 b5df ca40
000007d0: 6626 fe62 b8a0 ca40 0000 0000 0000 36bd
000007e0: 0000 0000 0000 a0bd 0000 0000 40fc 843d
000007f0: 4baa 7a6b cbfe e6c0 1a66 ad87 b5df ca40
