python-Linux/neural-sparse-linear-solvers-master/stand_small_test/2090256495609141151_b8c22ed7dc10a32464fe370c9dd8512e84b22a6f_ebb3a35411a5431c09f9759845b1b0c924df0661.npz (npz, 103478 bytes, 3 tensors)

A_values f8 [25750]
00000000: ac27 4fad 73d7 da41 b8e1 f299 5c60 7141
00000010: 80d5 95d6 bd60 4fc1 5e2d 22e4 4325 83c1
00000020: 4062 809c c181 8f41 789e cdee 7ded 34c1
00000030: 80d5 95d6 bd60 4fc1 bc95 a9c2 a2db d9c1
00000040: e6d3 9fcf 9b39 cb41 8052 5ff6 88ac 4dc1
00000050: 96ae 4660 c96e 6d41 24ca 931c 3555 5fc1
00000060: 0824 db8c 0ac8 69c1 738a 56a8 d588 cac1
00000070: 58b7 a777 3e21 63c1 96ae 4660 c96e 6d41
00000080: 001c 0a2c 97ae e641 7446 5fc0 f8f8 7341
00000090: cc18 e6f9 d4d6 91c1 b85a 8e29 f12c d8c1
000000a0: 4a0c ef4b 43a4 5ac1 7446 5fc0 f8f8 7341
000000b0: 751e 82b0 6f30 87c1 cc18 e6f9 d4d6 91c1
000000c0: 8052 5ff6 88ac 4dc1 7446 5fc0 f8f8 7341
000000d0: 342b 1a8c 390f a341 0824 db8c 0ac8 6941
000000e0: 5541 717b 5313 6c41 7446 5fc0 f8f8 73c1
000000f0: e1f0 3852 afbb 8341 ae17 7b5f fac8 73c1
00000100: b8e1 f299 5c60 7141 cc18 e6f9 d4d6 91c1
00000110: 5d99 7aa0 0453 ba41 4062 809c c181 8fc1
00000120: 1b0b 6f2b b09e 9041 e901 7909 804d 64c1
00000130: cc18 e6f9 d4d6 9141 63bb 99b6 a57e 9141
00000140: 80d5 95d6 bd60 4fc1 96ae 4660 c96e 6d41
00000150: 4af2 4936 f305 9441 2831 5d60 6f7f 72c1
00000160: 80d5 95d6 bd60 4f41 ef94 b757 5b4b 5f41
00000170: 96ae 4660 c96e 6dc1 ae93 ec54 27ef 6d41
00000180: 5e2d 22e4 4325 83c1 4062 809c c181 8fc1
00000190: 8f5a 4641 087a da41 4062 809c c181 8fc1
000001a0: 80d5 95d6 bd60 4fc1 789e cdee 7ded 34c1
000001b0: 80d5 95d6 bd60 4fc1 bc95 a9c2 a2db d9c1
000001c0: 24ca 931c 3555 5fc1 0824 db8c 0ac8 6941
000001d0: e550 6e0c 0514 cb41 0824 db8c 0ac8 6941
000001e0: 96ae 4660 c96e 6d41 738a 56a8 d588 cac1
000001f0: 58b7 a777 3e21 63c1 96ae 4660 c96e 6d41
00000200: b85a 8e29 f12c d8c1 b85a 5eea 1801 d941
00000210: 7446 5fc0 f8f8 7341 cc18 e6f9 d4d6 91c1
00000220: 4a0c ef4b 43a4 5ac1 7446 5fc0 f8f8 7341
00000230: 751e 82b0 6f30 87c1 cc18 e6f9 d4d6 91c1
00000240: 0824 db8c 0ac8 69c1 5541 717b 5313 6c41
00000250: 0824 db8c 0ac8 6941 7446 5fc0 f8f8 7341
00000260: c423 6db1 b80f a041 7446 5fc0 f8f8 73c1
00000270: e1f0 3852 afbb 8341 ae17 7b5f fac8 73c1
00000280: 4062 809c c181 8f41 1b0b 6f2b b09e 9041
00000290: 4062 809c c181 8fc1 cc18 e6f9 d4d6 91c1
000002a0: 59d1 71cc a5ca b241 e901 7909 804d 64c1
000002b0: cc18 e6f9 d4d6 9141 63bb 99b6 a57e 9141
000002c0: 2831 5d60 6f7f 72c1 80d5 95d6 bd60 4fc1
000002d0: 96ae 4660 c96e 6d41 53d7 1563 f320 9041
000002e0: 80d5 95d6 bd60 4f41 ef94 b757 5b4b 5f41
000002f0: 96ae 4660 c96e 6dc1 ae93 ec54 27ef 6d41
00000300: 789e cdee 7ded 34c1 80d5 95d6 bd60 4f41
00000310: 9f00 48eb eadd da41 b8e1 f299 5c60 7141
00000320: 402c 55e0 28ff 22c1 5e2d 22e4 4325 83c1
00000330: 4062 809c c181 8f41 e4cc 63e3 f7dc 39c1
00000340: 4890 5507 4410 52c1 bc95 a9c2 a2db d9c1
00000350: 738a 56a8 d588 cac1 3e57 7603 6eda db41
00000360: 8052 5ff6 88ac 4dc1 96ae 4660 c96e 6d41
00000370: 24ca 931c 3555 5fc1 0824 db8c 0ac8 69c1
00000380: 98da 4c37 407b ccc1 58b7 a777 3e21 63c1
00000390: 96ae 4660 c96e 6d41 4a0c ef4b 43a4 5ac1
000003a0: 7446 5fc0 f8f8 73c1 87bb 64ed 01bf e641
000003b0: 70f0 c096 56ad 4741 cc18 e6f9 d4d6 91c1
000003c0: b85a 8e29 f12c d8c1 bc87 9f5a c16a 60c1
000003d0: 8264 3793 a3ee 7641 751e 82b0 6f30 87c1
000003e0: cc18 e6f9 d4d6 91c1 7446 5fc0 f8f8 7341
000003f0: e1f0 3852 afbb 8341 8052 5ff6 88ac 4dc1
00000400: 70f0 c096 56ad 4741 e1ff 2b2e e6ce ad41
00000410: 0824 db8c 0ac8 6941 5541 717b 5313 6c41
00000420: 8264 3793 a3ee 76c1 6b6a 55c9 2912 8541
00000430: ae17 7b5f fac8 73c1 e901 7909 804d 64c1
00000440: b8e1 f299 5c60 7141 cc18 e6f9 d4d6 91c1
00000450: 5e15 fd82 5b01 bb41 4062 809c c181 8fc1
00000460: 1b0b 6f2b b09e 9041 fe7f 4f50 dcca 65c1
00000470: cc18 e6f9 d4d6 9141 63bb 99b6 a57e 9141
00000480: 80d5 95d6 bd60 4fc1 ef94 b757 5b4b 5f41
00000490: 402c 55e0 28ff 22c1 96ae 4660 c96e 6d41
000004a0: 0ec3 1b36 e73b 9841 2831 5d60 6f7f 72c1
000004b0: 4890 5507 4410 5241 5127 7212 3bc7 6041
000004c0: 96ae 4660 c96e 6dc1 ae93 ec54 27ef 6d41
000004d0: 789e cdee 7ded 34c1 80d5 95d6 bd60 4f41
000004e0: 5e2d 22e4 4325 83c1 4062 809c c181 8fc1
000004f0: 0ced b7a4 a942 db41 d0c7 73f9 bff5 6441
00000500: 402c 55e0 28ff 22c1 3031 17af 4445 88c1
00000510: 1aaa 6ecd 985f 9241 e4cc 63e3 f7dc 39c1
00000520: 4890 5507 4410 52c1 bc95 a9c2 a2db d9c1
00000530: 738a 56a8 d588 cac1 24ca 931c 3555 5fc1
00000540: 0824 db8c 0ac8 6941 9b12 a24d c3ef db41
00000550: f4f9 3c46 7e62 42c1 96ae 4660 c96e 6d41
00000560: 996e 3ee2 5510 64c1 8562 6a1e aa60 6ec1
00000570: 98da 4c37 407b ccc1 58b7 a777 3e21 63c1
00000580: 96ae 4660 c96e 6d41 4a0c ef4b 43a4 5ac1
00000590: 7446 5fc0 f8f8 73c1 b85a 8e29 f12c d8c1
000005a0: 022c e426 67b4 e941 70f0 c096 56ad 4741
000005b0: cc18 e6f9 d4d6 91c1 3dbe b4e0 df46 dac1
000005c0: bc87 9f5a c16a 60c1 8264 3793 a3ee 7641
000005d0: 751e 82b0 6f30 87c1 cc18 e6f9 d4d6 91c1
000005e0: 7446 5fc0 f8f8 7341 e1f0 3852 afbb 8341
000005f0: 0824 db8c 0ac8 69c1 5541 717b 5313 6c41
00000600: f4f9 3c46 7e62 42c1 70f0 c096 56ad 4741
00000610: 6042 ab12 dfa8 ae41 8562 6a1e aa60 6e41
00000620: 5e69 5a5b e564 6e41 8264 3793 a3ee 76c1
00000630: 6b6a 55c9 2912 8541 ae17 7b5f fac8 73c1
00000640: e901 7909 804d 64c1 4062 809c c181 8f41
00000650: 1b0b 6f2b b09e 9041 d0c7 73f9 bff5 6441
00000660: cc18 e6f9 d4d6 91c1 1c91 e65a 9ef4 bc41
00000670: 1aaa 6ecd 985f 92c1 bea9 568a 6db4 9141
00000680: fe7f 4f50 dcca 65c1 cc18 e6f9 d4d6 9141
00000690: 63bb 99b6 a57e 9141 80d5 95d6 bd60 4fc1
000006a0: ef94 b757 5b4b 5f41 2831 5d60 6f7f 72c1
000006b0: 402c 55e0 28ff 22c1 96ae 4660 c96e 6d41
000006c0: ebeb 5061 a95d 9941 550f a5f9 071b 74c1
000006d0: 4890 5507 4410 5241 5127 7212 3bc7 6041
000006e0: 96ae 4660 c96e 6dc1 ae93 ec54 27ef 6d41
000006f0: 3031 17af 4445 88c1 1aaa 6ecd 985f 92c1
00000700: 3928 1b26 44a4 da41 1aaa 6ecd 985f 92c1
00000710: 4890 5507 4410 52c1 e4cc 63e3 f7dc 39c1
00000720: 4890 5507 4410 52c1 bc95 a9c2 a2db d9c1
00000730: 996e 3ee2 5510 64c1 8562 6a1e aa60 6e41
00000740: 3073 b488 0618 cd41 8562 6a1e aa60 6e41
00000750: 96ae 4660 c96e 6d41 98da 4c37 407b ccc1
00000760: 58b7 a777 3e21 63c1 96ae 4660 c96e 6d41
00000770: 3dbe b4e0 df46 dac1 400e eee0 3821 db41
00000780: 8264 3793 a3ee 7641 cc18 e6f9 d4d6 91c1
00000790: bc87 9f5a c16a 60c1 8264 3793 a3ee 7641
000007a0: 751e 82b0 6f30 87c1 cc18 e6f9 d4d6 91c1
000007b0: 8562 6a1e aa60 6ec1 5e69 5a5b e564 6e41
000007c0: 8562 6a1e aa60 6e41 8264 3793 a3ee 7641
000007d0: 9281 2dad 4512 a141 8264 3793 a3ee 76c1
000007e0: 6b6a 55c9 2912 8541 ae17 7b5f fac8 73c1
000007f0: 1aaa 6ecd 985f 9241 bea9 568a 6db4 9141
1801309877.2367964 18220489.621797293 -4112763.6764475703 -40151164.51668809 66074675.5626874 -1371517.9328249972 -4112763.6764475703 -1735297802.649764
913520543.2486541 -3889425.9247840047 15431243.008628171 -8213716.446520362 -13516884.40175058 -890350416.6761001 -10029555.739223167 15431243.008628171
3044325728.315918 20942732.02326055 -74822974.47470397 -1622394022.224287 -6983949.186465332 20942732.02326055 -48631286.063534655 -74822974.47470397
-3889425.9247840047 20942732.02326055 159882438.05111086 13516884.40175058 14719643.857575098 -20942732.02326055 41383402.27780319 -20746149.96755188
18220489.621797293 -74822974.47470397 441648288.47890264 -66074675.5626874 69708810.8584408 -10644480.296021419 74822974.47470397 73378157.65012889
-4112763.6764475703 15431243.008628171 83983565.57221332 -19396342.022751957 4112763.6764475703 8203629.370579942 -15431243.008628171 15694138.653879013
-40151164.51668809 -66074675.5626874 1776820485.0992773 -66074675.5626874 -4112763.6764475703 -1371517.9328249972 -4112763.6764475703 -1735297802.649764
-8213716.446520362 13516884.40175058 908593688.8618437 13516884.40175058 15431243.008628171 -890350416.6761001 -10029555.739223167 15431243.008628171
-1622394022.224287 1678009257.474287 20942732.02326055 -74822974.47470397 -6983949.186465332 20942732.02326055 -48631286.063534655 -74822974.47470397
-13516884.40175058 14719643.857575098 13516884.40175058 20942732.02326055 134732888.7131635 -20942732.02326055 41383402.27780319 -20746149.96755188
66074675.5626874 69708810.8584408 -66074675.5626874 -74822974.47470397 315270604.44460064 -10644480.296021419 74822974.47470397 73378157.65012889
-19396342.022751957 -4112763.6764475703 15431243.008628171 67648728.77132921 4112763.6764475703 8203629.370579942 -15431243.008628171 15694138.653879013
-1371517.9328249972 4112763.6764475703 1803004845.125038 18220489.621797293 -622484.4381498173 -40151164.51668809 66074675.5626874 -1694967.8882415826
-4735248.114597388 -1735297802.649764 -890350416.6761001 1869199373.8490748 -3889425.9247840047 15431243.008628171 -8213716.446520362 -13516884.40175058
-955678830.600421 -10029555.739223167 15431243.008628171 -6983949.186465332 -20942732.02326055 3052932971.1478915 3103405.1777630374 -74822974.47470397
-1622394022.224287 -8607242.831973903 24046137.201023586 -48631286.063534655 -74822974.47470397 20942732.02326055 41383402.27780319 -3889425.9247840047
3103405.1777630374 250049303.08593658 13516884.40175058 14719643.857575098 -24046137.201023586 44188985.16670688 -20746149.96755188 -10644480.296021419
18220489.621797293 -74822974.47470397 453073794.9886073 -66074675.5626874 69708810.8584408 -11425506.509704586 74822974.47470397 73378157.65012889
-4112763.6764475703 8203629.370579942 -622484.4381498173 15431243.008628171 101644749.52711126 -19396342.022751957 4735248.114597388 8796632.576434763
-15431243.008628171 15694138.653879013 -1371517.9328249972 4112763.6764475703 -40151164.51668809 -66074675.5626874 1829414546.8738432 10989055.795383364
-622484.4381498173 -50899093.88632429 77063731.35807076 -1694967.8882415826 -4735248.114597388 -1735297802.649764 -890350416.6761001 -8213716.446520362
13516884.40175058 1874791734.5323856 -2409724.5487358514 15431243.008628171 -10519215.070121096 -15926608.95048643 -955678830.600421 -10029555.739223167
15431243.008628171 -6983949.186465332 -20942732.02326055 -1622394022.224287 3450026295.130372 3103405.1777630374 -74822974.47470397 -1763409794.8241112
-8607242.831973903 24046137.201023586 -48631286.063534655 -74822974.47470397 20942732.02326055 41383402.27780319 -13516884.40175058 14719643.857575098
-2409724.5487358514 3103405.1777630374 257191817.33449078 15926608.95048643 15935274.854786571 -24046137.201023586 44188985.16670688 -20746149.96755188
-10644480.296021419 66074675.5626874 69708810.8584408 10989055.795383364 -74822974.47470397 485793370.9006517 -77063731.35807076 74259298.58463189
-11425506.509704586 74822974.47470397 73378157.65012889 -4112763.6764475703 8203629.370579942 -19396342.022751957 -622484.4381498173 15431243.008628171
106392152.32902496 -21082239.602797825 4735248.114597388 8796632.576434763 -15431243.008628171 15694138.653879013 -50899093.88632429 -77063731.35807076
1787891864.42433 -77063731.35807076 -4735248.114597388 -1694967.8882415826 -4735248.114597388 -1735297802.649764 -10519215.070121096 15926608.95048643
976227601.4097652 15926608.95048643 15431243.008628171 -955678830.600421 -10029555.739223167 15431243.008628171 -1763409794.8241112 1820648323.7196198
24046137.201023586 -74822974.47470397 -8607242.831973903 24046137.201023586 -48631286.063534655 -74822974.47470397 -15926608.95048643 15935274.854786571
15926608.95048643 24046137.201023586 143205078.58887917 -24046137.201023586 44188985.16670688 -20746149.96755188 77063731.35807076 74259298.58463189

x f8 [2370]
00000000: c617 e1a2 2bb0 adbe 37dc b481 6493 c1be
00000010: 7e39 3794 ab7e c7be 8fab 24f0 53be d43e
00000020: 91ba ec2d e999 923e f960 b855 d6e3 85be
00000030: 051e d5d4 737b af3e e495 0fb6 0357 d23e
00000040: 1d72 9b81 b124 d5be f975 4a02 0605 07bf
00000050: f27c 459d e378 ca3e 9d7e 37b6 2441 8b3e
00000060: 444e 0714 0bf4 aabe 2302 b6e7 f25d b9be
00000070: 8c45 df6a 639f dabe 4c21 ea20 c614 ccbe
00000080: 0c93 58db 1750 a73e 032e be20 55b5 7ebe
00000090: 1d08 610a b304 73be cd18 0f44 5217 d03e
000000a0: 397b 4a5b 125e e8be 67dd dcc9 9a23 fa3e
000000b0: 3c29 90f3 2015 c73e cd14 4fa3 4e65 6f3e
000000c0: 15c3 3c92 d004 ca3e 2490 4452 dac2 b63e
000000d0: f4fb c963 9262 ecbe 06bf 736c e69b 00bf
000000e0: 8cd2 3550 9b06 d33e a89a f892 0dc1 69be
000000f0: 7709 3dbd 49be 96be 6b8e e14e 9ebd b6be
00000100: 45d3 7716 6193 d7be f968 8761 c5c8 b13e
00000110: 07e1 c27e 3819 aa3e 9def 0f14 063e 7cbe
00000120: 0fb7 63a3 3b6d a53e 7299 c62a 3f08 d03e
00000130: ebb7 f9dc a267 e5be ebe8 9e7f 61d6 d4be
00000140: ecd3 ba20 c74e bb3e 7af6 e7c3 6ba1 30be
00000150: d4b6 1bf6 284f d53e 8980 5214 7557 b43e
00000160: 53a3 e9f0 268a eebe ae41 304e 1fa3 e73e
00000170: 1dcf 04d2 f76f da3e b62b aa38 5e44 83be
00000180: 76b9 de0e e5e4 9fbe 03d2 0c35 6b50 b4be
00000190: 56b3 0b66 7747 d0be 19ed eb36 0049 90be
000001a0: 5d7a c120 88a5 a03e 9cc4 c35f f93c 6dbe
000001b0: b2ba 3f91 ecfe a13e 7955 b3a1 bf53 cf3e
000001c0: 6adf 655f 97b1 ddbe ca38 e34d 285c ae3e
000001d0: 8da7 f831 5203 bc3e bc8c be28 6359 853e
000001e0: d022 efbc b4aa d53e eda8 f8b7 7e57 b33e
000001f0: 0684 1cb0 be5c e4be d39c 5936 d615 d13e
00000200: 85ad 03e3 ebf6 cb3e 7abf cf4c 8f7f a23e
00000210: 84d2 c9c0 7aa8 f93e 4d3f 5d3c 4b93 ebbe
00000220: 040e 9d71 980f e8be ab07 bc03 ad79 c7be
00000230: 85ef 16cc edb5 de3e 7b23 fb47 46a7 c53e
00000240: 6a27 4edc 8227 99be e318 7640 a128 b3be
00000250: db59 688d 25e5 d0be 3e22 e433 b503 753e
00000260: edfa 8f0c 7d25 a13e 3fc6 a446 6c67 61be
00000270: 4eb1 65e2 994b 8f3e a78f a108 60cd ce3e
00000280: d20f ca57 f2ea debe 15fa bcff b578 76be
00000290: 2640 4f5f 71d6 b53e 3280 d4f4 bba2 823e
000002a0: 7090 56f8 faad c33e 6289 1f38 118d b33e
000002b0: 9629 3404 cac3 e5be 283b e86c 5b71 51be
000002c0: 7582 c96f 7d68 b43e e8b8 5e51 1360 a13e
000002d0: a014 846d c30e e93e 9a89 45df d391 ebbe
000002e0: bd6e 6fd4 e868 f0be 2644 354a b214 d3be
000002f0: af86 9954 3a2e e23e e2de cc1d 3c1b c23e
00000300: 70a8 3400 88c7 a9be 261d 1435 ad25 b2be
00000310: ab03 d7ae 294d cdbe 330c 8c2b 53a7 aabe
00000320: 7229 e3d1 7fa5 c23e 4ac6 944b 86ca 79be
00000330: af4a 874f a07e 613e fe44 dcc9 988d ce3e
00000340: 3a19 16de 58f3 d5be dd74 1888 22ed 8b3e
00000350: 5bd1 4236 b68b a13e 70d2 2fa3 ccc0 773e
00000360: 8a3d 75c1 5776 bc3e 5ce2 3f3c 1e60 b43e
00000370: 8f36 5636 536c dcbe 4712 1fa1 77ec a63e
00000380: b672 d6bd fe99 b93e bdef 0245 49b0 863e
00000390: a136 55a5 28b3 e13e 7207 1305 76a1 ebbe
000003a0: 4b94 79e8 a213 e3be d14a 03ec e734 ee3e
000003b0: 3956 f8a1 8de4 d63e 2287 db99 b954 af3e
000003c0: 34c1 9473 dc2d 323e a044 d2f9 27bb b1be
000003d0: 4e30 52d1 1961 d5be 0e12 0072 3c5a e4be
000003e0: 3188 41e3 2373 d83e a915 3ac1 87cf 7ebe
000003f0: 16c7 fa21 5f20 b5be f901 803c ccbc b2be
00000400: 295a 6fa4 ec6e d8be 5d19 cf50 9516 ef3e
00000410: d12c 3186 a660 c33e e392 c66b b130 543e
00000420: 1ff5 d238 f53e bd3e 8b5b 51be 3deb c73e
00000430: eeb6 f256 cc1b e1be 6ac7 44c6 9dcc fdbe
00000440: f53f a0ec 975e d23e 0a09 e183 adcb 853e
00000450: 3c4f 2524 ae7c a8be 26cc c4d0 e0d4 acbe
00000460: 08e9 8a41 d83e d6be 2fd8 4dc1 3b91 c6be
00000470: 5ecc d2cc 5992 9c3e 49c0 84eb 94c4 76be
00000480: dbaf 702d 95bb 953e 8e62 5273 6288 c63e
00000490: 9f40 0c17 1ede e4be 2ac6 76fb b1ae f03e
000004a0: 2082 8ec6 2bdd c73e dfca 44d3 3bd1 813e
000004b0: e6f8 535d e939 ca3e 7ab3 df4a 6b85 dcbe
000004c0: 087b 5e14 8ece e7be cfc4 212d 4313 b03e
000004d0: 7028 dc0d 04da c03e 01a4 5785 5f8a a03e
000004e0: f73e 5ac0 b74e e73e 5d83 d11b 0992 e3be
000004f0: 0a73 e4de 1210 ecbe bf3c 7ea1 988d aebe
00000500: 6ced 59ab 1a22 db3e 220f 58e4 ce87 b23e
00000510: 9ead 6050 1e17 a0be 5a98 1dd5 5dd1 acbe
00000520: c021 af01 0876 bbbe 7778 298c 38d9 c23e
00000530: ebf4 8c94 7385 a03e 1688 88e9 4d76 78be
00000540: ddd5 20ab d475 a33e 5447 596b 26f4 c53e
00000550: 97c0 5916 dbbd c7be cb75 e5ce 06f9 c6be
00000560: 1bb7 c456 ebb4 b73e abe6 79b5 8135 7e3e
00000570: bcec db0d 70ee cc3e b831 5e34 991f dcbe
00000580: 951c 5ea4 5c75 d1be 70e4 0b1b ac31 c83e
00000590: 8cbc cb3b d310 c03e 15d0 b490 ae14 a03e
000005a0: e297 5492 32ed e23e 4c0b 7010 4d9a e3be
000005b0: 64e3 510d 6572 d9be e0c7 764b e460 d83e
000005c0: a560 28bd cc32 d63e 4432 5971 efa4 b13e
000005d0: f432 221b 7e5f abbe c5d1 87f5 7cec ccbe
000005e0: d6a0 1d0c f3fb dbbe eb72 3110 37ce dd3e
000005f0: d231 ab01 c4f6 9d3e 5ed6 d37b 7d8b 86be
00000600: 4dce 73e3 7a84 ac3e ea20 d3a2 3c3e d73e
00000610: 6477 046d 22c7 e9be a370 e911 4e8b 13bf
00000620: 3efc 6985 abb5 c83e 08e1 b090 d790 943e
00000630: 1a28 c7d2 2a28 a8be eee7 eacf 179c c4be
00000640: 0274 e901 fdbf ecbe 8720 dce3 eb09 d5be
00000650: b2d5 b51b 4e30 ae3e 9e3b 274a ecdd 81be
00000660: adf8 2653 b0db 673e 694d 1e8c b24b d33e
00000670: bee5 0ad7 4ab9 fabe 3d2d c363 f632 073f
00000680: aae7 20af b8b6 c63e d076 dfb9 b69b 793e
00000690: e273 88f0 9812 c83e ad8a 9070 639d b63e
000006a0: fb4c 94c1 fab3 ffbe 4920 ed80 d56a 0bbf
000006b0: 0dd4 2875 51b4 d73e 9868 bb73 cf01 8fbe
000006c0: cbf5 4027 30d3 93be 726f 780c d597 c2be
000006d0: 0a7f 57e2 864c e9be 7099 f059 f7a0 bc3e
000006e0: fdf6 3edc 2492 b13e 5134 4970 e991 7ebe
000006f0: 8d8d 16be 5992 aa3e e0f1 648e 02ea d23e
00000700: 3668 6f27 b955 f7be 2258 412d e76c e1be
00000710: ecce b0ed 526c a43e 48b0 859d 7403 733e
00000720: ffc6 2356 7560 d43e ee75 024b f4ef b33e
00000730: 04d3 7f1f 511b 01bf 3db2 28ad db4a f43e
00000740: 6c17 af60 710a e13e c3a3 bbb7 48f4 86be
00000750: adb4 e305 6258 9dbe 1a5d a3fb 7aae c0be
00000760: d521 556e ebeb e1be 4364 0295 416d 82be
00000770: 9e8a 11ba 83b0 ae3e 84f3 eadc a9c3 75be
00000780: 6888 4621 f9e5 a23e a57b bfcc f0fa d13e
00000790: 91a3 c791 9490 f0be a811 0ea7 d383 c03e
000007a0: f3cf c75e fdf1 843e 1218 3d01 a9dd 833e
000007b0: 584a d973 248d d53e 64df 1d31 92e1 b33e
000007c0: ea48 96ac eb9d f7be c596 0d8e f3ce d73e
000007d0: 0c89 cadb 7e75 df3e 582e ce49 d5f9 973e
000007e0: fc98 c477 0ba2 f93e 2a36 7bec 0d10 e1be
000007f0: 519f 7b10 351d f9be be1d eca2 0c88 babe
-8.847762893524962e-07 -2.095192952157882e-06 -2.800799082192789e-06 4.9456282360899135e-06 2.771796924647434e-07 -1.6309312909978044e-07 9.382437526150676e-07 4.372572988996821e-06
-5.040963537897056e-06 -4.3906446341095786e-05 3.1557349108726226e-06 2.0306159874329298e-07 -8.032707584045404e-07 -1.5119902901651376e-06 -6.347325024651055e-06 -3.347533726942022e-06
6.947774894889736e-07 -1.1439744457117697e-07 -7.084890060827355e-08 3.836416966279503e-06 -1.1619314002784413e-05 2.4928169856522876e-05 2.751652484982466e-06 5.8479106369459093e-08
3.1016835623443606e-06 1.356669892046456e-06 -1.3535044780297788e-05 -3.167912432810835e-05 4.536105964948603e-06 -4.7970774349604935e-08 -3.3890176819400046e-07 -1.355451157113945e-06
-5.620884941039143e-06 1.0600246068610826e-06 7.777964561506077e-07 -1.0521069261631987e-07 6.385651605525169e-07 3.82237764676715e-06 -1.0206617758270301e-05 -4.968029310543067e-06
1.627667304865796e-06 -3.872101804554338e-09 5.0805136610884245e-06 1.2124556445850267e-06 -1.4562443110226251e-05 1.127109357493345e-05 6.30316142773474e-06 -1.435508035395514e-07
-4.75259425476453e-07 -1.210816851404955e-06 -3.881255538057434e-06 -2.426677871284136e-07 4.961075901302319e-07 -5.44603544222165e-08 5.363165507236234e-07 3.734486438848158e-06
-7.0795335801383925e-06 9.047982094891177e-07 1.669703301741189e-06 1.5906370653710364e-07 5.165772519918121e-06 1.152859766660184e-06 -9.709493955125183e-06 4.073452918618858e-06
3.333632570092721e-06 5.512917141663739e-07 2.4469492972705692e-05 -1.3148959520897482e-05 -1.1473140648760566e-05 -2.7984733871341803e-06 7.321991860317102e-06 2.5812883562608856e-06
-3.748288828700276e-07 -1.1419481341381656e-06 -4.028106749950966e-06 7.828505219434845e-08 5.11003713232623e-07 -3.241746855882632e-08 2.3316828041563507e-07 3.671913934731906e-06
-7.371368493939256e-06 -8.371296183766551e-08 1.3016264095340538e-06 1.3884663944367097e-07 2.3459924160685932e-06 1.1653330322871726e-06 -1.0378265989281759e-05 -1.6244874607005003e-08
1.2164213664332623e-06 5.178241362280448e-07 1.194842791153234e-05 -1.3146228390940873e-05 -1.564960737342082e-05 -4.549228069209777e-06 8.66917493453091e-06 2.15844941777928e-06
-7.682865547410514e-07 -1.081655870928592e-06 -3.4930011369731042e-06 -7.943395622104197e-07 2.2228338273134167e-06 -9.607937813819204e-08 3.2586294499257577e-08 3.6422148487277734e-06
-5.23342484493586e-06 2.0806720972622958e-07 5.229040707295365e-07 8.848727688066766e-08 1.6964838830019256e-06 1.2144721361890295e-06 -6.7766057773151544e-06 6.831795096242612e-07
1.5259708939570084e-06 1.6904337707911248e-07 8.439940908512677e-06 -1.3175347847730233e-05 -9.09648157616286e-06 1.4403659747951575e-05 5.458065543991575e-06 9.337352826178082e-07
4.2326620483683775e-09 -1.056854649382045e-06 -5.0972223749717155e-06 -9.704821025032842e-06 5.829278553278305e-06 -1.1477867217266469e-07 -1.2592346435965862e-06 -1.116841518822405e-06
-5.825352281405138e-06 1.482401651199384e-05 2.3099828907795235e-06 1.880359577908657e-08 1.743193226474392e-06 2.8513563728282285e-06 -8.158009875049396e-06 -2.8418810317627266e-05
4.379631443299216e-06 1.623899965071037e-07 -7.297704274580146e-07 -8.592473093371568e-07 -5.3037374746994924e-06 -2.690233950659717e-06 4.2575125009796623e-07 -8.48170270725388e-08
3.2384313669825046e-07 2.686113385563376e-06 -9.950469320979807e-06 1.590957955749907e-05 2.8448044315373483e-06 1.3274937205874718e-07 3.1264087093633225e-06 -6.799976445021121e-06
-1.1351993304318308e-05 9.581591951214439e-07 2.008870167884368e-06 4.92945910477165e-07 1.111387792754281e-05 -9.331918471912408e-06 -1.338138005429472e-05 -9.105536404751902e-07
6.4690636257762296e-06 1.1045039099996533e-06 -4.79528495805058e-07 -8.588384991902948e-07 -1.6368067068274738e-06 2.24691857057731e-06 4.923729558303552e-07 -9.112852195810073e-08
5.799614284432112e-07 2.6170863190255363e-06 -2.8302221604590367e-06 -2.7385664146800695e-06 1.4130303852099465e-06 1.125373335577997e-07 3.4488913190890076e-06 -6.705148569607589e-06
-4.162417615811245e-06 2.8841534106508563e-06 1.9151834450486102e-06 4.792448477287438e-07 9.024883704866015e-06 -9.347314074763983e-06 -6.067002876191565e-06 5.812283397176363e-06
5.292519704734739e-06 1.0516809586690927e-06 -8.157795064064821e-07 -3.4479834705119897e-06 -6.671947802995752e-06 7.106191563269132e-06 4.4649732592881093e-07 -1.6797247141097748e-07
8.498877325499994e-07 5.5415899115689765e-06 -1.2291845820796162e-05 -7.455505372305992e-05 2.9456196373729793e-06 3.0645414090007757e-07 -7.199318239833652e-07 -2.4568722659353275e-06
-1.3709046524807217e-05 -5.016030227407545e-06 8.996931265952881e-07 -1.3311867970300525e-07 4.4439284602430184e-08 4.600451747455291e-06 -2.5485799997259624e-05 4.4248718468498854e-05
2.7076906628205316e-06 9.539819109625351e-08 2.8696830478695164e-06 1.347947035997578e-06 -3.0234379754534736e-05 -5.229438840231909e-05 5.651561723986527e-06 -2.3102068690586496e-07
-2.9541482793660246e-07 -2.2164695996483667e-06 -1.2063471397760344e-05 1.706407921417399e-06 1.0473057594351909e-06 -1.138820061110556e-07 7.918978292453314e-07 4.509473205790694e-06
-2.2253853298660936e-05 -8.30907939801054e-06 6.086570140174128e-07 7.083080023000867e-08 4.858205416834312e-06 1.1883569577606038e-06 -3.262845342525379e-05 1.9352354522594038e-05
8.125683072079003e-06 -1.7102237480991158e-07 -4.3727823663306577e-07 -1.988597401507799e-06 -8.545666285401338e-06 -1.372902240823059e-07 9.146186706994566e-07 -8.107837532862e-08
5.6321420287645e-07 4.286822512937937e-06 -1.5797392835556796e-05 1.968735255210823e-06 1.5605443993949777e-07 1.4801219149813628e-07 5.138239257700983e-06 1.1850081062785375e-06
-2.2522809364718914e-05 5.676365817252557e-06 7.5004022021282945e-06 3.5726891117117767e-07 2.4445521817594872e-05 -8.136135320492463e-06 -2.3950663517263122e-05 -1.58139722444989e-06

b f8 [2370]
00000000: 0000 0000 0000 60bd 0000 0000 0080 1bbd
00000010: 0000 0000 0090 86bd 0000 0000 0000 0000
00000020: 0000 0000 0000 0000 0000 0000 0080 223d
00000030: 0000 0000 0000 0000 0000 0000 0044 753d
00000040: f43e 8fc8 b0f3 afc0 5892 a932 9ebe a7c0
00000050: 742f 51c1 c9d0 8040 0000 0000 0000 0cbd
00000060: 0000 0000 0000 50bd 0000 0000 00c0 603d
00000070: 0000 0000 00c0 89bd 0000 0000 0000 52bd
00000080: 0000 0000 0000 5cbd 0000 0000 0000 02bd
00000090: 0000 0000 0000 203d 0000 0000 0003 71bd
000000a0: eb3e 8fc8 b0f3 afc0 5892 a932 9ebe a740
000000b0: 7f2f 51c1 c9d0 8040 0000 0000 00c0 2d3d
000000c0: 0000 0000 0000 0000 0000 0000 0014 633d
000000d0: 29d1 63d0 8ac4 adc0 2684 574b 6516 a4c0
000000e0: 802f 51c1 c9d0 8040 0000 0000 0000 f43c
000000f0: 0000 0000 0000 583d 0000 0000 00e2 67bd
00000100: 0000 0000 0078 a3bd 0000 0000 0000 3cbd
00000110: 0000 0000 0000 443d 0000 0000 0000 f6bc
00000120: 0000 0000 0000 0000 0000 0000 8011 803d
00000130: 0000 0000 0068 9b3d 0000 0000 0000 5cbd
00000140: 0000 0000 0080 503d 0000 0000 0080 143d
00000150: 0000 0000 0000 803d 0000 0000 00e0 5f3d
00000160: 3096 7e9c 9d14 bbc0 6205 9ffe 6de9 8e40
00000170: 722f 51c1 c9d0 9040 0000 0000 0000 023d
00000180: 0000 0000 0000 40bd 0000 0000 00c4 5cbd
00000190: 0000 0000 0060 94bd 0000 0000 00f0 41bd
000001a0: 0000 0000 0000 4e3d 0000 0000 00c0 18bd
000001b0: 0000 0000 0000 0000 0000 0000 00fa 72bd
000001c0: 0000 0000 00a8 83bd 0000 0000 0000 46bd
000001d0: 0000 0000 00e0 593d 0000 0000 0000 d0bc
000001e0: 0000 0000 0000 80bd 0000 0000 0030 5fbd
000001f0: 345b 9968 b064 a8c0 9f85 5f97 13b8 9840
00000200: 792f 51c1 c9d0 8040 0000 0000 0000 14bd
00000210: 0000 0000 0000 0000 0000 0000 0080 60bd
00000220: a255 f9b9 9bd0 a0c0 713f 1c94 0a22 82c0
00000230: 742f 51c1 c9d0 8040 0000 0000 0000 343d
00000240: 0000 0000 0000 0000 0000 0000 00e3 66bd
00000250: 0000 0000 00d0 853d 0000 0000 0000 f8bc
00000260: 0000 0000 0000 303d 0000 0000 0000 eabc
00000270: 0000 0000 0000 0000 0000 0000 00da 803d
00000280: 0000 0000 0030 9e3d 0000 0000 0000 03bd
00000290: 0000 0000 0000 66bd 0000 0000 0000 01bd
000002a0: 0000 0000 0000 0000 0000 0000 0000 103d
000002b0: 0000 0000 0000 50bd 0000 0000 0000 38bd
000002c0: 0000 0000 0000 62bd 0000 0000 0000 19bd
000002d0: 0000 0000 0000 a0bd 0000 0000 0000 7c3d
000002e0: 755e 55e0 a55d b3c0 4380 d0ca 697e 83c0
000002f0: 7c2f 51c1 c9d0 9040 0000 0000 0000 203d
00000300: 0000 0000 0000 0000 0000 0000 0080 3cbd
00000310: 8810 9027 fa70 a2c0 8e14 88af dfa3 87c0
00000320: 7f2f 51c1 c9d0 8040 0000 0000 00c0 20bd
00000330: 0000 0000 0000 103d 0000 0000 00a5 71bd
00000340: 0000 0000 0000 64bd 0000 0000 0000 2cbd
00000350: 0000 0000 0000 403d 0000 0000 0000 f0bc
00000360: 0000 0000 0000 843d 0000 0000 0051 693d
00000370: 0000 0000 0000 6d3d 0000 0000 0030 43bd
00000380: 0000 0000 0000 483d 0000 0000 00b8 16bd
00000390: 0000 0000 0000 80bd 0000 0000 00a8 8abd
000003a0: 3667 b106 b0ea a5c0 d65f 762f 3ad0 9240
000003b0: 722f 51c1 c9d0 8040 0000 0000 0000 00bd
000003c0: 0000 0000 0000 0000 0000 0000 0014 613d
000003d0: a2b2 c038 8219 b8c0 4e4d f7b6 d152 9cc0
000003e0: 772f 51c1 c9d0 9040 0000 0000 0000 f23c
000003f0: 0000 0000 0000 60bd 0000 0000 00a4 503d
00000400: c754 f149 0ac2 adc0 cfab 5dc7 6012 a440
00000410: 742f 51c1 c9d0 8040 0000 0000 0080 f13c
00000420: 0000 0000 0000 60bd 0000 0000 0028 683d
00000430: ccec 9aa8 6e1e afc0 bdd1 ddbc 8750 a6c0
00000440: 762f 51c1 c9d0 8040 0000 0000 0000 f23c
00000450: 0000 0000 0000 0000 0000 0000 0028 41bd
00000460: 0000 0000 0080 5a3d 0000 0000 0000 10bd
00000470: 0000 0000 0000 383d 0000 0000 0000 14bd
00000480: 0000 0000 0000 50bd 0000 0000 0096 723d
00000490: d2ec 9aa8 6e1e afc0 bcd1 ddbc 8750 a640
000004a0: 732f 51c1 c9d0 8040 0000 0000 0000 ecbc
000004b0: 0000 0000 0000 0000 0000 0000 00e0 433d
000004c0: 0000 0000 0000 8abd 0000 0000 0090 513d
000004d0: 0000 0000 0000 69bd 0000 0000 0000 f83c
000004e0: 0000 0000 0000 90bd 0000 0000 0040 533d
000004f0: 7449 c55c 3c31 a1c0 b8f6 0e2b 1f5a 83c0
00000500: 782f 51c1 c9d0 8040 0000 0000 0080 3f3d
00000510: 0000 0000 0000 0000 0000 0000 0020 2dbd
00000520: 0000 0000 0000 70bd 0000 0000 0000 28bd
00000530: 0000 0000 0000 383d 0000 0000 0000 e2bc
00000540: 0000 0000 0000 503d 0000 0000 0080 52bd
00000550: 0000 0000 0070 93bd 0000 0000 00a0 63bd
00000560: 0000 0000 0000 463d 0000 0000 0000 fcbc
00000570: 0000 0000 0000 703d 0000 0000 0030 56bd
00000580: 0000 0000 00e0 993d 0000 0000 0000 3cbd
00000590: 0000 0000 0000 54bd 0000 0000 0000 1fbd
000005a0: 0000 0000 0000 983d 0000 0000 0010 6ebd
000005b0: 7049 c55c 3c31 a1c0 b9f6 0e2b 1f5a 8340
000005c0: 772f 51c1 c9d0 8040 0000 0000 0000 253d
000005d0: 0000 0000 0000 603d 0000 0000 6011 5d3d
000005e0: 0000 0000 0068 ad3d 0000 0000 0000 30bd
000005f0: 0000 0000 0000 3e3d 0000 0000 0000 fabc
00000600: 0000 0000 0000 60bd 0000 0000 20a4 623d
00000610: e0de 0e28 e0fa c2c0 97de 7adf e016 bac0
00000620: 9676 7f9e 1400 8b40 0000 0000 0058 063d
00000630: 0000 0000 0000 503d 0000 0000 c052 67bd
00000640: 0000 0000 00f0 acbd 0000 0000 0000 18bd
00000650: 0000 0000 0000 f03c 0000 0000 0040 e03c
00000660: 0000 0000 0000 40bd 0000 0000 70ba 91bd
00000670: d9de 0e28 e0fa c2c0 95de 7adf e016 ba40
00000680: 9276 7f9e 1400 8b40 0000 0000 0020 1a3d
00000690: 0000 0000 0000 703d 0000 0000 00ac 4d3d
000006a0: 90c7 0963 bbae c1c0 db1b 5bd7 b6e3 b5c0
000006b0: 9076 7f9e 1400 8b40 0000 0000 0020 183d
000006c0: 0000 0000 0000 30bd 0000 0000 4078 60bd
000006d0: 0000 0000 0058 a6bd 0000 0000 0000 5d3d
000006e0: 0000 0000 0000 203d 0000 0000 0000 b03c
000006f0: 0000 0000 0000 50bd 0000 0000 0083 5a3d
00000700: 0000 0000 00f8 bc3d 0000 0000 00c0 873d
00000710: 0000 0000 0000 6c3d 0000 0000 0000 f13c
00000720: 0000 0000 0000 70bd 0000 0000 0098 523d
00000730: 72f7 cd84 1716 d0c0 43d6 d487 22a6 a140
00000740: 9876 7f9e 1400 9b40 0000 0000 0080 f33c
00000750: 0000 0000 0000 503d 0000 0000 d06e 8f3d
00000760: 0000 0000 0028 9ebd 0000 0000 0006 623d
00000770: 0000 0000 0000 473d 0000 0000 0020 28bd
00000780: 0000 0000 0000 683d 0000 0000 0048 3bbd
00000790: 0000 0000 0060 a4bd 0000 0000 0000 423d
000007a0: 0000 0000 0000 583d 0000 0000 0000 fa3c
000007b0: 0000 0000 0000 a23d 0000 0000 00d4 77bd
000007c0: 3f9f 8bf0 e5ef c3c0 cc0e 00ec 590b a440
000007d0: 5d8f 0dba 82ec 9b40 0000 0000 0060 29bd
000007e0: 0000 0000 0058 8fbd 0000 0000 0000 903d
000007f0: 9b55 f9b9 9bd0 a0c0 773f 1c94 0a22 82c0
-4.547473508864641e-13 -2.4424906541753444e-14 -2.5650592760939617e-12 0.0 0.0 3.2862601528904634e-14 0.0 1.2088108292118704e-12
-4089.845280147967 -3039.3089802733557 538.0985132544142 -1.2434497875801753e-14 -2.2737367544323206e-13 4.760636329592671e-13 -2.9274360713316128e-12 -2.5579538487363607e-13
-3.979039320256561e-13 -7.993605777301127e-15 2.842170943040401e-14 -9.670042544485113e-13 -4089.845280147963 3039.3089802733557 538.0985132544155 5.284661597215745e-14
0.0 5.422329252269265e-13 -3810.271121138842 -2571.197840437776 538.0985132544156 4.440892098500626e-15 3.410605131648481e-13 -6.787903572558207e-13
-8.853362487570848e-12 -9.947598300641403e-14 1.4210854715202004e-13 -4.884981308350689e-15 0.0 1.8267609647182326e-12 6.231459792616079e-12 -3.979039320256561e-13
2.3447910280083306e-13 1.8207657603852567e-14 1.8189894035458565e-12 4.5297099404706387e-13 -6932.615669166247 989.1787083076017 1076.197026508828 7.993605777301127e-15
-1.1368683772161603e-13 -4.0878411766698264e-13 -4.632738637155853e-12 -1.2745360322696797e-13 2.1316282072803006e-13 -2.19824158875781e-14 0.0 -1.078692690725802e-12
-2.234656903965515e-12 -1.5631940186722204e-13 3.6770586575585185e-13 -8.881784197001252e-16 -1.8189894035458565e-12 -4.432010314303625e-13 -3122.344548027404 1582.0191321301752
538.0985132544148 -1.7763568394002505e-14 0.0 -4.689582056016661e-13 -2152.3041532437355 -580.2551653105603 538.0985132544142 7.105427357601002e-14
0.0 -6.504796701278792e-13 2.4797941478027496e-12 -5.329070518200751e-15 5.684341886080802e-14 -2.886579864025407e-15 0.0 1.91580085129317e-12
6.863842827442568e-12 -8.43769498715119e-15 -6.252776074688882e-13 -7.549516567451064e-15 0.0 1.4210854715202004e-14 -2.2737367544323206e-13 -8.526512829121202e-14
-5.115907697472721e-13 -2.220446049250313e-14 -7.275957614183426e-12 1.5916157281026244e-12 -4957.647954307137 -623.8016563691275 1076.1970265088303 2.842170943040401e-14
0.0 -1.0125233984581428e-13 -2360.4885830898456 -756.4842215186379 538.0985132544155 -2.9753977059954195e-14 1.4210854715202004e-14 -1.0029754804463664e-12
-5.684341886080801e-13 -4.973799150320701e-14 1.1368683772161603e-13 -3.552713678800501e-15 2.2737367544323206e-12 7.19535542259564e-13 8.242295734817162e-13 -1.3633538742396922e-13
1.7053025658242404e-13 -2.017830347256222e-14 -1.8189894035458565e-12 -3.0304647680168273e-12 -2805.3438010633936 1204.056821679687 538.098513254414 -7.105427357601002e-15
0.0 4.853895063661184e-13 -6169.5086784778705 -1812.7047995224889 1076.1970265088291 3.9968028886505635e-15 -4.547473508864641e-13 2.3647750424515834e-13
-3809.02009538803 2569.189021041129 538.0985132544142 3.885780586188048e-15 -4.547473508864641e-13 6.865619184281968e-13 -3983.2161301054057 -2856.265112811902
538.0985132544145 3.9968028886505635e-15 0.0 -1.219024881038422e-13 3.765876499528531e-13 -1.4210854715202004e-14 8.526512829121202e-14 -1.7763568394002505e-14
-2.2737367544323206e-13 1.056488230233299e-12 -3983.2161301054084 2856.2651128119014 538.0985132544141 -3.1086244689504383e-15 0.0 1.412203687323199e-13
-2.9558577807620168e-12 2.495781359357352e-13 -7.105427357601002e-13 5.329070518200751e-15 -3.637978807091713e-12 2.7355895326763857e-13 -2200.6178952839055 -619.2652188462298
538.0985132544147 1.1191048088221578e-13 0.0 -5.1736392947532295e-14 -9.094947017729282e-13 -4.263256414560601e-14 8.526512829121202e-14 -1.9984014443252818e-15
2.2737367544323206e-13 -2.6290081223123707e-13 -4.419575816427823e-12 -5.577760475716786e-13 1.5631940186722204e-13 -6.217248937900877e-15 9.094947017729282e-13 -3.1530333899354446e-13
5.8832938520936295e-12 -9.947598300641403e-14 -2.8421709430404007e-13 -2.7533531010703882e-14 5.4569682106375694e-12 -8.544276397515205e-13 -2200.6178952839036 619.2652188462299
538.0985132544146 3.730349362740526e-14 4.547473508864641e-13 4.130792929935012e-13 1.3372414287005085e-11 -5.684341886080802e-14 1.0658141036401503e-13 -5.773159728050814e-15
-4.547473508864641e-13 5.298123051389325e-13 -9717.75122247584 -6678.878410033553 864.010067935759 9.922618282587337e-15 2.2737367544323206e-13 -6.628864124280653e-13
-1.3159251466277055e-11 -2.1316282072803006e-14 3.552713678800501e-15 1.8041124150158794e-15 -1.1368683772161603e-13 -4.030942246657787e-12 -9717.751222475827 6678.8784100335515
864.0100679357586 2.3203661214665772e-14 9.094947017729282e-13 2.1083135237631723e-13 -9053.463959906047 -5603.714223570157 864.0100679357583 2.142730437526552e-14
-5.684341886080802e-14 -4.680977827575816e-13 -1.0160761121369433e-11 4.121147867408581e-13 2.842170943040401e-14 2.220446049250313e-16 -2.2737367544323206e-13 3.7675418340654687e-13
2.6346924641984515e-11 2.7000623958883807e-12 7.958078640513122e-13 3.774758283725532e-15 -9.094947017729282e-13 2.6423307986078726e-13 -16472.367480746885 2259.0674425612974
1728.0201358715185 4.3298697960381105e-15 2.2737367544323206e-13 3.573502604936607e-12 -6.856737400084967e-12 5.122569035620472e-13 1.6342482922482304e-13 -4.285460875053104e-14
6.821210263296962e-13 -9.692247004977617e-14 -9.265477274311706e-12 1.2789769243681803e-13 3.410605131648481e-13 5.773159728050814e-15 8.185452315956354e-12 -1.354472090042691e-12
-10207.796403362996 2565.675628663832 1787.1276628607513 -4.5075054799781356e-14 -3.5633718198369024e-12 3.637978807091713e-12 -2152.3041532437323 -580.255165310561
