python-Linux/neural-sparse-linear-solvers-master/stand_small_test/3711540765710391302_b3477a7f3ddb695d672e5423b6dd74437432bbd9_f08174e72a98fa1b657fb28955a374627264ab2f.npz (npz, 98275 bytes, 3 tensors)

A_values f8 [24978]
0	0x41e23b3f1f58c896	2446981370.7744856
1	0xc11a2b656528c700	-428761.3487883657
2	0xc16944c2da4debf4	-13248022.822011925
3	0xc1678a6d434bebf4	-12342122.103017785
4	0x418196b2a6da3805	36886100.85655216
5	0xc1516e019b456123	-4569094.426109585
6	0xc16944c2da4debf4	-13248022.822011925
7	0xc1e20308db634200	-2417510107.1018066
8	0x41d406b8acad9a6d	1343939250.7125504
9	0x41020bae17172500	147829.76127461344
10	0x418516b88a96c765	44226321.3236225
11	0xc14fd9d270b4e10c	-4174756.8805199917
12	0xc167cc332ee0dd48	-12476825.464949265
13	0xc1d37afc7ac0c4d9	-1307308523.0120146
14	0xc17ae65ddb4abec8	-28206557.70574835
15	0x418516b88a96c765	44226321.3236225
16	0x41e3a634dfcdf0b0	2637276926.435631
17	0x4182a77c12cd58c6	39120770.35026698
18	0xc19dc160205e101a	-124803080.0918583
19	0xc1d2e639fa9b9b1a	-1268312042.4313416
20	0xc169bc0b580e1148	-13492314.751717225
21	0x4182a77c12cd58c6	39120770.35026698
22	0xc192fa310abe5df8	-79596610.68590534
23	0xc19dc160205e101a	-124803080.0918583
24	0x41020bae17172500	147829.76127461344
25	0x4182a77c12cd58c6	39120770.35026698
26	0x41b16d04e841233d	292357352.25444394
27	0x4167cc332ee0dd48	12476825.464949265
28	0x4177981430e7054f	24740163.056401547
29	0xc182a77c12cd58c6	-39120770.35026698
30	0x4191c0c98292e6e6	74461792.64345893
31	0xc18311c8ce93ecfb	-39991577.82222935
32	0xc11a2b656528c700	-428761.3487883657
33	0xc19dc160205e101a	-124803080.0918583
34	0x41c1792bafd841ec	586307423.6895118
35	0xc18196b2a6da3805	-36886100.85655216
36	0x419144f8b50ff760	72433197.2655921
37	0xc1749fcfa4a7d929	-21626106.290978584
38	0x419dc160205e101a	124803080.0918583
39	0x419d795a7b72dee2	123623070.86217836
40	0xc16944c2da4debf4	-13248022.822011925
41	0x418516b88a96c765	44226321.3236225
42	0x41a641897d8efb72	186696894.77926213
43	0xc174025105a1244c	-20981008.351841256
44	0x416944c2da4debf4	13248022.822011925
45	0x41784c3da40f9066	25478106.25379982
46	0xc18516b88a96c765	-44226321.3236225
47	0x4185a9270399626e	45425888.44989477
48	0xc1678a6d434bebf4	-12342122.103017785
49	0xc18196b2a6da3805	-36886100.85655216
50	0x41e2234a4974309d	2434421323.6309342
51	0xc18196b2a6da3805	-36886100.85655216
52	0xc16944c2da4debf4	-13248022.822011925
53	0xc1516e019b456123	-4569094.426109585
54	0xc16944c2da4debf4	-13248022.822011925
55	0xc1e20308db634200	-2417510107.1018066
56	0xc14fd9d270b4e10c	-4174756.8805199917
57	0x4167cc332ee0dd48	12476825.464949265
58	0x41d3f682db664a45	1339689837.598283
59	0x4167cc332ee0dd48	12476825.464949265
60	0x418516b88a96c765	44226321.3236225
61	0xc1d37afc7ac0c4d9	-1307308523.0120146
62	0xc17ae65ddb4abec8	-28206557.70574835
63	0x418516b88a96c765	44226321.3236225
64	0xc1d2e639fa9b9b1a	-1268312042.4313416
65	0x41d4495521f79d1d	1361400967.8689644
66	0x4182a77c12cd58c6	39120770.35026698
67	0xc19dc160205e101a	-124803080.0918583
68	0xc169bc0b580e1148	-13492314.751717225
69	0x4182a77c12cd58c6	39120770.35026698
70	0xc192fa310abe5df8	-79596610.68590534
71	0xc19dc160205e101a	-124803080.0918583
72	0xc167cc332ee0dd48	-12476825.464949265
73	0x4177981430e7054f	24740163.056401547
74	0x4167cc332ee0dd48	12476825.464949265
75	0x4182a77c12cd58c6	39120770.35026698
76	0x41ace02feeaff053	242227191.3436304
77	0xc182a77c12cd58c6	-39120770.35026698
78	0x4191c0c98292e6e6	74461792.64345893
79	0xc18311c8ce93ecfb	-39991577.82222935
80	0x418196b2a6da3805	36886100.85655216
81	0x419144f8b50ff760	72433197.2655921
82	0xc18196b2a6da3805	-36886100.85655216
83	0xc19dc160205e101a	-124803080.0918583
84	0x41ba1272eae1515f	437416682.8801479
85	0xc1749fcfa4a7d929	-21626106.290978584
86	0x419dc160205e101a	124803080.0918583
87	0x419d795a7b72dee2	123623070.86217836
88	0xc174025105a1244c	-20981008.351841256
89	0xc16944c2da4debf4	-13248022.822011925
90	0x418516b88a96c765	44226321.3236225
91	0x41a3bd6dd135ac9d	165590760.60483256
92	0x416944c2da4debf4	13248022.822011925
93	0x41784c3da40f9066	25478106.25379982
94	0xc18516b88a96c765	-44226321.3236225
95	0x4185a9270399626e	45425888.44989477
96	0xc1516e019b456123	-4569094.426109585
97	0x416944c2da4debf4	13248022.822011925
98	0x41e272c8081a3dd8	2476097600.8200493
99	0xc11a2b656528c700	-428761.3487883657
100	0xc17e6f46be5a577c	-31913067.897056088
101	0xc1678a6d434bebf4	-12342122.103017785
102	0x418196b2a6da3805	36886100.85655216
103	0xc17bc47460baa1a6	-29116230.045564316
104	0xc18588d415c0a6bb	-45161090.71906801
105	0xc1e20308db634200	-2417510107.1018066
106	0xc1d37afc7ac0c4d9	-1307308523.0120146
107	0x41ec389548612876	3787762243.036189
108	0x41020bae17172500	147829.76127461344
109	0x418516b88a96c765	44226321.3236225
110	0xc14fd9d270b4e10c	-4174756.8805199917
111	0xc167cc332ee0dd48	-12476825.464949265
112	0xc1e23538f20a5b40	-2443822992.323639
113	0xc17ae65ddb4abec8	-28206557.70574835
114	0x418516b88a96c765	44226321.3236225
115	0xc169bc0b580e1148	-13492314.751717225
116	0xc182a77c12cd58c6	-39120770.35026698
117	0x41e442b6305a4b9e	2719330690.8217306
118	0x4195043bb57b80d1	88149741.37060858
119	0xc19dc160205e101a	-124803080.0918583
120	0xc1d2e639fa9b9b1a	-1268312042.4313416
121	0xc193902a118b5dd8	-82053764.38610017
122	0x419e57f9bee22d34	127270511.72087556
123	0xc192fa310abe5df8	-79596610.68590534
124	0xc19dc160205e101a	-124803080.0918583
125	0x4182a77c12cd58c6	39120770.35026698
126	0x4191c0c98292e6e6	74461792.64345893
127	0x41020bae17172500	147829.76127461344
128	0x4195043bb57b80d1	88149741.37060858
129	0x41c0c45aac931e58	562607449.1493635
130	0x4167cc332ee0dd48	12476825.464949265
131	0x4177981430e7054f	24740163.056401547
132	0xc19e57f9bee22d34	-127270511.72087556
133	0x419db2792c8e8b5b	124558923.13920347
134	0xc18311c8ce93ecfb	-39991577.82222935
135	0xc1749fcfa4a7d929	-21626106.290978584
136	0xc11a2b656528c700	-428761.3487883657
137	0xc19dc160205e101a	-124803080.0918583
138	0x41c2ad9a64c160f9	626734281.5107719
139	0xc18196b2a6da3805	-36886100.85655216
140	0x419144f8b50ff760	72433197.2655921
141	0xc18346eb4e91f0db	-40426857.82126018
142	0x419dc160205e101a	124803080.0918583
143	0x419d795a7b72dee2	123623070.86217836
144	0xc16944c2da4debf4	-13248022.822011925
145	0x41784c3da40f9066	25478106.25379982
146	0xc17e6f46be5a577c	-31913067.897056088
147	0x418516b88a96c765	44226321.3236225
148	0x41b0be8d2e152810	280923438.08264256
149	0xc174025105a1244c	-20981008.351841256
150	0x418588d415c0a6bb	45161090.71906801
151	0x4185df37fc22e9e9	45868799.51704771
152	0xc18516b88a96c765	-44226321.3236225
153	0x4185a9270399626e	45425888.44989477
154	0xc1516e019b456123	-4569094.426109585
155	0x416944c2da4debf4	13248022.822011925
156	0xc1678a6d434bebf4	-12342122.103017785
157	0xc18196b2a6da3805	-36886100.85655216
158	0x41e29f6fd7ab3a73	2499509949.350885
159	0x4181f1b6bc84ec91	37631703.56490434
160	0xc17e6f46be5a577c	-31913067.897056088
161	0xc18127295d6524b6	-35972395.67438643
162	0x4191c434b1af924b	74517804.4214565
163	0xc17bc47460baa1a6	-29116230.045564316
164	0xc18588d415c0a6bb	-45161090.71906801
165	0xc1e20308db634200	-2417510107.1018066
166	0xc1d37afc7ac0c4d9	-1307308523.0120146
167	0xc14fd9d270b4e10c	-4174756.8805199917
168	0x4167cc332ee0dd48	12476825.464949265
169	0x41ec48259d8f0559	3795922156.469403
170	0xc1693baf5c5d504e	-13229434.886390831
171	0x418516b88a96c765	44226321.3236225
172	0xc167ab3dd184f774	-12409326.547481276
173	0xc17883f1459f16cb	-25706260.351340096
174	0xc1e23538f20a5b40	-2443822992.323639
175	0xc17ae65ddb4abec8	-28206557.70574835
176	0x418516b88a96c765	44226321.3236225
177	0xc169bc0b580e1148	-13492314.751717225
178	0xc182a77c12cd58c6	-39120770.35026698
179	0xc1d2e639fa9b9b1a	-1268312042.4313416
180	0x41e863469ca4b535	3273274597.14712
181	0x4195043bb57b80d1	88149741.37060858
182	0xc19dc160205e101a	-124803080.0918583
183	0xc1db443576391770	-1829819864.8920555
184	0xc193902a118b5dd8	-82053764.38610017
185	0x419e57f9bee22d34	127270511.72087556
186	0xc192fa310abe5df8	-79596610.68590534
187	0xc19dc160205e101a	-124803080.0918583
188	0x4182a77c12cd58c6	39120770.35026698
189	0x4191c0c98292e6e6	74461792.64345893
190	0xc167cc332ee0dd48	-12476825.464949265
191	0x4177981430e7054f	24740163.056401547
192	0xc1693baf5c5d504e	-13229434.886390831
193	0x4195043bb57b80d1	88149741.37060858
194	0x41c16649e1a14692	583832515.2599661
195	0x417883f1459f16cb	25706260.351340096
196	0x4180c26e9f8da8cf	35147219.94416963
197	0xc19e57f9bee22d34	-127270511.72087556
198	0x419db2792c8e8b5b	124558923.13920347
199	0xc18311c8ce93ecfb	-39991577.82222935
200	0xc1749fcfa4a7d929	-21626106.290978584
201	0x418196b2a6da3805	36886100.85655216
202	0x419144f8b50ff760	72433197.2655921
203	0x4181f1b6bc84ec91	37631703.56490434
204	0xc19dc160205e101a	-124803080.0918583
205	0x41c477819d38a40d	686752570.4425064
206	0xc191c434b1af924b	-74517804.4214565
207	0x4197ccabc9134438	99822322.26881492
208	0xc18346eb4e91f0db	-40426857.82126018
209	0x419dc160205e101a	124803080.0918583
210	0x419d795a7b72dee2	123623070.86217836
211	0xc16944c2da4debf4	-13248022.822011925
212	0x41784c3da40f9066	25478106.25379982
213	0xc174025105a1244c	-20981008.351841256
214	0xc17e6f46be5a577c	-31913067.897056088
215	0x418516b88a96c765	44226321.3236225
216	0x41b14a607c1b24e5	290087036.1060317
217	0xc17cde12432a4401	-30269732.19781876
218	0x418588d415c0a6bb	45161090.71906801
219	0x4185df37fc22e9e9	45868799.51704771
220	0xc18516b88a96c765	-44226321.3236225
221	0x4185a9270399626e	45425888.44989477
222	0xc18127295d6524b6	-35972395.67438643
223	0xc191c434b1af924b	-74517804.4214565
224	0x41e27f2e699a4bd6	2482598732.8217573
225	0xc191c434b1af924b	-74517804.4214565
226	0xc18588d415c0a6bb	-45161090.71906801
227	0xc17bc47460baa1a6	-29116230.045564316
228	0xc18588d415c0a6bb	-45161090.71906801
229	0xc1e20308db634200	-2417510107.1018066
230	0xc167ab3dd184f774	-12409326.547481276
231	0x417883f1459f16cb	25706260.351340096
232	0x41e282b0eb9275b5	2484438876.5768685
233	0x417883f1459f16cb	25706260.351340096
234	0x418516b88a96c765	44226321.3236225
235	0xc1e23538f20a5b40	-2443822992.323639
236	0xc17ae65ddb4abec8	-28206557.70574835
237	0x418516b88a96c765	44226321.3236225
238	0xc1db443576391770	-1829819864.8920555
239	0x41ddacdb27fdb32e	1991470239.9640613
240	0x419e57f9bee22d34	127270511.72087556
241	0xc19dc160205e101a	-124803080.0918583
242	0xc193902a118b5dd8	-82053764.38610017
243	0x419e57f9bee22d34	127270511.72087556
244	0xc192fa310abe5df8	-79596610.68590534
245	0xc19dc160205e101a	-124803080.0918583
246	0xc17883f1459f16cb	-25706260.351340096
247	0x4180c26e9f8da8cf	35147219.94416963
248	0x417883f1459f16cb	25706260.351340096
249	0x419e57f9bee22d34	127270511.72087556
250	0x41b6beb4e5bd129a	381596901.7385651
251	0xc19e57f9bee22d34	-127270511.72087556
252	0x419db2792c8e8b5b	124558923.13920347
253	0xc18311c8ce93ecfb	-39991577.82222935
254	0x4191c434b1af924b	74517804.4214565
255	0x4197ccabc9134438	99822322.26881492

x f8 [2226]
0	0xbec5174e67c2a1aa	-2.514247908609088e-06
1	0xbe92f7902c080c04	-2.8263097465191697e-07
2	0xbf10de4f7c77a305	-6.434784074084092e-05
3	0xbf0c5680e00419ae	-5.4050262408056465e-05
4	0x3ef31c3a049c9f57	1.8224964413309768e-05
5	0x3ea919516d38e09e	7.480054712910398e-07
6	0x3ef9a2a98564c9fd	2.444782179473504e-05
7	0x3ef1e5281bcd0f78	1.7066138514168033e-05
8	0xbf18483ef64d4494	-9.262928285848549e-05
9	0xbf12d04175e839d4	-7.176780261650774e-05
10	0x3f0fb61fc69368e9	6.048473808002877e-05
11	0x3e9aa2f2d5623468	3.969150460601975e-07
12	0xbeda9ff51a2b01c1	-6.347855022681806e-06
13	0x3e95b9a18973135f	3.2372953158123104e-07
14	0xbf1b6c6ad1a8b74a	-0.00010461236926381543
15	0x3efa6b41c23ff2a5	2.51950952048103e-05
16	0x3ef00bcf17de5326	1.530278085900001e-05
17	0x3ea4e1ad645422fb	6.223187446761691e-07
18	0xbed75ef8176450bd	-5.572074192512232e-06
19	0x3ef0de7e33ee164c	1.6087640001957636e-05
20	0xbf2600d66dde74d9	-0.00016787164252899422
21	0x3efad748020b1b1a	2.559751749478109e-05
22	0x3efa04db4eeb9c93	2.481362474329432e-05
23	0x3ea3eb666779021b	5.936482940297487e-07
24	0x3ef6dd4d34e3211d	2.1805247620660795e-05
25	0xbee778fe5c57b677	-1.1192622774348932e-05
26	0xbf27e748ffdb2d09	-0.00018236890894338827
27	0xbea4390d930fad1a	-6.026882940468338e-07
28	0x3f0a7449e34b35db	5.0457482222303784e-05
29	0x3ebadde2a22082a0	1.6013824582010485e-06
30	0xbede40f45938cd66	-7.213050952570429e-06
31	0x3ea03c8125decf2c	4.838808071922584e-07
32	0xbf19a30a470f2b49	-9.779691914883511e-05
33	0xbef061b59a623600	-1.5622784893800853e-05
34	0x3ee2b2ec0bdaa5bb	8.916337147129847e-06
35	0xbe71d02827ea4c84	-6.635901604106876e-08
36	0xbed4ca67c1e16576	-4.956876209127677e-06
37	0x3ef0944f2dc95757	1.5811284230635974e-05
38	0xbf24d2f36a4eaa63	-0.00015887471559257728
39	0xbeea5b9d4f043c63	-1.2568411392992017e-05
40	0x3eebe609ffba7af9	1.3303084407665407e-05
41	0xbeaaf6b37a106957	-8.035801678547247e-07
42	0x3ef28e4b7e2d80bf	1.7696227483710672e-05
43	0xbee7450a76f9d183	-1.109585329504208e-05
44	0xbf272d6c3d65b3e9	-0.00017682977950120242
45	0xbedfad313555aae5	-7.552273776449267e-06
46	0x3ef6060825b5783d	2.100330526155096e-05
47	0x3ebbe29b1261b92b	1.6620861713851258e-06
48	0xbea0e1093d4de7d3	-5.03034807238689e-07
49	0x3ea9b15ab20ca42a	7.657048151965639e-07
50	0xbf1d284e55297cb5	-0.00011122682671204055
51	0xbe82b18f322649f1	-1.39278108224146e-07
52	0x3ee1316ad073b4c4	8.198278477834066e-06
53	0x3e8c303e7320a550	2.1002034028661963e-07
54	0xbed551cb1d768996	-5.082966218069443e-06
55	0x3ef0927dbff922ca	1.580451134789127e-05
56	0xbf27bb78d214d612	-0.0001810631738778245
57	0xbec8b59485b609e6	-2.945577802727602e-06
58	0x3ee5d75a5d31de94	1.0414706514291155e-05
59	0xbe73f2870bc88709	-7.430975563400787e-08
60	0x3ece6d6751987dd1	3.627223702520651e-06
61	0xbee82d36202f35c8	-1.1528304645037633e-05
62	0xbf2a657999d8f77c	-0.00020138844858935332
63	0xbedacab7d77f1f32	-6.387679029225094e-06
64	0x3ef1664f52393729	1.659359726451714e-05
65	0x3eb6a1c64a1abe86	1.3489682619097808e-06
66	0xbed1449d6f64ad44	-4.117018525466688e-06
67	0x3eb0d5ad4a57754b	1.0034248502024692e-06
68	0xbf1adeb236e9bcb0	-0.00010250056014070546
69	0x3edb44e4f5fcd928	6.5014645256793605e-06
70	0x3ef269bb16beb8a5	1.756001567770255e-05
71	0xbe9f776d972676b5	-4.688876266369924e-07
72	0xbef021c851d3cc03	-1.5384638676740208e-05
73	0x3ef11dcf68cfa512	1.6323515001835888e-05
74	0xbf2556e1c80507f4	-0.00016280656928741
75	0x3efe75a6bb9a15d8	2.9048514738968595e-05
76	0x3ef9e990070a2a0f	2.471194642565162e-05
77	0xbe919eabd6e6c872	-2.6255562248910995e-07
78	0x3edd1ca36cd10c3d	6.9408103629568955e-06
79	0xbeea06bdf59dc9ec	-1.2410324121002598e-05
80	0xbf27a09250fcdd3e	-0.00018026147926673315
81	0x3f04006738aeac8c	3.81499767948208e-05
82	0x3f0c43be9d2abc54	5.391049821434264e-05
83	0x3ea58233a639e238	6.410062493708823e-07
84	0x3ee3989b65896378	9.344158727818525e-06
85	0x3eaded04c8ca68eb	8.918599561814194e-07
86	0xbf015011ceb4c264	-3.302149147044601e-05
87	0x3ee9a1737258a380	1.2221654809145685e-05
88	0x3f06d82eefdb3589	4.357236137551418e-05
89	0x3eb01e4396c1950b	9.607207074544294e-07
90	0xbeb7ef72adbd600d	-1.4266576533108366e-06
91	0x3ead9a646178b6a2	8.822409566838316e-07
92	0xbf0f2abd34e55acb	-5.9446238639784115e-05
93	0xbee3d6f0c420c411	-9.460263871914996e-06
94	0x3ef5d1e2f3d0040e	2.080904890889098e-05
95	0x3ebf2a43561e0a03	1.8575841171658434e-06
96	0x3ef1b492d820af41	1.6885152497688646e-05
97	0x3eef761abfeb7f7b	1.5001938661496125e-05
98	0xbf15e49cc151d7e1	-8.351523168123556e-05
99	0xbeedd9dcfd191f99	-1.423407948943061e-05
100	0x3f11a4495c921975	6.729791415880321e-05
101	0xbe8b42dd5e246ba0	-2.0311169552578933e-07
102	0xbed469222de373c1	-4.86628479575991e-06
103	0x3eb01883befad817	9.593820741566353e-07
104	0xbf14fc71abec4289	-8.005565448977228e-05
105	0xbef0bfc92a0321e3	-1.5973246832586245e-05
106	0x3ef33683a5a40a4f	1.8322893404318978e-05
107	0x3ea9ffaf66d97a50	7.748237302421092e-07
108	0x3eea3010f7d197bf	1.2487296539197863e-05
109	0x3eef4e640c166f7e	1.4927966165249664e-05
110	0xbf1eb8c57f0211b2	-0.00011719422741591245
111	0xbefd7cf7169b80c0	-2.8122086780935735e-05
112	0x3f10808d21fcb4af	6.295071989078042e-05
113	0x3eb93130b4e44bd3	1.5015691193261986e-06
114	0xbee1960092a6d45c	-8.385632629929144e-06
115	0x3eb4ee5fb85d2022	1.247593645685795e-06
116	0xbf24ee4a00ac53ef	-0.00015968945839320246
117	0xbec44254e24e6421	-2.4150738390902074e-06
118	0x3ee47c379997ec90	9.768115705624422e-06
119	0x3e9c54821fb3853a	4.2215154367864083e-07
120	0xbeedf57a6906a4c5	-1.4285516301298221e-05
121	0x3eeebe9082c42d5d	1.4660068778946345e-05
122	0xbf325a9e29625db2	-0.00028005944603523146
123	0xbed5cadde91ab437	-5.195724627133023e-06
124	0x3ef0c5e1a18f637d	1.5995954615852487e-05
125	0x3eb5bfef0187f1ba	1.296385567894135e-06
126	0xbeea8849047f4595	-1.2651617126299342e-05
127	0xbeca1ee8e3a7cae0	-3.1138349900703544e-06
128	0xbf361df0f2fe391d	-0.00033747799442886297
129	0xbee9552b7a26b3ac	-1.2079570130685484e-05
130	0x3ef06e5dc68f4479	1.5669935610255752e-05
131	0xbeb1a06fa2cf756c	-1.05063339649684e-06
132	0xbee66092b7198b7a	-1.0670298908615464e-05
133	0xbedf90e2681742ad	-7.525910065323574e-06
134	0xbf39041f0cb40115	-0.00038171537444499473
135	0xbee5fe2303c62325	-1.048694695594957e-05
136	0x3efb5a15c5540d7c	2.6084799476867076e-05
137	0xbee2d105627792b0	-8.972400862236385e-06
138	0x3f1f5f19013068c6	0.00011967268100968311
139	0xbf0248baea6b53e1	-3.487415715645155e-05
140	0xbf3a3ebf415dda6d	-0.00040046853370460136
141	0xbef4727d41ccd8b7	-1.94999921518605e-05
142	0x3f071da975488da4	4.409001727292562e-05
143	0xbec19507598c9c98	-2.0959548233837526e-06
144	0xbeda1bde818c9c73	-6.224838238456161e-06
145	0x3eb8d6262663a0e8	1.480371929535714e-06
146	0xbf21ebe8cc13a56f	-0.00013673035395038053
147	0x3ef93f889cfdcc82	2.4078539183358418e-05
148	0x3edc86c907f3659a	6.801248786569674e-06
149	0x3e83af0a51e4790c	1.4665537490742154e-07
150	0xbef403e5e24a394c	-1.9088007450701342e-05
151	0x3eef38d996a4468f	1.4887843196950758e-05
152	0xbf2fe3c1046cb0f4	-0.00024329882781993324
153	0x3efa65e8a9f70d2f	2.5175172252434374e-05
154	0x3ee25434d584902d	8.739915458529167e-06
155	0xbe9c1456d0510358	-4.1841640580427366e-07
156	0xbef0cd5027f1749f	-1.60236399974102e-05
157	0xbecaf7f5cad7702c	-3.2149069599651295e-06
158	0xbf33726940b4070e	-0.00029673642775672547
159	0x3efd33da9f366435	2.7849726348703515e-05
160	0x3eeb9de480264df9	1.3168701120481139e-05
161	0xbeb2121790c87d46	-1.07709599029406e-06
162	0x3f08f27e4645519f	4.75830827634555e-05
163	0xbedf266ce45a0920	-7.426762356767849e-06
164	0xbf3628e7004e70f5	-0.00033813132932337893
165	0x3efdacd28d8d0584	2.830036905554979e-05
166	0x3ef5628ebc757d78	2.0394316178393737e-05
167	0xbee3256dd5a00d42	-9.129623027354293e-06
168	0x3f21eb9447e5ad86	0.00013672051495504047
169	0xbf02951aa9e993c0	-3.544318791596319e-05
170	0xbf374ddb1a8b0635	-0.00035559272013694086
171	0x3f06623264523300	4.269329341708393e-05
172	0x3efbdbe71facec00	2.6568408411292016e-05
173	0xbed7c090217764c7	-5.662965598196216e-06
174	0xbebd493d149e4abc	-1.7455868879008842e-06
175	0x3ec405d46cd8e5f4	2.386900496612006e-06
176	0xbf26e8888629ffa6	-0.00017477671197596334
177	0xbf0c605f2c33ea48	-5.41237873452239e-05
178	0x3efcb12d4d223f77	2.736291646293585e-05
179	0x3ea002580f98e10d	4.771100343198214e-07
180	0x3ef893026fc59b51	2.3435836724951354e-05
181	0x3ee26721ee29f5e1	8.775168173653698e-06
182	0xbf344e5e7d921e99	-0.0003098469438289425
183	0xbf08fe210a4ea921	-4.766977625732445e-05
184	0x3f023b9cb853088d	3.4776420798647135e-05
185	0xbea9362dfd0ed4e2	-7.513654002230223e-07
186	0x3eee0eb50058fa92	1.433250873638978e-05
187	0xbed654e8ed28435d	-5.324287217792941e-06
188	0xbf38ca0cb7d115f0	-0.0003782540368927048
189	0xbf064f3162d4ff94	-4.255170311262473e-05
190	0x3ef05a20d399fc04	1.5594542878801673e-05
191	0xbeb424ebcdedcb16	-1.2006892615406176e-06
192	0xbe9bfaed58cde24b	-4.16937233897338e-07
193	0xbef1cfaf23d415d0	-1.6986147092464866e-05
194	0xbf3c4d9c00272a7b	-0.00043187197311726045
195	0xbf073d2ba05eee23	-4.4324773667861016e-05
196	0x3ef627739c88cc5e	2.1127803650777446e-05
197	0xbe9b01c77d3be5ed	-4.024349184863293e-07
198	0x3f0dffce7d7a8bd8	5.721901805812835e-05
199	0xbeea504237257fd8	-1.254725950577955e-05
200	0xbf3dde6da94d05ae	-0.00045576264647103736
201	0xbf14aa751349742a	-7.883395739712086e-05
202	0x3f0cf28571d073c7	5.521268597184037e-05
203	0x3ec4b6fd178855d3	2.4693965168336232e-06
204	0xbed933b17e8d7d1d	-6.008607649515203e-06
205	0x3ec7db166de7a0ca	2.8438342802757944e-06
206	0xbf286b183872879c	-0.00018629713688250455
207	0x3f01d23c7b2a9078	3.399130891537731e-05
208	0x3ef7a6dcbde6ff2b	2.2556119682936415e-05
209	0x3ea0f0a46cef2140	5.048516075129703e-07
210	0xbed220ee4e8302b1	-4.32220370089112e-06
211	0x3ee42027ec57157f	9.596638288376532e-06
212	0xbf355fd8e096cac1	-0.00032614750724772537
213	0x3f043f7bcd616864	3.8619962354061855e-05
214	0x3f009d4cd7fa3087	3.168955572360835e-05
215	0xbe59a34b3374fe44	-2.3877123581484127e-08
216	0x3ef4d8c2169e0c7d	1.988097338979617e-05
217	0xbed921cfe9b28898	-5.991954505154194e-06
218	0xbf39ef3da3481f4a	-0.00039572958783694724
219	0x3f0616b4f2c9e5e3	4.2130848986364986e-05
220	0x3f02993af72e1692	3.547393034523701e-05
221	0x3e89617cab75c438	1.8910175978882351e-07
222	0x3eb92c946880efe7	1.5004956441929828e-06
223	0xbef174ac6a505389	-1.6647106026185534e-05
224	0xbf3d7bb6746ff9ce	-0.0004498787351962214
225	0x3f053b3eda9fb567	4.0495734836424814e-05
226	0x3ef3cd08f0f26109	1.8883626634464755e-05
227	0xbebb76af91c30910	-1.636959104309657e-06
228	0x3f06c81739ec201a	4.345246201437076e-05
229	0xbeed920e21ad736a	-1.4100326600258266e-05
230	0xbf3f10cd5677b0a0	-0.00047402394417762374
231	0x3f12b744957b5ebd	7.139545538891851e-05
232	0x3f0e0eec1b69c6e0	5.73316387332387e-05
233	0xbebf5d4637b4fdc6	-1.8694611004370546e-06
234	0xbeddb1ba8129dea8	-7.079661389234868e-06
235	0x3ec852a2d4ad7078	2.8995033622258673e-06
236	0xbf21e9cb2b6ef76c	-0.00013666730020916605
237	0xbee1a2f9482f98ee	-8.409793968721922e-06
238	0x3ef3dff7f6b31e44	1.895416009459044e-05
239	0x3e613c029e578fd0	3.210159941669379e-08
240	0xbed319ec6f86400e	-4.554096215150805e-06
241	0x3ee419b3cf8846e7	9.584617587629847e-06
242	0xbf2d820b8b4d9e93	-0.00022512808723295207
243	0x3ec551de22df31cf	2.541517708265344e-06
244	0x3ef7e6ac191b032f	2.2793830402492707e-05
245	0xbeace10f4ce06a62	-8.606654320371079e-07
246	0x3ef1d4889e757631	1.7004212989993147e-05
247	0xbed997b0cc9b731e	-6.1017373782196e-06
248	0xbf309b513d5acd17	-0.00025339826002408874
249	0x3eeb795a789651a4	1.310064159802048e-05
250	0x3f02c32192db7a49	3.5786115729176194e-05
251	0x3eb18cba7ff42816	1.0460448718907026e-06
252	0xbe93c9bd6917c27d	-2.9486486949253834e-07
253	0x3ec931515f482292	3.0031976570070462e-06
254	0xbf2302036bfcdb54	-0.00014501849909162123
255	0xbed0b1ea86184af9	-3.980394553975856e-06

b f8 [2226]
0	0xbd90000000000000	-3.637978807091713e-12
1	0xbd61a00000000000	-5.009326287108706e-13
2	0xc0e5586f9eb8cc0f	-43715.4881252275
3	0xc0c6f2737efcbf81	-11748.90231284476
4	0x40aad76d115c1186	3435.7130230685607
5	0xbd20000000000000	-2.842170943040401e-14
6	0x0000000000000000	0.0
7	0x3d00000000000000	7.105427357601002e-15
8	0xc0de86f411c20aa0	-31259.813583860756
9	0xc0c6f2737efcbf85	-11748.902312844768
10	0x40aad76d115c1176	3435.7130230685534
11	0x3d3a000000000000	9.237055564881302e-14
12	0x0000000000000000	0.0
13	0x3d68200000000000	6.856737400084967e-13
14	0xc0e8854be29d8531	-50218.37141300215
15	0x40c061635e3fce3b	8386.776313758563
16	0x40aad76d115c118e	3435.7130230685643
17	0xbd33000000000000	-6.750155989720952e-14
18	0xbda4000000000000	-9.094947017729282e-12
19	0x3da3caa000000000	9.000133971426294e-12
20	0xc0e6adf4ba9a0dd6	-46447.64777853682
21	0x40c061635e3fce3e	8386.776313758568
22	0x40aad76d115c1174	3435.7130230685525
23	0xbd48d80000000000	-1.765254609153999e-13
24	0x0000000000000000	0.0
25	0xbd8af40000000000	-3.064215547965432e-12
26	0xc0d5405fcaef29c4	-21761.4967611225
27	0xc0aa444082f3c544	-3362.125999086218
28	0x40aad76d115c118c	3435.7130230685634
29	0xbd4c400000000000	-2.007283228522283e-13
30	0x3d90000000000000	3.637978807091713e-12
31	0xbd626a0000000000	-5.233591338082988e-13
32	0xc0e7dd0e2fc7dea8	-48872.44333261001
33	0xc0b72923543794b3	-5929.138003801158
34	0x40aad76d115c1186	3435.7130230685607
35	0xbd21c00000000000	-3.1530333899354446e-14
36	0x3d80000000000000	1.8189894035458565e-12
37	0x3da0d80000000000	7.65965069149388e-12
38	0xc0e605b707c46766	-45101.719698144865
39	0xc0b72923543794b0	-5929.138003801156
40	0x40aad76d115c1181	3435.7130230685584
41	0xbd32000000000000	-6.394884621840902e-14
42	0x3db0000000000000	1.4551915228366852e-11
43	0xbd93380000000000	-4.369837824924616e-12
44	0xc0dfcef0cba4cf41	-32571.762429430386
45	0xc0b72923543794b1	-5929.138003801157
46	0x40aad76d115c1170	3435.7130230685507
47	0x3d45000000000000	1.4921397450962104e-13
48	0x0000000000000000	0.0
49	0x3d60d00000000000	4.778399897986674e-13
50	0xc0ea0d384d4cae54	-53353.7594359784
51	0xc072d646a200857d	-301.39224434093177
52	0x40aad76d115c1185	3435.7130230685602
53	0x3d15000000000000	1.865174681370263e-14
54	0x3d90000000000000	3.637978807091713e-12
55	0xbdae7a0000000000	-1.3859136061000754e-11
56	0xc0e835e1254936fc	-49583.03580151309
57	0xc072d646a200858d	-301.3922443409327
58	0x40aad76d115c1178	3435.7130230685543
59	0xbd58800000000000	-3.481659405224491e-13
60	0xbd80000000000000	-1.8189894035458565e-12
61	0x3d9e800000000000	6.934897101018578e-12
62	0xc0e217a28357372d	-37053.07853279854
63	0xc072d646a200859a	-301.3922443409334
64	0x40aad76d115c119c	3435.7130230685707
65	0x3d47000000000000	1.6342482922482304e-13
66	0x3d90000000000000	3.637978807091713e-12
67	0x3d67400000000000	6.608047442568932e-13
68	0xc0e9d104a2dd31d7	-52872.14488086447
69	0x40915b53b727d074	1110.8317533703785
70	0x40aad76d115c1185	3435.7130230685602
71	0x3d04000000000000	8.881784197001252e-15
72	0x0000000000000000	0.0
73	0x3d64800000000000	5.826450433232822e-13
74	0xc0e2ee98a4ee644b	-38772.770133205304
75	0x40c2bc53ffe8bfd2	9592.6562472283
76	0x40aad76d115c1188	3435.7130230685616
77	0xbd40000000000000	-1.1368683772161603e-13
78	0xbd80000000000000	-1.8189894035458565e-12
79	0x3d7fa00000000000	1.7976731214730535e-12
80	0xc0d9a0b405f8c904	-26242.8128644908
81	0x40c2bc53ffe8bfd0	9592.656247228297
82	0x40aad76d115c119c	3435.7130230685707
83	0xbd18000000000000	-2.1316282072803006e-14
84	0x3d90000000000000	3.637978807091713e-12
85	0x3d58c00000000000	3.517186542012496e-13
86	0xc0e186db27178786	-35894.848521961874
87	0x40b3dc791ab412d2	5084.473063711734
88	0x40aad76d115c118b	3435.713023068563
89	0x3d18000000000000	2.1316282072803006e-14
90	0x3d74000000000000	1.1368683772161603e-12
91	0xbd5c800000000000	-4.050093593832571e-13
92	0xc0e6463dbec5361a	-45617.92953739707
93	0xc091338efd36f246	-1100.889637812173
94	0x40aad76d115c1187	3435.713023068561
95	0x3d3c000000000000	9.947598300641403e-14
96	0x3da0000000000000	7.275957614183426e-12
97	0x3d93000000000000	4.320099833421409e-12
98	0xc0da005942af2225	-26625.394695075363
99	0xc0b1923db6a1354c	-4498.241067958366
100	0x40aad76d115c1182	3435.713023068559
101	0x3d2c000000000000	4.973799150320701e-14
102	0xbd80000000000000	-1.8189894035458565e-12
103	0x3d6b800000000000	7.815970093361102e-13
104	0xc0e81a419f0e9bc9	-49362.05066614558
105	0xc0ae82f1a9933aa8	-3905.4719968804457
106	0x40aad76d115c119d	3435.713023068571
107	0x3d30000000000000	5.684341886080802e-14
108	0x3d90000000000000	3.637978807091713e-12
109	0xbda33c0000000000	-8.746781077206833e-12
110	0xc0e2054c0936d50a	-36906.376124778835
111	0xc0ae82f1a9933a90	-3905.4719968804347
112	0x40aad76d115c11b8	3435.7130230685834
113	0xbd67800000000000	-6.679101716144942e-13
114	0x3da0000000000000	7.275957614183426e-12
115	0xbd60c00000000000	-4.760636329592671e-13
116	0xc0e8be532994ab10	-50674.59882577334
117	0x40a12d3b205d2b40	2198.615481292276
118	0x40aad76d115c11ae	3435.713023068579
119	0x3d20000000000000	2.842170943040401e-14
120	0x3db0000000000000	1.4551915228366852e-11
121	0x3d61400000000000	4.902744876744691e-13
122	0xc0e6e6fc019133c4	-46903.87519130812
123	0x40a12d3b205d2b4a	2198.6154812922805
124	0x40aad76d115c1199	3435.7130230685693
125	0x3d5c800000000000	4.050093593832571e-13
126	0x3d90000000000000	3.637978807091713e-12
127	0x3d7ee00000000000	1.7550405573274475e-12
128	0xc0e0e797c899cc22	-34620.74323739881
129	0xc0b83d18fb3c3cf1	-6205.097583546522
130	0x40aad76d115c1179	3435.713023068555
131	0xbd35000000000000	-7.460698725481052e-14
132	0x0000000000000000	0.0
133	0x3d6a000000000000	7.389644451905042e-13
134	0xc0e1f2fe000866c7	-36759.937504006135
135	0xc0b83d18fb3c3d02	-6205.097583546538
136	0x40aad76d115c119d	3435.713023068571
137	0xbd6c000000000000	-7.958078640513122e-13
138	0x0000000000000000	0.0
139	0xbdb9800000000000	-2.319211489520967e-11
140	0xc0d99e085e5d14f9	-26232.130759497148
141	0xc0b83d18fb3c3cf5	-6205.097583546526
142	0x40aad76d115c118b	3435.713023068563
143	0xbd50000000000000	-2.2737367544323206e-13
144	0x3d90000000000000	3.637978807091713e-12
145	0xbd53c00000000000	-2.8066438062523957e-13
146	0xc0e3b933c1b56721	-40393.61739606993
147	0x40b83d18fb3c3cfa	6205.097583546531
148	0x40aad76d115c1189	3435.713023068562
149	0xbd18000000000000	-2.1316282072803006e-14
150	0x0000000000000000	0.0
151	0xbda7240000000000	-1.0523137916607084e-11
152	0xc0e1e1dc99b1efca	-36622.89376160463
153	0x40b83d18fb3c3ce6	6205.097583546512
154	0x40aad76d115c1146	3435.7130230685316
155	0x3d52000000000000	2.5579538487363607e-13
156	0x0000000000000000	0.0
157	0x3d68800000000000	6.963318810448982e-13
158	0xc0e0e797c899cc38	-34620.74323739897
159	0x40b83d18fb3c3cf9	6205.09758354653
160	0x40aad76d115c119a	3435.71302306857
161	0x3d44000000000000	1.4210854715202004e-13
162	0x3db0000000000000	1.4551915228366852e-11
163	0xbd81000000000000	-1.9326762412674725e-12
164	0xc0e1f2fe000866b6	-36759.93750400601
165	0x40b83d18fb3c3cf0	6205.0975835465215
166	0x40aad76d115c116b	3435.7130230685484
167	0xbd50000000000000	-2.2737367544323206e-13
168	0x3dd0000000000000	5.820766091346741e-11
169	0x3da7e00000000000	1.0857093002414331e-11
170	0xc0d99e085e5d1527	-26232.130759497315
171	0x40b83d18fb3c3cfe	6205.097583546534
172	0x40aad76d115c11cb	3435.713023068592
173	0xbd73400000000000	-1.0942358130705543e-12
174	0x3d83000000000000	2.1600499167107046e-12
175	0x3d7b2c0000000000	1.5445422718585178e-12
176	0xc0eb4a976e681676	-55892.732227367276
177	0xc0c6f2737efcbf87	-11748.902312844772
178	0x40c050f5133c1282	8353.91464949516
179	0xbd29c00000000000	-4.574118861455645e-14
180	0x3d90000000000000	3.637978807091713e-12
181	0xbda70e0000000000	-1.0484058066140278e-11
182	0xc0e9734046649f0c	-52122.00859290184
183	0xc0c6f2737efcbf80	-11748.902312844759
184	0x40c050f5133c128b	8353.914649495176
185	0x3d53800000000000	2.7711166694643907e-13
186	0x3d90000000000000	3.637978807091713e-12
187	0xbd6dfc0000000000	-8.522071937022702e-13
188	0xc0e54346418def5b	-43546.195502250186
189	0xc0c6f2737efcbf84	-11748.902312844766
190	0x40c706d0579316eb	11789.627672563734
191	0xbd39c00000000000	-9.14823772291129e-14
192	0x3d65000000000000	5.968558980384842e-13
193	0x3da0424000000000	7.393641254793692e-12
194	0xc0e64eac78fc8996	-45685.38976885674
195	0xc0c6f2737efcbf86	-11748.90231284477
196	0x40c706d0579316e2	11789.627672563718
197	0xbd31400000000000	-6.128431095930864e-14
198	0xbdb0000000000000	-1.4551915228366852e-11
199	0xbd62400000000000	-5.186961971048731e-13
200	0xc0e12ab2a822ada7	-35157.583024348416
201	0xc0c6f2737efcbf82	-11748.902312844762
202	0x40c706d0579316ea	11789.627672563733
203	0x3d5d000000000000	4.121147867408581e-13
204	0xbd90000000000000	-3.637978807091713e-12
205	0xbd74bc0000000000	-1.1786127629420662e-12
206	0xc0ee7773b24ccf69	-62395.61551514158
207	0x40c061635e3fce32	8386.776313758546
208	0x40c050f5133c1288	8353.914649495171
209	0x3d47400000000000	1.652011860642233e-13
210	0x3dad000000000000	1.318767317570746e-11
211	0x3da08e0000000000	7.528200285378261e-12
212	0xc0eca01c8a49587e	-58624.89188067707
213	0x40c061635e3fce2d	8386.776313758537
214	0x40c050f5133c1274	8353.914649495135
215	0xbd44000000000000	-1.4210854715202004e-13
216	0xbdb4000000000000	-1.8189894035458565e-11
217	0xbd90a38000000000	-3.7831959787126834e-12
218	0xc0eba5d7b9313474	-56622.741356470535
219	0x40c061635e3fce39	8386.776313758559
220	0x40c050f5133c1285	8353.914649495166
221	0x3d40000000000000	1.1368683772161603e-13
222	0xbd68000000000000	-6.821210263296962e-13
223	0xbdb0080000000000	-1.4580336937797256e-11
224	0xc0e64eac78fc89b7	-45685.38976885698
225	0x40c6f2737efcbf87	11748.902312844772
226	0x40c706d0579316e6	11789.627672563725
227	0xbd42000000000000	-1.2789769243681803e-13
228	0xbda0000000000000	-7.275957614183426e-12
229	0x3d83800000000000	2.2168933355715126e-12
230	0xc0e12ab2a822ada6	-35157.58302434841
231	0x40c6f2737efcbf83	11748.902312844764
232	0x40c706d0579316e6	11789.627672563725
233	0x3d48000000000000	1.7053025658242404e-13
234	0xbd90000000000000	-3.637978807091713e-12
235	0xbd7ac00000000000	-1.5205614545266144e-12
236	0xc0edcf35ff77290a	-61049.68743474975
237	0xc0b72923543794ac	-5929.138003801152
238	0x40c050f5133c1285	8353.914649495166
239	0x3d32800000000000	6.572520305780927e-14
240	0x3d8c000000000000	3.183231456205249e-12
241	0x3da9a8c000000000	1.1668443988810395e-11
242	0xc0ebf7ded773b19e	-57278.9638002843
243	0xc0b72923543794c1	-5929.138003801171
244	0x40c050f5133c128d	8353.91464949518
245	0xbd5a200000000000	-3.7125857943465235e-13
246	0xbda8000000000000	-1.0913936421275139e-11
247	0xbd5b400000000000	-3.872457909892546e-13
248	0xc0e5d9a03581b1f3	-44749.00653157001
249	0xc0b72923543794b4	-5929.138003801159
250	0x40c050f5133c1283	8353.914649495162
251	0x0000000000000000	0.0
252	0x3d76000000000000	1.2505552149377763e-12
253	0x3d7ce80000000000	1.6431300764452317e-12
254	0xc0efff601cfbf894	-65531.00353811789
255	0xc072d646a2008558	-301.39224434092966
