python-Linux/neural-sparse-linear-solvers-master/stand_small_test/3964631195285423355_e76a51749e7018f7f54299de723cb3e7f7107100_b17bb9e5f145fcae9ad1aef895532be1be8cbb32.npz (npz, 110208 bytes, 3 tensors)

A_values f8 [28100]
000000 fb 56 07 31 31 49 c4 41 e0 8a 3a 9f 72 4e 2f c1
       680682082.0573419 -1025849.3109935187
000010 ce 01 c6 57 f0 c6 4b c1 31 e0 a8 a4 7f 0f 43 c1
       -3640800.6857301956 -2498303.286403679
000020 ea 48 aa 8f 3f 37 5b 41 98 3c 1f 52 02 a9 38 c1
       7134462.244768361 -1616130.3207891341
000030 ce 01 c6 57 f0 c6 4b c1 a3 4e 1f 88 75 12 c4 c1
       -3640800.6857301956 -673508112.2445873
000040 59 d1 c8 a0 e1 a8 c1 41 20 ff 7d b3 5e 30 14 41
       592560961.5688888 330775.6752853263
000050 8c 7f 06 9c 74 27 52 41 9a 8a 82 16 fa 48 28 c1
       4758994.4378966205 -795773.0439647019
000060 0e f3 d3 b4 7d 56 41 c1 e2 02 e1 0f ea 88 c1 c1
       -2272507.4127181834 -588370975.7579005
000070 6e be 75 6b fb 72 42 c1 8c 7f 06 9c 74 27 52 41
       -2418166.8395307576 4758994.4378966205
000080 28 1a 07 c3 60 04 cd 41 60 80 0f a8 b0 a9 65 41
       973652358.0554857 11357573.251892269
000090 e2 95 db 39 7f 2b 6c c1 a3 ca a1 c7 52 aa bb c1
       -14769145.808054868 -464147143.63199824
0000a0 cd 8b ba 3b 66 3b 53 c1 60 80 0f a8 b0 a9 65 41
       -5041560.93326087 11357573.251892269
0000b0 ea 5c fa 37 b1 a0 5c c1 e2 95 db 39 7f 2b 6c c1
       -7504580.8746559415 -14769145.808054868
0000c0 20 ff 7d b3 5e 30 14 41 60 80 0f a8 b0 a9 65 41
       330775.6752853263 11357573.251892269
0000d0 46 e1 79 3b a1 89 8b 41 0e f3 d3 b4 7d 56 41 41
       57750567.434511706 2272507.4127181834
0000e0 a9 d0 15 0a 8d 76 50 41 60 80 0f a8 b0 a9 65 c1
       4315700.157581487 -11357573.251892269
0000f0 eb 0c 58 1f bd 0f 70 41 90 74 ac 1b 9d ec 54 c1
       16841681.958996695 -5485172.432400838
000100 e0 8a 3a 9f 72 4e 2f c1 e2 95 db 39 7f 2b 6c c1
       -1025849.3109935187 -14769145.808054868
000110 f4 e5 39 68 44 e9 97 41 ea 48 aa 8f 3f 37 5b c1
       100290842.05654126 -7134462.244768361
000120 a8 3c a5 5f f6 b3 69 41 15 60 fb 07 7e 47 52 c1
       13475762.988920525 -4791800.124717732
000130 e2 95 db 39 7f 2b 6c 41 59 e7 e1 55 5c 2c 72 41
       14769145.808054868 19056069.36765227
000140 ce 01 c6 57 f0 c6 4b c1 8c 7f 06 9c 74 27 52 41
       -3640800.6857301956 4758994.4378966205
000150 f0 2a a2 83 f1 da 7d 41 e3 d2 48 55 01 d7 4c c1
       31305496.22709173 -3780098.6662849053
000160 ce 01 c6 57 f0 c6 4b 41 22 aa ab 91 86 c6 54 41
       3640800.6857301956 5446170.276102575
000170 8c 7f 06 9c 74 27 52 c1 cf 8c cf 30 a9 b1 57 41
       -4758994.4378966205 6211236.762667849
000180 31 e0 a8 a4 7f 0f 43 c1 ea 48 aa 8f 3f 37 5b c1
       -2498303.286403679 -7134462.244768361
000190 63 d6 0f 5a b5 4f c4 41 a0 64 0f 6d 84 da 42 41
       681536180.1237301 2471176.852032259
0001a0 ce 01 c6 57 f0 c6 4b c1 66 42 cf 22 d1 db 4d c1
       -3640800.6857301956 -3913634.271950054
0001b0 9d fd 18 e3 40 52 62 41 98 3c 1f 52 02 a9 38 c1
       9605639.09680062 -1616130.3207891341
0001c0 ce 01 c6 57 f0 c6 4b c1 a3 4e 1f 88 75 12 c4 c1
       -3640800.6857301956 -673508112.2445873
0001d0 9a 8a 82 16 fa 48 28 c1 0e f3 d3 b4 7d 56 41 41
       -795773.0439647019 2272507.4127181834
0001e0 fd ae 07 1f fb aa c1 41 ac 64 d0 a3 a5 5e 28 c1
       592836158.0600277 -798546.8199492893
0001f0 8c 7f 06 9c 74 27 52 41 a0 73 2b 6b aa 17 33 c1
       4758994.4378966205 -1251242.4186317697
000200 39 0c c8 1d 27 6e 47 c1 e2 02 e1 0f ea 88 c1 c1
       -3071054.2326674727 -588370975.7579005
000210 6e be 75 6b fb 72 42 c1 8c 7f 06 9c 74 27 52 41
       -2418166.8395307576 4758994.4378966205
000220 a3 ca a1 c7 52 aa bb c1 c7 a3 8c bd 0e 4d ce 41
       -464147143.63199824 1016733051.0987481
000230 60 80 0f a8 b0 a9 65 41 e2 95 db 39 7f 2b 6c c1
       11357573.251892269 -14769145.808054868
000240 a4 54 d4 2a 2d 18 c0 c1 cd 8b ba 3b 66 3b 53 c1
       -540039765.658833 -5041560.93326087
000250 60 80 0f a8 b0 a9 65 41 ea 5c fa 37 b1 a0 5c c1
       11357573.251892269 -7504580.8746559415
000260 e2 95 db 39 7f 2b 6c c1 0e f3 d3 b4 7d 56 41 c1
       -14769145.808054868 -2272507.4127181834
000270 a9 d0 15 0a 8d 76 50 41 ac 64 d0 a3 a5 5e 28 c1
       4315700.157581487 -798546.8199492893
000280 60 80 0f a8 b0 a9 65 41 c2 84 85 a4 cb ea 8b 41
       11357573.251892269 58546548.56519462
000290 39 0c c8 1d 27 6e 47 41 72 5e 21 54 d0 1a 53 41
       3071054.2326674727 5008193.314536678
0002a0 60 80 0f a8 b0 a9 65 c1 eb 0c 58 1f bd 0f 70 41
       -11357573.251892269 16841681.958996695
0002b0 90 74 ac 1b 9d ec 54 c1 ea 48 aa 8f 3f 37 5b 41
       -5485172.432400838 7134462.244768361
0002c0 a8 3c a5 5f f6 b3 69 41 a0 64 0f 6d 84 da 42 41
       13475762.988920525 2471176.852032259
0002d0 e2 95 db 39 7f 2b 6c c1 47 75 a8 12 e4 7e 98 41
       -14769145.808054868 102742276.66450988
0002e0 9d fd 18 e3 40 52 62 c1 f2 ae 73 e3 b8 a8 6d 41
       -9605639.09680062 15549895.107871506
0002f0 15 60 fb 07 7e 47 52 c1 e2 95 db 39 7f 2b 6c 41
       -4791800.124717732 14769145.808054868
000300 59 e7 e1 55 5c 2c 72 41 e3 d2 48 55 01 d7 4c c1
       19056069.36765227 -3780098.6662849053
000310 ce 01 c6 57 f0 c6 4b c1 8c 7f 06 9c 74 27 52 41
       -3640800.6857301956 4758994.4378966205
000320 b8 5b 7e 13 9a 30 7e 41 07 d6 fd 7d 19 c7 50 c1
       31656353.21834919 -4398181.968617923
000330 ce 01 c6 57 f0 c6 4b 41 22 aa ab 91 86 c6 54 41
       3640800.6857301956 5446170.276102575
000340 8c 7f 06 9c 74 27 52 c1 cf 8c cf 30 a9 b1 57 41
       -4758994.4378966205 6211236.762667849
000350 66 42 cf 22 d1 db 4d c1 9d fd 18 e3 40 52 62 c1
       -3913634.271950054 -9605639.09680062
000360 83 2d 6b da a5 3c c4 41 9d fd 18 e3 40 52 62 c1
       679037876.8373264 -9605639.09680062
000370 ce 01 c6 57 f0 c6 4b c1 98 3c 1f 52 02 a9 38 c1
       -3640800.6857301956 -1616130.3207891341
000380 ce 01 c6 57 f0 c6 4b c1 a3 4e 1f 88 75 12 c4 c1
       -3640800.6857301956 -673508112.2445873
000390 a0 73 2b 6b aa 17 33 c1 39 0c c8 1d 27 6e 47 41
       -1251242.4186317697 3071054.2326674727
0003a0 5a 0e 82 e0 e8 a4 c1 41 39 0c c8 1d 27 6e 47 41
       592040385.016063 3071054.2326674727
0003b0 8c 7f 06 9c 74 27 52 41 e2 02 e1 0f ea 88 c1 c1
       4758994.4378966205 -588370975.7579005
0003c0 6e be 75 6b fb 72 42 c1 8c 7f 06 9c 74 27 52 41
       -2418166.8395307576 4758994.4378966205
0003d0 a4 54 d4 2a 2d 18 c0 c1 76 be bb 59 e5 77 c0 41
       -540039765.658833 552585907.4667499
0003e0 60 80 0f a8 b0 a9 65 41 e2 95 db 39 7f 2b 6c c1
       11357573.251892269 -14769145.808054868
0003f0 cd 8b ba 3b 66 3b 53 c1 60 80 0f a8 b0 a9 65 41
       -5041560.93326087 11357573.251892269
000400 ea 5c fa 37 b1 a0 5c c1 e2 95 db 39 7f 2b 6c c1
       -7504580.8746559415 -14769145.808054868
000410 39 0c c8 1d 27 6e 47 c1 72 5e 21 54 d0 1a 53 41
       -3071054.2326674727 5008193.314536678
000420 39 0c c8 1d 27 6e 47 41 60 80 0f a8 b0 a9 65 41
       3071054.2326674727 11357573.251892269
000430 56 ce 82 09 3a c9 87 41 60 80 0f a8 b0 a9 65 c1
       49882945.18887012 -11357573.251892269
000440 eb 0c 58 1f bd 0f 70 41 90 74 ac 1b 9d ec 54 c1
       16841681.958996695 -5485172.432400838
000450 9d fd 18 e3 40 52 62 41 f2 ae 73 e3 b8 a8 6d 41
       9605639.09680062 15549895.107871506
000460 9d fd 18 e3 40 52 62 c1 e2 95 db 39 7f 2b 6c c1
       -9605639.09680062 -14769145.808054868
000470 d5 45 2f dd 51 fe 91 41 15 60 fb 07 7e 47 52 c1
       75469943.29616483 -4791800.124717732
000480 e2 95 db 39 7f 2b 6c 41 59 e7 e1 55 5c 2c 72 41
       14769145.808054868 19056069.36765227
000490 07 d6 fd 7d 19 c7 50 c1 ce 01 c6 57 f0 c6 4b c1
       -4398181.968617923 -3640800.6857301956
0004a0 8c 7f 06 9c 74 27 52 41 5c 41 d5 e8 b9 95 7a 41
       4758994.4378966205 27876254.552064285
0004b0 ce 01 c6 57 f0 c6 4b 41 22 aa ab 91 86 c6 54 41
       3640800.6857301956 5446170.276102575
0004c0 8c 7f 06 9c 74 27 52 c1 cf 8c cf 30 a9 b1 57 41
       -4758994.4378966205 6211236.762667849
0004d0 98 3c 1f 52 02 a9 38 c1 ce 01 c6 57 f0 c6 4b 41
       -1616130.3207891341 3640800.6857301956
0004e0 1d 7b 56 b8 10 4f c4 41 e0 8a 3a 9f 72 4e 2f c1
       681451888.6756321 -1025849.3109935187
0004f0 8e ed 62 16 c1 a2 35 41 31 e0 a8 a4 7f 0f 43 c1
       1417921.0874470207 -2498303.286403679
000500 ea 48 aa 8f 3f 37 5b 41 20 88 90 3c 1d 7e 27 c1
       7134462.244768361 -769806.6182901897
000510 07 8b 94 cc 8f f5 40 c1 a3 4e 1f 88 75 12 c4 c1
       -2222879.598283175 -673508112.2445873
000520 e2 02 e1 0f ea 88 c1 c1 95 ea 0f 29 f9 56 cf 41
       -588370975.7579005 1051587154.1243464
000530 20 ff 7d b3 5e 30 14 41 8c 7f 06 9c 74 27 52 41
       330775.6752853263 4758994.4378966205
000540 9a 8a 82 16 fa 48 28 c1 0e f3 d3 b4 7d 56 41 c1
       -795773.0439647019 -2272507.4127181834
000550 79 32 8e 10 2f 5c bb c1 6e be 75 6b fb 72 42 c1
       -459026192.55545765 -2418166.8395307576
000560 8c 7f 06 9c 74 27 52 41 cd 8b ba 3b 66 3b 53 c1
       4758994.4378966205 -5041560.93326087
000570 60 80 0f a8 b0 a9 65 c1 c4 34 87 22 d2 16 cd 41
       -11357573.251892269 976069701.0562978
000580 f6 ce b8 62 b4 b2 50 c1 e2 95 db 39 7f 2b 6c c1
       -4377297.542529812 -14769145.808054868
000590 a3 ca a1 c7 52 aa bb c1 f6 9a 1a 80 5f 71 42 c1
       -464147143.63199824 -2417343.00081193
0005a0 ca 31 66 ed ac a0 5a 41 ea 5c fa 37 b1 a0 5c c1
       6980275.709362457 -7504580.8746559415
0005b0 e2 95 db 39 7f 2b 6c c1 60 80 0f a8 b0 a9 65 41
       -14769145.808054868 11357573.251892269
0005c0 eb 0c 58 1f bd 0f 70 41 20 ff 7d b3 5e 30 14 41
       16841681.958996695 330775.6752853263
0005d0 f6 ce b8 62 b4 b2 50 c1 b0 c8 7a 73 70 33 94 41
       -4377297.542529812 84728860.86990619
0005e0 0e f3 d3 b4 7d 56 41 41 a9 d0 15 0a 8d 76 50 41
       2272507.4127181834 4315700.157581487
0005f0 ca 31 66 ed ac a0 5a c1 31 ca 9e a2 b6 6e 69 41
       -6980275.709362457 13333941.081883522
000600 90 74 ac 1b 9d ec 54 c1 15 60 fb 07 7e 47 52 c1
       -5485172.432400838 -4791800.124717732
000610 e0 8a 3a 9f 72 4e 2f c1 e2 95 db 39 7f 2b 6c c1
       -1025849.3109935187 -14769145.808054868
000620 85 43 11 cb 70 cd 98 41 ea 48 aa 8f 3f 37 5b c1
       104029234.76685913 -7134462.244768361
000630 a8 3c a5 5f f6 b3 69 41 2b b2 eb 5a 8c 85 4c c1
       13475762.988920525 -3738392.71031787
000640 e2 95 db 39 7f 2b 6c 41 59 e7 e1 55 5c 2c 72 41
       14769145.808054868 19056069.36765227
000650 ce 01 c6 57 f0 c6 4b c1 22 aa ab 91 86 c6 54 41
       -3640800.6857301956 5446170.276102575
000660 8e ed 62 16 c1 a2 35 41 8c 7f 06 9c 74 27 52 41
       1417921.0874470207 4758994.4378966205
000670 68 77 39 0a 75 03 83 41 e3 d2 48 55 01 d7 4c c1
       39874209.27805978 -3780098.6662849053
000680 07 8b 94 cc 8f f5 40 41 f2 e9 46 19 bb 48 50 41
       2222879.598283175 4268780.394953238
000690 8c 7f 06 9c 74 27 52 c1 cf 8c cf 30 a9 b1 57 41
       -4758994.4378966205 6211236.762667849
0006a0 98 3c 1f 52 02 a9 38 c1 ce 01 c6 57 f0 c6 4b 41
       -1616130.3207891341 3640800.6857301956
0006b0 31 e0 a8 a4 7f 0f 43 c1 ea 48 aa 8f 3f 37 5b c1
       -2498303.286403679 -7134462.244768361
0006c0 85 fa 5e e1 94 55 c4 41 a0 64 0f 6d 84 da 42 41
       682305986.7420202 2471176.852032259
0006d0 8e ed 62 16 c1 a2 35 41 66 42 cf 22 d1 db 4d c1
       1417921.0874470207 -3913634.271950054
0006e0 9d fd 18 e3 40 52 62 41 20 88 90 3c 1d 7e 27 c1
       9605639.09680062 -769806.6182901897
0006f0 07 8b 94 cc 8f f5 40 c1 a3 4e 1f 88 75 12 c4 c1
       -2222879.598283175 -673508112.2445873
000700 e2 02 e1 0f ea 88 c1 c1 9a 8a 82 16 fa 48 28 c1
       -588370975.7579005 -795773.0439647019
000710 0e f3 d3 b4 7d 56 41 41 3a c8 4e a7 12 59 cf 41
       2272507.4127181834 1051862350.6154854
000720 ac 64 d0 a3 a5 5e 28 c1 8c 7f 06 9c 74 27 52 41
       -798546.8199492893 4758994.4378966205
000730 a0 73 2b 6b aa 17 33 c1 39 0c c8 1d 27 6e 47 c1
       -1251242.4186317697 -3071054.2326674727
000740 79 32 8e 10 2f 5c bb c1 6e be 75 6b fb 72 42 c1
       -459026192.55545765 -2418166.8395307576
000750 8c 7f 06 9c 74 27 52 41 cd 8b ba 3b 66 3b 53 c1
       4758994.4378966205 -5041560.93326087
000760 60 80 0f a8 b0 a9 65 c1 a3 ca a1 c7 52 aa bb c1
       -11357573.251892269 -464147143.63199824
000770 62 be 0c 1d 80 5f ce 41 f6 ce b8 62 b4 b2 50 c1
       1019150394.09956 -4377297.542529812
000780 e2 95 db 39 7f 2b 6c c1 a4 54 d4 2a 2d 18 c0 c1
       -14769145.808054868 -540039765.658833
000790 f6 9a 1a 80 5f 71 42 c1 ca 31 66 ed ac a0 5a 41
       -2417343.00081193 6980275.709362457
0007a0 ea 5c fa 37 b1 a0 5c c1 e2 95 db 39 7f 2b 6c c1
       -7504580.8746559415 -14769145.808054868
0007b0 60 80 0f a8 b0 a9 65 41 eb 0c 58 1f bd 0f 70 41
       11357573.251892269 16841681.958996695
0007c0 0e f3 d3 b4 7d 56 41 c1 a9 d0 15 0a 8d 76 50 41
       -2272507.4127181834 4315700.157581487
0007d0 ac 64 d0 a3 a5 5e 28 c1 f6 ce b8 62 b4 b2 50 c1
       -798546.8199492893 -4377297.542529812
0007e0 6e 9a 00 a8 05 64 94 41 39 0c c8 1d 27 6e 47 41
       85524842.0005891 3071054.2326674727
0007f0 72 5e 21 54 d0 1a 53 41 ca 31 66 ed ac a0 5a c1
       5008193.314536678 -6980275.709362457

x f8 [2520]
000000 10 9f cf 08 f2 bd 91 3e 8d d9 c7 ef df a5 19 bf
       2.6437602046327133e-07 -9.783915806580428e-05
000010 c0 64 7b bd 5d 57 30 bf 9f da 1c fd 25 c9 38 bf
       -0.0002493480546781994 -0.0003782003160383382
000020 02 2b 94 38 5f a6 27 3f 16 1d 48 0d 0f 73 be be
       0.00018043434491973187 -1.8149285568884956e-06
000030 5c fd 49 28 27 fe 15 3f 8e 28 e0 9d 4d 19 0a 3f
       8.389581678080099e-05 4.977958791137312e-05
000040 92 cc 1f 46 36 43 3c bf 80 f8 22 20 dd 3a 3a bf
       -0.0004312522415823107 -0.0004002370698222915
000050 3b f4 50 0e 57 22 2a 3f cc df 1d 45 97 e6 c9 3e
       0.00019938767141694673 3.08760949335391e-06
000060 77 dc 95 b4 3e e5 3a 3f c6 41 e2 03 1a 53 19 3f
       0.0004103925790199312 9.660574230197565e-05
000070 85 33 d6 42 3c a4 40 bf 79 4e 24 a8 51 36 41 bf
       -0.0005078596347388586 -0.0005252741541732073
000080 93 46 2d 04 b4 90 3d 3f 38 70 88 66 c4 c8 d2 3e
       0.0004511298649748443 4.478513439678442e-06
000090 e0 36 ed 41 8e df ee be 2d 97 88 56 7a 5e 19 bf
       -1.4721519674100664e-05 -9.677526180293097e-05
0000a0 01 d3 df 6d a6 10 46 bf e3 95 f3 f0 11 ba 31 bf
       -0.0006733715670167174 -0.0002704900552557827
0000b0 38 c7 0a 39 b8 0b 36 3f 46 03 ec 34 a0 e8 b8 be
       0.00033639190318545146 -1.484673891105803e-06
0000c0 90 c9 da f7 b4 5a 09 3f 1e 4c 87 9e b0 1f 0b 3f
       4.835953494132788e-05 5.173452138120697e-05
0000d0 c0 0d 27 d6 88 00 53 bf 96 cb b2 9c fb 49 32 bf
       -0.001159795407702599 -0.00027906792520154247
0000e0 70 49 75 7b 29 81 37 3f b9 af 4f 94 19 7c d6 3e
       0.00035865080595445017 5.360785796586854e-06
0000f0 b9 2a aa 99 5e c1 34 3f 60 9f 30 b3 18 24 18 3f
       0.00031670150352939745 9.209061390491385e-05
000100 e3 1e 49 b3 ff 6f 56 bf 21 8a da 16 07 d5 34 bf
       -0.0013694760392741138 -0.0003178732211869557
000110 5e a5 99 e7 6b 9e 49 3f 66 b1 f0 9b 47 10 c1 3e
       0.0007818247679100378 2.034138759229669e-06
000120 2e 1e c9 46 60 e9 b6 be 71 b1 98 fc 43 ca 18 bf
       -1.3656392880023445e-06 -9.456672628322338e-05
000130 7f d3 96 ae 1d ca 42 bf 13 ef ce a3 b6 ca 3c 3f
       -0.0005734105044924303 0.00043932875615458714
000140 7c 6f 2c 54 2d bf 33 3f 7e 02 d5 c1 a4 ca cc be
       0.00030131203327398554 -3.4322233789799077e-06
000150 bc 4d c4 29 51 fb bf be 60 98 33 cb 62 3b 0d 3f
       -1.9062582970505955e-06 5.57555698835067e-05
000160 2f 48 d4 48 cc 3e 50 bf cf 97 9d 6c 79 c2 39 3f
       -0.0009915347066607007 0.0003930612989421185
000170 cc fc b7 e5 ef 95 34 3f 60 97 9f 11 2c b0 d4 be
       0.00031411272877330805 -4.932444676674714e-06
000180 68 c9 b7 0b f1 2c 35 3f e3 31 b8 b5 81 aa 15 3f
       0.00032311329752512117 8.26493900875701e-05
000190 3e e4 e8 ec 6c 3c 53 bf 40 54 0a 56 bb a9 3b 3f
       -0.001174074528206739 0.000422104107238145
0001a0 ba 40 e4 e5 1d be 45 3f 88 78 c6 58 15 1e ef 3e
       0.0006635328279873877 1.483798657702882e-05
0001b0 bb de f4 ff ca 8a a0 3e e2 79 77 b5 a1 c2 18 bf
       4.929947862502424e-07 -9.445297234076487e-05
0001c0 88 58 8a d4 8e 1c 45 bf 0c 12 33 65 86 26 3b bf
       -0.0006442735112439793 -0.0004142835725356182
0001d0 e1 79 e9 cd 05 6f 33 3f 8e 53 56 e8 3f bb c2 be
       0.0002965344591866742 -2.2329621198282186e-06
0001e0 fc 4c 07 91 21 87 11 3f 61 62 c9 2a 0e 14 0e 3f
       6.686346410527186e-05 5.7369882914219647e-05
0001f0 fa 5f fc eb c2 dc 52 bf 59 3f c0 8d c7 f9 3a bf
       -0.001151266434993302 -0.0004116165343939125
000200 2e 9d 8f 01 eb 3e 36 3f 4c 77 cb 6f 86 ae e3 be
       0.00033944356397204694 -9.384984417544873e-06
000210 ef 67 8b 2b 16 00 2a 3f aa f7 df 44 e3 1c 15 3f
       0.00019836683875135107 8.053910389091307e-05
000220 6a d4 17 5b a2 4f 57 bf d7 46 7b be f2 10 36 bf
       -0.0014227948671508236 -0.0003367035519491307
000230 cd 51 a9 bc 0d e8 37 3f 19 07 c4 ac a9 1d e3 3e
       0.0003647836244103059 9.115157262321341e-06
000240 ba a4 ff e9 b0 09 3d 3f 28 4d 34 17 c2 19 34 3f
       0.00044308251562925514 0.0003067110876184436
000250 df 29 50 ed a8 80 58 bf 56 27 e0 92 78 10 52 bf
       -0.0014955186536577054 -0.0011025598028048997
000260 5a fa 38 2d c7 e9 37 3f 2c b1 d2 80 6f 88 e4 be
       0.000364886405097941 -9.790874197023411e-06
000270 99 02 51 61 97 4c f7 be 6b 14 ae 8e 9b 5e 18 bf
       -2.2219834211025834e-05 -9.296249815633906e-05
000280 a7 3a 20 41 50 4f 48 bf d8 ce cb 27 11 d0 2f 3f
       -0.0007418767802408092 0.00024271211068304407
000290 02 58 d6 cf fd 42 34 3f ee d8 9a 2b b5 c2 ca 3e
       0.00030916878298492556 3.1901093649713103e-06
0002a0 3c 65 fc 72 fe d4 1b 3f 6c 8f 1e 17 ac ec 0f 3f
       0.00010617068323561391 6.089115312526882e-05
0002b0 1d 8f 97 28 3d 94 55 bf d4 67 1e de c7 26 31 3f
       -0.0013170811893070185 0.00026171092587789807
0002c0 e0 9d c9 75 35 94 37 3f bf 2b 41 cc 52 45 ce be
       0.000359786083015538 -3.6085599237947986e-06
0002d0 e7 0d b2 3a ce 1c 33 3f 3d f9 73 2b 73 c4 17 3f
       0.0002916339387370723 9.066536846444747e-05
0002e0 2c 00 f3 63 b0 88 5a bf 08 2c 84 cb 9a 84 21 3f
       -0.001619503265644094 0.000133651634094484
0002f0 cc f1 4e 07 21 f7 37 3f 52 57 e9 81 46 9a 00 bf
       0.00036568218575519225 -3.166701957428457e-05
000300 a7 42 8d 7c e6 bd 44 3f cd 9e 9a 85 ff e6 32 3f
       0.0006329894468795797 0.0002884267647495886
000310 ee 79 05 cf 4a b9 5b bf 54 91 14 f4 40 bf 51 3f
       -0.0016921263268937464 0.0010831960974622872
000320 fd 8d b5 7a d3 15 3a 3f 90 44 b6 51 0c 7e f9 be
       0.00039802945203445945 -2.4311423755533706e-05
000330 d8 34 b8 94 f2 da 15 bf 95 c9 f4 c0 75 55 18 bf
       -8.337121578723698e-05 -9.282618724596452e-05
000340 3d 84 cd cd 74 6e 3d bf 9b d8 94 0c c8 c5 21 3f
       -0.00044908858926901216 0.0001355940533273634
000350 21 c9 ad c2 f5 d1 32 3f 5a a7 8b c5 50 e7 c7 3e
       0.0002871727944501347 2.849528339833699e-06
000360 f6 83 94 12 83 f9 1c 3f ea 45 10 23 e9 b3 10 3f
       0.00011052954200298213 6.371603446122363e-05
000370 16 cc 08 30 1a 62 49 bf 16 dd de a6 56 cc 1f 3f
       -0.0007746341580684459 0.00012130049591873126
000380 13 28 c6 61 5b 7c 34 3f 23 e4 03 de 6a 91 d2 be
       0.00031258803371570046 -4.426964977926671e-06
000390 5a 0a c8 e2 86 42 43 3f 41 9b 38 89 0a 6c 16 3f
       0.0005877646086108288 8.553327852976485e-05
0003a0 13 52 33 c1 7a e6 4d bf 4a 0c 41 89 41 ab 2c 3f
       -0.0009124850643283409 0.0002187268734151502
0003b0 8e 7e 2e 9c 97 68 41 3f 49 d2 2f ff 8f 8f ed be
       0.0005312671931853739 -1.409568355901463e-05
0003c0 39 8f 0d 91 2f 09 19 bf 24 56 1f db df 6e 18 bf
       -9.550431083265872e-05 -9.320489223737426e-05
0003d0 f2 8a 9f 59 b4 73 43 bf 02 1a d2 57 91 cc 3b bf
       -0.0005936270347287316 -0.00042418049253747936
0003e0 6f 9d f5 4d c0 1b 35 3f 54 7d bd 79 dd cf 97 be
       0.0003220886701087088 -3.5482605097686957e-07
0003f0 0d 6b 52 98 43 be 22 3f a7 13 f5 28 b0 27 11 3f
       0.00014299941191072592 6.544125266312474e-05
000400 86 b2 bd 5f a5 bc 50 bf 29 58 6c ff db 75 3a bf
       -0.0010215392093996536 -0.0004037534812807464
000410 98 35 ce eb 26 48 37 3f d6 ce 77 a5 6a 93 b7 3e
       0.00035525274488964467 1.4052299287499175e-06
000420 16 fd f1 ad a0 3f 40 3f 45 ce bb 65 62 af 15 3f
       0.0004958662574522678 8.272207326936409e-05
000430 88 78 cd 98 e0 c2 53 bf 48 02 f2 df 0e 1c 42 bf
       -0.0012061303452451117 -0.0005526611929696579
000440 a4 11 d3 26 25 a4 46 3f 74 d0 66 01 1c 9a f8 3e
       0.0006909543423252906 2.3462285833012302e-05
000450 bc 4c 6e cb 64 6c 1b bf ec 62 86 d1 e1 3c 18 bf
       -0.00010461201860172386 -9.245994841079367e-05
000460 0a dd e8 ac 0a 69 4b bf 28 7c a1 cc 59 47 2f 3f
       -0.0008364965559114767 0.0002386376493772335
000470 e2 ee 62 b0 cb 20 36 3f 81 64 57 af 63 22 df be
       0.00033764813305102285 -7.4230035713381045e-06
000480 6d 19 2c d9 88 d3 18 3f 7e 0b d1 97 1f 8b 12 3f
       9.470484500804172e-05 7.07376511437773e-05
000490 35 06 4f 02 b7 78 58 bf a8 82 75 47 e5 4e 12 3f
       -0.0014936244199223018 6.984018715662044e-05
0004a0 af 3b 19 53 ee c5 3b 3f 64 5f 9d 9b 9f da d2 3e
       0.00042378490897914794 4.495143395143043e-06
0004b0 4a 51 b8 ff ab 78 2e 3f 7f ae c6 13 07 f7 12 3f
       0.00023247813793204403 7.234554954632133e-05
0004c0 ee 86 e8 de bf 13 5e bf 8b 60 1f bd 42 46 33 3f
       -0.0018357633340503848 0.00029410485615023106
0004d0 37 89 89 a1 ef 62 3c 3f 7c 42 cd c3 12 f7 f6 3e
       0.00043314314237909455 2.190125472917519e-05
0004e0 b2 f0 84 52 c3 7e 43 3f c9 7b b8 ec a7 41 4e bf
       0.0005949453089111516 -0.0009233541435981148
0004f0 1e 5a 10 ff 33 52 5f bf f6 a3 57 36 7e e7 46 bf
       -0.0019116885926046055 -0.000698982836806582
000500 01 c9 06 90 55 ba 41 3f 17 a9 7b ec 13 ce 0b 3f
       0.0005410115991735521 5.3033812546692486e-05
000510 8a dc 28 2e 10 f5 bb 3e 07 2a 30 ea c4 37 18 bf
       1.6663836325378695e-06 -9.238376019041909e-05
000520 a9 60 31 82 27 b1 40 bf d9 e4 36 2e 2d ff 0c bf
       -0.0005093996918601645 -5.530697469730847e-05
000530 33 dd bd 1d e4 25 33 3f 09 64 41 97 b6 78 e8 be
       0.00029217547648082153 -1.1668937738006453e-05
000540 4a d6 38 27 8d 34 1b 3f b4 23 e6 97 0e a3 13 3f
       0.00010377990275219868 7.490898676655486e-05
000550 32 2b 24 b5 45 7e 4b bf a0 2e 20 20 16 1c 46 3f
       -0.000839027439981299 0.0006747348818420713
000560 25 e2 59 86 45 9d 2a 3f 80 bf f2 6f 1d 7c 71 3e
       0.0002030513161803842 6.513604587881851e-08
000570 7e 44 49 f7 83 aa 26 3f 67 c3 1b 1c 7d a7 14 3f
       0.0001729284373533125 7.878972158060841e-05
000580 69 5b dd 30 10 e1 50 bf 4c 51 e1 23 76 c1 40 3f
       -0.0010302217592277013 0.0005113436561808098
000590 85 0b f7 5c fe b3 2a 3f ae c7 90 08 45 55 e1 3e
       0.00020372848528723786 8.26505881166062e-06
0005a0 71 ef 3b 6a b3 d0 3a 3f 39 c8 38 2a ac b3 4e bf
       0.0004091680550428667 -0.000936945977122023
0005b0 cc 55 99 f2 80 f0 51 bf d9 ea 56 9e 89 d6 52 3f
       -0.0010949382070938206 0.0011497825556562784
0005c0 e7 b8 3a b9 81 21 36 3f 7a ac c2 16 97 3d 03 3f
       0.0003376905162707625 3.6698506705811756e-05
0005d0 99 00 7a 09 e4 0b 0e 3f 4c 56 f5 86 6b 0a 19 bf
       5.730905212164676e-05 -9.552270215825684e-05
0005e0 05 c0 2f 86 85 22 14 bf 12 b8 3b 3a 65 71 47 3f
       -7.680835692247541e-05 0.000715422084309971
0005f0 71 4b cd bb e1 c8 28 3f 1c 84 61 71 d4 31 e1 be
       0.00018909221207738137 -8.199047027259271e-06
000600 36 1e f3 49 61 fa be 3e d3 09 f0 06 53 cf 20 bf
       1.8464354878832969e-06 -0.00012824905886084248
000610 33 40 ea 5d 7f b7 4a bf 96 80 dd f3 61 61 48 bf
       -0.0008153316410517475 -0.0007440307888195881
000620 ab 0f 77 e9 1f fa 22 3f 07 dd 5c aa 09 59 c2 be
       0.0001447833972020284 -2.1872286478892108e-06
000630 6c a3 60 4f eb f6 16 3f 2d d8 01 c8 4e 89 06 3f
       8.760272234610366e-05 4.298469230061583e-05
000640 52 41 ed 7a 48 4a 58 bf e7 7f 62 79 bc da 4a bf
       -0.001482554227283901 -0.0008195324214916839
000650 13 0b 17 62 5f a3 2b 3f 54 54 fc 6b 9c 09 c7 be
       0.00021086253495469133 -2.7462891408849667e-06
000660 be 40 eb f1 99 6c 3a 3f 13 14 77 9c 99 44 08 3f
       0.00040320166037323055 4.6287477342178824e-05
000670 f4 31 31 67 88 cb 5e bf 5d 7a c2 c6 d0 c9 4a bf
       -0.0018795806943386869 -0.0008175153175392181
000680 41 e3 d4 dd 74 67 24 3f 92 4d 70 ed 9a f3 cb be
       0.00015567113488559363 -3.332088322158339e-06
000690 1a 9a b9 fc d5 d3 36 3f 9f 45 75 f9 65 0f 35 3f
       0.00034831976220176116 0.00032135238275995433
0006a0 8d f6 2e d0 a2 94 60 bf 93 c0 6a 94 a1 5c 45 bf
       -0.002024000162662193 -0.0006519116366998805
0006b0 07 34 fc ab 8e 23 27 3f 28 8c 7f 20 1c 87 eb be
       0.0001765357646878187 -1.3126265017099069e-05
0006c0 2e fa 8a 9e 42 36 25 3f 7c da f4 3e ca d3 69 3f
       0.00016183436607338078 0.00315274716526953
0006d0 d0 83 c4 85 71 94 61 bf cf 0a e6 7a 3b de 56 bf
       -0.0021459786641035775 -0.0013957577571949602
0006e0 e5 a6 ad 35 7b 0c 40 3f 88 bd ac 63 20 ec c0 be
       0.0004897691354532578 -2.0173036125098564e-06
0006f0 80 a3 9a df da b8 e8 be 51 ed c1 ec 30 85 20 bf
       -1.1788411018302932e-05 -0.00012603971697786956
000700 8d 4b be 41 e8 1e 5e bf 18 56 19 80 5d 78 40 bf
       -0.0018384235508832364 -0.0005026299042564823
000710 77 56 38 41 15 69 33 3f a7 37 8e 30 4c 15 bc be
       0.00029618042864974027 -1.6738887913289229e-06
000720 46 47 e4 9c f9 55 0d 3f 74 0d 2a ae 13 fd 07 3f
       5.5953674392607416e-05 4.5754588218672754e-05
000730 4e 55 f0 0b 74 cd 6a bf e2 09 9b 8f a0 45 41 bf
       -0.003271795896135166 -0.0005270990361270734
000740 38 d6 f4 a5 53 7f 39 3f 2c 57 2e 76 0f d0 a8 3e
       0.0003890589923288587 7.394771553866122e-07
000750 b0 32 86 8c 66 c6 33 3f 7a 44 89 11 10 87 0b 3f
       0.00030174258838470535 5.2504709121444775e-05
000760 52 79 57 d8 61 a4 70 bf 7c 1b 57 7a c5 e5 40 bf
       -0.004063017089235581 -0.0005156721351163708
000770 03 db 21 39 6a b6 32 3f 00 1a 9b 7e 43 61 5f 3e
       0.00028553098048382535 2.9224842912670994e-08
000780 78 c6 4f af c5 39 31 3f 85 26 b4 71 6e 65 34 3f
       0.0002628429058964886 0.0003112215651560407
000790 89 98 cb 57 b1 9e 71 bf 37 9e de 20 62 56 3e bf
       -0.004301731820964724 -0.00046291251862349024
0007a0 bb c4 5b 30 f7 85 3c 3f 5e ad c5 0c 39 71 d3 be
       0.00043523106465588227 -4.635400000156787e-06
0007b0 c5 44 54 12 93 50 17 3f a1 54 6e 67 69 cb 69 3f
       8.893869069860883e-05 0.0031487520859153216
0007c0 28 1f 1b e6 db 1e 72 bf bf b1 a3 cf ad ed 39 3f
       -0.004423960666549744 0.000395636495922582
0007d0 15 89 94 a4 59 fd 3b 3f 30 6d 62 27 85 ec b5 3e
       0.00042708815142779413 1.306766674902628e-06
0007e0 5a 44 3d 42 a3 dd b9 3e e7 7c 11 6c ea e3 1f bf
       1.541720174598013e-06 -0.00012165182398992149
0007f0 e9 24 2d 99 9c dd 57 bf a7 04 df 9b c8 10 4b 3f
       -0.0014566449433053802 0.000825975373793271

b f8 [2520]
000000 00 00 00 00 00 00 00 00 00 00 00 00 00 10 9e bd
       0.0 -6.835421118012164e-12
000010 28 ed b3 de df 1a e6 c0 f9 52 df 42 94 b2 d2 c0
       -45270.995935404964 -19146.31658156493
000020 36 8e 0b f5 fc 55 c9 40 00 00 00 00 00 80 30 bd
       12971.976228184165 -5.861977570020827e-14
000030 00 00 00 00 00 00 00 00 00 00 00 00 00 9c 87 bd
       0.0 -2.6840751843337785e-12
000040 1d ed b3 de df 1a e6 c0 fd 52 df 42 94 b2 d2 c0
       -45270.995935404884 -19146.316581564944
000050 38 8e 0b f5 fc 55 c9 40 00 00 00 00 00 00 52 3d
       12971.976228184169 2.5579538487363607e-13
000060 00 00 00 00 00 00 00 00 00 00 00 00 00 4e 9b bd
       0.0 -6.208367153703875e-12
000070 30 ed b3 de df 1a e6 c0 fd 52 df 42 94 b2 d2 c0
       -45270.99593540502 -19146.316581564944
000080 38 8e 0b f5 fc 55 c9 40 00 00 00 00 00 00 5d bd
       12971.976228184169 -4.121147867408581e-13
000090 00 00 00 00 00 00 70 3d 00 00 00 00 40 d0 bf 3d
       9.094947017729282e-13 2.893418837857098e-11
0000a0 08 a9 80 da 27 38 f9 c0 9a 03 61 c4 62 42 d1 c0
       -103298.49084535625 -17673.54323602058
0000b0 38 8e 0b f5 fc 55 d9 40 00 00 00 00 00 00 1a 3d
       25943.952456368337 2.3092638912203256e-14
0000c0 00 00 00 00 00 00 00 00 00 00 00 00 40 f2 a7 3d
       0.0 1.0889511514733385e-11
0000d0 00 a9 80 da 27 38 f9 c0 9b 03 61 c4 62 42 d1 c0
       -103298.49084535614 -17673.543236020585
0000e0 34 8e 0b f5 fc 55 d9 40 00 00 00 00 00 40 37 bd
       25943.952456368323 -8.260059303211165e-14
0000f0 00 00 00 00 00 00 d0 bd 00 00 00 00 e6 e5 b1 3d
       -5.820766091346741e-11 1.6278173253780892e-11
000100 09 a9 80 da 27 38 f9 c0 9b 03 61 c4 62 42 d1 c0
       -103298.49084535627 -17673.543236020585
000110 36 8e 0b f5 fc 55 d9 40 00 00 00 00 00 23 51 bd
       25943.95245636833 -2.435274204515281e-13
000120 00 00 00 00 00 00 00 00 00 00 00 00 80 dd be bd
       0.0 -2.8071767133042158e-11
000130 0c a2 49 23 9a 48 f6 c0 a6 21 df 54 e1 bb da 40
       -91273.63361514377 27375.520805151806
000140 01 0b 68 92 48 28 d7 40 00 00 00 00 00 00 10 bd
       23713.133935938593 -1.4210854715202004e-14
000150 00 00 00 00 00 00 80 bd 00 00 00 00 00 6e b8 3d
       -1.8189894035458565e-12 2.2218671347218333e-11
000160 00 a2 49 23 9a 48 f6 c0 ae 21 df 54 e1 bb da 40
       -91273.6336151436 27375.520805151835
000170 03 0b 68 92 48 28 d7 40 00 00 00 00 00 00 28 3d
       23713.1339359386 4.263256414560601e-14
000180 00 00 00 00 00 00 00 00 00 00 00 00 00 90 af bd
       0.0 -1.4352963262354024e-11
000190 17 a2 49 23 9a 48 f6 c0 af 21 df 54 e1 bb da 40
       -91273.63361514393 27375.52080515184
0001a0 fc 0a 68 92 48 28 d7 40 00 00 00 00 00 00 3b 3d
       23713.133935938575 9.592326932761353e-14
0001b0 00 00 00 00 00 00 00 00 00 00 00 00 00 99 a6 3d
       0.0 1.0276224315930449e-11
0001c0 eb 68 51 f3 f2 8d f5 c0 5e c4 1a b4 7c 38 d6 c0
       -88287.18440381034 -22753.94849270989
0001d0 fe 0a 68 92 48 28 d7 40 00 00 00 00 00 00 04 bd
       23713.133935938582 -8.881784197001252e-15
0001e0 00 00 00 00 00 00 00 00 00 00 00 00 00 48 b6 bd
       0.0 -2.0264678823878057e-11
0001f0 b4 68 51 f3 f2 8d f5 c0 62 c4 1a b4 7c 38 d6 c0
       -88287.18440380954 -22753.948492709904
000200 fc 0a 68 92 48 28 d7 40 00 00 00 00 00 00 00 3d
       23713.133935938575 7.105427357601002e-15
000210 00 00 00 00 00 00 00 00 00 00 00 00 c0 d4 c2 3d
       0.0 3.425348893415503e-11
000220 ec 68 51 f3 f2 8d f5 c0 61 c4 1a b4 7c 38 d6 c0
       -88287.18440381036 -22753.9484927099
000230 02 0b 68 92 48 28 d7 40 00 00 00 00 00 5c 83 bd
       23713.133935938597 -2.2009061240169103e-12
000240 00 00 00 00 00 00 d0 3d 00 00 00 00 00 a0 c9 3d
       5.820766091346741e-11 4.661160346586257e-11
000250 d7 f2 5c 76 21 e0 ea c0 51 f9 7b 66 92 71 df c0
       -55041.04569861822 -32198.287505143617
000260 36 8e 0b f5 fc 55 c9 40 00 00 00 00 00 00 50 3d
       12971.976228184165 2.2737367544323206e-13
000270 00 00 00 00 00 00 a0 3d 00 00 00 00 00 2b a1 bd
       7.275957614183426e-12 -7.8070883091641e-12
000280 72 5c 99 1e de 5a f8 c0 7b 97 ca af b0 c0 ca 40
       -99757.8824704753 13697.380364726987
000290 38 8e 0b f5 fc 55 d9 40 00 00 00 00 00 00 41 bd
       25943.952456368337 -1.2079226507921703e-13
0002a0 00 00 00 00 00 00 c0 3d 00 00 00 00 00 f4 a4 bd
       2.9103830456733704e-11 -9.528378086542943e-12
0002b0 9a 5c 99 1e de 5a f8 c0 6c 97 ca af b0 c0 ca 40
       -99757.88247047589 13697.38036472696
0002c0 37 8e 0b f5 fc 55 d9 40 00 00 00 00 00 00 00 3d
       25943.952456368334 7.105427357601002e-15
0002d0 00 00 00 00 00 00 00 00 00 00 00 00 00 dc bf bd
       0.0 -2.8975932764296886e-11
0002e0 8d 5c 99 1e de 5a f8 c0 6c 97 ca af b0 c0 ca 40
       -99757.8824704757 13697.38036472696
0002f0 36 8e 0b f5 fc 55 d9 40 00 00 00 00 00 00 65 bd
       25943.95245636833 -5.968558980384842e-13
000300 00 00 00 00 00 00 00 00 00 00 00 00 00 5a c1 bd
       0.0 -3.156230832246365e-11
000310 a4 f2 5c 76 21 e0 ea c0 48 f9 7b 66 92 71 df 40
       -55041.04569861785 32198.287505143584
000320 3c 8e 0b f5 fc 55 c9 40 00 00 00 00 00 00 50 3d
       12971.976228184176 2.2737367544323206e-13
000330 00 00 00 00 00 00 a0 bd 00 00 00 00 00 cb a4 bd
       -7.275957614183426e-12 -9.455547456127533e-12
000340 62 25 53 07 a3 b8 f3 c0 7a 55 d1 73 9c c7 bd 40
       -80778.1892882786 7623.6111422380145
000350 29 7e 1d 4b 78 2b d8 40 00 00 00 00 00 00 f8 3c
       24749.879584668353 5.329070518200751e-15
000360 00 00 00 00 00 00 b0 3d 00 00 00 00 00 94 96 3d
       1.4551915228366852e-11 5.133671265866724e-12
000370 70 25 53 07 a3 b8 f3 c0 8d 55 d1 73 9c c7 bd 40
       -80778.18928827881 7623.611142238032
000380 25 7e 1d 4b 78 2b d8 40 00 00 00 00 00 00 00 00
       24749.87958466834 0.0
000390 00 00 00 00 00 00 e0 3d 00 00 00 00 00 60 85 bd
       1.1641532182693481e-10 -2.4300561562995426e-12
0003a0 60 25 53 07 a3 b8 f3 c0 62 55 d1 73 9c c7 bd 40
       -80778.18928827858 7623.611142237993
0003b0 29 7e 1d 4b 78 2b d8 40 00 00 00 00 00 00 7e 3d
       24749.879584668353 1.7053025658242404e-12
0003c0 00 00 00 00 00 00 b0 bd 00 00 00 00 30 29 c6 3d
       -1.4551915228366852e-11 4.0310421667300034e-11
0003d0 c9 0f 15 4a 66 09 f7 c0 92 98 0d d4 8f c1 d9 c0
       -94358.39308649221 -26374.24731769466
0003e0 28 7e 1d 4b 78 2b d8 40 00 00 00 00 00 30 60 bd
       24749.87958466835 -4.600764214046649e-13
0003f0 00 00 00 00 00 00 b0 bd 00 00 00 00 80 6e b0 bd
       -1.4551915228366852e-11 -1.4944490089874307e-11
000400 c1 0f 15 4a 66 09 f7 c0 94 98 0d d4 8f c1 d9 c0
       -94358.3930864921 -26374.247317694666
000410 2e 7e 1d 4b 78 2b d8 40 00 00 00 00 00 e0 53 3d
       24749.87958466837 2.824407374646398e-13
000420 00 00 00 00 00 00 d0 3d 00 00 00 00 00 e8 b5 bd
       5.820766091346741e-11 -1.992361831071321e-11
000430 d2 0f 15 4a 66 09 f7 c0 99 98 0d d4 8f c1 d9 c0
       -94358.39308649235 -26374.247317694684
000440 2d 7e 1d 4b 78 2b d8 40 00 00 00 00 00 00 6b bd
       24749.879584668368 -7.673861546209082e-13
000450 00 00 00 00 00 00 00 00 00 00 00 00 00 ef be bd
       0.0 -2.8133939622421167e-11
000460 d4 94 7e 78 5e ed fa c0 e9 cb 45 84 d3 79 c2 40
       -110293.90441759239 9459.652474140707
000470 33 8e 0b f5 fc 55 d9 40 00 00 00 00 00 00 50 bd
       25943.95245636832 -2.2737367544323206e-13
000480 00 00 00 00 00 00 b0 bd 00 00 00 00 f0 45 9e 3d
       -1.4551915228366852e-11 6.883327241524739e-12
000490 f5 94 7e 78 5e ed fa c0 ec cb 45 84 d3 79 c2 40
       -110293.90441759287 9459.652474140712
0004a0 36 8e 0b f5 fc 55 d9 40 00 00 00 00 00 c0 14 3d
       25943.95245636833 1.84297022087776e-14
0004b0 00 00 00 00 00 00 00 00 00 00 00 00 00 20 81 3d
       0.0 1.9468870959826745e-12
0004c0 ac 94 7e 78 5e ed fa c0 ef cb 45 84 d3 79 c2 40
       -110293.90441759181 9459.652474140717
0004d0 2a 8e 0b f5 fc 55 d9 40 00 00 00 00 00 00 20 3d
       25943.952456368286 2.842170943040401e-14
0004e0 00 00 00 00 00 00 d0 3d 00 00 00 00 00 40 be bd
       5.820766091346741e-11 -2.751221472863108e-11
0004f0 48 8e a3 a4 9b 63 e9 c0 d9 0a 8d 03 f9 23 db c0
       -51996.863847520726 -27791.89084173259
000500 2b 8e 0b f5 fc 55 c9 40 00 00 00 00 00 00 68 3d
       12971.976228184145 6.821210263296962e-13
000510 00 00 00 00 00 00 60 3d 00 00 00 00 00 4b c4 3d
       4.547473508864641e-13 3.6912695122737205e-11
000520 c3 02 0d 5b c2 3a f8 c0 e4 de 3c 25 e9 74 b8 40
       -99244.14722920493 6260.91072445337
000530 38 8e 0b f5 fc 55 d9 40 00 00 00 00 00 00 2c bd
       25943.952456368337 -4.973799150320701e-14
000540 00 00 00 00 00 00 00 00 00 00 00 00 00 0e ab 3d
       0.0 1.2303047469686135e-11
000550 3d 8e a3 a4 9b 63 e9 c0 d9 0a 8d 03 f9 23 db 40
       -51996.863847520646 27791.89084173259
000560 38 8e 0b f5 fc 55 c9 40 00 00 00 00 00 c0 35 bd
       12971.976228184169 -7.72715225139109e-14
000570 00 00 00 00 00 00 b0 bd 00 00 00 00 00 80 70 3d
       -1.4551915228366852e-11 9.379164112033322e-13
000580 4f 8e a3 a4 9b 63 e9 c0 e4 0a 8d 03 f9 23 db 40
       -51996.86384752078 27791.89084173263
000590 38 8e 0b f5 fc 55 c9 40 00 00 00 00 00 00 38 3d
       12971.976228184169 8.526512829121202e-14
0005a0 00 00 00 00 00 00 d0 3d 00 00 00 00 00 40 b6 3d
       5.820766091346741e-11 2.0236257114447653e-11
0005b0 48 8e a3 a4 9b 63 e9 c0 da 0a 8d 03 f9 23 db 40
       -51996.863847520726 27791.890841732595
0005c0 3c 8e 0b f5 fc 55 c9 40 00 00 00 00 00 00 60 3d
       12971.976228184176 4.547473508864641e-13
0005d0 00 00 00 00 00 00 a0 3d 00 00 00 00 00 80 61 bd
       7.275957614183426e-12 -4.973799150320701e-13
0005e0 49 77 76 11 e9 11 e7 c0 1e d3 3d ba be 06 d5 40
       -47247.28338168428 21530.980117279214
0005f0 37 8e 0b f5 fc 55 c9 40 00 00 00 00 00 00 00 bd
       12971.976228184167 -7.105427357601002e-15
000600 00 00 00 00 00 00 00 00 00 00 00 00 80 a6 c6 bd
       0.0 -4.120082053304941e-11
000610 5a 48 70 e2 ec 43 f9 c0 cf a7 3d 5d 19 1e e4 c0
       -103486.8052828623 -41200.7926319387
000620 68 fa fc 01 82 9e c6 40 00 00 00 00 00 00 00 00
       11581.015685674924 0.0
000630 00 00 00 00 00 00 00 00 00 00 00 00 00 20 6e 3d
       0.0 8.562039965909207e-13
000640 87 48 70 e2 ec 43 f9 c0 cf a7 3d 5d 19 1e e4 c0
       -103486.80528286296 -41200.7926319387
000650 6c fa fc 01 82 9e c6 40 00 00 00 00 00 00 34 3d
       11581.01568567493 7.105427357601002e-14
000660 00 00 00 00 00 00 d0 bd 00 00 00 00 00 94 a9 bd
       -5.820766091346741e-11 -1.163158458439284e-11
000670 6e 48 70 e2 ec 43 f9 c0 d9 a7 3d 5d 19 1e e4 c0
       -103486.8052828626 -41200.79263193877
000680 6e fa fc 01 82 9e c6 40 00 00 00 00 00 c0 61 bd
       11581.015685674935 -5.044853423896711e-13
000690 00 00 00 00 00 00 c0 3d 00 00 00 00 00 40 a7 3d
       2.9103830456733704e-11 1.057287590811029e-11
0006a0 af a3 2c e6 f9 6c ec c0 ac fc 9b 77 9e 89 d5 c0
       -58215.809347457594 -22054.476050373793
0006b0 4f 44 84 7b 3f fa d7 40 00 00 00 00 00 00 76 bd
       24552.99191385909 -1.2505552149377763e-12
0006c0 00 00 00 00 00 00 b0 3d 00 00 00 00 90 74 01 be
       1.4551915228366852e-11 -5.080167397863988e-10
0006d0 f0 a3 2c e6 f9 6c ec c0 aa fc 9b 77 9e 89 d5 c0
       -58215.80934745807 -22054.476050373785
0006e0 52 44 84 7b 3f fa d7 40 00 00 00 00 00 c0 68 bd
       24552.9919138591 -7.034373084024992e-13
0006f0 00 00 00 00 00 00 86 bd 00 00 00 00 c0 fb c6 3d
       -2.5011104298755527e-12 4.1806558215284895e-11
000700 5f ff 89 df 27 e8 0c c1 5f 82 b6 08 bd 99 e1 c0
       -236804.98414992818 -36045.9073135897
000710 27 7a 13 30 18 50 da 40 00 00 00 00 00 00 04 3d
       26944.377934331216 8.881784197001252e-15
000720 00 00 00 00 00 00 a0 bd 00 00 00 00 00 9a af 3d
       -7.275957614183426e-12 1.4370726830748026e-11
000730 45 ff 89 df 27 e8 0c c1 59 82 b6 08 bd 99 e1 c0
       -236804.98414992742 -36045.907313589654
000740 2f 7a 13 30 18 50 da 40 00 00 00 00 00 00 24 3d
       26944.377934331245 3.552713678800501e-14
000750 00 00 00 00 00 00 d0 3d 00 00 00 00 00 e4 a6 3d
       5.820766091346741e-11 1.0409451078885468e-11
000760 40 ff 89 df 27 e8 0c c1 63 82 b6 08 bd 99 e1 c0
       -236804.98414992727 -36045.90731358973
000770 26 7a 13 30 18 50 da 40 00 00 00 00 00 00 00 bd
       26944.377934331213 -7.105427357601002e-15
000780 00 00 00 00 00 00 b0 bd 00 00 00 00 00 90 b2 3d
       -1.4551915228366852e-11 1.688249540165998e-11
000790 df aa 49 f2 13 4c 00 c1 25 01 0c 4d 17 f1 d1 c0
       -133506.49330457204 -18372.36407756912
0007a0 2e 84 8f 92 0a d3 e9 40 00 00 00 00 00 00 83 bd
       52888.33039069954 -2.1600499167107046e-12
0007b0 00 00 00 00 00 00 00 00 00 00 00 00 00 80 df bd
       0.0 -1.1459633242338896e-10
0007c0 8d a3 2c e6 f9 6c ec c0 aa fc 9b 77 9e 89 d5 40
       -58215.80934745735 22054.476050373785
0007d0 50 44 84 7b 3f fa d7 40 00 00 00 00 00 00 5a 3d
       24552.991913859092 3.694822225952521e-13
0007e0 00 00 00 00 00 00 88 3d 00 00 00 00 00 9b 91 3d
       2.7284841053187847e-12 4.0030201375884644e-12
0007f0 f9 b7 34 69 f4 f3 08 c1 37 45 aa 8b 8a 1f eb 40
       -204414.55137008408 55548.32954896468
