python-Linux/neural-sparse-linear-solvers-master/stand_small_test/4495687312331912039_1441251af5b3248c6281e4c6cdd2db4d822f86c1_b65e8ef8f8425880b25f87af623cf8217570a0bb.npz (npz, 83521 bytes, 3 tensors)

A_values f8 [20668]
00000000: 7392 4afd bc7b cf41 24a2 58dc 51a4 76c1
00000010: dc48 21a1 66e8 65c1 bbb5 2452 1cfd 52c1
00000020: dc48 21a1 66e8 65c1 5a7b 8c13 d408 cfc1
00000030: 7742 c980 1921 d241 0e49 c5d4 300d 6541
00000040: 0c91 2523 3b4f 6041 6caf 0dfa 0903 d2c1
00000050: 6159 376d 605b 48c1 0c91 2523 3b4f 6041
00000060: 2f09 d437 11ea d141 8e05 c50d d68c 7741
00000070: 881f b838 1d98 71c1 cdcd da6a 8669 64c1
00000080: 8e05 c50d d68c 7741 fe06 bc9e 8946 5ac1
00000090: 881f b838 1d98 71c1 0e49 c5d4 300d 6541
000000a0: 8e05 c50d d68c 7741 30bf bd30 33f3 9c41
000000b0: 8e05 c50d d68c 77c1 87c3 6f26 6de0 8141
000000c0: 1bb5 58bf 2f77 63c1 24a2 58dc 51a4 76c1
000000d0: 881f b838 1d98 71c1 46bc c11b c33e a241
000000e0: 1ae0 a8d7 4e98 66c1 881f b838 1d98 7141
000000f0: dc82 456d 7f1c 7f41 dc48 21a1 66e8 65c1
00000100: 0c91 2523 3b4f 6041 97c5 a8fd e983 9241
00000110: dc48 21a1 66e8 6541 59f4 eb85 d3bf 7041
00000120: 0c91 2523 3b4f 60c1 0a93 a580 20fe 6c41
00000130: bbb5 2452 1cfd 52c1 dc48 21a1 66e8 6541
00000140: 245e 59cf edf9 cf41 a436 d5f9 fee4 57c1
00000150: d096 6609 4aa9 5ac1 8ab0 6e43 6937 58c1
00000160: 7b54 e31d 12ab 7041 b493 fbe1 7f70 63c1
00000170: 224a ead2 859e 71c1 5a7b 8c13 d408 cfc1
00000180: 6caf 0dfa 0903 d2c1 b2b9 0fbf e58c e441
00000190: a07b fbff 726f 4641 0c91 2523 3b4f 6041
000001a0: c729 0441 976f 46c1 4cd4 8c29 a8e2 5ec1
000001b0: d9ae b531 7aed d6c1 6159 376d 605b 48c1
000001c0: 0c91 2523 3b4f 6041 cdcd da6a 8669 64c1
000001d0: 8e05 c50d d68c 77c1 b4dc dc34 baaa e041
000001e0: 2829 1e21 6c07 6c41 881f b838 1d98 71c1
000001f0: ce0d c34d fe30 cec1 ba54 0ac1 02b9 74c1
00000200: 110d 2a0f 46c8 8241 fe06 bc9e 8946 5ac1
00000210: 881f b838 1d98 71c1 8e05 c50d d68c 7741
00000220: 87c3 6f26 6de0 8141 a07b fbff 726f 4641
00000230: 2829 1e21 6c07 6c41 2075 2266 b37e ad41
00000240: 4cd4 8c29 a8e2 5e41 bba9 2484 a439 6c41
00000250: 110d 2a0f 46c8 82c1 0d9c 87be 8d37 8641
00000260: 1bb5 58bf 2f77 63c1 1ae0 a8d7 4e98 66c1
00000270: a436 d5f9 fee4 57c1 881f b838 1d98 71c1
00000280: 8769 d09a f7b9 ab41 7b54 e31d 12ab 70c1
00000290: 420e e47b 1f50 7e41 358d cb09 f4c2 6cc1
000002a0: 881f b838 1d98 7141 dc82 456d 7f1c 7f41
000002b0: dc48 21a1 66e8 65c1 59f4 eb85 d3bf 7041
000002c0: d096 6609 4aa9 5ac1 0c91 2523 3b4f 6041
000002d0: f3b9 8ddd 9794 9f41 3bde 4d42 cfef 62c1
000002e0: 224a ead2 859e 7141 8d2e 704e e615 7541
000002f0: 0c91 2523 3b4f 60c1 0a93 a580 20fe 6c41
00000300: 8ab0 6e43 6937 58c1 7b54 e31d 12ab 70c1
00000310: 0a47 9be5 0487 cf41 7b54 e31d 12ab 70c1
00000320: 224a ead2 859e 71c1 b493 fbe1 7f70 63c1
00000330: 224a ead2 859e 71c1 5a7b 8c13 d408 cfc1
00000340: c729 0441 976f 46c1 4cd4 8c29 a8e2 5e41
00000350: 9bcc 8cad df04 d741 4cd4 8c29 a8e2 5e41
00000360: 0c91 2523 3b4f 6041 d9ae b531 7aed d6c1
00000370: 6159 376d 605b 48c1 0c91 2523 3b4f 6041
00000380: ce0d c34d fe30 cec1 82d8 0877 530b cf41
00000390: 110d 2a0f 46c8 8241 881f b838 1d98 71c1
000003a0: ba54 0ac1 02b9 74c1 110d 2a0f 46c8 8241
000003b0: fe06 bc9e 8946 5ac1 881f b838 1d98 71c1
000003c0: 4cd4 8c29 a8e2 5ec1 bba9 2484 a439 6c41
000003d0: 4cd4 8c29 a8e2 5e41 110d 2a0f 46c8 8241
000003e0: da20 b9c9 8c3c a041 110d 2a0f 46c8 82c1
000003f0: 0d9c 87be 8d37 8641 1bb5 58bf 2f77 63c1
00000400: 7b54 e31d 12ab 7041 420e e47b 1f50 7e41
00000410: 7b54 e31d 12ab 70c1 881f b838 1d98 71c1
00000420: 8b16 2538 9d5f a141 358d cb09 f4c2 6cc1
00000430: 881f b838 1d98 7141 dc82 456d 7f1c 7f41
00000440: 3bde 4d42 cfef 62c1 224a ead2 859e 71c1
00000450: 0c91 2523 3b4f 6041 f207 edcb a95c 9441
00000460: 224a ead2 859e 7141 8d2e 704e e615 7541
00000470: 0c91 2523 3b4f 60c1 0a93 a580 20fe 6c41
00000480: b493 fbe1 7f70 63c1 224a ead2 859e 7141
00000490: 6e08 3d32 6f02 d041 a436 d5f9 fee4 57c1
000004a0: 5219 eb6b fda4 5241 8ab0 6e43 6937 58c1
000004b0: 7b54 e31d 12ab 7041 7011 7ee2 6675 58c1
000004c0: 9b07 dfef 8cea 69c1 5a7b 8c13 d408 cfc1
000004d0: d9ae b531 7aed d6c1 8608 049b b759 e541
000004e0: a07b fbff 726f 4641 0c91 2523 3b4f 6041
000004f0: c729 0441 976f 46c1 4cd4 8c29 a8e2 5ec1
00000500: 154d f6b1 ad9c d3c1 6159 376d 605b 48c1
00000510: 0c91 2523 3b4f 6041 ba54 0ac1 02b9 74c1
00000520: 110d 2a0f 46c8 82c1 40a6 3784 8ab0 e041
00000530: be8b cda4 338d 63c1 881f b838 1d98 71c1
00000540: ce0d c34d fe30 cec1 ba59 a4c5 d539 6ac1
00000550: 4354 ed4b f2c9 7b41 fe06 bc9e 8946 5ac1
00000560: 881f b838 1d98 71c1 110d 2a0f 46c8 8241
00000570: 0d9c 87be 8d37 8641 a07b fbff 726f 4641
00000580: be8b cda4 338d 63c1 b0a0 3cbc 1b45 ae41
00000590: 4cd4 8c29 a8e2 5e41 bba9 2484 a439 6c41
000005a0: 4354 ed4b f2c9 7bc1 364b 19d0 5253 8341
000005b0: 1bb5 58bf 2f77 63c1 358d cb09 f4c2 6cc1
000005c0: a436 d5f9 fee4 57c1 881f b838 1d98 71c1
000005d0: bbf7 2c8c 15da ab41 7b54 e31d 12ab 70c1
000005e0: 420e e47b 1f50 7e41 53c3 71ed 2d9a 68c1
000005f0: 881f b838 1d98 7141 dc82 456d 7f1c 7f41
00000600: 224a ead2 859e 71c1 8d2e 704e e615 7541
00000610: 5219 eb6b fda4 5241 0c91 2523 3b4f 6041
00000620: 0821 40da 7428 a041 3bde 4d42 cfef 62c1
00000630: 9b07 dfef 8cea 6941 c473 85a4 472d 7241
00000640: 0c91 2523 3b4f 60c1 0a93 a580 20fe 6c41
00000650: b493 fbe1 7f70 63c1 224a ead2 859e 7141
00000660: 8ab0 6e43 6937 58c1 7b54 e31d 12ab 70c1
00000670: 31e3 7a9b 1be9 cf41 005c d817 dc80 0541
00000680: 5219 eb6b fda4 5241 f601 500d f495 58c1
00000690: 3305 13d6 13d6 7041 7011 7ee2 6675 58c1
000006a0: 9b07 dfef 8cea 69c1 5a7b 8c13 d408 cfc1
000006b0: d9ae b531 7aed d6c1 c729 0441 976f 46c1
000006c0: 4cd4 8c29 a8e2 5e41 4693 7da0 7856 e541
000006d0: 8087 2cbb ee1e f4c0 0c91 2523 3b4f 6041
000006e0: 1ab8 19f0 c2c7 46c1 6a86 79e4 2333 5fc1
000006f0: 154d f6b1 ad9c d3c1 6159 376d 605b 48c1
00000700: 0c91 2523 3b4f 6041 ba54 0ac1 02b9 74c1
00000710: 110d 2a0f 46c8 82c1 ce0d c34d fe30 cec1
00000720: 084b 09aa 65e6 de41 be8b cda4 338d 63c1
00000730: 881f b838 1d98 71c1 262c f385 9058 cec1
00000740: ba59 a4c5 d539 6ac1 4354 ed4b f2c9 7b41
00000750: fe06 bc9e 8946 5ac1 881f b838 1d98 71c1
00000760: 110d 2a0f 46c8 8241 0d9c 87be 8d37 8641
00000770: 4cd4 8c29 a8e2 5ec1 bba9 2484 a439 6c41
00000780: 8087 2cbb ee1e f4c0 be8b cda4 338d 63c1
00000790: 0e2c abab 34b2 ad41 6a86 79e4 2333 5f41
000007a0: c485 63a9 b25d 6c41 4354 ed4b f2c9 7bc1
000007b0: 364b 19d0 5253 8341 1bb5 58bf 2f77 63c1
000007c0: 358d cb09 f4c2 6cc1 7b54 e31d 12ab 7041
000007d0: 420e e47b 1f50 7e41 005c d817 dc80 0541
000007e0: 881f b838 1d98 71c1 3ef1 2478 11a2 aa41
000007f0: 3305 13d6 13d6 70c1 ccbb b28c aa75 7e41
1056406010.5825943 -23741725.771639004 -11486005.035313062 -4977777.283490594 -11486005.035313062 -1041344551.0975144 1216636419.1446817 11037062.649082687
8550873.098335765 -1208756200.213832 -3192512.8532516216 8550873.098335765 1202210015.3130605 24694112.860601 -18448851.544951946 -10701875.339209462
24694112.860601 -6887974.480226276 -18448851.544951946 11037062.649082687 24694112.860601 121425100.18529963 -24694112.860601 37490084.80457216
-10205565.979578545 -23741725.771639004 -18448851.544951946 153051533.87838954 -11846262.739364672 18448851.544951946 32622582.8294705 -11486005.035313062
8550873.098335765 77658751.41481625 11486005.035313062 17562936.370106075 -8550873.098335765 15200516.020211715 -4977777.283490594 11486005.035313062
1072946078.6981854 -6263803.903638516 -6989096.146886542 -6348197.053630957 17477921.86800049 -10191871.061960079 -18475101.182199605 -1041344551.0975144
-1208756200.213832 2758225400.491418 2940645.9998621494 8550873.098335765 -2940718.5079395506 -8096416.649220537 -1538648262.8387969 -3192512.8532516216
8550873.098335765 -10701875.339209462 -24694112.860601 2236993958.9019413 14695265.034931734 -18448851.544951946 -1013054619.5238588 -21729324.065022208
39389377.895532735 -6887974.480226276 -18448851.544951946 24694112.860601 37490084.80457216 2940645.9998621494 14695265.034931734 247421363.06729984
8096416.649220537 14798116.129475465 -39389377.895532735 46592439.81621561 -10205565.979578545 -11846262.739364672 -6263803.903638516 -18448851.544951946
232586189.4070551 -17477921.86800049 31785463.74317766 -15079328.306097606 18448851.544951946 32622582.8294705 -11486005.035313062 17562936.370106075
-6989096.146886542 8550873.098335765 132457975.38840465 -9928314.072005382 18475101.182199605 22109796.902388144 -8550873.098335765 15200516.020211715
-6348197.053630957 -17477921.86800049 1057884619.2131054 -17477921.86800049 -18475101.182199605 -10191871.061960079 -18475101.182199605 -1041344551.0975144
-2940718.5079395506 8096416.649220537 1544781494.1999881 8096416.649220537 8550873.098335765 -1538648262.8387969 -3192512.8532516216 8550873.098335765
-1013054619.5238588 1041671918.0691073 39389377.895532735 -18448851.544951946 -21729324.065022208 39389377.895532735 -6887974.480226276 -18448851.544951946
-8096416.649220537 14798116.129475465 8096416.649220537 39389377.895532735 136201828.86157876 -39389377.895532735 46592439.81621561 -10205565.979578545
17477921.86800049 31785463.74317766 -17477921.86800049 -18448851.544951946 145739420.0724376 -15079328.306097606 18448851.544951946 32622582.8294705
-9928314.072005382 -18475101.182199605 8550873.098335765 85404274.98147562 18475101.182199605 22109796.902388144 -8550873.098335765 15200516.020211715
-10191871.061960079 18475101.182199605 1074379976.9536395 -6263803.903638516 4887541.686224299 -6348197.053630957 17477921.86800049 -6411675.538944587
-13587559.495975306 -1041344551.0975144 -1538648262.8387969 2865609944.1260405 2940645.9998621494 8550873.098335765 -2940718.5079395506 -8096416.649220537
-1316140743.8484547 -3192512.8532516216 8550873.098335765 -21729324.065022208 -39389377.895532735 2240042017.739044 -10250653.150091048 -18448851.544951946
-1013054619.5238588 -13749934.176312316 29138724.745441686 -6887974.480226276 -18448851.544951946 39389377.895532735 46592439.81621561 2940645.9998621494
-10250653.150091048 253922782.11841345 8096416.649220537 14798116.129475465 -29138724.745441686 40528474.012350485 -10205565.979578545 -15079328.306097606
-6263803.903638516 -18448851.544951946 233638598.08782753 -17477921.86800049 31785463.74317766 -12898671.420137083 18448851.544951946 32622582.8294705
-18475101.182199605 22109796.902388144 4887541.686224299 8550873.098335765 135543405.125252 -9928314.072005382 13587559.495975306 19059834.282581106
-8550873.098335765 15200516.020211715 -10191871.061960079 18475101.182199605 -6348197.053630957 -17477921.86800049 1070741302.9600583 176155.5116431415
4887541.686224299 -6445008.20800828 17654077.37964363 -6411675.538944587 -13587559.495975306 -1041344551.0975144 -1538648262.8387969 -2940718.5079395506
8096416.649220537 2863908099.9242277 -82414.92069676332 8550873.098335765 -2985861.875784886 -8178831.569917301 -1316140743.8484547 -3192512.8532516216
8550873.098335765 -21729324.065022208 -39389377.895532735 -1013054619.5238588 2073663144.1452045 -10250653.150091048 -18448851.544951946 -1018241291.8997848
-13749934.176312316 29138724.745441686 -6887974.480226276 -18448851.544951946 39389377.895532735 46592439.81621561 -8096416.649220537 14798116.129475465
-82414.92069676332 -10250653.150091048 249109077.8343205 8178831.569917301 14871957.293398745 -29138724.745441686 40528474.012350485 -10205565.979578545
-15079328.306097606 17477921.86800049 31785463.74317766 176155.5116431415 -18448851.544951946 223414460.07215303 -17654077.37964363 31939240.79363613

x f8 [1896]
00000000: 9b7e c020 3050 c83e 161b 9fb7 83ce e33e
00000010: 6ec4 1d0a 59b9 f1be 1894 8da2 38bf 18bf
00000020: 5dd5 577d 76a6 143f 1046 8210 b6ad 6d3e
00000030: 476b b0d5 0f99 dcbe d446 16f9 8823 e23e
00000040: d744 9191 a862 00bf 16e5 cb8d 7309 0d3f
00000050: db58 060d 8712 0a3f e6c7 4755 b549 a13e
00000060: f229 f6ea d32d e63e f18f 8628 afd1 cebe
00000070: ad71 35b8 444e 07bf 1632 2456 fbee 10bf
00000080: 5ad7 1913 d8c0 fe3e 9870 f88b c3fe c83e
00000090: bd18 a8a7 b8bb debe 5b7f 8acb 2dec e13e
000000a0: 6abc 5dba 05e2 fbbe a3aa 08b7 ca81 edbe
000000b0: e90f d3cd b4f6 b13e 2cdd 117b c77e a4be
000000c0: 4930 7681 a78a b9be 5cbf 9cee 7c70 cfbe
000000d0: 4d86 ec79 bf09 0fbf 44a2 4de3 8286 083f
000000e0: f126 8dd1 2d50 fc3e ab5e 4fdd e6a8 c53e
000000f0: e6e5 0e27 1a46 dc3e 961e a813 9493 0b3f
00000100: 818a 3168 912e 14bf 7161 66f7 39ce 1dbf
00000110: 80a2 092a f0c2 113f 47b6 0420 af2b c63e
00000120: 52bb 2e27 3f86 d4be 2261 d464 cc28 e13e
00000130: 277e 29b7 74d9 01bf 01b6 2fc0 e426 ce3e
00000140: 3bc4 cdc4 10f2 e2be d51f 7846 5043 9cbe
00000150: 5d45 3011 0c5a e4be adc5 7f45 2d42 ccbe
00000160: 46b1 2bea 1d28 13bf 1b32 6570 986e 0fbf
00000170: 8d99 357a 86fe 103f d570 79b0 62a9 8f3e
00000180: 81f8 e013 97b7 d43e a47b d72c 0c68 0b3f
00000190: ad72 092c 31d3 17bf 5adc dece 847d 193f
000001a0: b543 36ee c61a 0c3f 3575 ebb6 1597 c03e
000001b0: c21d 52a6 e98e e1be 3e96 3800 575e e13e
000001c0: 8054 8bc9 2484 05bf f432 1d8f caea df3e
000001d0: 0e4d a836 62ee f7be b546 b695 0271 a4be
000001e0: 22aa 18e8 b39d d43e 0551 4cbf 6ad9 cfbe
000001f0: 1553 74b6 5276 17bf 8de2 ecf4 d069 f8be
00000200: 343e 6aaa be78 273f 9056 896b 5c00 b6be
00000210: 8902 13ba ef30 d1be d7eb d516 3734 e23e
00000220: a80d e663 8651 00bf e803 9dd7 d613 04bf
00000230: 04e4 18d6 3c93 f63e 681c 2662 0a97 b0be
00000240: cda3 e5e4 9a3a ea3e 239a 2ffd deaf d2be
00000250: f29a 1198 c62b 0bbf f7b6 5577 a954 213f
00000260: 2587 b436 1bd3 173f 0c5e f18d dfde 933e
00000270: 5ce2 5a72 6740 abbe aab6 bbbd 134e e13e
00000280: d478 4455 f789 e9be 8058 c9e3 5bda 0c3f
00000290: 6e08 2304 1cff 093f 8ffa 1cb9 9489 b7be
000002a0: 85a2 a454 d34e e5be 9bff 52ca 47b7 d0be
000002b0: 06b5 7258 6079 f3be ac94 be00 8347 d0be
000002c0: c9de c262 7da9 d73e 00ed fb16 fe2f 5dbe
000002d0: 5564 833f 4f98 e4be 7cb9 c780 0d3a 00bf
000002e0: 1590 5ab5 27f6 04bf 36c9 a8d3 8203 033f
000002f0: 07e4 b719 a58a f0be 3241 9c53 2053 bc3e
00000300: d73b 796e 0927 ed3e ce18 17a5 13a0 17bf
00000310: b148 dd69 ef06 10bf d25f bca4 66fc 23bf
00000320: 3a0d 645d 5268 1a3f ae48 1603 0e7b c4be
00000330: 3a35 f0fe 4140 d3be 30ad d003 08a8 d1be
00000340: 2d83 e3aa 88c3 f2be 25d5 44ea a824 d93e
00000350: 9312 ddbd e344 cc3e b86c 4508 a000 74be
00000360: 1b73 1663 7061 d2be 5984 08a5 0f56 ffbe
00000370: 21db 2ffc 1a55 04bf 5062 2646 a2cb f9be
00000380: 0394 a6fd d8a8 eabe 2d3c 61c9 c4d4 c03e
00000390: 341f 409b f4f0 b53e 6548 07c2 7edb 17bf
000003a0: bb19 8793 a52a 0fbf 9458 3bc5 91fe 243f
000003b0: 6f84 3fae 5322 183f e9bc 93b1 610b c4be
000003c0: 72cc cdb8 aca3 b33e c100 7669 fb91 c5be
000003d0: 2c2a e38a 53ca 01bf 99cb c02f ae63 11bf
000003e0: 9294 848b 2033 0cbf 2860 79f1 19cb 93be
000003f0: 1bb5 29f1 60e6 a53e 7fb1 8786 e8d7 e13e
00000400: ffb5 aad1 a11f 0bbf 49d9 3313 52d6 12bf
00000410: f338 ee3d e27c 173f 92bd d4a1 9ab1 b4be
00000420: ac4d 3538 63a6 dcbe c6d2 febe c16c c3be
00000430: 16da 6a87 a10d 11bf 686d f2a9 1b0b 083f
00000440: f52d 33b1 da5c 07bf 9c87 2ed9 a6d8 733e
00000450: 1508 575c f9a8 e33e 2b9e 07e0 7ed6 df3e
00000460: 3778 eb17 3e14 1fbf 35e4 d8e2 0b32 f7be
00000470: 59f6 52f4 ae52 103f 7739 6b39 478e ad3e
00000480: d0e7 cfdc 0257 ddbe 062a 1248 436f c0be
00000490: 9aa4 dd46 9b13 0cbf 7c0c 68f9 86e2 e9be
000004a0: 3016 c24a 05ce b9be a751 dac8 0c9e a2be
000004b0: 6676 f6c2 0873 9bbe c55e 9920 b16b dd3e
000004c0: 7fe2 516d 4ed1 1ebf b5a6 0f29 dc38 0d3f
000004d0: 487f ff6f 1b1f d73e fcf0 344e e00a c13e
000004e0: e726 f758 508b d53e 2ef5 1dc3 104d 143f
000004f0: 7c14 d51f 2ff4 23bf ee5c ee2e 46ba 23bf
00000500: 1778 f4a6 09f8 d9be 882a 66ce 948c b13e
00000510: ac55 8c29 fa66 cfbe 3827 642c 1a75 c0be
00000520: 7264 9052 1da2 12bf 171b 70e2 c933 a83e
00000530: bdf0 60f2 967f e03e f8ba c05f 365c a1be
00000540: 1a81 7031 667c e2be d234 7c57 eea1 dd3e
00000550: 470a ccaf 7d37 24bf 0c12 a585 3ae4 0abf
00000560: 1c91 60e5 7c36 09bf f1ee 34ab 8643 a63e
00000570: a586 1a35 b6c3 c93e 5f68 1a0d 3534 143f
00000580: 4c17 ef2e 8583 2cbf baae dee3 b81e 033f
00000590: a0b9 7435 b90a 0e3f c759 d1a6 07af c13e
000005a0: 41e3 302b 4cb7 d6be 07b7 ba2f 7acb bbbe
000005b0: e23c e955 8b9e 14bf bf01 02b6 fc59 e53e
000005c0: 8d7e 2de6 6110 e63e cbaf 297e f50e 9ebe
000005d0: e3a4 33c6 df2e c43e 46aa b0d2 9935 dc3e
000005e0: 112b 891d 2e92 26bf 68b5 366e 3924 14bf
000005f0: 6855 0cbb ace6 10bf a02d af52 b706 8dbe
00000600: 06d8 23fb a187 f3be 6353 be72 a022 143f
00000610: b666 649c 96da 28bf 2e1a 1521 5876 153f
00000620: 663e 5dc3 e570 153f facd 8928 5fe1 b33e
00000630: 2548 c1ba 9fc4 c7be 189a a305 44c0 a9be
00000640: c2a7 fd22 dadf 11bf 522a 1b50 acb9 00bf
00000650: 289b 586d c47b fabe 0612 aa93 7d4d a5be
00000660: 9e49 8381 8184 e63e c91e e922 b7b7 d73e
00000670: da0b f0b6 2381 21bf 7243 2c5e a419 203f
00000680: 4e8b b94a 7983 013f ea1b 88cc 6c17 a33e
00000690: 50cb 3bbc 7772 c0be c69f 648d 5de3 adbe
000006a0: af73 fa98 666f 05bf a1a8 e441 e729 023f
000006b0: fcae c39d 9e67 04bf 6b8b ac8b df16 953e
000006c0: 0162 c187 a886 e63e b537 f30e 46b6 d63e
000006d0: 673b 5bae 7cfb 12bf d8bf 991f 7dc1 03bf
000006e0: 4166 99e9 de02 223f 2b92 672a ef60 abbe
000006f0: 0bfa 93ec c231 f2be 3b82 1bbd 9b4a a8be
00000700: 1e5d 6191 d909 06bf bce8 63d1 647a bbbe
00000710: a4ca 271e 676e f8be bbf8 4cc4 a7f5 ad3e
00000720: 011b b47a 9330 fa3e ee59 ccf9 5621 d53e
00000730: d67a f6f1 6efb 17bf e338 5473 657a 0dbf
00000740: c9de edac 3b83 263f 501b 6362 27cc b53e
00000750: bc9f 148c 3431 e6be 88ee 9f3e bee3 6ebe
00000760: d318 ed2b 3445 0fbf cc3c 7af9 428f e4be
00000770: afed d853 19da d4be 25da 60a2 670d 96be
00000780: 7303 693e e7a5 e1be 0766 e1b9 4c40 d13e
00000790: 85f0 8d97 d2fd 20bf 824d dd5e bf28 203f
000007a0: 237d ee4b 00ed 0c3f 4ae5 71a5 52a9 c63e
000007b0: e53c e3c7 7ba7 ea3e b192 df66 a4f6 22bf
000007c0: c2ea 130f 42c9 26bf a85c 7969 1c76 30bf
000007d0: 90f6 21de c614 ecbe c57b e338 cdea d9be
000007e0: 838a f177 0a54 d4be 97ac 5ce9 8f52 9bbe
000007f0: fec8 c2c8 080f 03bf e94f d261 bc8e e73e
2.898363396411212e-06 9.444569275885529e-06 -1.6902937779620886e-05 -9.440215275231844e-05 7.87744350743877e-05 5.528062457892186e-08 -6.818270175147304e-06 8.649258037593718e-06
-3.125264101611909e-05 5.538352863782897e-05 4.972910540172885e-05 5.152202598431081e-07 1.057577841725042e-05 -3.673920506668323e-06 -4.445216384383068e-05 -6.45962623233093e-05
2.9328629528944376e-05 2.9796566136786e-06 -7.3273864651444495e-06 8.546149147747593e-06 -2.6591205503686764e-05 -1.407003375771449e-05 1.0707197398021916e-06 -6.108054916427738e-07
-1.5223990937644568e-06 -3.7478692903810534e-06 -5.920043553532244e-05 4.6778554326835686e-05 2.7001570831053837e-05 2.5820461168993224e-06 6.741007937566159e-06 5.259795803530286e-05
-7.698786252911297e-05 -0.00011369923399795979 6.775465818410244e-05 2.642946356121501e-06 -4.893398556512036e-06 8.182224656525453e-06 -3.404509961479575e-05 3.5943899105914377e-06
-9.03395098259169e-06 -4.2115067919222657e-07 -9.704469027512869e-06 -3.368676100728223e-06 -7.307703576104216e-05 -5.99518080429443e-05 6.48278788069943e-05 2.3589776553229044e-07
4.939353230480377e-06 5.227362781189758e-05 -9.08850443094948e-05 9.723780723801378e-05 5.36052664542661e-05 1.97770298569649e-06 -8.372427325888525e-06 8.281953348075675e-06
-4.1038868578682254e-05 7.609642340100588e-06 -2.2822557562985012e-05 -6.092025545570159e-07 4.915243722739803e-06 -3.7967306475516072e-06 -8.95011886437698e-05 -2.328237979584923e-05
0.00017907454931219565 -1.31138624061747e-06 -4.098691449517239e-06 8.680327222112677e-06 -3.1124986423793175e-05 -3.8294786419708186e-05 2.1529337919743582e-05 -9.888411872398384e-07
1.2506926535054124e-05 -4.455327103669698e-06 -5.1824567898253295e-05 0.00013222283056839982 9.088376616664099e-05 2.9609499380608754e-07 -8.121603271771542e-07 8.25166164683128e-06
-1.2177910925500688e-05 5.5032662633778574e-05 4.958442925008596e-05 -1.4029398908846184e-06 -1.0160404276663964e-05 -3.9853904684749286e-06 -1.8571974149385522e-05 -3.881297754225785e-06
5.641476985278074e-06 -2.7182950500752872e-08 -9.820441832552254e-06 -3.0950104790028265e-05 -3.998097115001667e-05 3.626578332606644e-05 -1.577528165161784e-05 1.68828439800837e-06
1.3900989372176847e-05 -9.012336638311859e-05 -6.113849891889696e-05 -0.00015248063061146108 0.00010073664393322061 -2.4414876171409113e-06 -4.589797739218855e-06 -4.209607195308857e-06
-1.789455807788274e-05 5.994606599825791e-06 3.369939334615173e-06 -7.451490275282916e-08 -4.382281575313042e-06 -2.9884506434045162e-05 -3.878105737691583e-05 -2.4600453238573302e-05
-1.2712269314383092e-05 2.0064267785345497e-06 1.3077993630278546e-06 -9.100876969306419e-05 -5.9445550906245485e-05 0.00016017465042378733 9.206424471088088e-05 -2.3894857689093477e-06
1.170596735292054e-06 -2.5713732829114307e-06 -3.3932375445984035e-05 -6.633520746461423e-05 -5.378668851311568e-05 -2.949441166625308e-07 6.526683782988835e-07 8.508392242278322e-06
-5.1734090637505635e-05 -7.18581766710791e-05 8.95989501101568e-05 -1.2334445565578904e-06 -6.830680720898619e-06 -2.31562034255293e-06 -6.505297083490182e-05 4.585912869822345e-05
-4.456083674994261e-05 7.393321359167187e-08 9.37464472883582e-06 7.590740552100175e-06 -0.00011855725277196213 -2.2120946758106593e-05 6.226723515375658e-05 8.808307140008608e-07
-6.995174271823585e-06 -1.959159420088623e-06 -5.355184190032024e-05 -1.2342868825682004e-05 -1.5380840450452775e-06 -5.548412375816419e-07 -4.09027225390041e-07 7.014434694939131e-06
-0.0001175598257122743 5.573675037580159e-05 5.5125981361646255e-06 2.0316225445555043e-06 5.136536301583836e-06 7.744231041147541e-05 -0.00015223574875214755 -0.0001505098984721851
-6.191467590425609e-06 1.0460105897859026e-06 -3.7434404699480854e-06 -1.961878612570611e-06 -7.108024568970738e-05 7.212847251699254e-07 7.867048747660686e-06 -5.173744166470814e-07
-8.814780398991784e-06 7.064948810653689e-06 -0.00015424165021478612 -5.1291500045045566e-05 -4.808968212469315e-05 6.635121593610388e-07 3.071367623189879e-06 7.707189367992102e-05
-0.00021754265568868015 3.6468522451952324e-05 5.730035507621749e-05 2.1080625658795508e-06 -5.415917871558912e-06 -1.656701157519632e-06 -7.865643917991412e-05 1.0181194454839873e-05
1.0520932112789076e-05 -4.4790556167381247e-07 2.4060132531768e-06 6.72563991614223e-06 -0.00017220318729224045 -7.68337300118459e-05 -6.447247757209384e-05 -2.1626230170403546e-07
-1.862508333601994e-05 7.680992410847918e-05 -0.00018961990844772674 8.187210939523327e-05 8.179094660686891e-05 1.184961691572181e-06 -2.833373818269586e-06 -7.674407343200152e-07
-6.81855096879283e-05 -3.190095050128031e-05 -2.5256601324265233e-05 -6.348698556456922e-07 1.073722891967583e-05 5.654725596722102e-06 -0.00013354836434595238 0.00012283450549735068
3.3404482874718937e-05 5.689711538033676e-07 -1.9606518167845696e-06 -8.907361699660451e-07 -4.088432171764995e-05 3.46444796711237e-05 -3.8918998798679786e-05 3.142557819959556e-07
1.0741238149745461e-05 5.414964319784144e-06 -7.241199963490889e-05 -3.7681227650021305e-05 0.00013741465663734585 -8.159473353056763e-07 -1.7351513439395723e-05 -7.239412928815908e-07
-4.203505720628608e-05 -1.6378224408351727e-06 -2.32994660879874e-05 8.928653945983994e-07 2.4976492267315794e-05 5.0378402221191325e-06 -9.148468642770509e-05 -5.622503378265185e-05
0.00017175773106336268 1.2992308114232838e-06 -1.0582069423906044e-05 -5.7536403932882224e-08 -5.964341607138522e-05 -9.803588724181798e-06 -4.971492044310491e-06 -3.286058095660215e-07
-8.415250659089932e-06 4.112999617411547e-06 -0.0001296348162006558 0.00012328468386134042 5.5171557952644086e-05 2.70145146036004e-06 1.2709728477138012e-05 -0.0001446796117640279
-0.00017384463675525734 -0.0002511805882696263 -1.3390140285669886e-05 -6.179140554090272e-06 -4.846640762586955e-06 -4.0713710213147937e-07 -3.635163838690453e-05 1.1233120910149291e-05

b f8 [1896]
00000000: 0000 0000 0000 503d 0000 0000 00e4 783d
00000010: 9211 ed0a 4eae d4c0 fdaa 831b 701d c0c0
00000020: 0790 7b19 e638 c240 0000 0000 0000 04bd
00000030: 0000 0000 0000 0000 0000 0000 c0e4 a4bd
00000040: 9711 ed0a 4eae d4c0 fbaa 831b 701d c040
00000050: 0490 7b19 e638 c240 0000 0000 0040 2ebd
00000060: 0000 0000 0000 803d 0000 0000 00a0 663d
00000070: 9da8 e6df 4c2a cdc0 ccb9 a52b 1fe4 b3c0
00000080: a74b f6ac fcaf b640 0000 0000 0000 29bd
00000090: 0000 0000 0000 703d 0000 0000 00d8 893d
000000a0: 0000 0000 00da a3bd 0000 0000 0000 203d
000000b0: 0000 0000 0080 513d 0000 0000 0000 1ebd
000000c0: 0000 0000 0000 483d 0000 0000 00c0 78bd
000000d0: 9da8 e6df 4c2a cdc0 ccb9 a52b 1fe4 b340
000000e0: a94b f6ac fcaf b640 0000 0000 0000 423d
000000f0: 0000 0000 0000 0000 0000 0000 0000 2abd
00000100: 70d2 baf6 7b92 d2c0 80f4 4890 6a2f bbc0
00000110: 7c78 bcfa 65f7 bf40 0000 0000 0040 55bd
00000120: 0000 0000 0000 88bd 0000 0000 005a 923d
00000130: 0000 0000 0094 c23d 0000 0000 0068 743d
00000140: 0000 0000 0000 623d 0000 0000 0000 0000
00000150: 0000 0000 0000 98bd 0000 0000 005a 81bd
00000160: 424b 73c7 951e d6c0 c37f 280a 8e1f c2c0
00000170: 8e8c 02ae e0a8 c340 0000 0000 0000 16bd
00000180: 0000 0000 0000 603d 0000 0000 0090 9dbd
00000190: 72d2 baf6 7b92 d2c0 87f4 4890 6a2f bb40
000001a0: 7d78 bcfa 65f7 bf40 0000 0000 0000 443d
000001b0: 0000 0000 0000 883d 0000 0000 0040 583d
000001c0: 0000 0000 00c0 893d 0000 0000 0000 613d
000001d0: 0000 0000 0000 303d 0000 0000 0000 02bd
000001e0: 0000 0000 0000 803d 0000 0000 0052 603d
000001f0: 7c57 0ecd 0c06 e7c0 d676 78f2 a034 97c0
00000200: 932b dbba 8582 d440 0000 0000 0000 01bd
00000210: 0000 0000 0000 84bd 0000 0000 00bc 82bd
00000220: 1023 37a7 b0a8 ccc0 2fc9 2a1a d482 b3c0
00000230: 35c5 dc53 c710 b640 0000 0000 0000 0c3d
00000240: 0000 0000 0000 0000 0000 0000 00f0 5fbd
00000250: c463 a9d2 83ed d7c0 a18e 7728 2206 c540
00000260: 8fca b3c7 2a5c c540 0000 0000 0000 04bd
00000270: 0000 0000 0000 0000 0000 0000 8011 913d
00000280: 2623 37a7 b0a8 ccc0 32c9 2a1a d482 b340
00000290: 36c5 dc53 c710 b640 0000 0000 0000 123d
000002a0: 0000 0000 0000 803d 0000 0000 0070 48bd
000002b0: 0000 0000 00d0 a6bd 0000 0000 0080 63bd
000002c0: 0000 0000 0000 683d 0000 0000 0080 21bd
000002d0: 0000 0000 0000 80bd 0000 0000 0068 8dbd
000002e0: 0000 0000 0040 aa3d 0000 0000 0000 843d
000002f0: 0000 0000 0000 783d 0000 0000 0000 10bd
00000300: 0000 0000 0000 903d 0000 0000 0024 abbd
00000310: 6265 d7e6 d9b2 d5c0 d4d0 952c 7e82 c1c0
00000320: 7a21 8646 343f c340 0000 0000 0000 28bd
00000330: 0000 0000 0000 70bd 0000 0000 406c 613d
00000340: 0000 0000 0098 953d 0000 0000 0000 53bd
00000350: 0000 0000 0000 263d 0000 0000 0080 ffbc
00000360: 0000 0000 0000 603d 0000 0000 006a a43d
00000370: 0000 0000 0028 b23d 0000 0000 0000 703d
00000380: 0000 0000 0000 6d3d 0000 0000 0000 34bd
00000390: 0000 0000 0000 34bd 0000 0000 0010 a6bd
000003a0: 6465 d7e6 d9b2 d5c0 d6d0 952c 7e82 c140
000003b0: 7521 8646 343f c340 0000 0000 0000 443d
000003c0: 0000 0000 0000 60bd 0000 0000 0050 613d
000003d0: 9511 ed0a 4eae d4c0 fcaa 831b 701d c0c0
000003e0: 0590 7b19 e638 c2c0 0000 0000 0000 183d
000003f0: 0000 0000 0080 543d 0000 0000 0030 80bd
00000400: ae21 782c 40d6 d3c0 ce92 e558 4aaf bec0
00000410: 47d7 0478 88c4 c040 0000 0000 0000 223d
00000420: 0000 0000 0000 0000 0000 0000 00d0 643d
00000430: 8211 ed0a 4eae d4c0 feaa 831b 701d c040
00000440: 0790 7b19 e638 c2c0 0000 0000 0000 123d
00000450: 0000 0000 0000 80bd 0000 0000 3c15 943d
00000460: 14f1 79b6 9b65 e8c0 5486 ee49 a049 a0c0
00000470: 35ef d906 5a8a c040 0000 0000 00c8 273d
00000480: 0000 0000 0000 80bd 0000 0000 54fc 80bd
00000490: 0000 0000 004c c1bd 0000 0000 00f8 8c3d
000004a0: 0000 0000 0000 0000 0000 0000 00e2 29bd
000004b0: 0000 0000 0000 68bd 0000 0000 00bb a3bd
000004c0: 8cc0 7b40 f7f4 dcc0 036b ee3e 0d6a c340
000004d0: b007 7495 3817 5dc0 0000 0000 0000 253d
000004e0: 0000 0000 0000 8c3d 0000 0000 00c0 b03d
000004f0: 31c0 1c11 b341 e2c0 3175 8035 9588 cac0
00000500: 62e8 1337 82e1 80c0 0000 0000 0040 5dbd
00000510: 0000 0000 0000 803d 0000 0000 0080 54bd
00000520: 0000 0000 0080 953d 0000 0000 0000 3f3d
00000530: 0000 0000 0000 303d 0000 0000 0000 173d
00000540: 0000 0000 0000 703d 0000 0000 6064 643d
00000550: 494b 73c7 951e d6c0 c57f 280a 8e1f c2c0
00000560: 918c 02ae e0a8 c3c0 0000 0000 00a0 393d
00000570: 0000 0000 0000 74bd 0000 0000 04bb c03d
00000580: 232e b885 f4d2 ecc0 8188 8693 f08e b240
00000590: 6491 ea17 c3e4 c040 0000 0000 00b8 5fbd
000005a0: 0000 0000 0000 88bd 0000 0000 407e 553d
000005b0: 0000 0000 80fe e5bd 0000 0000 0060 73bd
000005c0: 0000 0000 0060 8abd 0000 0000 0030 293d
000005d0: 0000 0000 0000 70bd 0000 0000 00fe 8a3d
000005e0: 4104 edc6 2c35 f1c0 2477 8278 0c91 c7c0
000005f0: 254e f1de 5048 c6c0 0000 0000 0080 32bd
00000600: 0000 0000 0000 0000 0000 0000 8065 c03d
00000610: e3db 36e9 8222 d5c0 f030 bdeb 1c41 c140
00000620: eacf 5b3b dbf2 c140 0000 0000 00f8 40bd
00000630: 0000 0000 0000 883d 0000 0000 0074 5abd
00000640: 1b23 37a7 b0a8 ccc0 33c9 2a1a d482 b3c0
00000650: 36c5 dc53 c710 b6c0 0000 0000 0000 fa3c
00000660: 0000 0000 0000 a4bd 0000 0000 0010 6cbd
00000670: 0dd5 3d2d 1a6e eec0 aeb7 daa6 7633 d040
00000680: 898d 1412 f279 b040 0000 0000 0000 e83c
00000690: 0000 0000 0000 64bd 0000 0000 0080 433d
000006a0: 2823 37a7 b0a8 ccc0 37c9 2a1a d482 b340
000006b0: 38c5 dc53 c710 b6c0 0000 0000 0000 143d
000006c0: 0000 0000 0000 80bd 0000 0000 002c 793d
000006d0: c74f d952 cc0a e2c0 6ef0 5937 5d88 b2c0
000006e0: bcfb dc19 8881 cd40 0000 0000 0038 663d
000006f0: 0000 0000 0000 90bd 0000 0000 0010 52bd
00000700: 0000 0000 0020 d3bd 0000 0000 0000 4a3d
00000710: 0000 0000 0000 603d 0000 0000 0040 4c3d
00000720: 0000 0000 0000 903d 0000 0000 0048 82bd
00000730: 8075 5ee8 e0c4 e7c0 2333 218e 1878 b4c0
00000740: 347e 54bb ecb0 d240 0000 0000 0000 27bd
00000750: 0000 0000 0000 803d 0000 0000 0060 5b3d
00000760: 0000 0000 0006 cebd 0000 0000 0000 763d
00000770: 0000 0000 0080 7a3d 0000 0000 00c0 433d
00000780: 0000 0000 0000 803d 0000 0000 00b2 873d
00000790: bf2f 4531 409a d9c0 5a19 b317 e8c9 cc40
000007a0: fd08 c596 babc c240 0000 0000 0040 53bd
000007b0: 0000 0000 0000 0000 0000 0000 8007 b1bd
000007c0: fbac 3397 083a e5c0 7c98 ad7d 0917 d1c0
000007d0: 1916 903d ab32 8ac0 0000 0000 0040 61bd
000007e0: 0000 0000 0000 0000 0000 0000 0040 203d
000007f0: 0000 0000 00e7 863d 0000 0000 0000 4c3d
2.2737367544323206e-13 1.4148682225822995e-12 -21177.21941687313 -8250.875839670649 9329.797652669264 -8.881784197001252e-15 0.0 -9.50128864474209e-12
-21177.219416873148 8250.875839670645 9329.797652669258 -5.3734794391857577e-14 1.8189894035458565e-12 6.430411758628907e-13 -14932.600582916575 -5092.121759755955
5807.987014192076 -4.440892098500626e-14 9.094947017729282e-13 2.9380942123680143e-12 -9.027445457832073e-12 2.842170943040401e-14 2.4868995751603507e-13 -2.6645352591003757e-14
1.7053025658242404e-13 -1.4068746168049984e-12 -14932.600582916575 5092.121759755955 5807.987014192077 1.2789769243681803e-13 0.0 -4.618527782440651e-14
-19017.93693419028 -6959.4162641140865 8183.398357180991 -3.019806626980426e-13 -2.7284841053187847e-12 4.172662215751188e-12 3.3793412512750365e-11 1.1599610161283636e-12
5.115907697472721e-13 0.0 -5.4569682106375694e-12 -1.972644270153978e-12 -22650.34029848432 -9279.109685003647 10065.755310362463 -1.9539925233402755e-14
4.547473508864641e-13 -6.721734280290548e-12 -19017.936934190286 6959.416264114093 8183.398357180992 1.4210854715202004e-13 2.7284841053187847e-12 3.446132268436486e-13
2.9274360713316128e-12 4.831690603168681e-13 5.684341886080802e-14 -7.993605777301127e-15 1.8189894035458565e-12 4.638511796883904e-13 -47152.400031252735 -1485.1571749517948
21002.089529793313 -7.549516567451064e-15 -2.2737367544323206e-12 -2.1298518504409003e-12 -14673.380103008385 -4994.828524278752 5648.77862338843 1.2434497875801753e-14
0.0 -4.53859172466764e-13 -24502.059732768466 10764.266859955447 10936.334219430833 -8.881784197001252e-15 0.0 3.880895604879697e-12
-14673.380103008425 4994.828524278755 5648.778623388431 1.5987211554602254e-14 1.8189894035458565e-12 -1.7363888105137448e-13 -1.0373923942097463e-11 -5.542233338928781e-13
6.821210263296962e-13 -3.108624468950438e-14 -1.8189894035458565e-12 -3.3431035717512714e-12 1.1937117960769683e-11 2.2737367544323206e-12 1.3642420526593924e-12 -1.4210854715202004e-14
3.637978807091713e-12 -1.234212732015294e-11 -22219.404714440352 -8964.985735632865 9854.408402220102 -4.263256414560601e-14 -9.094947017729282e-13 4.951872245584354e-13
4.909850304102292e-12 -2.7000623958883807e-13 3.907985046680551e-14 -6.994405055138486e-15 4.547473508864641e-13 9.283240842705709e-12 1.6513013179064728e-11 9.094947017729282e-13
8.242295734817162e-13 -7.105427357601002e-14 -7.105427357601002e-14 -1.0032863428932615e-11 -22219.40471444036 8964.985735632868 9854.408402220093 1.4210854715202004e-13
-4.547473508864641e-13 4.920508445138694e-13 -21177.21941687314 -8250.875839670647 -9329.79765266926 2.1316282072803006e-14 2.913225216616411e-13 -1.8403056856186595e-12
-20313.00271418847 -7855.290418957082 8585.066162686458 3.197442310920451e-14 0.0 5.915268275202834e-13 -21177.21941687307 8250.87583967065
-9329.797652669264 1.5987211554602254e-14 -1.8189894035458565e-12 4.566333422495461e-12 -49964.866024943214 -2084.8130640543914 8468.703334085274 4.2243986086987206e-14
-1.8189894035458565e-12 -1.9310456012000543e-12 -3.1462832339457236e-11 3.2933655802480644e-12 0.0 -4.5977111007289295e-14 -6.821210263296962e-13 -8.972378395810665e-12
-29651.86331075481 9940.103483011486 -116.36282860117967 3.730349362740526e-14 3.183231456205249e-12 1.5234036254696548e-11 -37389.59583890474 -13585.165695245001
-540.1885816149991 -4.156675004196586e-13 1.8189894035458565e-12 -2.913225216616411e-13 4.888534022029489e-12 1.1013412404281553e-13 5.684341886080802e-14 2.042810365310288e-14
9.094947017729282e-13 5.795780522177552e-13 -22650.340298484345 -9279.10968500365 -10065.755310362469 9.103828801926284e-14 -1.1368683772161603e-12 3.0432656394907553e-11
-59031.641323175536 4750.939751060797 8649.524167366973 -4.5075054799781356e-13 -2.7284841053187847e-12 3.054362318621884e-13 -1.6002843494788976e-10 -1.1013412404281553e-12
-2.9984903449076228e-12 4.474198789239381e-14 -9.094947017729282e-13 3.0686564400639327e-12 -70482.79856588041 -12066.097427662062 -11408.631803668171 -6.572520305780927e-14
0.0 2.9825031333530205e-11 -21642.045484270795 8834.225944184203 9189.712748981972 -1.20570220474292e-13 2.7284841053187847e-12 -3.75921516138078e-13
-14673.380103008405 -4994.828524278756 -5648.778623388431 5.773159728050814e-15 -9.094947017729282e-12 -7.975842208907125e-13 -62320.81802264797 16589.853933982253
4217.94558838325 2.6645352591003757e-15 -5.684341886080801e-13 1.3855583347321954e-13 -14673.380103008429 4994.82852427876 -5648.778623388433 1.7763568394002505e-14
-1.8189894035458565e-12 1.4308554341369017e-12 -36950.385113387885 -4744.364125844191 15107.06328928272 6.31494856406789e-13 -3.637978807091713e-12 -2.566835632933362e-13
-6.957634468562901e-11 1.8474111129762605e-13 4.547473508864641e-13 2.007283228522283e-13 3.637978807091713e-12 -2.078337502098293e-12 -48679.028365354054 -5240.095918726906
19139.698933718915 -4.085620730620576e-14 1.8189894035458565e-12 3.8902214782865485e-13 -5.46123146705213e-11 1.2505552149377763e-12 1.5063505998114124e-12 1.4033219031261979e-13
1.8189894035458565e-12 2.69384514695048e-12 -26217.003007218005 14739.813223254565 9593.457726125134 -2.7355895326763857e-13 0.0 -1.5488055282730784e-11
-43472.268457258084 -17500.148295782958 -838.3336135155433 -4.902744876744691e-13 0.0 2.886579864025407e-14 2.603695037350917e-12 1.9895196601282805e-13
