python-Linux/neural-sparse-linear-solvers-master/stand_small_test/4565533785219439432_c6d32d9b80cd7434aa1f01aa07b6c4a6f995f6e0_b3c5f36b67c0c120efcf1227765a5438b91b1834.npz (npz, 78479 bytes, 3 tensors)

A_values f8 [19576]
000000 67 26 4f 11 5d 69 cd 41 90 93 42 68 8a 60 49 41
       986888738.6183594 3326228.814531751
000010 41 71 49 5f 62 79 61 c1 64 61 5e b8 b2 77 74 c1
       -9161490.977715136 -21461803.523042098
000020 25 b8 03 d3 22 f9 83 41 26 4e 68 41 67 98 53 c1
       41886810.37681607 -5136797.021991288
000030 41 71 49 5f 62 79 61 c1 49 51 19 15 22 0e cc c1
       -9161490.977715136 -941376554.1977931
000040 4f 9e c1 9c 7c a2 d2 41 c0 58 aa 43 18 61 23 c1
       1250554483.0252874 -635020.132159017
000050 1f 9f 5d 2b f2 36 54 41 7e 6c e7 df 3b f7 4d c1
       5299144.677589207 -3927671.749249994
000060 e8 2f 5c 79 f0 3d 5d c1 6a e5 16 3c c0 7d d2 c1
       -7665601.896251656 -1240924400.3577523
000070 cf 04 9b 0c 4e 32 41 c1 1f 9f 5d 2b f2 36 54 41
       -2253980.098480798 5299144.677589207
000080 f0 e2 96 4f 52 d6 e0 41 a2 04 bd ab c1 a9 87 41
       2259849852.7152023 49625141.46729399
000090 8e da da 7d da 00 7c c1 cf ff 5a fd d0 e5 d0 c1
       -29363623.865931086 -1133986805.4218633
0000a0 2c 99 c3 cb 19 89 7a c1 a2 04 bd ab c1 a9 87 41
       -27824540.735253498 49625141.46729399
0000b0 7c e7 ad 7e 83 d2 67 c1 8e da da 7d da 00 7c c1
       -12489755.958728544 -29363623.865931086
0000c0 c0 58 aa 43 18 61 23 c1 a2 04 bd ab c1 a9 87 41
       -635020.132159017 49625141.46729399
0000d0 bd 9c 83 21 c8 5f a4 41 e8 2f 5c 79 f0 3d 5d 41
       170910736.7570552 7665601.896251656
0000e0 2f 58 da b2 8b ed 62 41 a2 04 bd ab c1 a9 87 c1
       9923677.589153377 -49625141.46729399
0000f0 5a ea d5 dc 10 2a 8b 41 3e 7b 39 ac 71 56 66 c1
       56967707.6044509 -11711373.382016774
000100 90 93 42 68 8a 60 49 41 8e da da 7d da 00 7c c1
       3326228.814531751 -29363623.865931086
000110 41 70 0e 6f c8 61 b3 41 25 b8 03 d3 22 f9 83 c1
       325175407.05640036 -41886810.37681607
000120 b4 2d 55 85 13 3d 89 41 47 7d ba 63 10 72 6d c1
       52929136.66659108 -15437955.116514815
000130 8e da da 7d da 00 7c 41 87 81 21 db 6e 82 85 41
       29363623.865931086 45108699.391360335
000140 41 71 49 5f 62 79 61 c1 1f 9f 5d 2b f2 36 54 41
       -9161490.977715136 5299144.677589207
000150 df e4 33 54 60 85 8f 41 95 47 94 36 77 e8 6a c1
       66104330.52533888 -14107577.70560054
000160 41 71 49 5f 62 79 61 41 9d a0 7b 2e c6 a6 64 41
       9161490.977715136 10827313.452591235
000170 1f 9f 5d 2b f2 36 54 c1 7d 00 89 60 c3 92 5f 41
       -5299144.677589207 8276749.508361933
000180 64 61 5e b8 b2 77 74 c1 25 b8 03 d3 22 f9 83 c1
       -21461803.523042098 -41886810.37681607
000190 a2 51 6e ba 6d 39 cd 41 74 b3 7a 81 9f 78 67 c1
       980605812.8618662 -12305660.046228148
0001a0 41 71 49 5f 62 79 61 c1 82 2c cf 43 50 17 68 c1
       -9161490.977715136 -12630658.119039778
0001b0 90 16 4a e5 f5 35 7c 41 26 4e 68 41 67 98 53 c1
       29581150.330587924 -5136797.021991288
0001c0 41 71 49 5f 62 79 61 c1 49 51 19 15 22 0e cc c1
       -9161490.977715136 -941376554.1977931
0001d0 7e 6c e7 df 3b f7 4d c1 e8 2f 5c 79 f0 3d 5d 41
       -3927671.749249994 7665601.896251656
0001e0 d5 33 94 86 07 9e d2 41 28 ec 3b 8d cc be 41 41
       1249386010.3156636 2325913.103391189
0001f0 1f 9f 5d 2b f2 36 54 41 f5 63 1a 0e 0b 65 41 c1
       5299144.677589207 -2279958.110180373
000200 d4 39 be 32 8a 5e 54 c1 6a e5 16 3c c0 7d d2 c1
       -5339688.792860467 -1240924400.3577523
000210 cf 04 9b 0c 4e 32 41 c1 1f 9f 5d 2b f2 36 54 41
       -2253980.098480798 5299144.677589207
000220 cf ff 5a fd d0 e5 d0 c1 ca 46 13 23 7a 94 df 41
       -1133986805.4218633 2119297164.3011956
000230 a2 04 bd ab c1 a9 87 41 8e da da 7d da 00 7c c1
       49625141.46729399 -29363623.865931086
000240 8f b9 17 6f bf 29 cc c1 2c 99 c3 cb 19 89 7a c1
       -944996062.1853503 -27824540.735253498
000250 a2 04 bd ab c1 a9 87 41 7c e7 ad 7e 83 d2 67 c1
       49625141.46729399 -12489755.958728544
000260 8e da da 7d da 00 7c c1 e8 2f 5c 79 f0 3d 5d c1
       -29363623.865931086 -7665601.896251656
000270 2f 58 da b2 8b ed 62 41 28 ec 3b 8d cc be 41 41
       9923677.589153377 2325913.103391189
000280 a2 04 bd ab c1 a9 87 41 3a d1 bf db ef 14 a4 41
       49625141.46729399 168458221.87464315
000290 d4 39 be 32 8a 5e 54 41 3d e9 39 1d 31 b1 5f 41
       5339688.792860467 8307908.456659612
0002a0 a2 04 bd ab c1 a9 87 c1 5a ea d5 dc 10 2a 8b 41
       -49625141.46729399 56967707.6044509
0002b0 3e 7b 39 ac 71 56 66 c1 25 b8 03 d3 22 f9 83 41
       -11711373.382016774 41886810.37681607
0002c0 b4 2d 55 85 13 3d 89 41 74 b3 7a 81 9f 78 67 c1
       52929136.66659108 -12305660.046228148
0002d0 8e da da 7d da 00 7c c1 6e bd 0f a2 cd 9c b2 41
       -29363623.865931086 312266146.0614842
0002e0 90 16 4a e5 f5 35 7c c1 5a 15 06 75 1d 95 85 41
       -29581150.330587924 45261742.62797041
0002f0 47 7d ba 63 10 72 6d c1 8e da da 7d da 00 7c 41
       -15437955.116514815 29363623.865931086
000300 87 81 21 db 6e 82 85 41 95 47 94 36 77 e8 6a c1
       45108699.391360335 -14107577.70560054
000310 41 71 49 5f 62 79 61 c1 1f 9f 5d 2b f2 36 54 41
       -9161490.977715136 5299144.677589207
000320 87 8a 66 71 ed af 8e 41 a4 39 d2 51 6e 6c 66 c1
       64355758.17506891 -11756402.55691225
000330 41 71 49 5f 62 79 61 41 9d a0 7b 2e c6 a6 64 41
       9161490.977715136 10827313.452591235
000340 1f 9f 5d 2b f2 36 54 c1 7d 00 89 60 c3 92 5f 41
       -5299144.677589207 8276749.508361933
000350 82 2c cf 43 50 17 68 c1 90 16 4a e5 f5 35 7c c1
       -12630658.119039778 -29581150.330587924
000360 31 77 6f 97 41 e7 cc 41 18 44 6d b0 26 75 47 c1
       969835310.8708249 -3074637.3783345334
000370 41 71 49 5f 62 79 61 c1 9c 26 06 b1 5c 64 64 c1
       -9161490.977715136 -10691301.532000832
000380 0d 6e 3c 0f 51 47 79 41 26 4e 68 41 67 98 53 c1
       26506512.95225339 -5136797.021991288
000390 41 71 49 5f 62 79 61 c1 49 51 19 15 22 0e cc c1
       -9161490.977715136 -941376554.1977931
0003a0 f5 63 1a 0e 0b 65 41 c1 d4 39 be 32 8a 5e 54 41
       -2279958.110180373 5339688.792860467
0003b0 4f 37 47 28 62 96 d2 41 e0 ed e7 9e fd 6e 21 41
       1247381665.1127508 571262.8103632294
0003c0 1f 9f 5d 2b f2 36 54 41 b5 c4 dc 8b fe 58 3d c1
       5299144.677589207 -1923326.5463374082
0003d0 18 3c e1 7e aa 30 52 c1 6a e5 16 3c c0 7d d2 c1
       -4768425.982497238 -1240924400.3577523
0003e0 cf 04 9b 0c 4e 32 41 c1 1f 9f 5d 2b f2 36 54 41
       -2253980.098480798 5299144.677589207
0003f0 8f b9 17 6f bf 29 cc c1 7c 13 77 79 f9 fb db 41
       -944996062.1853503 1877992933.8605642
000400 a2 04 bd ab c1 a9 87 41 8e da da 7d da 00 7c c1
       49625141.46729399 -29363623.865931086
000410 02 99 7d a7 a0 9a ca c1 2c 99 c3 cb 19 89 7a c1
       -892682574.9812319 -27824540.735253498
000420 a2 04 bd ab c1 a9 87 41 7c e7 ad 7e 83 d2 67 c1
       49625141.46729399 -12489755.958728544
000430 8e da da 7d da 00 7c c1 d4 39 be 32 8a 5e 54 c1
       -29363623.865931086 -5339688.792860467
000440 3d e9 39 1d 31 b1 5f 41 e0 ed e7 9e fd 6e 21 41
       8307908.456659612 571262.8103632294
000450 a2 04 bd ab c1 a9 87 41 e5 fc 16 87 70 94 a3 41
       49625141.46729399 164247619.54489818
000460 18 3c e1 7e aa 30 52 41 1f 12 62 bf b1 f8 5d 41
       4768425.982497238 7856838.990360766
000470 a2 04 bd ab c1 a9 87 c1 5a ea d5 dc 10 2a 8b 41
       -49625141.46729399 56967707.6044509
000480 3e 7b 39 ac 71 56 66 c1 90 16 4a e5 f5 35 7c 41
       -11711373.382016774 29581150.330587924
000490 5a 15 06 75 1d 95 85 41 18 44 6d b0 26 75 47 c1
       45261742.62797041 -3074637.3783345334
0004a0 8e da da 7d da 00 7c c1 7f 70 be d0 91 4a b1 41
       -29363623.865931086 290099664.74390405
0004b0 0d 6e 3c 0f 51 47 79 c1 2f b1 43 03 7f 84 84 41
       -26506512.95225339 43028448.408052795
0004c0 47 7d ba 63 10 72 6d c1 8e da da 7d da 00 7c 41
       -15437955.116514815 29363623.865931086
0004d0 87 81 21 db 6e 82 85 41 a4 39 d2 51 6e 6c 66 c1
       45108699.391360335 -11756402.55691225
0004e0 41 71 49 5f 62 79 61 c1 1f 9f 5d 2b f2 36 54 41
       -9161490.977715136 5299144.677589207
0004f0 6c cf 6a 39 79 41 8d 41 2d 5b a5 56 a6 2e 65 c1
       61353767.17715344 -11105586.707685078
000500 41 71 49 5f 62 79 61 41 9d a0 7b 2e c6 a6 64 41
       9161490.977715136 10827313.452591235
000510 1f 9f 5d 2b f2 36 54 c1 7d 00 89 60 c3 92 5f 41
       -5299144.677589207 8276749.508361933
000520 9c 26 06 b1 5c 64 64 c1 0d 6e 3c 0f 51 47 79 c1
       -10691301.532000832 -26506512.95225339
000530 7f 3a 60 56 e4 86 cc 41 0d 6e 3c 0f 51 47 79 c1
       957204652.7517852 -26506512.95225339
000540 41 71 49 5f 62 79 61 c1 26 4e 68 41 67 98 53 c1
       -9161490.977715136 -5136797.021991288
000550 41 71 49 5f 62 79 61 c1 49 51 19 15 22 0e cc c1
       -9161490.977715136 -941376554.1977931
000560 b5 c4 dc 8b fe 58 3d c1 18 3c e1 7e aa 30 52 41
       -1923326.5463374082 4768425.982497238
000570 1e 2a c0 a2 af 8d d2 41 18 3c e1 7e aa 30 52 41
       1245101707.0025706 4768425.982497238
000580 1f 9f 5d 2b f2 36 54 41 6a e5 16 3c c0 7d d2 c1
       5299144.677589207 -1240924400.3577523
000590 cf 04 9b 0c 4e 32 41 c1 1f 9f 5d 2b f2 36 54 41
       -2253980.098480798 5299144.677589207
0005a0 02 99 7d a7 a0 9a ca c1 69 6d d6 83 33 ce cb 41
       -892682574.9812319 932996871.6752139
0005b0 a2 04 bd ab c1 a9 87 41 8e da da 7d da 00 7c c1
       49625141.46729399 -29363623.865931086
0005c0 2c 99 c3 cb 19 89 7a c1 a2 04 bd ab c1 a9 87 41
       -27824540.735253498 49625141.46729399
0005d0 7c e7 ad 7e 83 d2 67 c1 8e da da 7d da 00 7c c1
       -12489755.958728544 -29363623.865931086
0005e0 18 3c e1 7e aa 30 52 c1 1f 12 62 bf b1 f8 5d 41
       -4768425.982497238 7856838.990360766
0005f0 18 3c e1 7e aa 30 52 41 a2 04 bd ab c1 a9 87 41
       4768425.982497238 49625141.46729399
000600 b6 f6 66 d7 b1 96 a1 41 a2 04 bd ab c1 a9 87 c1
       147544299.701101 -49625141.46729399
000610 5a ea d5 dc 10 2a 8b 41 3e 7b 39 ac 71 56 66 c1
       56967707.6044509 -11711373.382016774
000620 0d 6e 3c 0f 51 47 79 41 2f b1 43 03 7f 84 84 41
       26506512.95225339 43028448.408052795
000630 0d 6e 3c 0f 51 47 79 c1 8e da da 7d da 00 7c c1
       -26506512.95225339 -29363623.865931086
000640 76 b4 75 52 f0 75 a7 41 47 7d ba 63 10 72 6d c1
       196802601.22989243 -15437955.116514815
000650 8e da da 7d da 00 7c 41 87 81 21 db 6e 82 85 41
       29363623.865931086 45108699.391360335
000660 2d 5b a5 56 a6 2e 65 c1 41 71 49 5f 62 79 61 c1
       -11105586.707685078 -9161490.977715136
000670 1f 9f 5d 2b f2 36 54 41 04 41 f6 a4 5d a6 87 41
       5299144.677589207 49597364.620241195
000680 41 71 49 5f 62 79 61 41 9d a0 7b 2e c6 a6 64 41
       9161490.977715136 10827313.452591235
000690 1f 9f 5d 2b f2 36 54 c1 7d 00 89 60 c3 92 5f 41
       -5299144.677589207 8276749.508361933
0006a0 26 4e 68 41 67 98 53 c1 41 71 49 5f 62 79 61 41
       -5136797.021991288 9161490.977715136
0006b0 d1 2f 65 9f 7f 77 cd 41 90 93 42 68 8a 60 49 41
       988741438.7905217 3326228.814531751
0006c0 9a 8a 47 de 93 34 51 41 64 61 5e b8 b2 77 74 c1
       4510287.473116541 -21461803.523042098
0006d0 25 b8 03 d3 22 f9 83 41 d8 d3 12 2c 1c 45 3c c1
       41886810.37681607 -1852700.172162285
0006e0 e8 57 4b e0 30 be 51 c1 49 51 19 15 22 0e cc c1
       -4651203.504598595 -941376554.1977931
0006f0 6a e5 16 3c c0 7d d2 c1 78 66 b5 ed 6c c5 df 41
       -1240924400.3577523 2132128694.8343792
000700 c0 58 aa 43 18 61 23 c1 1f 9f 5d 2b f2 36 54 41
       -635020.132159017 5299144.677589207
000710 7e 6c e7 df 3b f7 4d c1 e8 2f 5c 79 f0 3d 5d c1
       -3927671.749249994 -7665601.896251656
000720 53 90 e7 a1 e0 45 ca c1 cf 04 9b 0c 4e 32 41 c1
       -881574211.8090919 -2253980.098480798
000730 1f 9f 5d 2b f2 36 54 41 2c 99 c3 cb 19 89 7a c1
       5299144.677589207 -27824540.735253498
000740 a2 04 bd ab c1 a9 87 c1 75 e7 5d 7f fa e9 e0 41
       -49625141.46729399 2270155770.934504
000750 32 f5 26 75 dc a6 76 c1 8e da da 7d da 00 7c c1
       -23752135.32201118 -29363623.865931086
000760 cf ff 5a fd d0 e5 d0 c1 6f 84 04 c7 2f a8 63 c1
       -1133986805.4218633 -10305918.21930143
000770 12 14 53 e2 a6 ac 78 41 7c e7 ad 7e 83 d2 67 c1
       25873006.145282812 -12489755.958728544
000780 8e da da 7d da 00 7c c1 a2 04 bd ab c1 a9 87 41
       -29363623.865931086 49625141.46729399
000790 5a ea d5 dc 10 2a 8b 41 c0 58 aa 43 18 61 23 c1
       56967707.6044509 -635020.132159017
0007a0 32 f5 26 75 dc a6 76 c1 80 22 41 9b cb c9 ae 41
       -23752135.32201118 258270669.62721634
0007b0 e8 2f 5c 79 f0 3d 5d 41 2f 58 da b2 8b ed 62 41
       7665601.896251656 9923677.589153377
0007c0 12 14 53 e2 a6 ac 78 c1 94 20 da 39 e6 49 84 41
       -25873006.145282812 42548423.23150745
0007d0 3e 7b 39 ac 71 56 66 c1 47 7d ba 63 10 72 6d c1
       -11711373.382016774 -15437955.116514815
0007e0 90 93 42 68 8a 60 49 41 8e da da 7d da 00 7c c1
       3326228.814531751 -29363623.865931086
0007f0 a5 3f 11 ce 21 09 b4 41 25 b8 03 d3 22 f9 83 c1
       336142798.0673774 -41886810.37681607

x f8 [1812]
000000 ba be 35 4b ab 7d a6 be 1a 5c 36 15 30 1c c8 be
       -6.702809031543593e-07 -2.874148927477498e-06
000010 73 44 ee fb 96 1c 15 bf 38 a2 99 5b 52 73 f5 be
       -8.053466352310624e-05 -2.045676749276774e-05
000020 1f 77 a4 42 d4 dd f0 3e 4d b2 e5 7d 6d d7 9d 3e
       1.6085167012672778e-05 4.446732172678231e-07
000030 55 d0 71 7e 49 c5 e0 3e c4 83 63 4d c8 b1 d9 be
       7.996870364325592e-06 -6.12603726876741e-06
000040 ff 70 9a 3f 09 2b 22 bf 3f ae 25 10 df 40 f9 be
       -0.00013861167808649347 -2.4083522484215225e-05
000050 b7 d8 ab 45 e6 f0 f0 3e 77 62 e5 64 4e f2 b4 3e
       1.6156209634986883e-05 1.2485092103135063e-06
000060 08 87 ac a3 83 fd bf 3e 8d b6 e3 26 4d 81 f4 be
       1.9067698661740999e-06 -1.955517148471155e-05
000070 a2 11 1f df 11 1c 28 bf 65 9d a8 56 fa 1f fe be
       -0.0001839420143011752 -2.8729356396220945e-05
000080 18 27 5c 7a 51 d8 eb 3e 1f c7 93 26 fb d0 b8 3e
       1.3277527453964567e-05 1.4791686687134739e-06
000090 1a a1 86 82 62 0c ca 3e c6 95 90 f6 db 2c 0a 3f
       3.105208652171823e-06 4.9925291769430414e-05
0000a0 9a 70 f7 d4 17 d0 2a bf 97 05 8b d6 e1 a0 09 bf
       -0.0002045659152675225 -4.888238146839445e-05
0000b0 e9 9e 0b 7f e3 24 02 3f 97 12 f1 c4 60 ec ba be
       3.4607117305016973e-05 -1.6047568072312753e-06
0000c0 a3 8a 1d 41 a7 eb bb be 04 d2 9c 5b c7 bf c6 be
       -1.6641927271457628e-06 -2.7119083058308006e-06
0000d0 43 68 b5 c3 d8 8d 1b bf 4c bc 79 86 33 b6 ea be
       -0.00010511050725395356 -1.273714242630403e-05
0000e0 f0 bd 78 39 a0 99 f1 3e 8b 2b cc 7c e5 08 95 3e
       1.6784764367892434e-05 3.1344222577226636e-07
0000f0 3b cd 3b 01 8a 0b 9a be 69 fc 55 86 0e ca d9 be
       -3.8810185397295555e-07 -6.148644478342401e-06
000100 9f cc ac ff dc 69 27 bf 39 09 7c cc 96 7d eb be
       -0.00017863104570778763 -1.3108531120579861e-05
000110 60 20 60 3d 70 f9 f0 3e 6b cd 36 e5 d2 03 b0 3e
       1.6188019650115507e-05 9.545646165565526e-07
000120 f2 ac f8 e0 5f ef e2 be ff 0e 1f 8a 76 8f f4 be
       -9.028938648367243e-06 -1.9607927818090194e-05
000130 f9 91 1f 09 e6 9a 2e bf 9e 4f e7 1e 19 43 f0 be
       -0.00023349817325803138 -1.5508749067041584e-05
000140 79 2a 82 28 61 e5 f2 3e 0f d2 3d 7e e8 f1 a5 3e
       1.8020643012076822e-05 6.540105883372265e-07
000150 36 bb 92 67 e8 7b 86 be d1 60 47 96 af 18 0a 3f
       -1.675189656205807e-07 4.977498864250504e-05
000160 3c 83 8d d1 75 ad 30 bf 26 c1 0e 45 57 e6 f2 3e
       -0.0002544796603185966 1.8024224406055664e-05
000170 50 db 8d 8e 8c e0 04 3f dc 91 1b 82 00 8a b8 be
       3.981999345275286e-05 -1.4626425656689946e-06
000180 79 56 59 63 08 0b be be ed 17 09 45 42 c7 c3 be
       -1.7907081092579905e-06 -2.3577636414665998e-06
000190 ad 18 da 2d 6a 57 15 bf 12 d1 a5 b0 b8 2f f6 3e
       -8.141122403957048e-05 2.115861119862765e-05
0001a0 3d f9 46 1f e3 97 f2 3e 2c 6c d4 90 1d bf 91 3e
       1.7731961593042375e-05 2.644441260011515e-07
0001b0 4b 75 3c f2 e5 f1 a4 3e 40 37 da 54 5f 09 da be
       6.242071077554185e-07 -6.2076117736240455e-06
0001c0 a1 84 56 51 0d 64 21 bf d0 aa 53 25 23 b2 fa 3e
       -0.0001326814896574257 2.545914533850607e-05
0001d0 80 91 07 40 8d 7b f0 3e 14 31 98 ab 46 b6 9c be
       1.5719055228917336e-05 -4.278423762777973e-07
0001e0 18 73 c9 72 71 b3 de 3e 16 b7 9c 19 7f 08 f5 be
       7.319676836728383e-06 -2.005881251603618e-05
0001f0 20 23 23 89 b6 10 25 bf cc 26 2b 09 4a 87 01 3f
       -0.00016071537226582892 3.343290986419569e-05
000200 3f c2 35 73 24 c4 04 3f 70 53 36 81 dd 20 d1 be
       3.960834728900354e-05 -4.083723996646578e-06
000210 e4 88 15 7f 13 d7 c6 be 6c 2c 9f e4 5d 23 c3 be
       -2.722757010674002e-06 -2.2814454369905347e-06
000220 c5 cf d2 f1 87 6e 0d bf 45 57 a5 cf 66 e9 e5 3e
       -5.613663072648283e-05 1.0448324691363464e-05
000230 cf 15 82 6e 4b 76 f1 3e af b8 3a a8 3a b8 a8 be
       1.6653145309427673e-05 -7.367028307026056e-07
000240 9e 27 d8 b8 37 fc 77 3e 30 f0 90 23 28 09 da be
       8.935192693390148e-08 -6.207410984390051e-06
000250 b6 ae b0 4e f1 4f 17 bf 0d 0d 7e 7e 5a 4a f4 3e
       -8.892927478204135e-05 1.935047467284145e-05
000260 01 7d f0 0f 9b 61 f0 3e 94 0d 67 22 a5 a1 a0 be
       1.5622398674361614e-05 -4.956551194413644e-07
000270 c5 3c 0a da e5 74 00 3f 6b be 60 c4 19 27 f5 be
       3.138853503969469e-05 -2.0172821926843514e-05
000280 c6 b9 ad 88 a2 92 1b bf 9f 63 6f 28 85 44 fa 3e
       -0.000105181856424364 2.5050789670053396e-05
000290 78 9d 8f 05 64 f0 01 3f 62 bf ee 21 43 6a cf be
       3.4215977116332e-05 -3.7449701859245562e-06
0002a0 d4 87 6d 50 29 aa d5 3e 9a 30 da c3 bb 70 c3 be
       5.16526529889708e-06 -2.3174721082760932e-06
0002b0 26 dd ee a0 c4 13 f8 be 37 e5 4e 14 0d f0 f0 be
       -2.2961825432790986e-05 -1.6153049063415497e-05
0002c0 07 60 8b 80 7a de fa 3e b9 70 36 5c 11 34 a1 be
       2.562432931338401e-05 -5.127009718333708e-07
0002d0 fc 09 58 1b 3a 7a c7 be 04 87 07 46 6f 24 c5 be
       -2.7987300323950304e-06 -2.520361292322121e-06
0002e0 83 db 75 cb a3 15 18 bf 98 26 8a 30 56 4d be 3e
       -9.187519287033427e-05 1.8061456918149027e-06
0002f0 0a c2 7a d4 50 e0 f2 3e 22 85 4d f7 07 23 a8 3e
       1.800177895344878e-05 7.193338960981292e-07
000300 db e0 86 e2 e6 30 c6 3e bc 48 a5 c4 91 1b fd be
       2.6453760890409834e-06 -2.775925921955838e-05
000310 3d eb f1 8f b0 09 24 bf d8 73 55 bc 73 0e 04 bf
       -0.00015287666608173627 -3.825464913618349e-05
000320 b2 c1 96 5e aa 33 f4 3e c6 33 e0 27 72 f6 ae 3e
       1.9265955335691448e-05 9.227597528319187e-07
000330 7f 88 1e c8 ce 52 e7 3e fc 9c f8 90 b8 de 10 bf
       1.1121496075909086e-05 -6.435395720726442e-05
000340 15 29 1b db 6b 3f 2a bf b4 57 65 49 ce f6 05 bf
       -0.00020025436020027683 -4.1893167849124153e-05
000350 e6 61 dc 11 ca 6e f9 3e 0e 60 fd 9d 92 89 bd 3e
       2.4254580345136038e-05 1.7605658441857021e-06
000360 a7 24 1e c5 7a 3f 12 3f bc 76 ba c9 f6 be 14 bf
       6.961047009048042e-05 -7.913953089163766e-05
000370 78 79 9f 9a e7 fd 2c bf 93 18 bf 92 c2 b4 0a bf
       -0.00022118999669280457 -5.093783178682187e-05
000380 82 70 5d 19 d1 1a 0c 3f 9c 23 eb a0 3d 14 c1 3e
       5.3605562398501886e-05 2.0359832498578506e-06
000390 67 78 28 5b 4f df b9 be 73 67 01 12 1e 70 c3 be
       -1.542109526859602e-06 -2.317185263262081e-06
0003a0 dc 79 b7 f8 c2 a4 1f bf 5b 7a 43 4f 4b 04 f2 be
       -0.00012071075450801417 -1.718213475576168e-05
0003b0 f3 57 07 a4 03 6c f2 3e 1a 04 9a c6 0b 00 6f 3e
       1.756852202724336e-05 5.774233431417309e-08
0003c0 75 56 f4 59 ce 8e 94 3e 31 2e aa 05 7d f7 fc be
       3.063356305994029e-07 -2.762484687450338e-05
0003d0 9a c2 0f b5 3b 48 2b bf 78 1b 5e bd 40 d8 e6 be
       -0.00020814637039691803 -1.0893219876141036e-05
0003e0 85 db 8e 81 6e be f2 3e 0b 07 9b db 35 10 a0 3e
       1.7875550927217154e-05 4.787242950598202e-07
0003f0 b4 46 66 7f ca 7d c5 be fd 11 7b b8 48 e0 10 bf
       -2.5619710825673987e-06 -6.437724925507228e-05
000400 46 7c 50 16 c8 28 32 bf 20 5a 20 70 b5 bb ec be
       -0.00027708897533957157 -1.3701075207745112e-05
000410 f7 b9 52 4a f1 f1 f7 3e 0e a1 b5 65 f1 e4 ba 3e
       2.283581547562506e-05 1.6030257004810577e-06
000420 a6 55 f9 b0 d7 d1 0a 3f b2 99 53 d8 47 dd 14 bf
       5.1154513241040506e-05 -7.959128386723113e-05
000430 b3 ba 4d 43 97 57 34 bf 3b 6c 40 1b 68 a1 fa be
       -0.00031039660398494566 -2.5396818912875657e-05
000440 bf 45 9a 5c e4 2a 0b 3f aa 59 89 d4 b0 89 d1 3e
       5.1817983672052235e-05 4.181350342044601e-06
000450 a9 e1 dc 5b 11 b8 b2 be ae 52 67 d0 99 01 bf be
       -1.1157402321615646e-06 -1.848116711768474e-06
000460 8a c8 f0 04 37 67 1b bf 47 4b 0b c6 5f 6a ff 3e
       -0.00010453484831954483 2.9960178269682126e-05
000470 4f 44 d7 f3 94 c1 f1 3e b3 35 89 c1 45 da 75 be
       1.693361195071282e-05 -8.140737895700481e-08
000480 05 8a 3c 1b e8 b5 d1 3e 6f 3c 1c 9c b5 ed fc be
       4.222529628868884e-06 -2.7588417430609817e-05
000490 ca 24 1b c0 1a 4d 27 bf e7 a2 5f 48 05 b0 03 3f
       -0.00017777396720067832 3.755107995557176e-05
0004a0 8d e8 c9 53 d3 20 f1 3e 90 a9 53 91 12 f1 aa be
       1.6334747885406653e-05 -8.029249182449513e-07
0004b0 72 c5 e9 fc 6a 9e d8 3e 31 dd 22 ea 5a e1 10 bf
       5.869584085092598e-06 -6.439320944450347e-05
0004c0 92 99 d1 0f 47 8b 2e bf db b6 c0 51 c7 a7 06 3f
       -0.0002330326314307738 4.321171783803836e-05
0004d0 86 3d ff 13 30 bd f3 3e 84 d4 bc 0a 17 ea c7 be
       1.882459150675871e-05 -2.850820313949624e-06
0004e0 12 0c 2b 6a 39 f6 ee 3e 04 42 a7 f8 a2 11 15 bf
       1.4763743199868967e-05 -8.037144849671474e-05
0004f0 3c 31 47 52 8e b8 30 bf 34 47 f8 65 07 24 18 3f
       -0.0002551410164215622 9.208960681686141e-05
000500 02 2b 17 03 a6 9e 02 3f 4f a0 87 3c b9 79 bf 3e
       3.5514298712143954e-05 1.876084967484068e-06
000510 5c e7 e1 bd a0 57 a2 be b7 bc 0f 8c e2 1e bd be
       -5.466430328525656e-07 -1.735725661196857e-06
000520 d3 7e 6c 8b 0b b0 0c bf f4 ca 25 9b 58 7a f4 3e
       -5.47173998965957e-05 1.9529261132199057e-05
000530 50 f6 27 0a ef c8 f1 3e cc 68 2d fb 4a 18 5c be
       1.6960999923645783e-05 -2.616540912699807e-08
000540 2a a6 e8 ab 08 a5 e0 3e ce b3 43 e7 91 de fc be
       7.93679407447557e-06 -2.753201847920436e-05
000550 3d 1b a9 48 a5 4c 17 bf 45 0f 74 67 5d a1 00 3f
       -8.888014614525943e-05 3.1719840018622335e-05
000560 11 db 96 a5 9d fc ec 3e 36 a8 04 aa 0b 16 a6 be
       1.3821974038969534e-05 -6.582175338433268e-07
000570 b4 c5 ec 6a 44 ac fb 3e 17 c9 af 0f 55 ef 10 bf
       2.6390952082516134e-05 -6.460148499324126e-05
000580 1b 0d be bc a4 f1 1b bf 89 b2 c9 11 6d c6 0a 3f
       -0.00010659759499103245 5.1069453751083584e-05
000590 7a 18 6d 6b 36 9b 02 3f 57 07 62 df 5c 9f ca be
       3.548869920293268e-05 -3.173650607258512e-06
0005a0 ef 74 b0 6f 75 e1 7c be c0 c2 65 f0 03 f8 a9 be
       -1.0758898476332585e-07 -7.739308507792638e-07
0005b0 dd 1f 9b ac d8 c0 16 bf 7f 0b af 1d d7 5e fb be
       -8.679697489377644e-05 -2.6102514180125193e-05
0005c0 2c 80 76 9a 14 6b c7 be 9c 1a 2f 80 6a 83 a4 3e
       -2.791676894722835e-06 6.113452858329534e-07
0005d0 9a c6 dc 9c a8 56 e0 3e 3d 6f 35 30 93 5a d7 be
       7.790808833260753e-06 -5.567981819023211e-06
0005e0 b7 4e a9 d1 b2 fe 22 bf 0b 0a 5a 4a c0 ce 00 bf
       -0.00014491970871920664 -3.2057994116225444e-05
0005f0 1f c9 21 bd ad 44 f0 be 0f 67 50 8c c4 da b9 3e
       -1.5514637035038e-05 1.5410519591585816e-06
000600 60 fb 65 ff d7 12 c3 3e e9 57 31 32 b1 66 f1 be
       2.273751302072689e-06 -1.6595021531472165e-05
000610 ca 31 da 5a 79 ea 28 bf 3d f7 a5 aa db ca 05 bf
       -0.00019009333975751461 -4.156573170897716e-05
000620 d9 38 bb 86 43 11 eb be f5 40 66 82 e3 31 be 3e
       -1.290675955747634e-05 1.7997549633698947e-06
000630 32 b5 c6 37 40 81 be 3e ce 1a 22 13 54 8b f6 3e
       1.8182329021108583e-06 2.1499873760900613e-05
000640 3f 4f 32 f3 46 89 2b bf c5 5d 53 7e ca da 0b bf
       -0.00021008483017636613 -5.3128532991382776e-05
000650 8d b3 52 84 ca 33 00 bf 32 92 02 16 65 d2 b1 be
       -3.090345175258474e-05 -1.062265333509214e-06
000660 21 be db 83 55 cd af be 13 8b a8 26 64 8c a2 be
       -9.477760227454189e-07 -5.527854914404388e-07
000670 9e 08 58 fd bd 86 21 bf 94 34 7d d5 2f c6 f1 be
       -0.00013371533593448543 -1.695076693346684e-05
000680 71 5b 5a 68 8f 9e b1 be 07 87 7e 82 06 41 91 3e
       -1.050196631357486e-06 2.5710471839901304e-07
000690 59 07 21 8f 24 49 a6 be f0 78 95 27 6c 8e d7 be
       -6.641660361755057e-07 -5.616268589163221e-06
0006a0 8f 3b 0d 32 d9 ff 2d bf 91 cb 05 12 4e 75 f8 be
       -0.0002288773185008222 -2.3325178632526185e-05
0006b0 50 6e 35 8d 42 0d b7 be 22 d3 f3 1e ae 24 71 3e
       -1.3739941565259332e-06 6.386370164977792e-08
0006c0 f6 35 a5 d0 75 57 e2 be 0c 5f 00 c5 a8 71 f1 be
       -8.745976192737846e-06 -1.6635877102626768e-05
0006d0 4a a7 ea 01 e5 e8 33 bf d4 a1 e1 b2 58 ee fc be
       -0.00030379858973593867 -2.759079068717799e-05
0006e0 d3 1c 36 ca 44 ff 8a be 9a 29 a0 12 1a a9 5d 3e
       -2.0114439279134247e-07 2.76235435984004e-08
0006f0 63 eb c6 32 11 3f bd be 74 ea b1 c0 b2 2e f6 3e
       -1.7432186708426983e-06 2.115479950901907e-05
000700 a5 78 82 32 63 51 36 bf 39 db 19 9c b3 ce 02 bf
       -0.0003405444317737905 -3.587232232587227e-05
000710 db f4 f9 88 6f 56 c9 be 8b de 1e fe 35 d4 c8 be
       -3.0204819905775967e-06 -2.959841354201723e-06
000720 20 f6 07 d4 9b 83 b2 be a8 96 55 95 50 60 45 be
       -1.1035261452402499e-06 -9.954082595251825e-09
000730 c6 23 61 4f b0 df 1f bf 6d c2 10 80 97 0b f8 3e
       -0.00012158883677772158 2.293136640591153e-05
000740 db 65 53 c7 2c 0c ac 3e d2 41 b3 f5 fd cc 92 3e
       8.35882373674531e-07 2.8015300808112816e-07
000750 c3 e2 6e 03 17 dd ac 3e 65 fd 41 32 c1 e7 d7 be
       8.60203278266787e-07 -5.6994656781877885e-06
000760 da 69 5c 05 fe f4 2a bf 44 b8 c9 4e 78 eb ff 3e
       -0.00020566559640473777 3.0441097737137166e-05
000770 3c 68 8a d9 7c 35 d5 3e 9e c2 0f 57 6a 36 a7 be
       5.0566044583981265e-06 -6.917882001672442e-07
000780 48 72 ad 56 5c 72 d7 3e 52 7d 81 bb e5 92 f1 be
       5.59013401865407e-06 -1.6759698809540765e-05
000790 fb 17 34 f6 6c 87 31 bf 39 28 4d a8 83 aa 02 3f
       -0.0002674714107374629 3.5602705827545264e-05
0007a0 91 d6 57 d4 9d 0a c1 3e a8 10 c8 e4 0f 69 cc be
       2.0315016253613136e-06 -3.3867834530205993e-06
0007b0 69 c5 d9 c3 2d 03 c0 be ae cb 9d 65 9f 6a f5 3e
       -1.9088288628002807e-06 2.0424360946912495e-05
0007c0 40 0a e7 2a 4c f7 32 bf 91 84 df 05 29 b1 13 3f
       -0.00028939828453303576 7.511914142767558e-05
0007d0 eb 31 f4 e0 6d 4e 00 3f d2 68 5d bf ca 7e d2 be
       3.110192130337585e-05 -4.409618659407225e-06
0007e0 8f b8 a0 0b 5c 04 c2 be 50 b9 44 97 c8 8a 86 3e
       -2.1477972867090226e-06 1.679519062795854e-07
0007f0 25 12 8a bc 2b ef 14 bf 95 8c 06 a9 a0 34 f0 3e
       -7.985786863613143e-05 1.545484207244855e-05

b f8 [1812]
000000 00 00 00 00 00 00 30 3d 00 00 00 00 00 00 1e 3d
       5.684341886080802e-14 2.6645352591003757e-14
000010 7e af 87 9b 53 4e d6 c0 04 4d 2d 47 7c 49 a7 c0
       -22841.306367799167 -2980.742730537082
000020 fa ff 43 ad 81 3b b4 40 00 00 00 00 00 00 e0 bc
       5179.506550073618 -1.7763568394002505e-15
000030 00 00 00 00 00 00 70 bd 00 00 00 00 00 50 64 bd
       -9.094947017729282e-13 -5.773159728050814e-13
000040 69 c1 04 71 71 23 d7 c0 0a 4d 2d 47 7c 49 a7 c0
       -23693.772523106458 -2980.7427305370848
000050 ff ff 43 ad 81 3b b4 40 00 00 00 00 00 00 1c bd
       5179.506550073623 -2.4868995751603507e-14
000060 00 00 00 00 00 00 00 00 00 00 00 00 00 4c 9a 3d
       0.0 5.979217121421243e-12
000070 2b f0 b9 51 39 96 d8 c0 05 4d 2d 47 7c 49 a7 c0
       -25176.895613178767 -2980.7427305370825
000080 fe ff 43 ad 81 3b b4 40 00 00 00 00 00 00 10 3d
       5179.506550073622 1.4210854715202004e-14
000090 00 00 00 00 00 00 60 3d 00 00 00 00 80 b3 a1 bd
       4.547473508864641e-13 -8.049561017742235e-12
0000a0 77 ee 1d bf 3b 28 d2 c0 f1 4c 2d 47 7c 49 a7 c0
       -18592.93353985107 -2980.7427305370734
0000b0 00 00 44 ad 81 3b b4 40 00 00 00 00 00 00 49 bd
       5179.506550073624 -1.7763568394002505e-13
0000c0 00 00 00 00 00 00 40 bd 00 00 00 00 00 80 0e 3d
       -1.1368683772161603e-13 1.354472090042691e-14
0000d0 84 ae 08 77 bb 32 dd c0 c1 e0 34 2f 9f da a6 c0
       -29898.929140253473 -2925.3109070324285
0000e0 fe ff 43 ad 81 3b b4 40 00 00 00 00 00 00 12 bd
       5179.506550073622 -1.5987211554602254e-14
0000f0 00 00 00 00 00 00 40 3d 00 00 00 00 00 80 7e bd
       1.1368683772161603e-13 -1.7337242752546445e-12
000100 6b c0 85 4c d9 07 de c0 c2 e0 34 2f 9f da a6 c0
       -30751.39529556075 -2925.310907032429
000110 fe ff 43 ad 81 3b b4 40 00 00 00 00 00 40 0f bd
       5179.506550073622 -1.3877787807814457e-14
000120 00 00 00 00 00 00 80 bd 00 00 00 00 6c 8c a0 3d
       -1.8189894035458565e-12 7.525396972241083e-12
000130 f3 ee 3a 2d a1 7a df c0 c9 e0 34 2f 9f da a6 c0
       -32234.518385632848 -2925.310907032432
000140 fd ff 43 ad 81 3b b4 40 00 00 00 00 00 69 5d bd
       5179.506550073621 -4.179434576201402e-13
000150 00 00 00 00 00 00 50 bd 00 00 00 00 80 27 bb 3d
       -2.2737367544323206e-13 2.4696689138181682e-11
000160 8b ee 1d bf 3b 28 d2 c0 04 4d 2d 47 7c 49 a7 40
       -18592.933539851143 2980.742730537082
000170 fe ff 43 ad 81 3b b4 40 00 00 00 00 00 00 1c 3d
       5179.506550073622 2.4868995751603507e-14
000180 00 00 00 00 00 00 50 bd 00 00 00 00 00 b0 5e 3d
       -2.2737367544323206e-13 4.360956040727615e-13
000190 7f 70 33 44 77 96 dc c0 4b 40 7c 64 60 4c ac 40
       -29273.863537654743 3622.188266642426
0001a0 ff ff 43 ad 81 3b b4 40 00 00 00 00 00 00 ec bc
       5179.506550073623 -3.1086244689504383e-15
0001b0 00 00 00 00 00 00 58 3d 00 00 00 00 00 3c 6e bd
       3.410605131648481e-13 -8.593126210598712e-13
0001c0 6e 82 b0 19 95 6b dd c0 57 40 7c 64 60 4c ac 40
       -30126.32969296205 3622.1882666424312
0001d0 f7 ff 43 ad 81 3b b4 40 00 00 00 00 00 00 08 3d
       5179.5065500736155 1.0658141036401503e-14
0001e0 00 00 00 00 00 00 80 3d 00 00 00 00 00 98 87 3d
       1.8189894035458565e-12 2.682298827494378e-12
0001f0 68 0b 7b d5 e9 0f d8 c0 4b 40 7c 64 60 4c ac 40
       -24639.65365482439 3622.188266642426
000200 01 00 44 ad 81 3b b4 40 00 00 00 00 00 00 08 bd
       5179.506550073625 -1.0658141036401503e-14
000210 00 00 00 00 00 00 7c bd 00 00 00 00 00 52 6e 3d
       -1.5916157281026244e-12 8.617551117140465e-13
000220 df 9e 24 35 a8 05 da c0 80 9d 2e 1b 8f bf 45 c0
       -26646.62824359431 -43.4965547540296
000230 fb ff 43 ad 81 3b b4 40 00 00 00 00 00 80 30 3d
       5179.506550073619 5.861977570020827e-14
000240 00 00 00 00 00 00 44 bd 00 00 00 00 00 ec 73 bd
       -1.4210854715202004e-13 -1.1324274851176597e-12
000250 6f 83 2f 3e 2d 87 d6 c0 75 ed e5 11 bb d7 a1 40
       -23068.706920507768 2283.8653709270825
000260 fc ff 43 ad 81 3b b4 40 00 00 00 00 00 00 12 bd
       5179.50655007362 -1.5987211554602254e-14
000270 00 00 00 00 00 00 a0 bd 00 00 00 00 00 30 87 bd
       -7.275957614183426e-12 -2.6361135496699717e-12
000280 77 0c fa f9 81 2b d1 c0 73 ed e5 11 bb d7 a1 40
       -17582.03088237016 2283.8653709270816
000290 fd ff 43 ad 81 3b b4 40 00 00 00 00 00 00 2c bd
       5179.506550073621 -4.973799150320701e-14
0002a0 00 00 00 00 00 00 70 3d 00 00 00 00 00 5d 70 bd
       9.094947017729282e-13 -9.301448500309561e-13
0002b0 09 7a 25 5b f1 2c d7 c0 1c e2 63 6b e2 b2 aa c0
       -23731.77118813436 -3417.4422255719674
0002c0 fd ff 43 ad 81 3b b4 40 00 00 00 00 00 00 04 3d
       5179.506550073621 8.881784197001252e-15
0002d0 00 00 00 00 00 00 50 bd 00 00 00 00 00 e0 84 3d
       -2.2737367544323206e-13 2.3732127374387346e-12
0002e0 36 38 c4 e8 d4 4d de c0 0b 5b d0 b8 4e 8c 91 40
       -31031.326706938642 1123.0768768840378
0002f0 00 00 44 ad 81 3b b4 40 00 00 00 00 00 00 0e 3d
       5179.506550073624 1.3322676295501878e-14
000300 00 00 00 00 00 00 00 00 00 00 00 00 00 c6 8e bd
       0.0 -3.4985347951987933e-12
000310 f9 db fe a3 cb 56 d8 c0 3d 2e a7 2e ba 0d b2 c0
       -24923.181884493653 -4621.727274369038
000320 ff ff 43 ad 81 3b b4 40 00 00 00 00 00 00 f8 3c
       5179.506550073623 5.329070518200751e-15
000330 00 00 00 00 00 00 00 00 00 00 00 00 00 a2 bf 3d
       0.0 2.8769875370926457e-11
000340 8f 0a b4 84 93 c9 d9 c0 36 2e a7 2e ba 0d b2 c0
       -26406.304974565803 -4621.727274369032
000350 fb ff 43 ad 81 3b b4 40 00 00 00 00 00 00 18 3d
       5179.506550073619 2.1316282072803006e-14
000360 00 00 00 00 00 00 b0 3d 00 00 00 00 00 8a c5 3d
       1.4551915228366852e-11 3.9179326449811924e-11
000370 fc 08 18 f2 95 5b d3 c0 3a 2e a7 2e ba 0d b2 c0
       -19822.342901238226 -4621.7272743690355
000380 fd ff 43 ad 81 3b b4 40 00 00 00 00 00 00 42 3d
       5179.506550073621 1.2789769243681803e-13
000390 00 00 00 00 00 00 64 3d 00 00 00 00 00 c7 77 bd
       5.684341886080801e-13 -1.3515855101786656e-12
0003a0 15 3c 45 5f e5 ee de c0 ae 8e bd 0b 7c 77 a1 c0
       -31675.58393984668 -2235.742277072589
0003b0 04 00 44 ad 81 3b b4 40 00 00 00 00 00 00 c0 3c
       5179.506550073627 4.440892098500626e-16
0003c0 00 00 00 00 00 40 73 3d 00 00 00 00 00 0c a5 3d
       1.0942358130705543e-12 9.57101065068855e-12
0003d0 e9 4d c2 34 03 c4 df c0 ae 8e bd 0b 7c 77 a1 c0
       -32528.05009515389 -2235.742277072589
0003e0 ff ff 43 ad 81 3b b4 40 00 00 00 00 00 00 23 3d
       5179.506550073623 3.375077994860476e-14
0003f0 00 00 00 00 00 00 60 bd 00 00 00 00 00 78 80 bd
       -4.547473508864641e-13 -1.872280108727864e-12
000400 47 be bb 8a 65 9b e0 c0 ad 8e bd 0b 7c 77 a1 c0
       -34011.17318522609 -2235.7422770725884
000410 ff ff 43 ad 81 3b b4 40 00 00 00 00 00 00 20 3d
       5179.506550073623 2.842170943040401e-14
000420 00 00 00 00 00 00 a0 bd 00 00 00 00 80 45 c0 bd
       -7.275957614183426e-12 -2.9597657658086973e-11
000430 de 7a db 82 cd c8 da c0 a4 8e bd 0b 7c 77 a1 c0
       -27427.21111189841 -2235.7422770725843
000440 f7 ff 43 ad 81 3b b4 40 00 00 00 00 00 00 4a bd
       5179.5065500736155 -1.8474111129762605e-13
000450 00 00 00 00 00 00 64 bd 00 00 00 00 00 f8 45 bd
       -5.684341886080801e-13 -1.56097357262297e-13
000460 38 0d fe b7 6e f4 dc c0 d5 5a a1 f1 7c 8c b2 40
       -29649.729980004224 4748.48806198566
000470 fe ff 43 ad 81 3b b4 40 00 00 00 00 00 80 13 bd
       5179.506550073622 -1.7319479184152442e-14
000480 00 00 00 00 00 00 00 00 00 00 00 00 fc 5c ad bd
       0.0 -1.3352846606196067e-11
000490 44 1f 7b 8d 8c c9 dd c0 d6 5a a1 f1 7c 8c b2 40
       -30502.196135311635 4748.488061985661
0004a0 fb ff 43 ad 81 3b b4 40 00 00 00 00 00 10 2f bd
       5179.506550073619 -5.517808432387028e-14
0004b0 00 00 00 00 00 00 90 bd 00 00 00 00 c0 59 b8 bd
       -3.637978807091713e-12 -2.2146728895222623e-11
0004c0 f9 4d 30 6e 54 3c df c0 d6 5a a1 f1 7c 8c b2 40
       -31985.319225383897 4748.488061985661
0004d0 fd ff 43 ad 81 3b b4 40 00 00 00 00 00 98 5b 3d
       5179.506550073621 3.921307722976053e-13
0004e0 00 00 00 00 00 00 00 00 00 00 00 00 00 ba bc 3d
       0.0 2.6126656393898884e-11
0004f0 28 06 00 6d fc af d4 c0 96 f5 85 34 78 c9 ba 40
       -21183.944152837765 6857.469551441629
000500 ff ff 43 ad 81 3b b4 40 00 00 00 00 00 00 00 00
       5179.506550073623 0.0
000510 00 00 00 00 00 00 50 3d 00 00 00 00 00 84 61 3d
       2.2737367544323206e-13 4.978240042419202e-13
000520 65 9b 3a 27 37 87 d5 c0 80 35 c9 85 f6 79 a0 40
       -22044.861769344094 2108.9814894559677
000530 fe ff 43 ad 81 3b b4 40 00 00 00 00 00 00 dc bc
       5179.506550073622 -1.5543122344752192e-15
000540 00 00 00 00 00 00 00 00 00 00 00 00 00 06 79 3d
       0.0 1.4224177391497506e-12
000550 4f ad b7 fc 54 5c d6 c0 8a 35 c9 85 f6 79 a0 40
       -22897.32792465138 2108.981489455972
000560 01 00 44 ad 81 3b b4 40 00 00 00 00 00 e0 40 bd
       5179.506550073625 -1.199040866595169e-13
000570 00 00 00 00 00 00 90 bd 00 00 00 00 00 ca bc 3d
       -3.637978807091713e-12 2.6183499812759692e-11
000580 6b 36 82 b8 a9 00 d1 c0 8c 35 c9 85 f6 79 a0 40
       -17410.651886513846 2108.981489455973
000590 00 00 44 ad 81 3b b4 40 00 00 00 00 00 00 4c 3d
       5179.506550073624 1.9895196601282805e-13
0005a0 00 00 00 00 00 00 30 bd 00 00 00 00 00 20 68 bd
       -5.684341886080802e-14 -6.856737400084967e-13
0005b0 26 c9 c8 b7 ee a0 dc c0 04 4d 2d 47 7c 49 a7 c0
       -29315.729967304644 -2980.742730537082
0005c0 36 3f 47 b1 90 26 6a c0 00 00 00 00 00 40 26 3d
       -209.20516265788473 3.952393967665557e-14
0005d0 00 00 00 00 c0 98 81 3d 00 00 00 00 00 00 70 3d
       2.0005108680720696e-12 9.094947017729282e-13
0005e0 51 c1 04 71 71 23 d7 c0 06 4d 2d 47 7c 49 a7 c0
       -23693.77252310637 -2980.742730537083
0005f0 fe ff 43 ad 81 3b b4 c0 00 00 00 00 00 40 03 3d
       -5179.506550073622 8.548717289613705e-15
000600 00 00 00 00 00 cc 49 bd 00 00 00 00 00 00 a0 3d
       -1.8329782136561334e-13 7.275957614183426e-12
000610 16 f0 b9 51 39 96 d8 c0 0a 4d 2d 47 7c 49 a7 c0
       -25176.89561317869 -2980.7427305370848
000620 03 00 44 ad 81 3b b4 c0 00 00 00 00 00 b4 35 3d
       -5179.506550073626 7.710498906021712e-14
000630 00 00 00 00 00 40 5c bd 00 00 00 00 00 00 90 bd
       -4.014566457044566e-13 -3.637978807091713e-12
000640 7c ee 1d bf 3b 28 d2 c0 fe 4c 2d 47 7c 49 a7 c0
       -18592.93353985109 -2980.7427305370793
000650 fd ff 43 ad 81 3b b4 c0 00 00 00 00 00 00 32 3d
       -5179.506550073621 6.394884621840902e-14
000660 00 00 00 00 00 00 30 bd 00 00 00 00 00 76 59 3d
       -5.684341886080802e-14 3.618216837253385e-13
000670 1b e4 a4 49 ab c2 e1 c0 c9 e0 34 2f 9f da a6 c0
       -36373.352739758986 -2925.310907032432
000680 25 3f 47 b1 90 26 6a c0 00 00 00 00 00 00 d0 bc
       -209.20516265788424 -8.881784197001252e-16
000690 00 00 00 00 00 00 64 bd 00 00 00 00 00 d0 3b 3d
       -5.684341886080801e-13 9.880984919163893e-14
0006a0 0e 6d 63 34 3a 2d e2 c0 c7 e0 34 2f 9f da a6 c0
       -37225.81889506626 -2925.3109070324313
0006b0 fa 3f 47 b1 90 26 6a c0 00 00 00 00 00 20 28 bd
       -209.2051626578903 -4.285460875053104e-14
0006c0 00 00 00 00 00 00 80 bd 00 00 00 00 00 f8 80 3d
       -1.8189894035458565e-12 1.929123527588672e-12
0006d0 6c 04 be 24 9e e6 e2 c0 c6 e0 34 2f 9f da a6 c0
       -38708.94198513855 -2925.310907032431
0006e0 4f 3f 47 b1 90 26 6a c0 00 00 00 00 00 00 0c 3d
       -209.20516265788544 1.2434497875801753e-14
0006f0 00 00 00 00 00 00 70 bd 00 00 00 00 00 b0 90 3d
       -9.094947017729282e-13 3.794298208958935e-12
000700 1d 07 e0 b6 3e 5f df c0 cb e0 34 2f 9f da a6 c0
       -32124.979911810824 -2925.310907032433
000710 c0 3f 47 b1 90 26 6a c0 00 00 00 00 00 00 4a bd
       -209.20516265788865 -1.8474111129762605e-13
000720 00 00 00 00 00 00 71 bd 00 00 00 00 00 00 3e 3d
       -9.663381206337363e-13 1.0658141036401503e-13
000730 23 45 3a 30 89 74 e1 c0 5f 40 7c 64 60 4c ac 40
       -35748.28713716033 3622.188266642435
000740 c4 3e 47 b1 90 26 6a c0 00 00 00 00 00 00 f4 bc
       -209.2051626578815 -4.440892098500626e-15
000750 00 00 00 00 00 00 50 3d 00 00 00 00 f4 a4 8a bd
       2.2737367544323206e-13 -3.0291116837055654e-12
000760 08 ce f8 1a 18 df e1 c0 55 40 7c 64 60 4c ac 40
       -36600.7532924675 3622.1882666424303
000770 70 3f 47 b1 90 26 6a c0 00 00 00 00 00 c0 0c bd
       -209.20516265788638 -1.27675647831893e-14
000780 00 00 00 00 00 00 70 3d 00 00 00 00 00 80 4c 3d
       9.094947017729282e-13 2.0250467969162855e-13
000790 49 65 53 0b 7c 98 e2 c0 3a 40 7c 64 60 4c ac 40
       -38083.87638253958 3622.188266642418
0007a0 2a 3f 47 b1 90 26 6a c0 00 00 00 00 00 00 47 bd
       -209.2051626578844 -1.6342482922482304e-13
0007b0 00 00 00 00 00 00 70 3d 00 00 00 00 00 90 8e bd
       9.094947017729282e-13 -3.47455397786689e-12
0007c0 70 be ac 1c 76 05 d4 c0 e9 16 31 bb 0d 12 b7 40
       -20501.84550016973 5906.0536375695165
0007d0 0d c6 b9 27 4d 6a b3 40 00 00 00 00 00 00 32 bd
       4970.301387415745 -6.394884621840902e-14
0007e0 00 00 00 00 00 00 68 3d 00 00 00 00 00 82 65 bd
       6.821210263296962e-13 -6.112887973586112e-13
0007f0 52 dc b2 a8 21 2c e0 c0 e6 9b 2e 1b 8f bf 45 c0
       -33121.05184309989 -43.49655475402669
