python-Linux/neural-sparse-linear-solvers-master/stand_small_test/5285834846767936561_5c56dbba90bfa17056b6ca2968409e536cf5b605_b0eaacef2a7389eaa2a86abeda988738eabb8446.npz (npz, 130282 bytes, 3 tensors)

A_values f8 [33010]
00000000: 9b4f 0ce6 a200 d441 248d db18 8878 6e41
00000010: 66f1 8a2f a9ec 7ec1 3229 e1f5 1f46 79c1
00000020: 7c56 bb22 46ae 8841 68e9 e7a4 1f35 71c1
00000030: 66f1 8a2f a9ec 7ec1 ced9 2eff 0f1d d3c1
00000040: d74f 2505 ba33 d941 c4e0 eaf5 d283 60c1
00000050: 7aef 0304 f6ae 7241 23f4 86de 52f1 6ac1
00000060: ac0f cd58 724f 7ac1 5ab9 b91a 3abf d8c1
00000070: 22c2 a7ec 210f 60c1 7aef 0304 f6ae 7241
00000080: 5856 3f55 7d25 e541 5882 6839 40e3 8c41
00000090: 74d4 3b2e 1aa6 81c1 bf49 6da7 7cc5 d6c1
000000a0: 426f 7ee3 fd12 80c1 5882 6839 40e3 8c41
000000b0: 6fe0 d105 f456 6ec1 74d4 3b2e 1aa6 81c1
000000c0: c4e0 eaf5 d283 60c1 5882 6839 40e3 8c41
000000d0: 9c8a 62e7 17cd b141 ac0f cd58 724f 7a41
000000e0: 7bb6 3f21 f3e4 8041 5882 6839 40e3 8cc1
000000f0: 9285 ac7a 97c4 9041 37f3 55f8 e6fb 71c1
00000100: 248d db18 8878 6e41 74d4 3b2e 1aa6 81c1
00000110: 62e0 d9ac e84b b741 7c56 bb22 46ae 88c1
00000120: d6da 475e 684a 8f41 949e da31 d748 77c1
00000130: 74d4 3b2e 1aa6 8141 e7fc a048 cade 8a41
00000140: 66f1 8a2f a9ec 7ec1 7aef 0304 f6ae 7241
00000150: 7e85 f29c 4f81 a541 1127 e4dd fc6c 75c1
00000160: 66f1 8a2f a9ec 7e41 51a3 bde0 e039 8241
00000170: 7aef 0304 f6ae 72c1 55f4 2e97 f4b3 7c41
00000180: 3229 e1f5 1f46 79c1 7c56 bb22 46ae 88c1
00000190: ebff bea6 6a46 d441 d886 a514 9024 6041
000001a0: 66f1 8a2f a9ec 7ec1 8874 4049 6adb 7fc1
000001b0: 32b8 e427 6ab7 8c41 68e9 e7a4 1f35 71c1
000001c0: 66f1 8a2f a9ec 7ec1 ced9 2eff 0f1d d3c1
000001d0: 23f4 86de 52f1 6ac1 ac0f cd58 724f 7a41
000001e0: 8ec9 a0df 6c59 d941 b82b bb0c c4b3 51c1
000001f0: 7aef 0304 f6ae 7241 c4b1 2cd4 760c 71c1
00000200: 9ada fb5b 63bc 7ec1 5ab9 b91a 3abf d8c1
00000210: 22c2 a7ec 210f 60c1 7aef 0304 f6ae 7241
00000220: bf49 6da7 7cc5 d6c1 8a9c 639c 0217 e841
00000230: 5882 6839 40e3 8c41 74d4 3b2e 1aa6 81c1
00000240: 1958 32ba 42ab d8c1 426f 7ee3 fd12 80c1
00000250: 5882 6839 40e3 8c41 6fe0 d105 f456 6ec1
00000260: 74d4 3b2e 1aa6 81c1 ac0f cd58 724f 7ac1
00000270: 7bb6 3f21 f3e4 8041 b82b bb0c c4b3 51c1
00000280: 5882 6839 40e3 8c41 1ff5 c993 82e0 b241
00000290: 9ada fb5b 63bc 7e41 8fdd 11ea 912c 8241
000002a0: 5882 6839 40e3 8cc1 9285 ac7a 97c4 9041
000002b0: 37f3 55f8 e6fb 71c1 7c56 bb22 46ae 8841
000002c0: d6da 475e 684a 8f41 d886 a514 9024 6041
000002d0: 74d4 3b2e 1aa6 81c1 bcfe f6d6 9343 b941
000002e0: 32b8 e427 6ab7 8cc1 eec0 2441 80b9 9041
000002f0: 949e da31 d748 77c1 74d4 3b2e 1aa6 8141
00000300: e7fc a048 cade 8a41 1127 e4dd fc6c 75c1
00000310: 66f1 8a2f a9ec 7ec1 7aef 0304 f6ae 7241
00000320: 5ccb b902 8f32 a641 e785 23e1 0d36 77c1
00000330: 66f1 8a2f a9ec 7e41 51a3 bde0 e039 8241
00000340: 7aef 0304 f6ae 72c1 55f4 2e97 f4b3 7c41
00000350: 8874 4049 6adb 7fc1 32b8 e427 6ab7 8cc1
00000360: e3b9 63f0 4b11 d441 1a98 5add d632 7bc1
00000370: 66f1 8a2f a9ec 7ec1 6a4e 1fbe e4fc 67c1
00000380: 4ad8 6e72 fd3b 7e41 68e9 e7a4 1f35 71c1
00000390: 66f1 8a2f a9ec 7ec1 ced9 2eff 0f1d d3c1
000003a0: c4b1 2cd4 760c 71c1 9ada fb5b 63bc 7e41
000003b0: 7b1e 7de4 de3c d941 4253 f293 7e8b 6d41
000003c0: 7aef 0304 f6ae 7241 51d6 6299 aa54 59c1
000003d0: f261 0524 48ed 6fc1 5ab9 b91a 3abf d8c1
000003e0: 22c2 a7ec 210f 60c1 7aef 0304 f6ae 7241
000003f0: 1958 32ba 42ab d8c1 ce56 144f 8b86 e541
00000400: 5882 6839 40e3 8c41 74d4 3b2e 1aa6 81c1
00000410: 48be ce0c 8ea4 d1c1 426f 7ee3 fd12 80c1
00000420: 5882 6839 40e3 8c41 6fe0 d105 f456 6ec1
00000430: 74d4 3b2e 1aa6 81c1 9ada fb5b 63bc 7ec1
00000440: 8fdd 11ea 912c 8241 4253 f293 7e8b 6d41
00000450: 5882 6839 40e3 8c41 fd4a 0027 c7ee b141
00000460: f261 0524 48ed 6f41 afe8 452d 5e9b 7a41
00000470: 5882 6839 40e3 8cc1 9285 ac7a 97c4 9041
00000480: 37f3 55f8 e6fb 71c1 32b8 e427 6ab7 8c41
00000490: eec0 2441 80b9 9041 1a98 5add d632 7bc1
000004a0: 74d4 3b2e 1aa6 81c1 40d4 06bf a086 b741
000004b0: 4ad8 6e72 fd3b 7ec1 9db0 5d09 0b01 8941
000004c0: 949e da31 d748 77c1 74d4 3b2e 1aa6 8141
000004d0: e7fc a048 cade 8a41 e785 23e1 0d36 77c1
000004e0: 66f1 8a2f a9ec 7ec1 7aef 0304 f6ae 7241
000004f0: 140f 6608 2498 a541 ce44 460b a599 70c1
00000500: 66f1 8a2f a9ec 7e41 51a3 bde0 e039 8241
00000510: 7aef 0304 f6ae 72c1 55f4 2e97 f4b3 7c41
00000520: 6a4e 1fbe e4fc 67c1 4ad8 6e72 fd3b 7ec1
00000530: 1c05 32a6 8cbb d341 a0e0 97f6 7971 45c1
00000540: 66f1 8a2f a9ec 7ec1 4985 a679 2fd7 64c1
00000550: 36dc 9b33 ce8d 7b41 68e9 e7a4 1f35 71c1
00000560: 66f1 8a2f a9ec 7ec1 ced9 2eff 0f1d d3c1
00000570: 51d6 6299 aa54 59c1 f261 0524 48ed 6f41
00000580: ef33 c075 a70e d941 301e 456d 5ef3 3641
00000590: 7aef 0304 f6ae 7241 523a c893 6cfa 55c1
000005a0: 2cbe 5c56 dc0e 6dc1 5ab9 b91a 3abf d8c1
000005b0: 22c2 a7ec 210f 60c1 7aef 0304 f6ae 7241
000005c0: 48be ce0c 8ea4 d1c1 3e58 b783 c199 e141
000005d0: 5882 6839 40e3 8c41 74d4 3b2e 1aa6 81c1
000005e0: f95a 7823 afd1 d0c1 426f 7ee3 fd12 80c1
000005f0: 5882 6839 40e3 8c41 6fe0 d105 f456 6ec1
00000600: 74d4 3b2e 1aa6 81c1 f261 0524 48ed 6fc1
00000610: afe8 452d 5e9b 7a41 301e 456d 5ef3 3641
00000620: 5882 6839 40e3 8c41 6aa6 5279 d47d b041
00000630: 2cbe 5c56 dc0e 6d41 5f77 74ee d76b 7941
00000640: 5882 6839 40e3 8cc1 9285 ac7a 97c4 9041
00000650: 37f3 55f8 e6fb 71c1 4ad8 6e72 fd3b 7e41
00000660: 9db0 5d09 0b01 8941 a0e0 97f6 7971 45c1
00000670: 74d4 3b2e 1aa6 81c1 d315 a860 26e1 b441
00000680: 36dc 9b33 ce8d 7bc1 5a62 520f 35f0 8741
00000690: 949e da31 d748 77c1 74d4 3b2e 1aa6 8141
000006a0: e7fc a048 cade 8a41 ce44 460b a599 70c1
000006b0: 66f1 8a2f a9ec 7ec1 7aef 0304 f6ae 7241
000006c0: 91aa 03d6 c9ab a441 a5c3 209c 78a6 6fc1
000006d0: 66f1 8a2f a9ec 7e41 51a3 bde0 e039 8241
000006e0: 7aef 0304 f6ae 72c1 55f4 2e97 f4b3 7c41
000006f0: 4985 a679 2fd7 64c1 36dc 9b33 ce8d 7bc1
00000700: 7fc6 b5dc 928b d341 36dc 9b33 ce8d 7bc1
00000710: 66f1 8a2f a9ec 7ec1 68e9 e7a4 1f35 71c1
00000720: 66f1 8a2f a9ec 7ec1 ced9 2eff 0f1d d3c1
00000730: 523a c893 6cfa 55c1 2cbe 5c56 dc0e 6d41
00000740: 19d1 26cb 52f5 d841 2cbe 5c56 dc0e 6d41
00000750: 7aef 0304 f6ae 7241 5ab9 b91a 3abf d8c1
00000760: 22c2 a7ec 210f 60c1 7aef 0304 f6ae 7241
00000770: f95a 7823 afd1 d0c1 34f2 9ffa f48e d141
00000780: 5882 6839 40e3 8c41 74d4 3b2e 1aa6 81c1
00000790: 426f 7ee3 fd12 80c1 5882 6839 40e3 8c41
000007a0: 6fe0 d105 f456 6ec1 74d4 3b2e 1aa6 81c1
000007b0: 2cbe 5c56 dc0e 6dc1 5f77 74ee d76b 7941
000007c0: 2cbe 5c56 dc0e 6d41 5882 6839 40e3 8c41
000007d0: 60da 745f ad3f aa41 5882 6839 40e3 8cc1
000007e0: 9285 ac7a 97c4 9041 37f3 55f8 e6fb 71c1
000007f0: 36dc 9b33 ce8d 7b41 5a62 520f 35f0 8741
1342344088.1923587 15975488.7768007 -32426642.97142162 -26501631.367470928 51759300.34147355 -18043386.306619078 -32426642.97142162 -1282686972.7320437
1691281428.582998 -8658583.68492163 19591008.250960805 -14125718.953973835 -27588389.550063774 -1660741738.901938 -8419599.395478312 19591008.250960805
2838227625.97929 60581895.17602986 -37012293.779213816 -1528165021.707626 -33710012.436735645 60581895.17602986 -15906720.181869714 -37012293.779213816
-8658583.68492163 60581895.17602986 298653671.3849275 27588389.550063774 35429988.15610977 -60581895.17602986 70329822.66847828 -18857583.5209839
15975488.7768007 -37012293.779213816 390850732.85108006 -51759300.34147355 65621259.785085365 -24415603.115873888 37012293.779213816 56351049.07860737
-32426642.97142162 19591008.250960805 180398030.4736747 -22466509.86820132 32426642.97142162 38222876.09259666 -19591008.250960805 30097225.448963482
-26501631.367470928 -51759300.34147355 1360636570.98437 8463488.6452059 -32426642.97142162 -33404580.578236133 60222788.98667945 -18043386.306619078
-32426642.97142162 -1282686972.7320437 -14125718.953973835 27588389.550063774 1701163902.512302 -4640528.198923998 19591008.250960805 -17876845.260911718
-32228917.74898777 -1660741738.901938 -8419599.395478312 19591008.250960805 -1528165021.707626 3233289443.112859 60581895.17602986 -37012293.779213816
-1655507688.786627 -33710012.436735645 60581895.17602986 -15906720.181869714 -37012293.779213816 -27588389.550063774 35429988.15610977 -4640528.198923998
60581895.17602986 316703379.7888965 32228917.74898777 38113853.25872337 -60581895.17602986 70329822.66847828 -18857583.5209839 51759300.34147355
65621259.785085365 8463488.6452059 -37012293.779213816 423859158.96482444 -60222788.98667945 70148112.28589222 -24415603.115873888 37012293.779213816
56351049.07860737 -22466509.86820132 -32426642.97142162 19591008.250960805 186206081.36287963 -24338654.07117262 32426642.97142162 38222876.09259666
-19591008.250960805 30097225.448963482 -33404580.578236133 -60222788.98667945 1346711489.5582206 -28519789.83461771 -32426642.97142162 -12576549.94132157
31702999.152061738 -18043386.306619078 -32426642.97142162 -1282686972.7320437 -17876845.260911718 32228917.74898777 1693678481.9549854 15490036.623330716
19591008.250960805 -6640298.396657542 -16738881.125657056 -1660741738.901938 -8419599.395478312 19591008.250960805 -1655507688.786627 2889112184.6355963
60581895.17602986 -37012293.779213816 -1183987763.2303638 -33710012.436735645 60581895.17602986 -15906720.181869714 -37012293.779213816 -32228917.74898777
38113853.25872337 15490036.623330716 60581895.17602986 300861223.00114423 16738881.125657056 27899362.829567607 -60581895.17602986 70329822.66847828
-18857583.5209839 60222788.98667945 70148112.28589222 -28519789.83461771 -37012293.779213816 394698943.0266762 -31702999.152061738 52437345.17074702
-24415603.115873888 37012293.779213816 56351049.07860737 -24338654.07117262 -32426642.97142162 19591008.250960805 181146116.1993338 -17406544.70465546
32426642.97142162 38222876.09259666 -19591008.250960805 30097225.448963482 -12576549.94132157 -31702999.152061738 1324233368.7815619 -2810611.9265099317
-32426642.97142162 -10926459.801577227 28892387.225551806 -18043386.306619078 -32426642.97142162 -1282686972.7320437 -6640298.396657542 16738881.125657056
1681563095.0031698 1504094.4268359058 19591008.250960805 -5761458.309095936 -15234786.69882115 -1660741738.901938 -8419599.395478312 19591008.250960805
-1183987763.2303638 2362313757.7295218 60581895.17602986 -37012293.779213816 -1128709261.8805525 -33710012.436735645 60581895.17602986 -15906720.181869714
-37012293.779213816 -16738881.125657056 27899362.829567607 1504094.4268359058 60581895.17602986 276681849.3228518 15234786.69882115 26656126.903434154
-60581895.17602986 70329822.66847828 -18857583.5209839 31702999.152061738 52437345.17074702 -2810611.9265099317 -37012293.779213816 350299744.656583
-28892387.225551806 50202273.91522665 -24415603.115873888 37012293.779213816 56351049.07860737 -17406544.70465546 -32426642.97142162 19591008.250960805
173401323.0071607 -16593860.87899954 32426642.97142162 38222876.09259666 -19591008.250960805 30097225.448963482 -10926459.801577227 -28892387.225551806
1311656818.8402402 -28892387.225551806 -32426642.97142162 -18043386.306619078 -32426642.97142162 -1282686972.7320437 -5761458.309095936 15234786.69882115
1674922796.6065123 15234786.69882115 19591008.250960805 -1660741738.901938 -8419599.395478312 19591008.250960805 -1128709261.8805525 1178325994.499158
60581895.17602986 -37012293.779213816 -33710012.436735645 60581895.17602986 -15906720.181869714 -37012293.779213816 -15234786.69882115 26656126.903434154
15234786.69882115 60581895.17602986 220190383.72822857 -60581895.17602986 70329822.66847828 -18857583.5209839 28892387.225551806 50202273.91522665

x f8 [2910]
00000000: a7f3 c339 5a46 523e 7a11 7071 a056 9a3e
00000010: aa1c 4eff c95f 453e cccb b8d6 68f7 67be
00000020: 66cc 8929 b98b 133e c40e 5e73 ae9c 453e
00000030: 4e53 5a93 a15a 473e eece 72b3 f921 a63e
00000040: 20ac 22f3 afbb 503e 2c69 4102 08b4 62be
00000050: 810d b82c e062 16be e2f3 3183 efa6 453e
00000060: 5034 27ff ac58 303e 99cb 8369 748f ac3e
00000070: 77d8 1e2e 6799 543e 22dd 9912 4335 64be
00000080: 47e2 8c18 f273 26be 1ca9 bb45 3689 453e
00000090: 4efe a306 6f5b 54be ff9f d896 bfcd b43e
000000a0: 03d8 9fd8 acb0 573e b46c 9f30 f793 66be
000000b0: 96c3 a790 54f2 38be 2057 ff24 f055 3d3e
000000c0: 6bb2 9fbf b37b 72be 8520 e687 9dfe ba3e
000000d0: 837b e29d 628d 583e 0fe3 f2ad f123 5cbe
000000e0: 7775 b63b 10c4 28be c5e6 74cb 38cf 463e
000000f0: c1da 1314 e084 383e c5cd 4334 954e 9a3e
00000100: 05ba 6c7b d2c1 37be 1bb9 6ce0 e319 5dbe
00000110: 1c2d cf3c 6c1d 253e fa3f 6c6a 5a25 343e
00000120: d0b5 072c c262 543e 6cce 0407 d71c a63e
00000130: 019a 7cf7 1e98 42be 7c6e c06c 5c1b 59be
00000140: 8f58 036c 4ca7 223e d646 3ea0 1719 273e
00000150: e202 c75a aa10 5d3e e9ce acfc bd84 ac3e
00000160: 468a 645e b52d 47be 47da 60ef b38c 58be
00000170: 3753 6c27 d001 fe3d 2125 2e28 553a 293e
00000180: 8e30 4937 a05e 603e 25b8 f1d9 18c8 b43e
00000190: 74e3 2291 855e 4bbe dc36 7d72 baa5 59be
000001a0: db5b b3fb c4e7 40be 96ad f2c5 33ed 113e
000001b0: 821a f50d efd9 74be 762b bd5a befe ba3e
000001c0: d2a7 2099 f65e 4cbe 6131 1c8b b76f 4bbe
000001d0: 3793 db1a c266 38be 3eb7 98e0 cec9 fd3d
000001e0: aab2 8db2 05cb fa3d 0030 8c90 d044 9a3e
000001f0: ab75 e88a 8a61 3a3e b887 35cb 68d4 5ebe
00000200: 8b1f 5b7b 0057 1c3e 3631 c4a1 7813 11be
00000210: 20a4 1ed2 3fc3 443e c949 017a 8616 a63e
00000220: fc56 0da8 b600 453e 74d3 76b4 a858 59be
00000230: d15c d8ce 1062 203e 5f7a c0fc a719 243e
00000240: c143 3379 1487 503e 5a64 b681 7e71 ac3e
00000250: 9788 d96e 3271 4a3e 78ec 152f 88b4 59be
00000260: 9002 f596 c8b8 c0bd 6993 727a dfcd 2e3e
00000270: 0237 7a8f cd75 563e 74cd 80ae 47be b43e
00000280: 71f2 4e4c c31a 503e 8b14 a845 6144 5bbe
00000290: ecae 4d06 d0ea 1fbe 2bc1 611f dc23 213e
000002a0: 80d8 f785 ef90 3bbe e438 5b80 8504 bb3e
000002b0: d8f5 5008 ab4b 523e 7eff c63a f655 55be
000002c0: f02c e283 7d76 123e 3e5e 951c 76aa 29be
000002d0: fcfd bb3c 872b 323e 6bc2 da9d d945 be3e
000002e0: 3d31 15b0 383c 533e 9533 531b 0b05 54be
000002f0: 9391 c309 da76 293e 6e8c 3e75 a6a4 323e
00000300: 05fd cfb5 426d 34be c198 c402 2a40 9a3e
00000310: 5774 8732 9bf5 36be 0107 f116 0c14 5cbe
00000320: 0f01 6d14 9a11 023e 8d87 46ae e224 363e
00000330: 706f b10a 69c5 13be 2d87 5ee6 2c14 a63e
00000340: 5abb 0aa8 07f4 42be 537e 5bb2 8c42 58be
00000350: 1d96 1ef4 ddfe 0e3e 1073 db53 2346 3e3e
00000360: 6a0c fb26 d1d5 f53d 34a5 8c83 a265 ac3e
00000370: 9761 3026 b8df 48be 9e9c bc6f 4921 58be
00000380: 527a bd16 a153 17be f484 9c62 bd6b 443e
00000390: 9291 37b3 679b 323e 6eba 6a56 b2b8 b43e
000003a0: 18cd 4bf1 0617 50be a56c 8e57 6b55 5cbe
000003b0: 2d60 c63f 35c6 1f3e 5f39 8091 1711 443e
000003c0: ae9a 0dcb 6dfd 423e 7635 b0b5 0506 bb3e
000003d0: 9e8a 4ffa e10f 53be 5dc1 3ea2 6c8f 61be
000003e0: 7efd f308 dbec b73d ba58 5298 1709 243e
000003f0: f255 61b7 61b0 4b3e e327 3e68 aa45 be3e
00000400: 6432 0ab2 dcd2 53be 0ba8 7e2b 5075 53be
00000410: 7bda 389a aab4 163e 00c9 8966 aa15 a1bd
00000420: 62db 296f 5450 4abe 9214 7971 543b 9a3e
00000430: 3caa 5261 93a5 1cbe 5d41 f91a d0d8 60be
00000440: 5697 f9d5 0c25 fcbd b3ef ccc1 6a52 2c3e
00000450: 3f59 ad06 e02b 4bbe a19f 7600 4013 a63e
00000460: b33a a762 dd06 27be 58aa b7ba 60c0 59be
00000470: 90fb a6a8 6587 f93d 763c dfb4 81d1 343e
00000480: 98a7 4846 37cd 50be bcf6 a15b 9453 ac3e
00000490: ae60 a01d 8038 2cbe 3cb1 0328 9528 5abe
000004a0: 9feb 4f19 e697 24be f176 ff02 29a9 403e
000004b0: 3278 6336 ec59 53be 975c 3aaa c3af b43e
000004c0: 0297 add7 3efa 2ebe cf73 bc31 50bb 45be
000004d0: a29e 7a26 7e5d 353e ae18 ff52 2b67 423e
000004e0: 1ed7 5159 c25e 50be 418f 6f3c bf38 9a3e
000004f0: 803b b92f fd6b f9bd 6aa3 fe4b 8b0b 61be
00000500: 0a6a bece 1f54 12be 86dd 1a33 9f4a 173e
00000510: 7350 d809 9bc8 53be 95e8 5bbd 8814 a63e
00000520: 5ccb b9e3 8372 0fbe 841a 1be3 e806 5abe
00000530: 083d 0cc9 6e14 04be df85 37cc 366e 2e3e
00000540: ee30 256e 4717 59be c8f7 dedb da39 ac3e
00000550: 6cce b611 3a09 1cbe 2ce0 e471 b2cb 5cbe
00000560: 3db6 ec99 c7ac 1abe 46b2 9d76 8e7f 313e
00000570: c2b1 c1ce b9fa 61be 5573 9cb7 36ac b43e
00000580: d87d b5c3 091c 25be 9dcf 3187 ad78 60be
00000590: 042d 0ced 20f6 0c3e 02ab 6ab0 1bf0 353e
000005a0: 50ae 19c2 8eb8 54be 0310 a910 da38 9a3e
000005b0: 359d 8bf1 fa11 06be 4f9f 272d 3844 60be
000005c0: 8ac7 d16d 40a0 1fbe 72b2 45cb 4abc 253e
000005d0: 426a ff87 6015 5dbe ed09 483c 8518 a63e
000005e0: ab36 1510 a0ac 11be b8b5 6546 a75c 5abe
000005f0: dd18 6918 bc6a 19be 8b1e 5bad 3385 333e
00000600: 87c7 c8f6 9c8a 61be e195 1672 151d ac3e
00000610: 5f9b 7aec 7125 17be 1fce fb51 f0f7 44be
00000620: eff5 3f9a a8cf 153e 1866 29fe 561b 3e3e
00000630: 0cfd 078a 6df5 59be 0a0f 3040 723b 9a3e
00000640: fd19 4fd2 6d79 123e 487b c167 53c4 5cbe
00000650: b0c5 ba8c 035c 26be 0c39 50af 0b1e 203e
00000660: e41e bf1c 7235 63be 6681 fa8a 631c a63e
00000670: 6187 4861 6a8f 193e f8f7 9141 1942 58be
00000680: d7c2 04b7 a649 20be d8a6 bc80 3b39 323e
00000690: f030 f12e b6df 66be 2af5 371a cb0c ac3e
000006a0: f91d f968 0b48 1c3e f082 e5ad 0cf0 48be
000006b0: 0067 5be9 c33e 193e f09d 13fb 5b98 3d3e
000006c0: a810 d9ea b893 5ebe 3f84 967a e93e 9a3e
000006d0: 1419 729e 95dd 37be e868 349d d3fd 69be
000006e0: 469c 82a8 7154 30be 6a5b badc 32d0 203e
000006f0: 1f54 d212 54b8 69be f57b 8734 2321 a63e
00000700: 5e2c 070a 034a 41be 48b1 6644 3620 63be
00000710: 9078 7d27 703b 28be 4393 77ae 515b 363e
00000720: 8c84 2e0f 482e 70be 18d0 deca a508 ac3e
00000730: 922c fcec c70e 43be b7aa 23c7 ac15 57be
00000740: d22a af26 e644 083e fca2 bbc1 4999 453e
00000750: 7243 7ca7 fc70 533e 3670 9fa7 8518 9c3e
00000760: 8319 530f 39ed 483e aa52 3ab1 21fd 67be
00000770: e48e 7cbe 8f27 163e 6c1b 481a 6214 f5bd
00000780: 5003 968e a10b 483e 6a3c 002e 5bac a73e
00000790: 3d2c c311 c115 543e f34c daf7 0252 64be
000007a0: e215 da4b 1232 1fbe 7c86 c339 9ae3 27be
000007b0: 621a b6b8 61f1 313e 49c4 7884 2cda ae3e
000007c0: 7466 6eaf 3615 593e ad62 bd6d a0d0 64be
000007d0: b2a5 76ca 1eba 20be 41f1 4aad dbd9 32be
000007e0: 200d 2ec9 32ca 53be 2924 044a dce3 b53e
000007f0: d479 79c7 2856 5d3e 7aeb 2160 93e6 65be
1.7019747043125288e-08 3.924725304196445e-07 9.953126303838957e-09 -4.464097965971133e-08 1.1377149553649765e-09 1.006388892686485e-08 1.087506671806442e-08 6.596063490044735e-07
1.5583963627077086e-08 -3.4837512680797716e-08 -1.3030502674057783e-09 1.0082541112985888e-08 3.805940439931848e-09 8.51165356001405e-07 1.918452852803179e-08 -3.764043505783193e-08
-2.6138630742517635e-09 1.0028474210306536e-08 -1.8959085337255606e-08 1.2399974268582218e-06 2.2063159778284426e-08 -4.2054784612805255e-08 -5.808333600966888e-09 6.8302488803382185e-09
-6.885532846641422e-08 1.6090030211264182e-06 2.2866098230694806e-08 -2.6207795819564846e-08 -2.8831270406699102e-09 1.0621482678292611e-08 5.70878483482302e-09 3.9200431368945003e-07
-5.531385064215708e-09 -2.7102542456119954e-08 2.4581017000291504e-09 4.69058539818783e-09 1.8985732765381846e-08 6.590085046887402e-07 -8.658609592835512e-09 -2.3382603228743518e-08
2.171554353093894e-09 2.6889630539100066e-09 2.7068983209221228e-08 8.499182454269633e-07 -1.0793352833513983e-08 -2.286361585492506e-08 4.366605197418181e-10 2.936909661162654e-09
3.049081601490501e-08 1.2386816264048266e-06 -1.2744788811421913e-08 -2.3885980442956885e-08 -7.872166799000611e-09 1.0434637804783473e-09 -7.767716025007492e-08 1.609032874011065e-06
-1.321125323382357e-08 -1.277606673539068e-08 -5.681393506453068e-09 4.334770048087262e-10 3.8989027505978734e-10 3.9143573409071257e-07 6.142309923296639e-09 -2.871241795482938e-08
1.6495964433175735e-09 -9.939574780125911e-10 9.668382153762751e-09 6.582733824789815e-07 9.780184885624613e-09 -2.3605603941776688e-08 1.907240246603924e-09 2.3399735257214285e-09
1.5392579277864892e-08 8.476774868037551e-07 1.2313097620668135e-08 -2.3939835840682793e-08 -3.0416796572453776e-11 3.586079838965596e-09 2.0917661351782627e-08 1.2363959118855482e-06
1.499852399546791e-08 -2.539447439312356e-08 -1.8578276913519901e-09 1.99536764459894e-09 -6.418245573460536e-09 1.6103781503188118e-06 1.7039085271411474e-08 -1.9870501398585372e-08
1.074679470009978e-09 -2.987899903768779e-09 4.230540317150869e-09 1.8044025788360652e-06 1.7914213228541618e-08 -1.8644799222589427e-08 2.9644305466199064e-09 4.340700094423032e-09
-4.755984797828107e-09 3.9116503349130824e-07 -5.345651734172104e-09 -2.614996346914162e-08 5.258700496339013e-10 5.155821301498856e-09 -1.1508314672514322e-09 6.579998170672676e-07
-8.825790988096251e-09 -2.2593847812524065e-08 9.02089937678468e-10 7.048709447471719e-09 3.1774430914581675e-10 8.462968771095017e-07 -1.1582813990967641e-08 -2.247283868643617e-08
-1.3577912916928465e-09 9.50920327512105e-09 4.332291681189773e-09 1.2350959310115684e-06 -1.4984933366163257e-08 -2.6387785709644245e-08 1.8495047707751435e-09 9.34431602930484e-09
8.842887618075209e-09 1.6107275857575436e-06 -1.7752909937147003e-08 -3.2708517033201766e-08 2.1759858289851983e-11 2.332441075847863e-09 1.2893691208610216e-08 1.8043596421179449e-06
-1.8462240738416702e-08 -1.8121911720944774e-08 1.3216473270727521e-09 -7.76919084996507e-12 -1.2253312563589962e-08 3.9088364320691416e-07 -1.6674620619095903e-09 -3.1379843942597587e-08
-4.0955968302107877e-10 3.297107932513175e-09 -1.2652663102717483e-08 6.578920882975816e-07 -2.6806741455306886e-09 -2.3982930903301446e-08 3.7149431504300907e-10 4.8471580759159626e-09
-1.564773234784585e-08 8.441949639473576e-07 -3.2853224420542283e-09 -2.436202573088537e-08 -2.3973820242342087e-09 7.75828121185342e-09 -1.802226581240922e-08 1.2330162143853418e-06
-3.6062581232210556e-09 -1.011960786656946e-08 4.974474699922835e-09 8.569566917095715e-09 -1.5245893065767773e-08 3.9073330210095814e-07 -3.6993634520591733e-10 -3.174896212539757e-08
-1.0668655359973215e-09 1.3557432506671695e-09 -1.842492790809933e-08 6.580415809747423e-07 -9.152376143867201e-10 -2.42395243380474e-08 -5.843995444645392e-10 3.5425792037141916e-09
-2.3367752962926028e-08 8.412002256913957e-07 -1.6319124444625051e-09 -2.681807764160191e-08 -1.5526847374653365e-09 4.0741329007110345e-09 -3.34892379113126e-08 1.232189531247964e-06
-2.457472029405657e-09 -3.068036926674169e-08 8.42888836934747e-10 5.107820616699231e-09 -1.9297868308916002e-08 3.907394023098481e-07 -6.42328387606291e-10 -3.029868413437493e-08
-1.840874500820027e-09 2.530347121223007e-09 -2.7086124010240193e-08 6.58505648732091e-07 -1.0287806720509823e-09 -2.455145811082771e-08 -1.4794601946676299e-09 4.54492861895382e-09
-3.267351087291532e-08 8.378508235442163e-07 -1.3472902116136903e-09 -9.764223706898831e-09 1.2695769791357336e-09 7.009784727142672e-09 -2.417592581855948e-08 3.908904206430903e-07
1.075347652274677e-09 -2.679126119596794e-08 -2.6029801420522564e-09 1.876308326163662e-09 -3.577912685532482e-08 6.589559884036635e-07 1.4878004428568588e-09 -2.2592207303284148e-08
-1.8961378510276435e-09 4.24300418046143e-09 -4.26059097937862e-08 8.359543710031841e-07 1.6461955443702658e-09 -1.1612518443963304e-08 1.4694626951258796e-09 6.8906586419646516e-09
-2.8477087957052305e-08 3.9109215296302883e-07 -5.556634686344696e-09 -4.841296044108276e-08 -3.8020916486053025e-09 1.9573229476651894e-09 -4.7907294444992764e-08 6.595088076175329e-07
-8.050868694709521e-09 -3.562463084540364e-08 -2.820997043532509e-09 5.2053283692717165e-09 -6.027812897307028e-08 8.354717431131369e-07 -8.874450868197467e-09 -2.1499272092569058e-08
7.06324843551416e-10 1.0057716485571846e-08 1.8106172976784192e-08 4.1865988686745044e-07 1.160737681872881e-08 -4.4682613301352686e-08 1.289563783835585e-09 -3.067488713399163e-10
1.1197027710185493e-08 7.055183139942078e-07 1.8705592728229457e-08 -3.784961586958254e-08 -1.8158224224653366e-09 -2.781054010440673e-09 4.177656341854686e-09 9.194684559896606e-07
2.3360239044881204e-08 -3.8770861825441974e-08 -1.94728285207353e-09 -4.389092385269962e-09 -1.8430722347189553e-08 1.3047504481853052e-06 2.7321800348507352e-08 -4.079320704924997e-08

b f8 [2910]
00000000: 70fa 9160 fcc0 f4bf 2339 0ad8 2d5c f73f
00000010: 0000 0000 0000 bd3c 28ea 298a 6278 bb3f
00000020: af32 9ee9 132f c23f 6c34 e281 a322 ec3f
00000030: 20d9 da9b 310a f2bf 6840 a0c5 55dd f33f
00000040: 0000 0000 00d0 01bd 70d4 f85b aa67 a03f
00000050: bc0d aa26 f4fd a53f fa6b 54f0 9946 e93f
00000060: 94b9 f605 48c4 f4bf 65b4 d3e5 8e27 f73f
00000070: 0000 0000 0000 0f3d 904a 3f81 fb1d cabf
00000080: 5384 96d6 207f cfbf c810 4e9c 9928 eb3f
00000090: b0dd 4d00 e4ce f8bf 0f48 d8db 1528 fc3f
000000a0: 0000 0000 0000 ea3c a068 427e 04ba acbf
000000b0: 303b 3350 4dfc aabf 30d9 db2d a304 ee3f
000000c0: 00cc d3d5 b066 e9bf 9216 ead4 5fd4 ec3f
000000d0: 0000 0000 0000 a43c f287 4f95 1c76 dc3f
000000e0: 45ca c5be c38f dd3f 18d9 db2d a304 de3f
000000f0: 8a99 2c6b 14dc 09c0 0000 0000 0069 42bd
00000100: 0000 0000 0050 e3bc 0000 0000 0000 e5bc
00000110: 24a3 de63 1031 d23f 5af5 a2f1 133a e13f
00000120: 80d5 277c 9561 05c0 0000 0000 4013 57bd
00000130: 0000 0000 0048 073d 0000 0000 00a0 0e3d
00000140: 3636 cfe0 3874 b63f b67c e05a f7e8 d23f
00000150: a01a 2d28 949b 09c0 0000 0000 602f 623d
00000160: 0000 0000 0098 f03c 0000 0000 0000 da3c
00000170: 6d88 617c e981 dfbf c787 e1a9 d039 e03f
00000180: 50ba 7323 4ff5 0fc0 0000 0000 809d 43bd
00000190: 0000 0000 00c0 03bd 0000 0000 00c0 ffbc
000001a0: e0b6 331c 0371 babf fbe9 464b db96 ea3f
000001b0: 00fd f503 5463 00c0 0000 0000 00e7 4a3d
000001c0: 0000 0000 0040 f13c 0000 0000 00c0 f83c
000001d0: dc60 d09f b643 f03f fa61 0e7f 3fad db3f
000001e0: 5b6e dc02 cab3 08c0 0000 0000 0030 433d
000001f0: 0000 0000 0080 bbbc 0000 0000 0080 f4bc
00000200: 0a5a 9171 056a d13f fdf4 393d cf50 e4bf
00000210: a0fd 3238 0a60 04c0 0000 0000 00a0 23bd
00000220: 0000 0000 001e 183d 0000 0000 00e0 0cbd
00000230: 5e0d a5bd fa91 b53f f67b 0ef2 6d16 d9bf
00000240: 2077 9eb3 1a73 08c0 0000 0000 c0d0 6ebd
00000250: 0000 0000 008c 1fbd 0000 0000 0000 f23c
00000260: a802 5daa 1029 debf 8487 78f5 8b50 e3bf
00000270: 2805 1b2b 2393 0ec0 0000 0000 80c4 61bd
00000280: 0000 0000 0014 fc3c 0000 0000 00a0 08bd
00000290: 94ed ce53 d837 b9bf b5e8 dd96 96ad edbf
000002a0: b67a 62b7 9786 04c0 b5a5 a0e6 3dc1 e83f
000002b0: 0000 0000 0064 06bd b1b6 7e97 29bf d2bf
000002c0: 5dda a533 241e e63f 82b3 e108 ce45 b1bf
000002d0: b090 6b11 5562 e3bf 1d9c a0e6 3dc1 e83f
000002e0: 0000 0000 0080 f93c ecb5 7e97 29bf d23f
000002f0: 1f42 fc1e 8508 d33f 51f2 6c48 8772 da3f
00000300: 5266 2a4f e8a5 06c0 0000 0000 4009 5cbd
00000310: 0000 0000 10cf 093d 0000 0000 0000 d8bc
00000320: c28b 8161 e503 d03f 2d1a 949e 8bed da3f
00000330: 5717 c5ce 8369 03c0 0000 0000 8059 513d
00000340: 0000 0000 0020 e73c 0000 0000 0080 f53c
00000350: 6849 65f9 2c8d b33f bf48 dc58 2ff8 d33f
00000360: 93e3 7367 7587 06c0 0000 0000 801d 633d
00000370: 0000 0000 0000 97bc 0000 0000 0080 f43c
00000380: a89e 98c5 a236 ddbf 9e2d 08a5 c79e d83f
00000390: 5803 3806 6fed 02c0 e219 d622 8776 e13f
000003a0: 0000 0000 00e8 f03c d4e4 f011 6e3d d1bf
000003b0: 04b3 bd5b 7956 d93f bf01 c350 7574 d43f
000003c0: 10e1 c2d1 dff9 f4bf 6a9b c03b 993a f03f
000003d0: 0000 0000 00e8 f63c a453 178a b289 b73f
000003e0: 3cf7 9f4d 637a c13f a660 6cd4 1514 c23f
000003f0: a090 6b11 5562 e3bf 10b9 55a9 56fd dd3f
00000400: 0000 0000 0080 d53c f41b d6de 02b6 c63f
00000410: 2542 fc1e 8508 d33f 61b7 4c3b 9e7e b13f
00000420: cc67 f361 9ebf 0cc0 0000 0000 a085 523d
00000430: 0000 0000 0020 d3bc 0000 0000 0080 f2bc
00000440: d5ea 67d1 54a1 d03f dc00 72c3 1336 c93f
00000450: 7c29 f6b0 c8ba 07c0 0000 0000 20b2 6abd
00000460: 0000 0000 00a0 c83c 0000 0000 0080 033d
00000470: 41b9 9aa0 cbae b43f 209a 47e5 3e9b b43f
00000480: c870 68cb 3f61 0cc0 0000 0000 409d 68bd
00000490: 0000 0000 80fa c9bc 0000 0000 0080 00bd
000004a0: b1a3 4e02 c546 debf f462 80ca 281d ca3f
000004b0: 18ef a35b e244 01c0 0000 0000 009e 3ebd
000004c0: 0000 0000 0080 cc3c 0000 0000 0000 c8bc
000004d0: 0bbb f668 c607 ee3f 8e6a d397 de4c c73f
000004e0: d825 77c0 083f 0dc0 0000 0000 008c 303d
000004f0: 0000 0000 0080 cfbc 0000 0000 0000 edbc
00000500: 8ffa bf61 87bf d03f f6d6 07be 0c88 c2bf
00000510: e81d 85fb 1a09 08c0 0000 0000 00f4 44bd
00000520: 0000 0000 0000 ca3c 0000 0000 0080 f4bc
00000530: 7aef c486 af16 b53f 5830 d028 659a aabf
00000540: 6048 a7e5 9998 04c0 41be 9e59 cea5 e03f
00000550: 0000 0000 0000 b9bc b86f 2820 3821 cebf
00000560: 94f9 464a 1397 94bf 46cc b495 ac7a d7bf
00000570: 004b 74ba 72b9 f2bf f8aa 9e59 cea5 e03f
00000580: 0000 0000 00c0 b4bc 7970 2820 3821 ce3f
00000590: e08d 427e d4a7 df3f 12b3 e6e5 1dc6 d6bf
000005a0: b00c 30fb 15b9 0bc0 0000 0000 007b 493d
000005b0: 0000 0000 0040 c43c 0000 0000 0080 f1bc
000005c0: 196c 304f 431a cf3f 00d6 8ec0 7774 8abf
000005d0: f0ca f286 e254 07c0 0000 0000 4098 5a3d
000005e0: 0000 0000 00e0 d23c 0000 0000 0000 f7bc
000005f0: b6a5 ccdc e194 b33f 406b bef4 2c65 7dbf
00000600: 20d2 944f 1705 f6bf 0000 0000 005c 22bd
00000610: 0000 0000 0000 a83c 0000 0000 0000 0000
00000620: d9d5 8c99 cf32 dc3f 0015 a239 cad0 65bf
00000630: 804f 2335 5ba2 0ac0 0000 0000 209c 50bd
00000640: 0000 0000 0000 a43c 0000 0000 0000 00bd
00000650: b9c2 f935 8321 d03f f4ea 210e cf57 bcbf
00000660: 004d 8f03 dd9f 06c0 0000 0000 00b9 57bd
00000670: 0000 0000 0000 db3c 0000 0000 0040 f3bc
00000680: 2780 d4b1 17b8 b23f 14c1 7604 c9d0 adbf
00000690: 6075 a48d 546f f5bf 0000 0000 008d 44bd
000006a0: 0000 0000 0080 cabc 0000 0000 0080 e7bc
000006b0: bac7 c6bd dcf4 da3f 5021 ea85 590e 98bf
000006c0: 402a 513f c8ac f9bf 107d e51d c54c ec3f
000006d0: 0000 0000 0080 c7bc d097 2456 bda3 b03f
000006e0: b3af 72fb f4cb c03f 20f5 22e3 3a9c cebf
000006f0: c0f2 ef17 86fe f5bf 6fb5 bbeb b210 e83f
00000700: 0000 0000 0000 ee3c 6023 520a bedf 933f
00000710: e0f8 d888 15f7 a13f 0f39 1a3c 010c ccbf
00000720: 804e 3749 0ee9 e4bf cd47 8b68 6ece d63f
00000730: 0000 0000 0080 db3c a81f f802 9d9e bc3f
00000740: 5b87 248b ebde c93f 24c0 0412 dfa0 babf
00000750: 0000 0000 0000 0000 810b 9612 f53f 0040
00000760: 0000 0000 00d0 043d 7464 d47f 45af d93f
00000770: 0000 0000 0000 c63c c2d1 d9de 499a dcbf
00000780: 0000 0000 0000 d9bc 0040 a0c5 55dd f33f
00000790: 0000 0000 0000 f63c e0d5 f85b aa67 a03f
000007a0: 0000 0000 008c b03c 5059 bc79 34de ddbf
000007b0: 0000 0000 0000 cbbc 00b8 d3e5 8e27 f73f
000007c0: 0000 0000 0000 f8bc d04a 3f81 fb1d cabf
000007d0: 0000 0000 0000 683c 2ad1 d7e8 19d1 e0bf
000007e0: 0000 0000 0000 f7bc 0058 d8db 1528 fc3f
000007f0: 0000 0000 0000 f43c c069 427e 04ba acbf
-1.2971156856798665 1.4600046576557097 4.0245584642661925e-16 0.10730567811143799 0.14206169993521686 0.8792283570088677 -1.1274887168961598 1.2415368766560508
-7.91033905045424e-15 0.03204090473847365 0.042953138084182524 0.7898683256092902 -1.2979202492675528 1.4471577623001164 1.3766765505351941e-14 -0.20403999148273444
-0.24606714704444474 0.84870605972585 -1.5505104076272396 1.7597864711465296 2.886579864025407e-15 -0.05610670129063178 -0.05270616153722185 0.9380660911254264
-0.7937854934992856 0.9009246023640165 1.3877787807814457e-16 0.4447089632141107 0.46189969663752023 0.46903304556271186 -3.232460820482804 -1.3081202787645907e-13
-2.1441182163073336e-15 -2.3314683517128287e-15 0.2842446303644002 0.5383395881141653 -2.6726484012276046 -3.279182481108478e-13 1.033895191682177e-14 1.3600232051658168e-14
0.0877109097338796 0.2954691302747493 -3.2009661806835794 5.168504513264338e-13 3.684552662974738e-15 1.4432899320127035e-15 -0.4923042025240026 0.507057506369386
-3.994779850930435 -1.393746229538806e-13 -8.770761894538737e-15 -7.049916206369744e-15 -0.10328692854428878 0.8309151144269998 -2.0485000905460993 1.9115264926483633e-13
3.83026943495679e-15 5.495603971894525e-15 1.0165315859540476 0.4324492207320244 -3.087787649490378 1.3633538742396922e-13 -3.8163916471489756e-16 -4.551914400963142e-15
0.2720960244236329 -0.6348644443347947 -2.546894492202867 -3.4861002973229915e-14 2.1420365481361614e-14 -1.2823075934420558e-14 0.08425871973036211 -0.3919939864953784
-3.056203273080328 -8.758271885511704e-13 -2.8019253583977388e-14 3.9968028886505635e-15 -0.4712564147667231 -0.6035823625900183 -3.8218444221135037 -5.049849427507525e-13
6.234596172660645e-15 -1.0935696792557792e-14 -0.09850837751485236 -0.9274399706476034 -2.56571906346593 0.7735890869563976 -9.943434964299058e-15 -0.29291763109618346
0.6911793717143372 -0.06747138707005543 -0.6057534542310545 0.7735890869561249 5.662137425588298e-15 0.2929176310961725 0.29739501977840804 0.4132402617722493
-2.831009500962673 -3.9841741017454524e-13 1.1461426425996013e-14 -1.3322676295501878e-15 0.25023779413293934 0.42074861990150475 -2.4265209344766094 2.4655277819363164e-13
2.5673907444456745e-15 4.773959005888173e-15 0.07637291992913264 0.31202300718099346 -2.8161418993226532 5.432876371003204e-13 -7.979727989493313e-17 4.551914400963142e-15
-0.45645970627308907 0.3846911536827181 -2.3659344182819204 0.5457187347790831 3.7539416020138106e-15 -0.2693743872838017 0.39590295752604754 0.31960804831399153
-1.3110044664190958 1.0143062910153398 5.0862092315639984e-15 0.09194484588017687 0.13654748239781067 0.14123795387491106 -0.6057534542310528 0.46858755623442594
1.1934897514720433e-15 0.17742954140359724 0.2973950197784084 0.06833828876253058 -3.5935638096243334 2.632130624569129e-13 -1.061650767297806e-15 -4.107825191113079e-15
0.2598468823413616 0.1969628052065734 -2.966203100693006 -7.587402928166398e-13 6.83481049534862e-16 8.659739592076221e-15 0.08079216643338773 0.08049386117600266
-3.5474849597213485 -6.995792833919268e-13 -7.210486548114847e-16 -7.327471962526033e-15 -0.4730694315463167 0.20401487243432082 -2.158634868564956 -1.0877410083764971e-13
7.91033905045424e-16 -6.661338147750939e-16 0.9384491014551214 0.18203337109919854 -3.6557784115181953 5.878630915390204e-14 -8.743006318923108e-16 -3.219646771412954e-15
0.26168999238863305 -0.1447769096263795 -3.0044459962843924 -1.488809076022335e-13 7.216449660063518e-16 -4.551914400963142e-15 0.0823774055506287 -0.051959191543659855
-2.574512285392345 0.5202399969475168 -3.469446951953614e-16 -0.23538877077305442 -0.020107556732676793 -0.36686243648290817 -1.1702754290933512 0.5202399969469687
-2.8796409701215e-16 0.23538877077305978 0.4946185334212867 -0.3558420891884434 -3.465373957065445 1.810496197407474e-13 5.620504062164855e-16 -3.885780586188048e-15
0.24298898092897117 -0.012917457164671298 -2.916447691235014 3.779337953702111e-13 1.0477729794899915e-15 -5.10702591327572e-15 0.07649051323519171 -0.007176566705221543
-1.3762429340978386 -3.2612801348363973e-14 1.6653345369377348e-16 0.0 0.44060125346308393 -0.002663035365062627 -3.3292755271340297 -2.360403539292122e-13
1.3877787807814457e-16 -7.105427357601002e-15 0.25204544325883266 -0.11071485610038306 -2.828058269320195 -3.371192214274288e-13 1.4988010832439613e-15 -4.274358644806853e-15
0.07312152949862193 -0.05823352984896438 -1.3396802456766963 -1.4602208331382371e-13 -7.355227538141662e-16 -2.609024107869118e-15 0.42119520695552704 -0.02349223975991893
-1.6046831582376768 0.8843713363566241 -6.522560269672795e-16 0.06499846795176656 0.13122427251562171 -0.23914276209499352 -1.3746396002817818 0.752038441101531
3.3306690738754696e-15 0.019408196811613876 0.03508822722914018 -0.21911635813416594 -0.6534491949082195 0.35634956559544834 1.5265566588595902e-15 0.11179524729243318
0.20211548132015875 -0.1040172022810571 0.0 2.031229157642372 9.242606680004428e-15 0.401322722276354 6.106226635438361e-16 -0.4469170261648082
-1.3877787807814457e-15 1.2415368766560277 4.884981308350689e-15 0.032040904738476206 2.2963402013242984e-16 -0.46668731582885403 -7.494005416219807e-16 1.4471577623003213
-5.329070518200751e-15 -0.20403999148273622 1.0408340855860843e-17 -0.5255250499454054 -5.10702591327572e-15 1.7597864711474358 4.440892098500626e-15 -0.056106701290633776
