python-Linux/neural-sparse-linear-solvers-master/stand_small_test/5435731351651948606_0ce8f25666e68949dd2e15cdf717af5ee855d636_b9e395f8c2b844d0f05db2650a2f7715f8f0d186.npz (npz, 106711 bytes, 3 tensors)

A_values f8 [25958]
0	0x41dc848c320c4432	1913794760.1916623
1	0xc1913eb1d5d573fc	-72330357.45845026
2	0xc17f1c4153e2d06e	-32621589.242874555
3	0xc16d46606a307e10	-15348483.318419486
4	0xc17f1c4153e2d06e	-32621589.242874555
5	0xc1dbcb064ef40ca8	-1865161019.8132725
6	0x41df14acbba91fc0	2085794542.6425629
7	0x417dc9e810cb97ad	31235713.049705196
8	0x41799a666f45172f	26846822.954367813
9	0xc1deb236acf9b009	-2059983539.9013693
10	0xc165d0644b04ffbe	-11436834.344360229
11	0x41799a666f45172f	26846822.954367813
12	0x41def2bc0b73e724	2076897325.8109827
13	0x4191fcedb02d6c47	75447148.04435836
14	0xc18dc253781adbfd	-62409327.01311491
15	0xc180ed3eb285ff4e	-35497942.31542836
16	0x4191fcedb02d6c47	75447148.04435836
17	0xc1795add154f716c	-26586577.331895277
18	0xc18dc253781adbfd	-62409327.01311491
19	0x417dc9e810cb97ad	31235713.049705196
20	0x4191fcedb02d6c47	75447148.04435836
21	0x41b420f0a0a24729	337703072.6338983
22	0xc191fcedb02d6c47	-75447148.04435836
23	0x4198d27f1531c2f3	104112069.29859523
24	0xc17cbb907c378507	-30128391.7635546
25	0xc1913eb1d5d573fc	-72330357.45845026
26	0xc18dc253781adbfd	-62409327.01311491
27	0x41ba65e5b8e01786	442885560.87535894
28	0xc17fbbe0e7f3a933	-33275406.496987533
29	0x418dc253781adbfd	62409327.01311491
30	0x4196c97d393bc1f9	95575886.30835713
31	0xc17f1c4153e2d06e	-32621589.242874555
32	0x41799a666f45172f	26846822.954367813
33	0x41a905b4ca4d3630	209902181.15080404
34	0x417f1c4153e2d06e	32621589.242874555
35	0x4185cc87ce11b25b	45715705.75864097
36	0xc1799a666f45172f	-26846822.954367813
37	0x4183da80232c8ba6	41635844.39675073
38	0xc16d46606a307e10	-15348483.318419486
39	0x417f1c4153e2d06e	32621589.242874555
40	0x41dd3b9884de757a	1961779731.4759202
41	0xc1739162e2275a8a	-20518446.13460783
42	0xc16e3a0a74a15938	-15847507.644695863
43	0xc1731c26a570b1b0	-20038250.340013206
44	0x4188b4b23a973ab3	51811911.32384243
45	0xc17aa6ee0f1ba032	-27946720.94424457
46	0xc1871ca34719be85	-48469096.88757042
47	0xc1dbcb064ef40ca8	-1865161019.8132725
48	0xc1deb236acf9b009	-2059983539.9013693
49	0x41f134df670a793a	4618843760.654596
50	0x41613dd8a048b49a	9039557.00887518
51	0x41799a666f45172f	26846822.954367813
52	0xc1605f9513e982d0	-8584360.62225476
53	0xc1752afbc0a73d60	-22196156.040830016
54	0xc1e2cf08db2c7913	-2524464857.3897796
55	0xc165d0644b04ffbe	-11436834.344360229
56	0x41799a666f45172f	26846822.954367813
57	0xc180ed3eb285ff4e	-35497942.31542836
58	0xc191fcedb02d6c47	-75447148.04435836
59	0x41ec90a8dff2c288	3833939711.5862465
60	0x4180bd65cb9b932c	35105977.4509643
61	0xc18dc253781adbfd	-62409327.01311491
62	0xc1d93b6c0ae9a4df	-1693298731.650688
63	0xc18e653530ff217d	-63743654.12457559
64	0x419a5ba095fb35dd	110553125.49532266
65	0xc1795add154f716c	-26586577.331895277
66	0xc18dc253781adbfd	-62409327.01311491
67	0x4191fcedb02d6c47	75447148.04435836
68	0x4198d27f1531c2f3	104112069.29859523
69	0x41613dd8a048b49a	9039557.00887518
70	0x4180bd65cb9b932c	35105977.4509643
71	0x41c41f22aeb0189e	675169629.3757513
72	0x41752afbc0a73d60	22196156.040830016
73	0x41821bee5f91cd32	37977547.94619216
74	0xc19a5ba095fb35dd	-110553125.49532266
75	0x419d47dc0754119e	122812161.83209845
76	0xc17cbb907c378507	-30128391.7635546
77	0xc17fbbe0e7f3a933	-33275406.496987533
78	0xc1739162e2275a8a	-20518446.13460783
79	0xc18dc253781adbfd	-62409327.01311491
80	0x41c3c8df0b393088	663862806.4467936
81	0xc188b4b23a973ab3	-51811911.32384243
82	0x4194eafb5fd2abf3	87736023.95573406
83	0xc18371d161e8b8b6	-40778284.23863356
84	0x418dc253781adbfd	62409327.01311491
85	0x4196c97d393bc1f9	95575886.30835713
86	0xc17f1c4153e2d06e	-32621589.242874555
87	0x4185cc87ce11b25b	45715705.75864097
88	0xc16e3a0a74a15938	-15847507.644695863
89	0x41799a666f45172f	26846822.954367813
90	0x41b4e08a00969f72	350259712.58837044
91	0xc17a15cc324f5268	-27352259.144365698
92	0x41871ca34719be85	48469096.88757042
93	0x418a48538329d906	55118448.39543347
94	0xc1799a666f45172f	-26846822.954367813
95	0x4183da80232c8ba6	41635844.39675073
96	0xc1731c26a570b1b0	-20038250.340013206
97	0xc188b4b23a973ab3	-51811911.32384243
98	0x41dce49a63193995	1938975116.3941395
99	0x4161f8f8ccd58c34	9422790.40106783
100	0xc1871ca34719be85	-48469096.88757042
101	0xc178a1f054bee943	-25829125.296609174
102	0x418d32f06dcc9dc0	61234701.72491026
103	0xc17aa6ee0f1ba032	-27946720.94424457
104	0xc1871ca34719be85	-48469096.88757042
105	0xc1dbcb064ef40ca8	-1865161019.8132725
106	0xc1605f9513e982d0	-8584360.62225476
107	0x41752afbc0a73d60	22196156.040830016
108	0x41e30a67a2013526	2555591952.037738
109	0xc14f88d2f0b1b0e0	-4133285.8804226965
110	0x41799a666f45172f	26846822.954367813
111	0xc1652ecd75cd9062	-11105899.681343261
112	0xc1791c161ebd737c	-26329441.921252713
113	0xc1e2cf08db2c7913	-2524464857.3897796
114	0xc165d0644b04ffbe	-11436834.344360229
115	0x41799a666f45172f	26846822.954367813
116	0xc1d93b6c0ae9a4df	-1693298731.650688
117	0x41eb0c754ee5fa10	3630410359.186775
118	0x419a5ba095fb35dd	110553125.49532266
119	0xc18dc253781adbfd	-62409327.01311491
120	0xc1db84e97505186f	-1846781396.0796163
121	0xc18e653530ff217d	-63743654.12457559
122	0x419a5ba095fb35dd	110553125.49532266
123	0xc1795add154f716c	-26586577.331895277
124	0xc18dc253781adbfd	-62409327.01311491
125	0xc1752afbc0a73d60	-22196156.040830016
126	0x41821bee5f91cd32	37977547.94619216
127	0xc14f88d2f0b1b0e0	-4133285.8804226965
128	0x419a5ba095fb35dd	110553125.49532266
129	0x41bae49abf6b93bb	451189439.42022294
130	0x41791c161ebd737c	26329441.921252713
131	0x4183ab0e3c5ee451	41247175.54633392
132	0xc19a5ba095fb35dd	-110553125.49532266
133	0x419d47dc0754119e	122812161.83209845
134	0xc17cbb907c378507	-30128391.7635546
135	0x4188b4b23a973ab3	51811911.32384243
136	0x4194eafb5fd2abf3	87736023.95573406
137	0x4161f8f8ccd58c34	9422790.40106783
138	0xc18dc253781adbfd	-62409327.01311491
139	0x41c24c69eb65a657	613995478.7941388
140	0xc18d32f06dcc9dc0	-61234701.72491026
141	0x4196972377509cd0	94750941.82872319
142	0xc18371d161e8b8b6	-40778284.23863356
143	0x418dc253781adbfd	62409327.01311491
144	0x4196c97d393bc1f9	95575886.30835713
145	0xc17a15cc324f5268	-27352259.144365698
146	0xc1871ca34719be85	-48469096.88757042
147	0x41799a666f45172f	26846822.954367813
148	0x41ae5994d6dde0c1	254593643.43335536
149	0xc17c7314d4eec165	-29831501.308289904
150	0x41871ca34719be85	48469096.88757042
151	0x418a48538329d906	55118448.39543347
152	0xc1799a666f45172f	-26846822.954367813
153	0x4183da80232c8ba6	41635844.39675073
154	0xc178a1f054bee943	-25829125.296609174
155	0xc18d32f06dcc9dc0	-61234701.72491026
156	0x41dd0c460f04fe0a	1949374524.0780053
157	0x415a9a53d4baaae0	6973775.323893279
158	0xc1871ca34719be85	-48469096.88757042
159	0xc17d0711a061cf08	-30437658.02387908
160	0x4190431d7431f98e	68208477.04880354
161	0xc17aa6ee0f1ba032	-27946720.94424457
162	0xc1871ca34719be85	-48469096.88757042
163	0xc1dbcb064ef40ca8	-1865161019.8132725
164	0xc1652ecd75cd9062	-11105899.681343261
165	0x41791c161ebd737c	26329441.921252713
166	0x41e3130fde915f44	2560130804.542879
167	0xc1477d0c61be6da0	-3078680.763623908
168	0x41799a666f45172f	26846822.954367813
169	0xc16907d1a413a106	-13123213.127396118
170	0xc17c0bb7aaf54130	-29408122.68487662
171	0xc1e2cf08db2c7913	-2524464857.3897796
172	0xc165d0644b04ffbe	-11436834.344360229
173	0x41799a666f45172f	26846822.954367813
174	0xc1db84e97505186f	-1846781396.0796163
175	0x41ecfd4ac9db0ed0	3890894414.845558
176	0x419a5ba095fb35dd	110553125.49532266
177	0xc18dc253781adbfd	-62409327.01311491
178	0xc1dd1d1700d3ce60	-1953782787.3094711
179	0xc18e653530ff217d	-63743654.12457559
180	0x419a5ba095fb35dd	110553125.49532266
181	0xc1795add154f716c	-26586577.331895277
182	0xc18dc253781adbfd	-62409327.01311491
183	0xc1791c161ebd737c	-26329441.921252713
184	0x4183ab0e3c5ee451	41247175.54633392
185	0xc1477d0c61be6da0	-3078680.763623908
186	0x419a5ba095fb35dd	110553125.49532266
187	0x41bb940666236785	462685798.13829833
188	0x417c0bb7aaf54130	29408122.68487662
189	0x4184be2bc0daa394	43500920.10675731
190	0xc19a5ba095fb35dd	-110553125.49532266
191	0x419d47dc0754119e	122812161.83209845
192	0xc17cbb907c378507	-30128391.7635546
193	0x418d32f06dcc9dc0	61234701.72491026
194	0x4196972377509cd0	94750941.82872319
195	0x415a9a53d4baaae0	6973775.323893279
196	0xc18dc253781adbfd	-62409327.01311491
197	0x41c312bc4105682d	639989890.0422417
198	0xc190431d7431f98e	-68208477.04880354
199	0x4197b9675fc6ce75	99506647.94414695
200	0xc18371d161e8b8b6	-40778284.23863356
201	0x418dc253781adbfd	62409327.01311491
202	0x4196c97d393bc1f9	95575886.30835713
203	0xc17c7314d4eec165	-29831501.308289904
204	0xc1871ca34719be85	-48469096.88757042
205	0x41799a666f45172f	26846822.954367813
206	0x41aed9fd314a611b	258801304.6452721
207	0xc17e190f05b35538	-31559920.356282443
208	0x41871ca34719be85	48469096.88757042
209	0x418a48538329d906	55118448.39543347
210	0xc1799a666f45172f	-26846822.954367813
211	0x4183da80232c8ba6	41635844.39675073
212	0xc17d0711a061cf08	-30437658.02387908
213	0xc190431d7431f98e	-68208477.04880354
214	0x41dd4c4decf70b5b	1966159795.860068
215	0x41700b41c12f11f4	16823324.07399173
216	0xc1871ca34719be85	-48469096.88757042
217	0xc18451f3e8a11eba	-42614397.07867189
218	0x419445ede47dbe0b	85031801.12279527
219	0xc17aa6ee0f1ba032	-27946720.94424457
220	0xc1871ca34719be85	-48469096.88757042
221	0xc1dbcb064ef40ca8	-1865161019.8132725
222	0xc16907d1a413a106	-13123213.127396118
223	0x417c0bb7aaf54130	29408122.68487662
224	0x41e32127e2cb6806	2567520022.356448
225	0xc15c98e9ca2fafe0	-7496615.159160584
226	0x41799a666f45172f	26846822.954367813
227	0xc171a368d7eb28e0	-18495117.49491203
228	0xc18198f90ec09694	-36904737.844037205
229	0xc1e2cf08db2c7913	-2524464857.3897796
230	0xc165d0644b04ffbe	-11436834.344360229
231	0x41799a666f45172f	26846822.954367813
232	0xc1dd1d1700d3ce60	-1953782787.3094711
233	0x41ef93f61a29ecfc	4238323921.3101788
234	0x419a5ba095fb35dd	110553125.49532266
235	0xc18dc253781adbfd	-62409327.01311491
236	0xc1e059200ad16a63	-2194210902.5442367
237	0xc18e653530ff217d	-63743654.12457559
238	0x419a5ba095fb35dd	110553125.49532266
239	0xc1795add154f716c	-26586577.331895277
240	0xc18dc253781adbfd	-62409327.01311491
241	0xc17c0bb7aaf54130	-29408122.68487662
242	0x4184be2bc0daa394	43500920.10675731
243	0xc15c98e9ca2fafe0	-7496615.159160584
244	0x419a5ba095fb35dd	110553125.49532266
245	0x41bc7bfacaf316c4	477887178.9495661
246	0x418198f90ec09694	36904737.844037205
247	0x41871e32cc291955	48481881.52006785
248	0xc19a5ba095fb35dd	-110553125.49532266
249	0x419d47dc0754119e	122812161.83209845
250	0xc17cbb907c378507	-30128391.7635546
251	0x4190431d7431f98e	68208477.04880354
252	0x4197b9675fc6ce75	99506647.94414695
253	0x41700b41c12f11f4	16823324.07399173
254	0xc18dc253781adbfd	-62409327.01311491
255	0x41c41602064f1870	673973260.6179333

x f8 [2346]
0	0x3e17d8e3ac989c9c	1.3880911302199111e-09
1	0xbe826dc12af5e8f8	-1.3730472890242587e-07
2	0xbe0c61d3aa005736	-8.260288737761182e-10
3	0x3e46992f938a1411	1.0523191749638691e-08
4	0x3e12d8202deb8e5e	1.0968791913650754e-09
5	0xbe013cff5a785365	-5.016997277167536e-10
6	0xbe1c9211927d502c	-1.6630266694624993e-09
7	0xbe8281e665d21e88	-1.3789103806373254e-07
8	0xbe287862df1b5253	-2.848713037036966e-09
9	0x3e46b2854b6c7c3a	1.0569275549870154e-08
10	0x3d84420acb572ba0	2.3030653674060724e-12
11	0xbe104a676d6b02da	-9.48240088595496e-10
12	0x3e02dbe97e1ea190	5.48870057250858e-10
13	0xbe993f09de5d23cc	-3.761983563455717e-07
14	0xbe3973b95d9c7306	-5.926016533196606e-09
15	0x3e53fce00837cff0	1.8615083264728972e-08
16	0x3dabfc9b9f750a0d	1.272690024811415e-11
17	0xbe1420d7205f4245	-1.171620246557068e-09
18	0x3e24816df789930a	2.3871641853343e-09
19	0xbea1d5e3f4b5448f	-5.315396064774756e-07
20	0xbe3fc510b18ad269	-7.396979716832079e-09
21	0x3e4ce603347b7068	1.3456906380387544e-08
22	0xbdecb6818aa7806c	-2.0891394632220587e-10
23	0xbe0649e0e62a556a	-6.486832844580893e-10
24	0x3e2719c0886fc157	2.68926309302353e-09
25	0xbea52ba8d2472f21	-6.309314000639839e-07
26	0xbe4124cd877aa557	-7.983185875667525e-09
27	0x3e44c524fd2b4431	9.671829480889773e-09
28	0xbe03ab56c188ab4f	-5.72451755328121e-10
29	0x3dcef43724f751b6	5.630493694616077e-11
30	0x3e10ab5d8ee14f29	9.702865694242798e-10
31	0xbea6dfde796c9b6e	-6.817128789013912e-07
32	0xbe416575cd337b67	-8.100796844465233e-09
33	0x3e37ea6e8b427c25	5.568319295375196e-09
34	0xbe06c28f1c28c32c	-6.624030701716176e-10
35	0x3e1d432a0c52e648	1.7032935489957404e-09
36	0xbe3032fb26fbcf9a	-3.771657305690575e-09
37	0xbe828f3fe2b72c6c	-1.3827956145263512e-07
38	0x3e1ca3bfc3a9c0ea	1.6670467355952425e-09
39	0x3e49ff27e49c25f4	1.210565793746549e-08
40	0xbe0d94e29b198195	-8.609373684444781e-10
41	0x3e1d58965262aab7	1.7081645625243495e-09
42	0xbe30f67e32359199	-3.949474333814941e-09
43	0xbe993d0c4d2ad532	-3.7608249418436266e-07
44	0x3e2a5e9b124f5cc1	3.06982008084495e-09
45	0x3e4648f2c8fce3fd	1.037724064977968e-08
46	0x3df91f5db4fd302d	3.6558083382506215e-10
47	0x3e26a5f07cee39fe	2.6365975856102757e-09
48	0xbe2cf562a05ccca2	-3.3712173078299757e-09
49	0xbea1d433d6e1996c	-5.31343102638799e-07
50	0x3e2e1ce99cde8f14	3.5056075602763657e-09
51	0x3e41cf022190e737	8.292787833264705e-09
52	0x3debd706415bb636	2.025622175889264e-10
53	0x3e27ebf4020e70a4	2.7848514748158183e-09
54	0xbe317b51d8bfb28e	-4.070279568235944e-09
55	0xbea52a1c2c99254b	-6.307510258065202e-07
56	0x3e2db3e1bcab7253	3.4578450982377745e-09
57	0x3e3997d5ebadc5c9	5.958859790028404e-09
58	0xbe133462cec8eda2	-1.1178567473932171e-09
59	0x3e266572c83d207c	2.607270456747419e-09
60	0xbe50bc8f908bf398	-1.5587141385758102e-08
61	0xbea6df98932cdaed	-6.816810923297388e-07
62	0x3e2c30834c71436d	3.2816901171686333e-09
63	0x3e31f981866131dd	4.185045287814314e-09
64	0xbe10f30694d6b882	-9.865802232068596e-10
65	0x3e26fd5f0793eb58	2.6763569664482027e-09
66	0xbe52a82ca4459510	-1.7375621179194543e-08
67	0xbea77c9f5cf17420	-6.999613847525733e-07
68	0x3e2b82383bf45291	3.2024307369426024e-09
69	0x3e2747f2d1064ea7	2.7102707926873584e-09
70	0xbde1936642bdff9b	-1.2788062394704607e-10
71	0x3e09bd783950d400	7.491359638798608e-10
72	0xbe4e9598c6038ee4	-1.4241953561308615e-08
73	0xbea7e6a659863416	-7.123045860244166e-07
74	0x3e2b7180d2a79f90	3.194828975364012e-09
75	0x3e00a622596491d1	4.845485564745379e-10
76	0x3e15331c84c0e08a	1.2339822662071419e-09
77	0x3ded396aae5e2608	2.1263465223287848e-10
78	0xbe38074cfd7157a6	-5.594575434069488e-09
79	0xbe82a2cd9baa910f	-1.3884864621006617e-07
80	0xbdf449a8c2239f37	-2.952253460266724e-10
81	0x3e4d86529ba7157b	1.37485088772724e-08
82	0xbe14fc02d0514abd	-1.2214538835845593e-09
83	0xbe1394015204e3ed	-1.1395980340608252e-09
84	0xbe407670b2b0add4	-7.666022114054327e-09
85	0xbe993b4026fd423a	-3.759778683847619e-07
86	0xbe0255e94140e629	-5.336359154102382e-10
87	0x3e4b59ed86173bf0	1.2736432522274475e-08
88	0x3de286b53e5d7ae8	1.3479586820229685e-10
89	0xbe14de21579f7b79	-1.214659788108869e-09
90	0xbe42a0117424d013	-8.673065492009745e-09
91	0xbea1d279aef08720	-5.31142033359021e-07
92	0xbe0750cdcd2f5e20	-6.785744417499122e-10
93	0x3e42fe585912ab76	8.844554229917833e-09
94	0x3db1f2becc50f107	1.6323814496095177e-11
95	0xbe0f0e8d7cfa8fa1	-9.03873193269015e-10
96	0xbe456ff81d736152	-9.982557820662034e-09
97	0xbea528850ac52b45	-6.305658835440502e-07
98	0xbe0ae1ed677f886f	-7.823845590458892e-10
99	0x3e384c4a28abdd78	5.657320510268184e-09
100	0xbe12ceb6b3d8221f	-1.0947391460162612e-09
101	0xbe07caa379a52ba4	-6.924254392866264e-10
102	0xbe56a582ad431fc9	-2.109122017380803e-08
103	0xbea6de92237bbae8	-6.815617501191453e-07
104	0xbe0bb5ec8b6ea992	-8.064857868893878e-10
105	0x3e299eafbefaa6a6	2.9825453147440766e-09
106	0xbe12e0b77515aeca	-1.0988325426116521e-09
107	0xbe129ac2c84f8dce	-1.08292644404164e-09
108	0xbe595a958a06a44d	-2.3612607537356863e-08
109	0xbea77a32c78cdef6	-6.996791760199221e-07
110	0xbe0ae78900630012	-7.83022092281371e-10
111	0x3e16b2b1301f5e80	1.32119842886405e-09
112	0xbe0208f99b2dc26e	-5.248892903284494e-10
113	0xbe0ec3ec03ff5425	-8.953886590455958e-10
114	0xbe573219fdaeac8c	-2.160268751007612e-08
115	0xbea7e542c37959f0	-7.121428841721464e-07
116	0xbe0a8d833bd2d7c7	-7.727877154577265e-10
117	0x3dd3b0bcb2568c6f	7.16331825319564e-11
118	0x3e1c1f504862e135	1.6369343949296542e-09
119	0xbe0511cddb5e5417	-6.132045346643304e-10
120	0xbe341ba20086df46	-4.681744776952662e-09
121	0xbe82b602b362b49f	-1.3940765492462528e-07
122	0xbe19cd76d31efdca	-1.5019086638293905e-09
123	0x3e48660ab9b16a67	1.1361484022837926e-08
124	0xbe13190a6aa759de	-1.111639151055565e-09
125	0xbe2556bda9e05a63	-2.4841669407386857e-09
126	0xbe3b0251b66cd457	-6.288536669523046e-09
127	0xbe993bd51bf7156c	-3.7601173727101644e-07
128	0xbe2695f68a45850a	-2.629332378708835e-09
129	0x3e474efa64635827	1.0853869924722477e-08
130	0x3deb0bc341e48828	1.9678517231207165e-10
131	0xbe2814487676a4f7	-2.803191390561945e-09
132	0xbe3e1b16abf8005d	-7.0095562128107905e-09
133	0xbea1d1fa996e3282	-5.310842422376151e-07
134	0xbe2b5151a0bb190b	-3.1801932249473563e-09
135	0x3e4159e6a7316531	8.079770829975972e-09
136	0xbde02052b5545658	-1.1733399899661987e-10
137	0xbe256bbc8d50c85d	-2.493714660569949e-09
138	0xbe426e43ac736332	-8.582472856031652e-09
139	0xbea5280eda13f565	-6.305121368618728e-07
140	0xbe2d235ee555c210	-3.3921290591362203e-09
141	0x3e37cf5bfcbb64dd	5.543697011611945e-09
142	0xbdeed877043eeb62	-2.2443103115777628e-10
143	0xbe235dcf13b5688f	-2.254550460966028e-09
144	0xbe475138fd6a5b5d	-1.085795268738911e-08
145	0xbea6de514abbac0a	-6.815322612629406e-07
146	0xbe2d538c39d14e46	-3.4140374542523986e-09
147	0x3e2cd0610d88f57b	3.3543888606698806e-09
148	0xbde0a80a04fb9eae	-1.2119128139525138e-10
149	0xbe245e233db1b6fe	-2.3711152881009007e-09
150	0xbe4a65b12def4106	-1.229217033534252e-08
151	0xbea778d727f9efda	-6.995210952288675e-07
152	0xbe2d072af55b6917	-3.379303873931263e-09
153	0x3e2087713e4c63bc	1.924237202205448e-09
154	0xbe07fd1f67587c5f	-6.981648164900707e-10
155	0xbe261b8d920118f0	-2.5736667380891113e-09
156	0xbe4bb6e1c1c6e393	-1.2905514928299444e-08
157	0xbea7e4edf0d01c69	-7.121043111853949e-07
158	0xbe2cb1e45520740f	-3.340524892306094e-09
159	0x3e11b57019699bc4	1.0307844349346127e-09
160	0x3e124befac8d1c86	1.0650037954002561e-09
161	0xbe23d065504ffd92	-2.306658533016585e-09
162	0xbe327161ac55598d	-4.294071491903163e-09
163	0xbe82c37d7bb1195b	-1.3979996346859786e-07
164	0x3df98dc9e1863ef7	3.718576293453692e-10
165	0x3e466fa30aeb5ca3	1.0447614632296883e-08
166	0xbe136a442cadca1b	-1.1301077180963554e-09
167	0x3dec546683849d95	2.0612561810099437e-10
168	0xbe3add5dbec1e609	-6.254928113755502e-09
169	0xbe993e192c191d91	-3.761436283316998e-07
170	0x3e02635e18fb27ce	5.351657328766318e-10
171	0x3e4553226f7a1814	9.930107832593346e-09
172	0x3de92cd768beced3	1.831734107906044e-10
173	0x3df368286607165a	2.8240707517960124e-10
174	0xbe3d9cd3469d4a4d	-6.89472044199689e-09
175	0xbea1d2ac886af303	-5.311651570454689e-07
176	0x3dff5cdfde2c3793	4.563886752655842e-10
177	0x3e3f8a3d2f776cee	7.343477596379126e-09
178	0xbdbaf93d8611b328	-2.4532341765076376e-11
179	0x3df59f9d28208678	3.14663219202215e-10
180	0xbe3f24fcfaa76c4f	-7.251390524903817e-09
181	0xbea528b798a8062a	-6.30588872952032e-07
182	0x3df2f242427c5e78	2.7570529408609726e-10
183	0x3e358e6c5f3be92b	5.018976779097942e-09
184	0x3dd386b85a188965	7.103608545482866e-11
185	0x3de194c4bb218f9c	1.279195339632777e-10
186	0xbe4047f540074fae	-7.581471451427723e-09
187	0xbea6def7332a2f13	-6.816077074574537e-07
188	0x3dd9015987956104	9.096865092445517e-11
189	0x3e29eabf8e51e0a7	3.017134197479358e-09
190	0x3df143c736165876	2.512353017355342e-10
191	0xbdf1c0e4f4164e94	-2.5834733318527747e-10
192	0xbe40198871d7c21d	-7.49702482990571e-09
193	0xbea778b84927540a	-6.995070569957315e-07
194	0xbdc14cbff89f3b24	-3.146816061005066e-11
195	0x3e1db1020457476b	1.7282690984614848e-09
196	0xbe0118569a1f9bd3	-4.97532060903443e-10
197	0xbe01049e56196335	-4.952901805687672e-10
198	0xbe4245db6005a5d9	-8.508972194122885e-09
199	0xbea7e54a19068c2e	-7.121462193736798e-07
200	0xbde02ee7e73cc850	-1.177484668958525e-10
201	0x3e0c9866bba0fb27	8.322332747057742e-10
202	0x3e0c613ea9adee4e	8.259627039254201e-10
203	0xbe02ba45a062af8c	-5.450456204173836e-10
204	0xbe334ca24e9309b2	-4.493480456812619e-09
205	0xbe82d355636cea84	-1.402610665059771e-07
206	0xbe0f9bc618c48d36	-9.199281766343945e-10
207	0x3e45f65e19b72590	1.0227027050652618e-08
208	0xbe1516629c9601b8	-1.2274506847943918e-09
209	0xbe13ab0a8d133b7b	-1.1448358270935375e-09
210	0xbe409f23add5f9a0	-7.740053426958943e-09
211	0xbe99425835bea834	-3.7639079208485e-07
212	0xbe19ea1094138db7	-1.508411687488266e-09
213	0x3e44b016a0cb7261	9.633528663530567e-09
214	0xbdac0f5679f42034	-1.276017122784713e-11
215	0x3dd8ed11a67c2d80	9.068044372796968e-11
216	0xbe42d69e7bdd94c0	-8.772292999380288e-09
217	0xbea1d4719bc302ba	-5.31371191957249e-07
218	0xbe1d3311818e9c40	-1.699633772462682e-09
219	0x3e3e7010375ca9d3	7.086840327935139e-09
220	0x3dbb81a4f41b0693	2.5016946202624223e-11
221	0x3e10d9430f4cf72b	9.80722223225561e-10
222	0xbe41dd297c0d301e	-8.318533308058081e-09
223	0xbea52a6859d6c499	-6.307856669688358e-07
224	0xbe1cf31fde0361cd	-1.685094612503862e-09
225	0x3e34b28617faa4fc	4.818979326402517e-09
226	0x3deb11e7a537a08c	1.9695974244671763e-10
227	0x3e0a2a44c2e3f956	7.6150497520682e-10
228	0xbe41e9ac1d8bdecc	-8.34128936883972e-09
229	0xbea6e06d863aae52	-6.817779305187742e-07
230	0xbe1b89b6d377114d	-1.6029194203387017e-09
231	0x3e28d7e2d2f0f6e6	2.892141324631804e-09
232	0x3df63e594118f223	3.2368624542631195e-10
233	0x3de0e68d73b41fe0	1.2296801931901768e-10
234	0xbe42027f355e0c0f	-8.386445020862929e-09
235	0xbea7794a83721c1f	-6.99573553656559e-07
236	0xbe1a6b082adb3f60	-1.5377354211380665e-09
237	0x3e1b013001390ea5	1.5718768551459251e-09
238	0xbdf8df5fc967fd18	-3.619433168162691e-10
239	0xbde80e91c4b9a96f	-1.7503707022225867e-10
240	0xbe4279bede7020c4	-8.603357094461027e-09
241	0xbea7e64d4b3eda52	-7.122640881460974e-07
242	0xbe1979ebe9e23a62	-1.4829132709410475e-09
243	0x3e083ddf38cc6ce9	7.055259584861793e-10
244	0x3e0ebb508c4597f5	8.944101228256124e-10
245	0xbdf624ad34a6e82a	-3.222269574880248e-10
246	0xbe332be6486f14e1	-4.4637086309683485e-09
247	0xbe82e009f43d76eb	-1.406308404128679e-07
248	0x3df5cdb33c3aa8b5	3.1728291888689985e-10
249	0x3e44ad920b748da4	9.628948623310492e-09
250	0xbe1bd31e90350b10	-1.6196098358539636e-09
251	0xbe05afc11b2e9b79	-6.311613925635489e-10
252	0xbe5124566b71450d	-1.5964679103278583e-08
253	0xbe9946a56c7cfe39	-3.7664117912350837e-07
254	0x3e053fc2c0a9a50d	6.184291978910453e-10
255	0x3e43f2661027c070	9.288485096494717e-09

b f8 [2346]
0	0xbfe2fb7237a7613c	-0.5931941115368669
1	0xbfd42fd3da19b29e	-0.31541916178574947
2	0x3c69000000000000	1.0842021724855044e-17
3	0xbfbd56ca4e7f6e08	-0.11460556427430657
4	0x3fcc1a3b2f133cf1	0.2195505123004078
5	0x3fb51fd59fe81014	0.08251700548140689
6	0xbffa73876c4d54f0	-1.6532053213643927
7	0xbfd818ec2b70d839	-0.376521150992065
8	0x3ceac00000000000	2.9698465908722937e-15
9	0x3fc6aecf1e5f8252	0.1772097490602556
10	0x3fb9af21928bfbbe	0.10032853915980319
11	0xbfbdac84b7ac1012	-0.11591367229635832
12	0xbff1aa339d107242	-1.104053128750039
13	0xbfe718941aecfc70	-0.7217503095524886
14	0xbcd8360000000000	-1.3439770130130313e-15
15	0xbfa4339a6cdcfc68	-0.03945620135208899
16	0x3fb0b400266923f3	0.06524659097443912
17	0xbfa697cc1f5eee25	-0.0441268719000301
18	0xbff06facd70d3768	-1.0272644424871604
19	0xbfe57a54e0bde899	-0.6711830510605693
20	0xbcd6b80000000000	-1.2611439670351388e-15
21	0xbf9041e21b941e18	-0.015876324589980312
22	0x3fa27b9976b911be	0.03609923910383682
23	0xbfa356edc7900dbd	-0.03777258931225045
24	0xbfee325a6b9ce9c0	-0.9436466314139622
25	0xbfe3957cde63c47c	-0.6119980186032445
26	0x3cf1e40000000000	3.972516759986888e-15
27	0xbf99da0904568358	-0.02524580086685843
28	0x3faf733f80189580	0.06142614782974487
29	0xbf8d0a0e1077b084	-0.014179334523724892
30	0xbfdc7248552492e0	-0.4444752532456686
31	0xbfd24e8c05b54f5a	-0.2860441261047889
32	0xbcec900000000000	-3.1710745140856034e-15
33	0xbfb8bcd63e55dfe3	-0.0966314222513343
34	0x3fc56548dc35654d	0.1671534610020821
35	0x3f59108678559720	0.001529818838514392
36	0xc005ebc4430a2d70	-2.740120433567135
37	0xbd2b2d8000000000	-4.827735433643454e-14
38	0x3ce0e40000000000	1.8752360775309285e-15
39	0xbceb800000000000	-3.0531133177191805e-15
40	0xbfce605264313ca7	-0.23731450931743334
41	0x3fe1790f615cf778	0.5460278417228741
42	0xc006fefc9d199dda	-2.874505259842164
43	0xbd64af6c00000000	-5.879099290728718e-13
44	0xbce5ef0000000000	-2.435118079402443e-15
45	0xbca8000000000000	-1.6653345369377348e-16
46	0x3fc08d165cdc3413	0.12930564436138123
47	0x3fe31c7e59a6fbcb	0.5972282172223172
48	0xc00534c6740581d6	-2.650769144456926
49	0x3d60a0fe00000000	4.726210742211912e-13
50	0x3ce4de4000000000	2.3168316223842744e-15
51	0xbd08b00000000000	-1.0963452368173421e-14
52	0x3fb275f3dc1a8a4c	0.07211231349587272
53	0x3fe092488b7a27e9	0.5178568576968675
54	0xc003175109a0af58	-2.3863850357210303
55	0xbd82bad200000000	-2.1293279639511553e-12
56	0x3cf2d00000000000	4.1772141301521515e-15
57	0x3cf1800000000000	3.885780586188048e-15
58	0x3fbfbdc74a2630e4	0.12398953972132493
59	0x3fda5e16315ff231	0.4119925958800961
60	0xbff7950859eb7e20	-1.4738849174972373
61	0xbfc8db590439f958	-0.19419396120424426
62	0x3cf0f00000000000	3.760880495917718e-15
63	0x3fad973242c52836	0.05779416146340603
64	0x3fd0db86a85f9b30	0.2633988041183555
65	0x3fc8601ecb02ef4c	0.19043335831326613
66	0xbfee75a5643299e0	-0.9518610913262897
67	0xbfdd3438f3cbf416	-0.4563124066187937
68	0x3cf8100000000000	5.342948306008566e-15
69	0x3f9a907978490314	0.025941751448274777
70	0xbfb0752eef803fba	-0.06428807589713773
71	0x3fc37be22c537907	0.1522181240497462
72	0xbfe2a44f0187e300	-0.5825572042368492
73	0xbfd0c68c71af0881	-0.2621184454147923
74	0xbcd1e80000000000	-9.939965517347105e-16
75	0xbfb56fb77f74bda6	-0.08373591291159829
76	0x3fca8fbf877a58c9	0.20751184573300055
77	0x3fc0c98e25686c72	0.1311509783416543
78	0xc00a37c24034b2d4	-3.2772259727556534
79	0xbd466de000000000	-1.5936904573798927e-13
80	0x3c99000000000000	8.673617379884035e-17
81	0x3cd6000000000000	1.2212453270876722e-15
82	0xbfcd539f5554fc93	-0.22911445299721275
83	0xbfb2e9600b8db998	-0.07387352258749613
84	0xc00b927fa311db34	-3.44653251074069
85	0x3d19698000000000	2.2570487145934237e-14
86	0xbcdb480000000000	-1.5144135945277526e-15
87	0xbcf5c00000000000	-4.829470157119431e-15
88	0x3fbfd0fd18ac8e27	0.12428266384500174
89	0xbfb5c7a7b04bfa5d	-0.08507774404640985
90	0xc0095d932c9ed4c4	-3.1706908689471636
91	0x3d674ee500000000	6.624583694103681e-13
92	0x3ccfe80000000000	8.8557633448616e-16
93	0xbcf8000000000000	-5.329070518200751e-15
94	0x3fb1e2feb58c3483	0.06986991817776027
95	0xbfb1555ddf7afc9c	-0.06770884233536595
96	0xc006a89a45dcd81c	-2.832325502206926
97	0xbd5eb5f400000000	-4.3642606889493507e-13
98	0xbc9c000000000000	-9.71445146547012e-17
99	0x3ce4000000000000	2.220446049250313e-15
100	0x3fbf12d16eff4a2b	0.1213808914174385
101	0xbfa6ce457efcce97	-0.04454247641697611
102	0xc0007e9353ccaf70	-2.0618044421043393
103	0xbd68b67800000000	-7.023791270821533e-13
104	0xbce6400000000000	-2.4702462297909733e-15
105	0x3d22040000000000	3.200217868482014e-14
106	0x3fc7e6b5226c5fb1	0.18672813587977324
107	0x3f8d6bbb39508c0c	0.014365637480358039
108	0xbffeb018c3c3a200	-1.917992367462034
109	0xbd36afc000000000	-8.059872214083441e-14
110	0x3cd6c00000000000	1.2628786905111156e-15
111	0xbcdee00000000000	-1.7139067942650854e-15
112	0xbfbfee1bc2c9829f	-0.1247269964747013
113	0x3f9acbf3f104b71e	0.026168643556210396
114	0xbff2863291741340	-1.15776306932203
115	0xbd68f57800000000	-7.093735321372918e-13
116	0xbcc7000000000000	-6.38378239159465e-16
117	0x3cf0b78000000000	3.711874557721373e-15
118	0x3fd9c42f857cadae	0.4025992206176977
119	0xbf6417237a965180	-0.0024524395891580286
120	0xc0053a0bb85d5d82	-2.6533426669590776
121	0x3d4f2c8000000000	2.2150337120052654e-13
122	0x3cede80000000000	3.3202607330196088e-15
123	0xbcf3c00000000000	-4.385380947269368e-15
124	0xbfcd6dc759ec708b	-0.22991268053818134
125	0xbfde5ed67782727d	-0.47453843756537833
126	0xc00635a398e297a0	-2.7761909431601026
127	0xbd5c196000000000	-3.9931252748814927e-13
128	0xbce5740000000000	-2.381775332516156e-15
129	0xbcf8c00000000000	-5.495603971894525e-15
130	0x3fc00962d359e9ec	0.12528643913158477
131	0xbfe077113f7375bf	-0.5145345916059155
132	0xc00490f6499671e8	-2.5707822560345797
133	0xbd709aa240000000	-9.438303003733717e-13
134	0x3cc8880000000000	6.808789643208968e-16
135	0x3cf6600000000000	4.9682480351975755e-15
136	0x3fb1e224a170b84a	0.06985691968358868
137	0xbfdcf64956c18312	-0.45253213379150836
138	0xc002a38fb932f220	-2.3298639744446206
139	0x3d315b3800000000	6.166204699620259e-14
140	0xbcff040000000000	-6.886852199627924e-15
141	0xbcf1c00000000000	-3.941291737419306e-15
142	0x3fbebd995ae44e90	0.12008055180586497
143	0xbfd7ab5d392c4cbf	-0.3698342378931549
144	0xbffd0b9bf6c17570	-1.8153342856306516
145	0x3d086c0000000000	1.0845491171806998e-14
146	0x3ccc800000000000	7.91033905045424e-16
147	0xbd0c000000000000	-1.2434497875801753e-14
148	0x3fc5af115c5357ce	0.1694051457222358
149	0xbfc61e0d44d2cf7b	-0.1727921091129437
150	0xbffb893e27705170	-1.7210065403533825
151	0xbd65ed1000000000	-6.231751226160043e-13
152	0x3cf2dc0000000000	4.187622471008012e-15
153	0x3ce9900000000000	2.8380076066980564e-15
154	0xbfbbae9cae5223f1	-0.10813311820869821
155	0xbfc0e43306197cbe	-0.1319640903265959
156	0xbfefae52ace425c0	-0.9900296570569296
157	0xbd338a4000000000	-6.942016406163987e-14
158	0xbcb1000000000000	-2.3592239273284576e-16
159	0xbcf0680000000000	-3.642919299551295e-15
160	0x3fd52d05abd61ea0	0.33087293415926844
161	0xbfbd8fc1c92930c1	-0.11547480736880102
162	0xc00262d798ccbdcc	-2.2982627809030642
163	0xbd30954000000000	-5.891467869112432e-14
164	0xbc80000000000000	-2.7755575615628914e-17
165	0x3ca8000000000000	1.6653345369377348e-16
166	0xbfd0351606380b6e	-0.2532401142818149
167	0x3fc1b4c9075015e7	0.1383296285350035
168	0xc003266793ce9298	-2.3937522456565823
169	0x3d589b8000000000	3.496924971813087e-13
170	0xbcbfe00000000000	-4.423544863740858e-16
171	0x3ce9800000000000	2.831068712794149e-15
172	0x3fc1c1e46c11b5ae	0.13872962261977534
173	0x3fc1b4c907501546	0.13832962853499903
174	0xc001d16f35387524	-2.2272628934721457
175	0xbd4ae11000000000	-1.9098785053461853e-13
176	0x3cdd3a0000000000	1.6224001309073088e-15
177	0xbc98000000000000	-8.326672684688674e-17
178	0x3fb39d1e63ee0d71	0.07661619128889698
179	0x3fc1b4c9075016bb	0.13832962853500938
180	0xc0005df58a36fb6c	-2.0458784864453516
181	0xbd4dba0000000000	-2.1121993043493603e-13
182	0x3c64000000000000	8.673617379884035e-18
183	0x3cd7000000000000	1.27675647831893e-15
184	0x3fc03d0ee152c469	0.12686334612002106
185	0x3fc148451ed6dc8f	0.13501800542664852
186	0xbffafaa8d5101dd0	-1.686196167256515
187	0xbd6d1c8000000000	-8.273937091018979e-13
188	0xbca9600000000000	-1.7607443281164592e-16
189	0x3d15480000000000	1.890154699424329e-14
190	0x3fc3032108d43fb2	0.1485329907522988
191	0x3fb761b8a64a695e	0.09133485851126497
192	0xbff9f6bf14097528	-1.6227408201878664
193	0x3d7329bc00000000	1.0892918511640204e-12
194	0xbc97000000000000	-7.979727989493313e-17
195	0xbcf2700000000000	-4.093947403305265e-15
196	0xbfb81cec8d2a3c25	-0.0941913456574502
197	0x3fb3c16f94dfeb22	0.07717034706722051
198	0xbfeccdfccee6bd30	-0.9001449624101152
199	0x3d4bda4000000000	1.9790419303333806e-13
200	0xbcd9800000000000	-1.4155343563970746e-15
201	0xbd03de0000000000	-8.822803598818041e-15
202	0x3fd24bb63133e903	0.28587107472380086
203	0x3faa76f049e6525f	0.05168867971511725
204	0xc001a58035aa3b44	-2.2058109467101605
205	0x3d257d8000000000	3.817432481234562e-14
206	0xbce1300000000000	-1.908195823574488e-15
207	0xbcde000000000000	-1.6653345369377348e-15
208	0xbfcf5a342924b856	-0.24494030007321282
209	0xbfc8807871b62a48	-0.19142060806582806
210	0xc00261324653f244	-2.2974591726654428
211	0x3d6f00e800000000	8.811736063041309e-13
212	0x3cc8c00000000000	6.869504964868156e-16
213	0x3cee000000000000	3.3306690738754696e-15
214	0x3fc12b3b92fa7c6c	0.13413185764963786
215	0xbfc8807871b62a19	-0.19142060806582675
216	0xc00119f13d6d016c	-2.1376671599284034
217	0x3d631e8000000000	5.433986594027829e-13
218	0x3cd2f00000000000	1.0512424264419451e-15
219	0xbcb0000000000000	-2.220446049250313e-16
220	0x3fb2fa0e0d6db9c4	0.07412803485724512
221	0xbfc8807871b62b45	-0.19142060806583508
222	0xbfff6ace5e0c6420	-1.9635757135167822
223	0x3d57c3e000000000	3.377229051970687e-13
224	0x3ceac80000000000	2.9733160378242474e-15
225	0x3d01d00000000000	7.91033905045424e-15
226	0x3fbf6cda5aef0110	0.12275471420344197
227	0xbfc813f4893cf308	-0.18810898495748796
228	0xbff9ead989c7a108	-1.6198363668464157
229	0xbd5d0dd000000000	-4.1288153451723986e-13
230	0xbcbf800000000000	-4.371503159461554e-16
231	0x3cb4000000000000	2.7755575615628914e-16
232	0x3fc36e9d0b0387fc	0.15181315458090683
233	0xbfc106ab6cddd4d8	-0.13301604095219122
234	0xbff8f0ff954a76f8	-1.5588374931025424
235	0xbd770b5b34000000	-1.3099202305537697e-12
236	0x3d00160000000000	7.143591274072492e-15
237	0xbd04e80000000000	-9.284240043427872e-15
238	0xbfb97cb85500f27f	-0.0995593268898549
239	0xbfbe8299e657f733	-0.11918031571982794
240	0xbfeba489e6402bd0	-0.8638352868159647
241	0xbd47031800000000	-1.635106980368839e-13
242	0xbd06c00000000000	-1.0103029524088925e-14
243	0xbcda500000000000	-1.4606371667724716e-15
244	0x3fd225543fdb2abd	0.28352838741254144
245	0xbfb41cb3ad60038a	-0.07856295569219021
246	0xbffffa4390df1b14	-1.9985995921176185
247	0x3d34f79000000000	7.448989342018209e-14
248	0x3cb9000000000000	3.469446951953614e-16
249	0x3ca0000000000000	1.1102230246251565e-16
250	0xbfcd21e16f986bb6	-0.22759645413392854
251	0x3fa471cb0d6b8bc6	0.03993067301578139
252	0xc000a73214776010	-2.0816384886675294
253	0xbd4c81a800000000	-2.0255064986374194e-13
254	0x3cb9000000000000	3.469446951953614e-16
255	0x3cd2000000000000	9.992007221626409e-16
