python-Linux/neural-sparse-linear-solvers-master/stand_small_test/5450869884112300794_3d6cf4f34ff60a1e5976499ab3ea7488b33d971e_b56ebcb09bef0a78c134e2a8a99bab2c59d79766.npz (npz, 36282 bytes, 3 tensors)

A_values f8 [8372]
000000 84 de 71 98 89 da ca 41 ed fa 56 88 51 3a 7f c1
       901059376.8896031 -32744728.521235395
000010 bc a6 5b b6 16 6e 55 c1 a9 c2 9d b0 51 21 60 c1
       -5617754.849343952 -8456845.51925786
000020 93 f2 3d d5 7e 83 75 41 ec 8f 5f ab 99 42 44 c1
       22558701.327623915 -2655539.3388538267
000030 bc a6 5b b6 16 6e 55 c1 a4 80 52 87 dd 87 c9 c1
       -5617754.849343952 -856668942.6445508
000040 6a 47 39 4f 5a 93 cc 41 55 e0 7d be eb 08 55 41
       958837918.4474919 5514158.976432879
000050 9c 0a 72 51 cb 72 51 41 06 04 71 3b 7e 45 34 c1
       4573997.272585537 -1328510.232193233
000060 b2 fa e3 b2 81 09 4b c1 7c 74 60 69 c2 50 cc c1
       -3543811.3975823754 -950109394.7535548
000070 8b a3 55 1a 45 bf 3d c1 9c 0a 72 51 cb 72 51 41
       -1949509.102869245 4573997.272585537
000080 de 51 90 91 79 ae dd 41 ba f9 1b 0b 77 c8 80 41
       1991894598.2549968 35196641.38865991
000090 ec 4a 20 a2 61 8c 7b c1 94 44 bb bc ad 74 c6 c1
       -28886554.13288395 -753490809.4630303
0000a0 27 62 9b 65 d6 bb 6f c1 ba f9 1b 0b 77 c8 80 41
       -16637619.175217701 35196641.38865991
0000b0 67 18 79 96 ab 7b 67 c1 ec 4a 20 a2 61 8c 7b c1
       -12311900.702282144 -28886554.13288395
0000c0 55 e0 7d be eb 08 55 41 ba f9 1b 0b 77 c8 80 41
       5514158.976432879 35196641.38865991
0000d0 b0 f4 9f 38 0d 3f a1 41 b2 fa e3 b2 81 09 4b 41
       144672412.3124137 3543811.3975823754
0000e0 25 85 9a 89 af fa 57 41 ba f9 1b 0b 77 c8 80 c1
       6286014.150056158 -35196641.38865991
0000f0 e4 42 fe e6 7e 0a 87 41 b3 b1 e9 57 4c 97 65 c1
       48320476.87415102 -11319906.747277116
000100 ed fa 56 88 51 3a 7f c1 ec 4a 20 a2 61 8c 7b c1
       -32744728.521235395 -28886554.13288395
000110 9e c3 78 5c e6 79 b2 41 93 f2 3d d5 7e 83 75 c1
       309978716.4717349 -22558701.327623915
000120 79 70 be 30 4e cf 82 41 52 33 04 05 2f f2 67 c1
       39446982.09298796 -12554616.156762753
000130 ec 4a 20 a2 61 8c 7b 41 a2 03 70 e1 6d 14 85 41
       28886554.13288395 44207548.17969443
000140 bc a6 5b b6 16 6e 55 c1 9c 0a 72 51 cb 72 51 41
       -5617754.849343952 4573997.272585537
000150 bd e9 69 be 0d c6 8a 41 f4 0b 47 9e 95 fd 62 c1
       56148407.80171535 -9956524.946172692
000160 bc a6 5b b6 16 6e 55 41 18 6b 4c 7f c4 19 5e 41
       5617754.849343952 7890705.989039205
000170 9c 0a 72 51 cb 72 51 c1 69 b5 05 90 b4 33 5b 41
       -4573997.272585537 7130834.250348427
000180 a9 c2 9d b0 51 21 60 c1 93 f2 3d d5 7e 83 75 c1
       -8456845.51925786 -22558701.327623915
000190 14 f2 9e e8 c0 12 ca 41 28 1a 28 75 81 de 42 c1
       874873297.2417626 -2473218.915286321
0001a0 bc a6 5b b6 16 6e 55 c1 7a 6a 4d 6f c0 0d 5b c1
       -5617754.849343952 -7091969.739100093
0001b0 4e ef 98 a6 ae 27 73 41 ec 8f 5f ab 99 42 44 c1
       20085482.412337594 -2655539.3388538267
0001c0 bc a6 5b b6 16 6e 55 c1 a4 80 52 87 dd 87 c9 c1
       -5617754.849343952 -856668942.6445508
0001d0 06 04 71 3b 7e 45 34 c1 b2 fa e3 b2 81 09 4b 41
       -1328510.232193233 3543811.3975823754
0001e0 8d d2 c4 11 3e 72 cc 41 00 c0 89 87 6c 4e 18 41
       954498083.5376755 398235.13236141205
0001f0 9c 0a 72 51 cb 72 51 41 eb 79 f5 72 8d f2 30 c1
       4573997.272585537 -1110669.4490581702
000200 b2 c2 f2 21 b4 ff 47 c1 7c 74 60 69 c2 50 cc c1
       -3145576.2652209634 -950109394.7535548
000210 8b a3 55 1a 45 bf 3d c1 9c 0a 72 51 cb 72 51 41
       -1949509.102869245 4573997.272585537
000220 94 44 bb bc ad 74 c6 c1 7a 96 ab d9 05 3c d6 41
       -753490809.4630303 1492129638.6810594
000230 ba f9 1b 0b 77 c8 80 41 ec 4a 20 a2 61 8c 7b c1
       35196641.38865991 -28886554.13288395
000240 75 96 ab ee 7f 26 c5 c1 27 62 9b 65 d6 bb 6f c1
       -709689309.3405291 -16637619.175217701
000250 ba f9 1b 0b 77 c8 80 41 67 18 79 96 ab 7b 67 c1
       35196641.38865991 -12311900.702282144
000260 ec 4a 20 a2 61 8c 7b c1 b2 fa e3 b2 81 09 4b c1
       -28886554.13288395 -3543811.3975823754
000270 25 85 9a 89 af fa 57 41 00 c0 89 87 6c 4e 18 41
       6286014.150056158 398235.13236141205
000280 ba f9 1b 0b 77 c8 80 41 da 93 e4 32 6f 43 a0 41
       35196641.38865991 136427417.44644052
000290 b2 c2 f2 21 b4 ff 47 41 03 c6 12 6b d2 9a 56 41
       3145576.2652209634 5925705.6730208425
0002a0 ba f9 1b 0b 77 c8 80 c1 e4 42 fe e6 7e 0a 87 41
       -35196641.38865991 48320476.87415102
0002b0 b3 b1 e9 57 4c 97 65 c1 93 f2 3d d5 7e 83 75 41
       -11319906.747277116 22558701.327623915
0002c0 79 70 be 30 4e cf 82 41 28 1a 28 75 81 de 42 c1
       39446982.09298796 -2473218.915286321
0002d0 ec 4a 20 a2 61 8c 7b c1 08 75 32 ab 74 23 af 41
       -28886554.13288395 261208661.59854913
0002e0 4e ef 98 a6 ae 27 73 c1 64 e0 e1 e1 b8 d0 81 41
       -20085482.412337594 37361436.23529127
0002f0 52 33 04 05 2f f2 67 c1 ec 4a 20 a2 61 8c 7b 41
       -12554616.156762753 28886554.13288395
000300 a2 03 70 e1 6d 14 85 41 f4 0b 47 9e 95 fd 62 c1
       44207548.17969443 -9956524.946172692
000310 bc a6 5b b6 16 6e 55 c1 9c 0a 72 51 cb 72 51 41
       -5617754.849343952 4573997.272585537
000320 a3 34 78 2d ec 9f 87 41 0d f9 6d 3c f9 e2 61 c1
       49544581.68369415 -9377737.88842442
000330 bc a6 5b b6 16 6e 55 41 18 6b 4c 7f c4 19 5e 41
       5617754.849343952 7890705.989039205
000340 9c 0a 72 51 cb 72 51 c1 69 b5 05 90 b4 33 5b 41
       -4573997.272585537 7130834.250348427
000350 7a 6a 4d 6f c0 0d 5b c1 4e ef 98 a6 ae 27 73 c1
       -7091969.739100093 -20085482.412337594
000360 09 7b dc a1 3b d2 c9 41 4e ef 98 a6 ae 27 73 c1
       866416451.7225047 -20085482.412337594
000370 bc a6 5b b6 16 6e 55 c1 ec 8f 5f ab 99 42 44 c1
       -5617754.849343952 -2655539.3388538267
000380 bc a6 5b b6 16 6e 55 c1 a4 80 52 87 dd 87 c9 c1
       -5617754.849343952 -856668942.6445508
000390 eb 79 f5 72 8d f2 30 c1 b2 c2 f2 21 b4 ff 47 41
       -1110669.4490581702 3145576.2652209634
0003a0 0b 1a a7 52 1b 68 cc 41 b2 c2 f2 21 b4 ff 47 41
       953169573.3054823 3145576.2652209634
0003b0 9c 0a 72 51 cb 72 51 41 7c 74 60 69 c2 50 cc c1
       4573997.272585537 -950109394.7535548
0003c0 8b a3 55 1a 45 bf 3d c1 9c 0a 72 51 cb 72 51 41
       -1949509.102869245 4573997.272585537
0003d0 75 96 ab ee 7f 26 c5 c1 60 e8 9b f6 5d 03 c6 41
       -709689309.3405291 738638829.218029
0003e0 ba f9 1b 0b 77 c8 80 41 ec 4a 20 a2 61 8c 7b c1
       35196641.38865991 -28886554.13288395
0003f0 27 62 9b 65 d6 bb 6f c1 ba f9 1b 0b 77 c8 80 41
       -16637619.175217701 35196641.38865991
000400 67 18 79 96 ab 7b 67 c1 ec 4a 20 a2 61 8c 7b c1
       -12311900.702282144 -28886554.13288395
000410 b2 c2 f2 21 b4 ff 47 c1 03 c6 12 6b d2 9a 56 41
       -3145576.2652209634 5925705.6730208425
000420 b2 c2 f2 21 b4 ff 47 41 ba f9 1b 0b 77 c8 80 41
       3145576.2652209634 35196641.38865991
000430 22 37 39 9a 96 84 9d 41 ba f9 1b 0b 77 c8 80 c1
       123807142.55587438 -35196641.38865991
000440 e4 42 fe e6 7e 0a 87 41 b3 b1 e9 57 4c 97 65 c1
       48320476.87415102 -11319906.747277116
000450 4e ef 98 a6 ae 27 73 41 64 e0 e1 e1 b8 d0 81 41
       20085482.412337594 37361436.23529127
000460 4e ef 98 a6 ae 27 73 c1 ec 4a 20 a2 61 8c 7b c1
       -20085482.412337594 -28886554.13288395
000470 41 46 02 d9 75 7e a5 41 52 33 04 05 2f f2 67 c1
       180304620.50444224 -12554616.156762753
000480 ec 4a 20 a2 61 8c 7b 41 a2 03 70 e1 6d 14 85 41
       28886554.13288395 44207548.17969443
000490 0d f9 6d 3c f9 e2 61 c1 bc a6 5b b6 16 6e 55 c1
       -9377737.88842442 -5617754.849343952
0004a0 9c 0a 72 51 cb 72 51 41 a6 71 e6 c5 86 e0 82 41
       4573997.272585537 39588056.737521455
0004b0 bc a6 5b b6 16 6e 55 41 18 6b 4c 7f c4 19 5e 41
       5617754.849343952 7890705.989039205
0004c0 9c 0a 72 51 cb 72 51 c1 69 b5 05 90 b4 33 5b 41
       -4573997.272585537 7130834.250348427
0004d0 ec 8f 5f ab 99 42 44 c1 bc a6 5b b6 16 6e 55 41
       -2655539.3388538267 5617754.849343952
0004e0 0c 0c ee f5 8e f1 ca 41 ed fa 56 88 51 3a 7f c1
       904076779.8597426 -32744728.521235395
0004f0 d0 92 cc 3b 48 64 1e c1 a9 c2 9d b0 51 21 60 c1
       -497938.0583975734 -8456845.51925786
000500 93 f2 3d d5 7e 83 75 41 3a 88 2d 7c 5d 05 47 c1
       22558701.327623915 -3017402.9701395305
000510 e9 6f 18 3a 5b 54 57 c1 a4 80 52 87 dd 87 c9 c1
       -6115692.907741525 -856668942.6445508
000520 7c 74 60 69 c2 50 cc c1 af 2a 61 16 a2 10 dd 41
       -950109394.7535548 1950517337.5182302
000530 55 e0 7d be eb 08 55 41 9c 0a 72 51 cb 72 51 41
       5514158.976432879 4573997.272585537
000540 06 04 71 3b 7e 45 34 c1 b2 fa e3 b2 81 09 4b c1
       -1328510.232193233 -3543811.3975823754
000550 f4 0d 89 dd e9 8d cd c1 8b a3 55 1a 45 bf 3d c1
       -991679419.0707383 -1949509.102869245
000560 9c 0a 72 51 cb 72 51 41 27 62 9b 65 d6 bb 6f c1
       4573997.272585537 -16637619.175217701
000570 ba f9 1b 0b 77 c8 80 c1 cc 44 9e 9e 51 f6 dd 41
       -35196641.38865991 2010728058.472949
000580 00 08 30 14 d4 b2 46 41 ec 4a 20 a2 61 8c 7b c1
       2975144.1577157974 -28886554.13288395
000590 94 44 bb bc ad 74 c6 c1 96 bb 7c 43 03 f6 71 c1
       -753490809.4630303 -18833460.217952333
0005a0 3a fa 5e 4c a4 33 82 41 67 18 79 96 ab 7b 67 c1
       38171785.54637571 -12311900.702282144
0005b0 ec 4a 20 a2 61 8c 7b c1 ba f9 1b 0b 77 c8 80 41
       -28886554.13288395 35196641.38865991
0005c0 e4 42 fe e6 7e 0a 87 41 55 e0 7d be eb 08 55 41
       48320476.87415102 5514158.976432879
0005d0 00 08 30 14 d4 b2 46 41 f2 1c 85 31 a7 b8 ad 41
       2975144.1577157974 249320344.75998646
0005e0 b2 fa e3 b2 81 09 4b 41 25 85 9a 89 af fa 57 41
       3543811.3975823754 6286014.150056158
0005f0 3a fa 5e 4c a4 33 82 c1 95 e7 a8 4e fb e1 87 41
       -38171785.54637571 50085737.83247296
000600 b3 b1 e9 57 4c 97 65 c1 52 33 04 05 2f f2 67 c1
       -11319906.747277116 -12554616.156762753
000610 ed fa 56 88 51 3a 7f c1 ec 4a 20 a2 61 8c 7b c1
       -32744728.521235395 -28886554.13288395
000620 6e d2 44 89 d9 41 b3 41 93 f2 3d d5 7e 83 75 c1
       323082633.2688359 -22558701.327623915
000630 79 70 be 30 4e cf 82 41 01 da 81 99 65 fe 68 c1
       39446982.09298796 -13103916.797101023
000640 ec 4a 20 a2 61 8c 7b 41 a2 03 70 e1 6d 14 85 41
       28886554.13288395 44207548.17969443
000650 bc a6 5b b6 16 6e 55 c1 18 6b 4c 7f c4 19 5e 41
       -5617754.849343952 7890705.989039205
000660 d0 92 cc 3b 48 64 1e c1 9c 0a 72 51 cb 72 51 41
       -497938.0583975734 4573997.272585537
000670 ce d0 84 9b fd 55 91 41 f4 0b 47 9e 95 fd 62 c1
       72712038.87970278 -9956524.946172692
000680 e9 6f 18 3a 5b 54 57 41 3d c4 49 44 34 62 5f 41
       6115692.907741525 8227025.067002353
000690 9c 0a 72 51 cb 72 51 c1 69 b5 05 90 b4 33 5b 41
       -4573997.272585537 7130834.250348427
0006a0 ec 8f 5f ab 99 42 44 c1 bc a6 5b b6 16 6e 55 41
       -2655539.3388538267 5617754.849343952
0006b0 a9 c2 9d b0 51 21 60 c1 93 f2 3d d5 7e 83 75 c1
       -8456845.51925786 -22558701.327623915
0006c0 9c 1f 1b 46 c6 29 ca 41 28 1a 28 75 81 de 42 c1
       877890700.2119021 -2473218.915286321
0006d0 d0 92 cc 3b 48 64 1e c1 7a 6a 4d 6f c0 0d 5b c1
       -497938.0583975734 -7091969.739100093
0006e0 4e ef 98 a6 ae 27 73 41 3a 88 2d 7c 5d 05 47 c1
       20085482.412337594 -3017402.9701395305
0006f0 e9 6f 18 3a 5b 54 57 c1 a4 80 52 87 dd 87 c9 c1
       -6115692.907741525 -856668942.6445508
000700 7c 74 60 69 c2 50 cc c1 06 04 71 3b 7e 45 34 c1
       -950109394.7535548 -1328510.232193233
000710 b2 fa e3 b2 81 09 4b 41 40 f0 a6 f7 13 00 dd 41
       3543811.3975823754 1946177502.6084137
000720 00 c0 89 87 6c 4e 18 41 9c 0a 72 51 cb 72 51 41
       398235.13236141205 4573997.272585537
000730 eb 79 f5 72 8d f2 30 c1 b2 c2 f2 21 b4 ff 47 c1
       -1110669.4490581702 -3145576.2652209634
000740 f4 0d 89 dd e9 8d cd c1 8b a3 55 1a 45 bf 3d c1
       -991679419.0707383 -1949509.102869245
000750 9c 0a 72 51 cb 72 51 41 27 62 9b 65 d6 bb 6f c1
       4573997.272585537 -16637619.175217701
000760 ba f9 1b 0b 77 c8 80 c1 94 44 bb bc ad 74 c6 c1
       -35196641.38865991 -753490809.4630303
000770 68 89 b9 e6 dd 83 d6 41 00 08 30 14 d4 b2 46 41
       1510963098.8990116 2975144.1577157974
000780 ec 4a 20 a2 61 8c 7b c1 75 96 ab ee 7f 26 c5 c1
       -28886554.13288395 -709689309.3405291
000790 96 bb 7c 43 03 f6 71 c1 3a fa 5e 4c a4 33 82 41
       -18833460.217952333 38171785.54637571
0007a0 67 18 79 96 ab 7b 67 c1 ec 4a 20 a2 61 8c 7b c1
       -12311900.702282144 -28886554.13288395
0007b0 ba f9 1b 0b 77 c8 80 41 e4 42 fe e6 7e 0a 87 41
       35196641.38865991 48320476.87415102
0007c0 b2 fa e3 b2 81 09 4b c1 25 85 9a 89 af fa 57 41
       -3543811.3975823754 6286014.150056158
0007d0 00 c0 89 87 6c 4e 18 41 00 08 30 14 d4 b2 46 41
       398235.13236141205 2975144.1577157974
0007e0 1b bc c9 2b 09 bd ac 41 b2 c2 f2 21 b4 ff 47 41
       241075349.89401326 3145576.2652209634
0007f0 03 c6 12 6b d2 9a 56 41 3a fa 5e 4c a4 33 82 c1
       5925705.6730208425 -38171785.54637571

x f8 [804]
000000 f7 0d 55 93 24 28 3c be 29 ce 0a d7 90 e0 93 be
       -6.555767752717328e-09 -2.961935115328347e-07
000010 7a 98 ed 66 86 6b 29 be 2e 74 3a 91 2a bf 65 3e
       -2.959279758241922e-09 4.050646587353937e-08
000020 69 fe 9c 91 73 47 23 be 66 4a 69 6c b3 27 32 3e
       -2.2443834680561727e-09 4.227059319396202e-09
000030 6c 08 31 17 b6 0c 38 be e3 fa 39 5f 9a 44 b6 be
       -5.599496299850886e-09 -1.327275069323564e-06
000040 39 8d 8f 65 ef fc 35 be ca 6d 5b f0 2e db 62 3e
       -5.119486689585793e-09 3.5122381487300735e-08
000050 76 18 f3 a2 49 00 03 be d1 06 df 18 a5 be 53 3e
       -5.530054798627421e-10 1.8388691062698346e-08
000060 01 82 5c 4e c3 72 37 3e 2f 17 e8 7c 23 37 be be
       5.45948106669079e-09 -1.8009773047346434e-06
000070 85 64 6a f0 dc 3b 37 be c4 42 1a 58 51 e1 3f 3e
       -5.4095499248895716e-09 7.422675253645778e-09
000080 60 bb b1 a6 a4 d4 26 3e 33 e8 d5 78 f9 01 64 3e
       2.6578359977759797e-09 3.7267269363325176e-08
000090 a4 79 a8 16 d9 37 42 be 96 f2 59 b6 15 d6 93 be
       -8.483490095359705e-09 -2.955834389263126e-07
0000a0 c0 40 55 5a 06 5d 03 be bb d4 bb dc 25 a1 4e 3e
       -5.635484758241189e-10 1.4262964940606603e-08
0000b0 a9 b1 81 f8 8c e3 2b be 96 4b ad 47 dd a5 22 3e
       -3.246691752297034e-09 2.1709021780012452e-09
0000c0 ce 58 33 41 05 05 56 be 66 59 92 78 51 44 b6 be
       -2.0507361209208475e-08 -1.3272087662545453e-06
0000d0 0c eb 15 5c a8 81 21 be 17 b2 c4 0e 1c 5a 41 3e
       -2.038021946243597e-09 8.080150292420552e-09
0000e0 b2 2c 05 0f 99 11 49 be 64 ac ce ec b9 44 57 3e
       -1.1673542549834138e-08 2.1670443928607395e-08
0000f0 56 86 78 8b 28 2b 87 be cc 79 04 b6 f7 36 be be
       -1.7261942784987374e-07 -1.800937489866369e-06
000100 1a 5c 1f 70 08 ab 27 be c8 6f f4 3b ba f8 33 3e
       -2.755329187881927e-09 4.649998552247884e-09
000110 c3 ff ee e5 37 f0 37 be 64 b3 89 37 76 82 61 3e
       -5.573582122686412e-09 3.2614201954427717e-08
000120 18 f9 76 e7 9a d5 53 be 00 73 04 ff 33 ce 93 be
       -1.8472219724104864e-08 -2.951246633896607e-07
000130 61 42 2f 2e 55 be f4 3d 9c 9b dd c2 8a 69 57 3e
       3.0185746800106985e-10 2.1804378906068215e-08
000140 ca 19 9d e2 cd 96 46 be 45 a6 f3 45 b2 10 42 be
       -1.0518859633703436e-08 -8.412273709616941e-09
000150 7b 3d e6 ef 3c 14 86 be c6 e6 35 0c 9c 47 b6 be
       -1.6450177748844635e-07 -1.3279750853120922e-06
000160 ac 31 61 37 b4 20 15 3e 40 f7 4a ce 9a d8 62 3e
       1.229796901049352e-09 3.510361937717868e-08
000170 1d 2d a3 ba 18 65 54 be a0 c7 9d f6 8a 9d 0b be
       -1.899423877279633e-08 -8.037139679761955e-10
000180 8f ac c9 b4 d3 06 93 be 2d 18 64 2e a2 38 be be
       -2.835194450659178e-07 -1.8013253622619412e-06
000190 ad 20 c2 ee b3 c1 12 3e 17 12 99 09 7a 38 3b 3e
       1.0917808280993781e-09 6.337792646220645e-09
0001a0 38 9f 0a 78 a8 53 32 be 74 09 71 ed e2 76 36 3e
       -4.267038167825199e-09 5.230400743649201e-09
0001b0 c0 32 9a 89 12 50 46 be 9f 4b 35 15 91 b9 93 be
       -1.0390199189978435e-08 -2.9392346797168857e-07
0001c0 ce 8a ad dc c9 a1 09 3e ce 64 55 e6 c0 67 51 3e
       7.459889870378351e-10 1.6209936855780505e-08
0001d0 d1 cb 9c 4c fe 0f 11 be 08 02 c5 39 67 4d 41 be
       -9.931667037821508e-10 -8.057037530749884e-09
0001e0 70 16 41 8f 37 83 11 3e 9e 9f 5f 2a 23 89 95 be
       1.019365533838109e-09 -3.2090683032984063e-07
0001f0 de 29 df f2 63 79 2a be 6a bf ad 55 ee 0d 67 3e
       -3.0820003415458527e-09 4.29421997603876e-08
000200 a8 e6 2e f3 ae dc d0 3d 0a 5c fc c6 9c be 41 3e
       6.134376062307836e-11 8.262963840537913e-09
000210 80 e5 a0 25 87 f8 43 3e fb c6 25 4b 12 93 b4 be
       9.299634108020424e-09 -1.226335638007354e-06
000220 63 00 99 c2 c2 a2 38 be aa 28 3b a0 c3 1c 62 3e
       -5.735965516418836e-09 3.3736899521917744e-08
000230 3e ac 95 f2 97 61 2f be 56 f6 9f f8 42 30 4b 3e
       -3.6532553828229304e-09 1.2660642107610657e-08
000240 76 6b 7c 28 9a 02 6b be f9 2e 56 5b 10 39 bc be
       -5.031035238256706e-08 -1.6822162768074174e-06
000250 28 9b 63 80 29 9b 3b be e7 07 40 c9 35 3d 44 3e
       -6.4275465004466104e-09 9.424566273233975e-09
000260 78 25 e6 16 83 88 20 be 08 b8 95 8a 78 18 29 3e
       -1.924723650591273e-09 2.9215111065408704e-09
000270 30 a2 da 6d 54 6a 37 be 7c eb eb 59 d5 84 95 be
       -5.45181119490697e-09 -3.206563067706387e-07
000280 64 4f 65 86 4c 12 fa 3d 54 96 5e 31 96 b8 4c 3e
       3.793899694367319e-10 1.3374277279251149e-08
000290 3a b7 ce 2c 97 e0 24 be 42 9f 0e d7 c5 d3 22 be
       -2.4304383839343865e-09 -2.1917789184777546e-09
0002a0 c0 4a e2 f2 dd 38 31 be 2c de 47 24 dd 91 b4 be
       -4.0098411658300456e-09 -1.2260544660617747e-06
0002b0 10 a2 93 b9 23 6a 03 3e 6c a1 7b 8c 22 dd 46 3e
       5.6503944852302e-10 1.0646790462668694e-08
0002c0 a9 b6 4d 76 a5 6a 27 be 11 92 56 dc 7f 58 2c be
       -2.7260495409878767e-09 -3.2998739042539464e-09
0002d0 0a 4e 48 6a 92 0a 62 be 3a 7c 7f 7d 84 38 bc be
       -3.360453363159719e-08 -1.6820890689146115e-06
0002e0 40 8a ab 92 d5 a9 01 3e 0e 6a 72 e0 e1 7b 31 3e
       5.140730387731521e-10 4.070791265838463e-09
0002f0 98 90 ab 36 d3 a9 2e 3e b8 05 65 8f 78 6f 43 be
       3.569687147751515e-09 -9.050328913923725e-09
000300 59 21 a8 ef 5c e1 39 be 6c b3 62 a6 d9 89 95 be
       -6.025732574809745e-09 -3.209483224835721e-07
000310 3b 1e 8e ae 31 68 f4 bd ad 74 e2 0d 39 c0 51 3e
       -2.969610517169596e-10 1.6531786488893243e-08
000320 9a 0b c2 28 6c 0d 28 be 87 7c 52 6b 44 d6 15 3e
       -2.80007156876198e-09 1.2710796142089303e-09
000330 8e 6a f3 2a 61 a7 39 be fa b5 25 8f c7 93 b4 be
       -5.9729969158323715e-09 -1.2265004981319833e-06
000340 ca 50 e2 5f fc 49 f6 bd 49 48 90 56 e7 d1 49 3e
       -3.2434774300750296e-10 1.20233447243768e-08
000350 84 24 b6 7e d7 36 11 be 25 f7 1f 57 0b 46 15 3e
       -1.001999811981925e-09 1.2382871087015554e-09
000360 e5 70 4c ae a3 4e 3a be e1 13 a8 0c dd 39 bc be
       -6.125118832947496e-09 -1.68240244369341e-06
000370 cb d5 8d d6 fc 03 d0 3d 45 35 df 9c d5 44 33 3e
       5.82643288117153e-11 4.486386774192699e-09
000380 a8 50 6d 6e 43 75 38 3e 26 3b c6 ac b3 73 3d be
       5.694585892099424e-09 -6.857318890140241e-09
000390 48 8d 00 ba 0f 89 36 be c8 13 91 88 ed 96 95 be
       -5.246930806531655e-09 -3.217095430645039e-07
0003a0 26 60 67 76 23 fd fd 3d 46 07 c0 05 1e 10 54 3e
       4.363948008545307e-10 1.8685085798059774e-08
0003b0 9f 92 32 d0 0c 1e 18 be 64 50 37 7a f1 9d 18 be
       -1.4038164526579056e-09 -1.432896003989126e-09
0003c0 bf 8a e2 42 de 4a 30 be 11 a1 eb 3c 79 98 b4 be
       -3.793382537044665e-09 -1.2275934186349475e-06
0003d0 e9 cb 6c ea 99 1f 08 3e 8a 1c 49 be 5f 15 52 3e
       7.020845752426133e-10 1.6841564492197743e-08
0003e0 78 a4 5d db 86 91 f3 bd 1e 80 5d 30 81 43 27 3e
       -2.847586293203409e-10 2.708249960162419e-09
0003f0 3e b5 d2 38 50 6a 3c 3e d4 18 0e de ec 3c bc be
       6.615949466369204e-09 -1.6831153219778597e-06
000400 1a 6f 72 49 9c 17 05 3e 9f 6d ab 8a a7 86 18 3e
       6.138646421859902e-10 1.4276007413356656e-09
000410 04 9f 3c b4 35 82 0c 3e ac 04 ce 4e 43 5e 43 3e
       8.297103910814864e-10 9.019027713684757e-09
000420 db b5 1d 29 fd aa 38 be c6 77 e8 d5 f4 a4 95 be
       -5.743448954154908e-09 -3.225261106259559e-07
000430 5e 29 7b 7e 5d a3 01 3e 62 0b cf 54 54 80 53 3e
       5.133375920193458e-10 1.8161988624630223e-08
000440 70 d5 50 13 e6 be 04 be 01 bc 60 e0 17 9a 09 3e
       -6.037792823275434e-10 7.451141377128544e-10
000450 71 47 6f 8f 12 06 50 be 43 a9 9a 0e 2e 99 b4 be
       -1.4923252824299508e-08 -1.2277578726274826e-06
000460 72 40 fa a0 3b 11 16 3e 12 c1 b9 98 b9 ca 4a 3e
       1.284486853608636e-09 1.2475948072565642e-08
000470 78 e2 2e fd 6a f7 3b be 1d 17 18 95 a6 16 52 3e
       -6.511452671264283e-09 1.6846209155102636e-08
000480 a2 4e 0f c0 f4 02 87 be 22 f0 e7 c8 77 3c bc be
       -1.7144938627024757e-07 -1.683008835961203e-06
000490 0b c0 cb 1f e1 9e 1e 3e 99 f0 c9 03 49 33 35 3e
       1.7823548185826706e-09 4.936087147200778e-09
0004a0 27 b8 ec b8 3d 45 50 be c0 87 67 59 d9 f1 60 3e
       -1.5153058859056764e-08 3.1562005609543934e-08
0004b0 ec 68 b3 d1 0a ef 50 be a1 23 95 33 7b bc 95 be
       -1.5770791878023645e-08 -3.2389543809914203e-07
0004c0 a3 c5 09 20 98 c6 ff 3d d4 36 c9 17 71 53 51 3e
       4.623981475824455e-10 1.613604315642241e-08
0004d0 15 2e 9f e5 c8 8c 42 be 5a 05 87 a2 6f ab 48 3e
       -8.637989146792394e-09 1.1487711296871023e-08
0004e0 39 21 fc 0b 06 e7 85 be 0f 1b 93 4a 4c 9c b4 be
       -1.6318586481428896e-07 -1.2284838624574648e-06
0004f0 80 77 c0 66 ce f8 1c 3e 2e 89 d9 6a bb ec 4f 3e
       1.6863864983334678e-09 1.486611308636891e-08
000500 be 3e 74 db 49 56 42 be 5c d2 aa e0 2f 3e 61 3e
       -8.538861047515733e-09 3.211743767242673e-08
000510 73 39 e9 12 a8 ff 92 be b6 9e 84 0e 42 3e bc be
       -2.8310207059603774e-07 -1.6834256318462577e-06
000520 db 94 2d 88 0a a4 28 3e dd 35 f8 9d a3 70 39 3e
       2.8685649978852687e-09 5.923210782543152e-09
000530 6e 6f 0e 67 f8 89 49 be 01 4a ff 5f cb df 63 3e
       -1.1892498737353313e-08 3.701857664819818e-08
000540 2a 33 80 a2 8a e7 45 be bd 03 0f 47 11 d3 95 be
       -1.0200058644959673e-08 -3.252101299887851e-07
000550 a8 32 71 94 73 bb 1b 3e f1 b9 d6 43 dc 09 66 3e
       1.614228377502036e-09 4.104993720930036e-08
000560 24 6e af 8f b1 92 40 be 92 db ef 7d 1f b7 4c be
       -7.717414698551316e-09 -1.3371614869166052e-08
000570 6c 43 c4 77 18 6d 80 be 1b e7 fc 88 45 9a b4 be
       -1.2238438874174918e-07 -1.2280120564437219e-06
000580 3c e4 de 9d c9 70 22 3e 93 46 0f a9 35 9b 53 3e
       2.1467656393566603e-09 1.8259778192790156e-08
000590 ba c9 b8 56 95 94 3f be f0 da 23 47 7d f7 5a be
       -7.352885726977622e-09 -2.5114748011260095e-08
0005a0 b9 64 0f ce 50 63 24 3e d4 10 27 04 dd aa 94 be
       2.3734699626529927e-09 -3.079687795027657e-07
0005b0 c2 7f a0 00 55 74 29 be 51 ab 3f cf 7e 26 67 3e
       -2.963284733057885e-09 4.312092896626794e-08
0005c0 84 96 ad 51 0f 23 0a 3e aa f8 b6 8c f7 22 26 3e
       7.606854342223599e-10 2.5770382266666323e-09
0005d0 99 41 b8 b0 ce 35 49 3e 3d 19 39 2d 98 3b b4 be
       1.1739407244075488e-08 -1.205968307342578e-06
0005e0 ca 9e 58 f2 09 a3 37 be 3e 56 45 c8 40 84 62 3e
       -5.503387778079862e-09 3.448988031516356e-08
0005f0 05 3b f7 05 7c eb 1f be 49 53 8d 56 ed 1c 30 be
       -1.8579804568685254e-09 -3.751599344404445e-09
000600 58 ae bf bf 3e a8 6a be 98 84 1f 53 73 ca bc be
       -4.965291819356055e-08 -1.7160667309323577e-06
000610 4d b9 0b 11 b9 e5 3a be 21 0d 12 87 02 f6 42 3e
       -6.262528510295132e-09 8.829392524626135e-09
000620 95 81 b4 9a 1b c5 29 be 6e 37 c2 d2 ad b8 38 be
       -3.0000173089149586e-09 -5.755900017149461e-09
000630 d6 82 c3 87 4e 51 28 be 58 3d 90 38 ee 9d 94 be
       -2.8309417571517278e-09 -3.072159918135462e-07
000640 3e e8 e9 63 b0 a2 fd 3d 5d 0c 0e 2b 5e 61 4b 3e
       4.3125334198987687e-10 1.2749965834637393e-08
000650 b3 67 97 83 93 d9 d7 3d 13 c8 04 41 6e 95 1e 3e
       8.676545670988123e-11 1.7802064302500846e-09
000660 c0 a1 d5 5c 05 00 a3 3d ee d3 fe 13 01 36 b4 be
       8.640236877596485e-12 -1.20466673079783e-06
000670 ce bd 24 71 34 c1 ff 3d ac 83 1a cb ff af 47 3e
       4.6209179637532564e-10 1.1030350274931257e-08
000680 33 d5 cd 12 da 13 0a be 23 b8 3d 87 0b 00 24 be
       -7.589564858593342e-10 -2.3283269148875113e-09
000690 dc da 86 02 aa 2c 61 be 75 bf 63 a7 2b c9 bc be
       -3.198994164308211e-08 -1.7157687160450058e-06
0006a0 56 36 c4 8f 63 5c d2 3d 88 44 ba 88 77 83 33 3e
       6.679654393980169e-11 4.543350705760288e-09
0006b0 f2 2d 67 a5 ab c1 25 be dc 5e 57 b2 15 e0 35 be
       -2.5327929018204355e-09 -5.0932474118982494e-09
0006c0 de 31 b0 e0 25 37 2f be 7e 74 17 f2 6d 9a 94 be
       -3.6339533652247965e-09 -3.0701220240880403e-07
0006d0 8a e6 c4 60 ba 3a f4 bd 89 98 28 8b 49 d9 51 3e
       -2.943766070916318e-10 1.6622970286849087e-08
0006e0 ed e8 42 ce 59 6c e2 bd 67 a2 66 a4 1e 41 12 3e
       -1.340467521103132e-10 1.0625444010790698e-09
0006f0 5e 88 43 25 3f 4d 26 be 89 a9 e8 d5 7b 32 b4 be
       -2.5962647952612574e-09 -1.203847055495675e-06
000700 8c b8 6c 5a 42 9d 07 be f7 2d 44 6e ec 77 4a 3e
       -6.872664007768532e-10 1.232533315038493e-08
000710 68 09 07 db 7a f4 f2 3d 45 49 91 8b 64 6d 31 be
       2.758315477305034e-10 -4.057613072865399e-09
000720 8e f2 0d 5b e6 ef 33 be 95 e4 b7 52 44 ca bc be
       -4.641969850928162e-09 -1.716023983243288e-06
000730 28 bb de a8 58 ca 08 be f0 84 2d e6 d8 f5 34 3e
       -7.214960449746706e-10 4.880209655525182e-09
000740 d2 ea f1 ee 64 18 15 be ad bf c7 42 ed 26 3a be
       -1.227907494242388e-09 -6.089000453572253e-09
000750 1b 82 2d 2e 52 f6 28 be 36 fa 42 a5 4c 9e 94 be
       -2.905981553847959e-09 -3.072374614824284e-07
000760 c9 96 83 d1 3d a2 0a 3e 44 ec 62 66 55 72 51 3e
       7.751443124766672e-10 1.6248426958710295e-08
000770 43 18 b4 2f 71 9e e1 bd db 6b 10 93 14 b3 15 3e
       -1.281944757393936e-10 1.2630790408868003e-09
000780 c8 43 6d d4 f2 c4 02 be 18 9a 58 07 14 30 b4 be
       -5.462594065052109e-10 -1.2032869823958282e-06
000790 d7 35 c7 3b da b5 1d 3e 8b bd 43 cf 9b 13 54 3e
       1.7293706320384478e-09 1.8697787277622332e-08
0007a0 d4 0a 10 9e 3b 3b 07 3e 86 06 06 48 2c d3 30 be
       6.761220993888477e-10 -3.917350999465233e-09
0007b0 a1 1a d4 2d 68 34 43 3e f6 93 37 5d 5d cd bc be
       8.942892144273887e-09 -1.716745249840917e-06
0007c0 f6 e3 85 a2 f6 7c 22 3e d1 55 f4 43 a5 75 30 3e
       2.1523025759071616e-09 3.832288319383571e-09
0007d0 5b c5 0a a8 0c af f1 3d 76 57 59 9b 5c cb 36 be
       2.5733296747140226e-10 -5.307230590403816e-09
0007e0 54 b8 87 7c cc fa 2d be 3b f6 70 ac 55 ab 94 be
       -3.4900944115995062e-09 -3.07996213814172e-07
0007f0 e4 84 7f a6 57 60 06 3e 1e fd 68 cf 22 d1 55 3e
       6.512371310588736e-10 2.0318606320241642e-08

b f8 [804]
000000 28 88 ed 8e a5 13 f5 bf 24 0c 85 9f d4 35 e5 bf
       -1.317296560584973 -0.6628211131686652
000010 00 00 00 00 00 00 b6 bc 3e 50 f8 fb 7b 97 c1 3f
       -3.0531133177191805e-16 0.1374354343721524
000020 16 fa 53 ce 1b 2f d3 bf c3 c8 d0 b9 d5 61 c5 3f
       -0.2997502818033423 0.16704818318391376
000030 a4 8e b3 cc 99 29 fb bf 9b f3 97 a9 a5 d9 eb bf
       -1.697656440367532 -0.870318251836227
000040 00 00 00 00 00 e0 d5 bc a8 20 9e 35 e9 3c a3 3f
       -1.214306433183765e-15 0.03757408885491148
000050 cd b1 40 eb 63 43 b3 bf fe ac 41 25 03 c6 c5 3f
       -0.07524704450106086 0.17010535544554978
000060 38 ef a7 35 c3 f9 eb bf 5c 2c 4b 37 14 af dc bf
       -0.8742385910004264 -0.44818597221155243
000070 00 00 00 00 00 a0 c1 3c b4 fe c1 af 96 b9 cf bf
       4.891920202254596e-16 -0.24785121519015763
000080 3e 23 27 a4 f2 8b e0 3f b9 ac 41 25 03 c6 b5 3f
       0.5170834737883536 0.08505267772277393
000090 7e 17 0a 0b c9 af 04 c0 00 00 00 00 30 16 48 3d
       -2.585832678075291 1.711460834163958e-13
0000a0 00 00 00 00 00 80 aa bc 00 00 00 00 00 00 cd 3c
       -1.8388068845354155e-16 8.049116928532385e-16
0000b0 39 f4 96 0d b1 27 e3 bf 8d a6 48 23 2c 03 a3 bf
       -0.5985951676772238 -0.037133578593352735
0000c0 8c 2a c6 80 db 97 0a c0 00 00 00 00 c0 1d 53 bd
       -3.324149137542298 -2.71657696337968e-13
0000d0 00 00 00 00 00 00 ba bc 00 00 00 00 00 00 bc 3c
       -3.608224830031759e-16 3.885780586188048e-16
0000e0 3c 94 04 bb 9c f3 c2 bf 7c 9d 19 c3 7a 6c ac bf
       -0.14805945522053487 -0.05551513320534249
0000f0 00 b3 a3 ff a7 63 fb bf 00 00 00 00 80 73 69 bd
       -1.711830137817003 -7.233658116945207e-13
000100 00 00 00 00 00 00 b8 bc 00 00 00 00 00 70 e2 bc
       -3.3306690738754696e-16 -2.0469737016526324e-15
000110 7e 5c fc f5 de 65 f0 3f 38 9a 19 c3 7a 6c 9c bf
       1.0248708351917055 -0.027757566602668343
000120 58 ce 21 6f 89 8c fc bf 6c bd eb ba e4 9c e8 bf
       -1.7843107548805133 -0.7691520357893018
000130 00 00 00 00 00 00 c0 bc 7e 63 2c dc 56 85 d8 3f
       -4.440892098500626e-16 0.3831383848315041
000140 a5 a6 0b 73 9d 8d c2 bf ad ef 82 ae fc 5e dc bf
       -0.14494674794632548 -0.4432975486959048
000150 80 c5 d8 34 1d 06 fa bf fb 74 83 33 56 5f f9 bf
       -1.6264926971747116 -1.5857755672689666
000160 00 00 00 00 00 00 ba 3c ca 2e 33 64 c0 86 b1 3f
       3.608224830031759e-16 0.0684623951557867
000170 98 77 c8 8a d5 a3 b2 bf 84 05 29 21 c5 e3 ed bf
       -0.0728124107194773 -0.934053959623427
000180 00 77 9f c9 8c cd ea bf c7 2f 1b ac c7 21 ea bf
       -0.8375915468165829 -0.8166235314797569
000190 00 00 00 00 00 00 90 3c 78 2f 39 f5 06 e7 dc bf
       5.551115123125783e-17 -0.45160077998729475
0001a0 c1 95 d1 47 cb 3f e0 3f 52 05 29 21 c5 e3 dd bf
       0.5077873614033522 -0.4670269798117107
0001b0 00 4f f6 cf 39 81 e0 bf 7a 46 21 f5 35 11 dc bf
       -0.5157746373901944 -0.438550462136028
0001c0 00 00 00 00 00 00 a4 3c b6 70 46 b9 0a fd c0 bf
       1.3877787807814457e-16 -0.13272222563398878
0001d0 56 36 a8 26 ef b2 c3 3f 03 fa 2d c0 1f 97 d5 bf
       0.15389813792755785 -0.3373488785508984
0001e0 44 ac 4a 4a 9c f6 f5 bf 0a 5f c6 9b 69 28 e4 bf
       -1.3727076437014754 -0.6299331705549502
0001f0 00 00 00 00 00 00 d7 3c d0 f4 71 68 b9 ba c1 3f
       1.27675647831893e-15 0.13851087188587607
000200 f1 e1 24 4b f1 2a d3 bf 89 c0 14 fe c8 04 cf 3f
       -0.29949600542343463 0.24233353048612497
000210 48 11 3c 48 40 85 fc bf 62 8b fe a6 ed 22 ea bf
       -1.7825320073762487 -0.8167637120826436
000220 00 00 00 00 00 80 cd bc 18 23 1b 45 f9 5a a2 3f
       -8.187894806610529e-16 0.03585032433108476
000230 e5 62 f1 1d 4b fc b3 bf d8 68 4e d4 6e c1 d2 3f
       -0.07806844216373639 0.29305620892558926
000240 00 3f 56 ef d1 5f ed bf 90 fc ae 0d 3a eb da bf
       -0.917946784453278 -0.4206071027401288
000250 00 00 00 00 00 00 b2 3c dc 7c e4 19 78 11 cf bf
       2.498001805406602e-16 -0.24272061600002004
000260 11 d4 e1 d2 2b db e0 3f d4 68 4e d4 6e c1 c2 3f
       0.5267542952339018 0.14652810446279452
000270 8d 56 3a 26 e8 57 04 c0 00 00 00 00 c0 39 4b 3d
       -2.542923258452737 1.9344942314702962e-13
000280 00 00 00 00 00 90 a9 3c 00 00 00 00 00 00 e5 3c
       1.7737547541862853e-16 2.3314683517128287e-15
000290 25 7d d3 b7 2f 00 e3 bf de 1b fa ec 2a 34 c3 bf
       -0.5937727537492817 -0.1500295312036703
0002a0 6e 2a 6b af 2a 2f 0a c0 00 00 00 00 80 67 3f bd
       -3.273030634363116 -1.1157047508092433e-13
0002b0 00 00 00 00 00 00 ad 3c 00 00 00 00 00 00 a4 bc
       2.0122792321330962e-16 -1.3877787807814457e-16
0002c0 a0 c2 b6 44 de b1 c2 bf 50 77 72 52 5b 57 cc bf
       -0.14605310778781178 -0.22141591573466224
0002d0 f0 a0 53 e0 d4 f7 fa bf 00 00 00 00 60 42 4d 3d
       -1.6855057490120622 2.0789966970191642e-13
0002e0 00 00 00 00 00 00 ac 3c 00 00 00 00 00 60 d4 bc
       1.942890293094024e-16 -1.1310397063368782e-15
0002f0 33 8a 8f 45 60 38 f0 3f b5 77 72 52 5b 57 bc bf
       1.0137636868681852 -0.11070795786733252
000300 ef ff 01 8f da 9b 02 c0 00 00 00 00 40 ad 1e 3d
       -2.3261004612431786 2.724643427542972e-14
000310 00 00 00 00 00 00 8a bc 00 00 00 00 00 00 c6 bc
       -4.5102810375396984e-17 -6.106226635438361e-16
000320 bd ed 80 59 b5 cd e2 bf 91 03 d1 af 62 73 82 bf
       -0.5876108883016326 -0.009009142866604399
000330 8f d5 ab 55 dc b1 07 c0 00 00 00 00 00 90 25 bd
       -2.9618460362496033 -3.83026943495679e-14
000340 00 00 00 00 00 e0 c5 bc 00 00 00 00 00 c0 e3 3c
       -6.071532165918825e-16 2.192690473634684e-15
000350 3b 62 bf 5c 8f 50 c1 bf 04 16 41 e1 98 49 88 bf
       -0.13527099636736914 -0.011859125494207319
000360 68 88 5c 7c 72 67 f8 bf 00 00 00 00 c0 ea 43 3d
       -1.5252556665295973 1.4151874117018792e-13
000370 00 00 00 00 00 00 00 00 00 00 00 00 00 00 90 bc
       0.0 -5.551115123125783e-17
000380 0f 3d 75 ab 96 10 ef 3f 60 20 41 e1 98 49 78 bf
       0.9707749699390734 -0.00592956274710596
000390 18 ff d9 1b 81 7e f2 bf 62 13 85 9f d4 35 e5 bf
       -1.1558848464919205 -0.662821113168871
0003a0 00 00 00 00 00 40 9f bc e0 4f f8 fb 7b 97 c1 3f
       -1.0842021724855044e-16 0.13743543437214978
0003b0 32 c3 7f 8e fc c5 d2 bf 96 35 a2 e7 fc 80 ab bf
       -0.2933341399757864 -0.0537184746509453
0003c0 71 67 bd 94 a3 8a f7 bf 8f 53 33 3c e3 2f fa bf
       -1.4713474092627303 -1.6366913177091396
0003d0 00 00 00 00 00 80 aa 3c af bc 8a 94 7a b5 de 3f
       1.8388068845354155e-16 0.47982658868836386
0003e0 4a a2 02 4e ad 39 b1 bf f5 14 ae e4 04 31 cd bf
       -0.0672863307432944 -0.22805844465270977
0003f0 a8 0d 68 27 0d 3f e8 bf 85 1f 3a 75 d5 6e f3 bf
       -0.7576967019708052 -1.2145590380841622
000400 00 00 00 00 00 00 a6 bc d1 fb db 62 54 15 e6 bf
       -1.5265566588595902e-16 -0.6901037150236055
000410 75 f9 6f e6 03 f6 de 3f 62 de 84 5e e3 96 cc bf
       0.4837655783047901 -0.22335474124132576
000420 00 00 00 00 00 00 e0 3c 00 00 00 00 c0 c4 38 3d
       1.7763568394002505e-15 8.799558304239952e-14
000430 00 00 00 00 00 60 c4 bc 00 00 00 00 00 00 ca bc
       -5.655198531684391e-16 -7.216449660063518e-16
000440 00 00 00 00 00 00 a8 3c 00 00 00 00 00 00 ad 3c
       1.6653345369377348e-16 2.0122792321330962e-16
000450 00 00 00 00 00 00 e0 bc 00 00 00 00 40 07 76 bd
       -1.7763568394002505e-15 -1.2521650383234828e-12
000460 00 00 00 00 00 00 ae 3c 00 00 00 00 00 00 d1 3c
       2.0816681711721685e-16 9.43689570931383e-16
000470 00 00 00 00 00 e0 ef bc 00 00 00 00 00 70 e0 bc
       -3.5388358909926865e-15 -1.824929096727601e-15
000480 00 00 00 00 00 ce 37 3d 00 00 00 00 00 00 60 bd
       8.45712389008213e-14 -4.547473508864641e-13
000490 00 00 00 00 00 00 90 3c 00 00 00 00 00 00 ce 3c
       5.551115123125783e-17 8.326672684688674e-16
0004a0 00 00 00 00 00 80 dc bc 00 00 00 00 00 c0 fc 3c
       -1.582067810090848e-15 6.38378239159465e-15
0004b0 10 15 6a 73 34 8a ec bf a8 c1 eb ba e4 9c e8 bf
       -0.8918707136332689 -0.7691520357894222
0004c0 00 00 00 00 00 00 c5 bc 7c 63 2c dc 56 85 d8 3f
       -5.828670879282072e-16 0.383138384831504
0004d0 0c fe 80 89 8b f4 dc bf d5 02 0a d6 dc d3 e1 3f
       -0.45242584636795935 0.5571121387912067
0004e0 00 18 6a 73 34 8a ec bf 19 80 83 33 56 5f f9 bf
       -0.8918707136333524 -1.5857755672695986
0004f0 00 00 00 00 00 00 c0 3c d9 2f 33 64 c0 86 b1 3f
       4.440892098500626e-16 0.06846239515579046
000500 d4 fd 80 89 8b f4 dc 3f b4 07 41 06 00 4b ea 3f
       0.45242584636795624 0.8216552850865271
000510 00 00 00 00 00 10 05 bd 70 1c 1b ac c7 21 ea bf
       -9.353628982466944e-15 -0.8166235314792072
000520 00 00 00 00 00 00 b8 bc 56 2f 39 f5 06 e7 dc bf
       -3.3306690738754696e-16 -0.45160077998729287
000530 00 00 00 00 00 00 00 00 0c 0a 6e 60 46 ee d0 3f
       0.0 0.2645431462953247
000540 b8 14 6a 73 34 8a ec bf be bf be 8a 9a 61 f9 bf
       -0.8918707136332591 -1.586329023335551
000550 00 00 00 00 00 00 d1 3c 98 cf b2 c4 9b a1 be 3f
       9.43689570931383e-16 0.11965344955643642
000560 d3 fd 80 89 8b f4 dc bf ba fa e8 2f 65 1a e0 bf
       -0.4524258463679562 -0.5032220779174488
000570 80 15 6a 73 34 8a ec bf 3b 5f 2e ec 2b 19 e7 bf
       -0.8918707136332813 -0.7218227017319586
000580 00 00 00 00 00 00 90 3c 26 a7 1a d7 a2 1f d8 bf
       5.551115123125783e-17 -0.37693091398488077
000590 f6 fd 80 89 8b f4 dc 3f b4 e7 e9 1b ea 5b e0 bf
       0.45242584636795813 -0.5112200303258221
0005a0 00 00 00 00 00 00 d8 3c 37 96 c2 de 67 47 f2 bf
       1.3322676295501878e-15 -1.1424330426756464
0005b0 00 00 00 00 00 90 ee bc 02 77 15 ca e9 6f d1 3f
       -3.3931191190106347e-15 0.2724556420779295
0005c0 00 00 00 00 00 00 a5 3c cc fa 4b 77 6c 2b b5 3f
       1.457167719820518e-16 0.08269384300727295
0005d0 00 00 00 00 00 00 00 00 65 e2 b5 19 c1 7d f7 bf
       0.0 -1.4682017330470896
0005e0 00 00 00 00 00 00 d7 3c 60 ec a2 fc 55 de b0 3f
       1.27675647831893e-15 0.06589257638818102
0005f0 00 00 00 00 00 00 ba 3c 4c f1 bb 45 6c 44 be 3f
       3.608224830031759e-16 0.11823155119413292
000600 00 00 00 00 00 00 10 3d b7 11 3d ee c7 31 e8 bf
       1.4210854715202004e-14 -0.7560767796608648
000610 00 00 00 00 00 00 d9 bc de db 2d 08 cb 84 dd bf
       -1.3877787807814457e-15 -0.46123004721397176
000620 00 00 00 00 00 00 d1 bc 9a ee bb 45 6c 44 ae 3f
       -9.43689570931383e-16 0.05911577559706167
000630 00 00 00 00 00 00 c0 3c 00 00 00 00 20 56 22 bd
       4.440892098500626e-16 -3.257203534667852e-14
000640 00 00 00 00 00 80 be 3c 00 00 00 00 00 00 b2 bc
       4.2327252813834093e-16 -2.498001805406602e-16
000650 00 00 00 00 00 00 76 bc 00 00 00 00 00 18 c2 3c
       -1.9081958235744878e-17 5.022024462952857e-16
000660 00 00 00 00 00 00 d8 bc 00 00 00 00 80 49 63 3d
       -1.3322676295501878e-15 5.48172618408671e-13
000670 00 00 00 00 00 00 b7 bc 00 00 00 00 00 00 c8 bc
       -3.191891195797325e-16 -6.661338147750939e-16
000680 00 00 00 00 00 00 b0 3c 00 00 00 00 00 30 fa 3c
       2.220446049250313e-16 5.814793091474257e-15
000690 00 00 00 00 00 00 10 bd 00 00 00 00 40 c4 52 bd
       -1.4210854715202004e-14 -2.666894483027704e-13
0006a0 00 00 00 00 00 00 98 3c 00 00 00 00 00 c0 c0 3c
       8.326672684688674e-17 4.649058915617843e-16
0006b0 00 00 00 00 00 00 a2 3c 00 00 00 00 00 c0 d5 bc
       1.249000902703301e-16 -1.2073675392798577e-15
0006c0 00 00 00 00 00 00 e8 bc 00 00 00 00 80 87 18 bd
       -2.6645352591003757e-15 -2.178639213479272e-14
0006d0 00 00 00 00 00 80 93 3c 00 00 00 00 00 00 bc 3c
       6.765421556309548e-17 3.885780586188048e-16
0006e0 00 00 00 00 00 00 73 3c 00 00 00 00 00 68 c1 bc
       1.6479873021779667e-17 -4.831204880595408e-16
0006f0 00 00 00 00 00 00 b7 bc 00 00 00 00 60 ef 70 bd
       -3.191891195797325e-16 -9.626466290768576e-13
000700 00 00 00 00 00 00 a0 3c 00 00 00 00 00 80 e8 3c
       1.1102230246251565e-16 2.7200464103316335e-15
000710 00 00 00 00 00 00 78 bc 00 00 00 00 00 a0 d0 bc
       -2.0816681711721685e-17 -9.228728892196614e-16
000720 00 00 00 00 00 00 e4 3c 00 00 00 00 a0 c3 42 3d
       2.220446049250313e-15 1.3332737691662544e-13
000730 00 00 00 00 00 00 80 3c 00 00 00 00 00 00 f4 3c
       2.7755575615628914e-17 4.440892098500626e-15
000740 00 00 00 00 00 00 78 bc 00 00 00 00 00 60 c0 3c
       -2.0816681711721685e-17 4.544975507059235e-16
000750 00 00 00 00 00 00 d0 3c 00 00 00 00 60 ef 15 bd
       8.881784197001252e-16 -1.9482245677826526e-14
000760 00 00 00 00 00 30 a3 3c 00 00 00 00 00 00 c3 3c
       1.3314002678121994e-16 5.273559366969494e-16
000770 00 00 00 00 00 a0 83 bc 00 00 00 00 00 00 95 bc
       -3.404394821604484e-17 -7.28583859910259e-17
000780 00 00 00 00 00 00 d0 3c 9b 3b 42 93 bb 0a f6 bf
       8.881784197001252e-16 -1.3776202919286564
000790 00 00 00 00 00 c0 bb 3c ca 7e 0c fa 7a e4 ea 3f
       3.8510861166685117e-16 0.8403906711355031
0007a0 00 00 00 00 00 00 95 bc 3a ba 66 b1 0f 93 bb 3f
       -7.28583859910259e-17 0.10771272736631313
0007b0 00 00 00 00 00 00 04 3d 89 39 42 93 bb 0a f6 bf
       8.881784197001252e-15 -1.3776202919285387
0007c0 00 00 00 00 00 00 ba bc b1 7e 0c fa 7a e4 ea bf
       -3.608224830031759e-16 -0.8403906711355004
0007d0 00 00 00 00 00 00 70 bc a3 bc 66 b1 0f 93 bb 3f
       -1.3877787807814457e-17 0.10771272736632169
0007e0 00 00 00 00 00 00 c0 bc 08 7e 14 eb 40 6c e2 bf
       -4.440892098500626e-16 -0.5757145491988362
0007f0 00 00 00 00 00 00 ae 3c ed 19 17 e9 40 fa d5 3f
       2.0816681711721685e-16 0.3433992649337643
