python-Linux/neural-sparse-linear-solvers-master/stand_small_test/54594857762007268_b643348f78d303db488cc265bbbf44259c88eeb8_bbe53a3cd46140391aeb5f286de83f250e67669c.npz (npz, 69556 bytes, 3 tensors)

A_values f8 [17052]
582814023.2119689 595594.1768898424 -8597147.464382023 -3746706.98466553 10678621.718343183 -4633543.660684265 -8597147.464382023 -570997974.7813833
871415176.2607633 -207495.91587443883 3756440.3354477333 -1289752.346444372 -3675968.6504426375 -867611108.3631473 -1332431.3511546468 3756440.3354477333
1130447510.8146234 24559909.150959376 -10909378.694335427 -564807881.0604726 -13236880.235552568 24559909.150959376 -3869620.410786722 -10909378.694335427
-207495.91587443883 24559909.150959376 94879618.27802673 3675968.6504426375 6961552.365531792 -24559909.150959376 29681125.188155662 -5837543.715645452
595594.1768898424 -10909378.694335427 130495856.07108821 -10678621.718343183 20092748.20274582 -8869939.994425712 10909378.694335427 20300007.489318833
-8597147.464382023 3756440.3354477333 46877847.30923825 -5774259.8787569 8597147.464382023 10551126.561696945 -3756440.3354477333 7036313.514523001
-3746706.98466553 -10678621.718343183 583514907.3897278 723673.1328707468 -8597147.464382023 -4136681.962994852 11402294.85121393 -4633543.660684265
-8597147.464382023 -570997974.7813833 -1289752.346444372 3675968.6504426375 871658521.5408483 -252514.83176349988 3756440.3354477333 -1425229.4801019998
-3928483.4822061374 -867611108.3631473 -1332431.3511546468 3756440.3354477333 -564807881.0604726 1165932184.1785471 24559909.150959376 -10909378.694335427
-584017802.4717352 -13236880.235552568 24559909.150959376 -3869620.410786722 -10909378.694335427 -3675968.6504426375 6961552.365531792 -252514.83176349988
24559909.150959376 95749981.32529625 3928483.4822061374 7193398.155571682 -24559909.150959376 29681125.188155662 -5837543.715645452 10678621.718343183
20092748.20274582 723673.1328707468 -10909378.694335427 132984148.06477731 -11402294.85121393 20734592.596576635 -8869939.994425712 10909378.694335427
20300007.489318833 -5774259.8787569 -8597147.464382023 3756440.3354477333 47240621.5066014 -5970650.69092273 8597147.464382023 10551126.561696945
-3756440.3354477333 7036313.514523001 -4136681.962994852 -11402294.85121393 579768200.4050623 -11402294.85121393 -8597147.464382023 -4633543.660684265
-8597147.464382023 -570997974.7813833 -1425229.4801019998 3928483.4822061374 870368769.1944039 3928483.4822061374 3756440.3354477333 -867611108.3631473
-1332431.3511546468 3756440.3354477333 -584017802.4717352 601124303.1180745 24559909.150959376 -10909378.694335427 -13236880.235552568 24559909.150959376
-3869620.410786722 -10909378.694335427 -3928483.4822061374 7193398.155571682 3928483.4822061374 24559909.150959376 81757517.89657204 -24559909.150959376
29681125.188155662 -5837543.715645452 11402294.85121393 20734592.596576635 -11402294.85121393 -10909378.694335427 92205863.5071908 -8869939.994425712
10909378.694335427 20300007.489318833 -5970650.69092273 -8597147.464382023 3756440.3354477333 41466361.6278445 8597147.464382023 10551126.561696945
-3756440.3354477333 7036313.514523001 -4633543.660684265 8597147.464382023 583998154.5780582 595594.1768898424 5124288.760277074 -3746706.98466553
10678621.718343183 -1184131.3660891987 -3472858.704104949 -570997974.7813833 -867611108.3631473 1420297179.5817235 -207495.91587443883 3756440.3354477333
-1289752.346444372 -3675968.6504426375 -548882003.32096 -1332431.3511546468 3756440.3354477333 -13236880.235552568 -24559909.150959376 1133889789.3938346
-14464283.388381397 -10909378.694335427 -564807881.0604726 -3442278.579210952 10095625.762577979 -3869620.410786722 -10909378.694335427 24559909.150959376
29681125.188155662 -207495.91587443883 -14464283.388381397 134539528.81329 3675968.6504426375 6961552.365531792 -10095625.762577979 19557643.8797492
-5837543.715645452 -8869939.994425712 595594.1768898424 -10909378.694335427 136107299.24712384 -10678621.718343183 20092748.20274582 -5611443.176035628
10909378.694335427 20300007.489318833 -8597147.464382023 10551126.561696945 5124288.760277074 3756440.3354477333 60479489.74421533 -5774259.8787569
3472858.704104949 6768981.845520164 -3756440.3354477333 7036313.514523001 -4633543.660684265 8597147.464382023 -3746706.98466553 -10678621.718343183
583514907.3897278 723673.1328707468 8597147.464382023 -4136681.962994852 11402294.85121393 -570997974.7813833 -867611108.3631473 -1289752.346444372
3675968.6504426375 871658521.5408483 -252514.83176349988 3756440.3354477333 -1425229.4801019998 -3928483.4822061374 -1332431.3511546468 3756440.3354477333
-13236880.235552568 -24559909.150959376 -564807881.0604726 1165932184.1785471 -24559909.150959376 -10909378.694335427 -584017802.4717352 -3869620.410786722
-10909378.694335427 24559909.150959376 29681125.188155662 -3675968.6504426375 6961552.365531792 -252514.83176349988 -24559909.150959376 95749981.32529625
3928483.4822061374 7193398.155571682 -5837543.715645452 -8869939.994425712 10678621.718343183 20092748.20274582 723673.1328707468 -10909378.694335427
00000000: cc21 9ba3 845e c141 304e 915a 142d 2241
00000010: b037 dc6e d365 60c1 2485 097e c995 4cc1
00000020: d8aa fcb6 2b5e 6441 a8a6 48ea f1ac 51c1
00000030: b037 dc6e d365 60c1 5e04 646b 5e04 c1c1
00000040: b160 21c4 5ef8 c941 50fa b553 3f54 09c1
00000050: 8af3 ef2a cca8 4c41 1094 b058 18ae 33c1
00000060: 50b4 4153 a00b 4cc1 9c7b 2ef2 58db c9c1
00000070: 5c45 e559 cf54 34c1 8af3 ef2a cca8 4c41
00000080: ca22 b4a5 50d8 d041 6154 6a52 126c 7741
00000090: eefe 3756 d8ce 64c1 91bd 8764 24d5 c0c1
000000a0: 8aa5 8907 523f 69c1 6154 6a52 126c 7741
000000b0: c8a8 9434 da85 4dc1 eefe 3756 d8ce 64c1
000000c0: 50fa b553 3f54 09c1 6154 6a52 126c 7741
000000d0: 0ab3 1c09 fe9e 9641 50b4 4153 a00b 4c41
000000e0: 75df 6417 648e 5a41 6154 6a52 126c 77c1
000000f0: 83af 0253 5e4e 7c41 9522 cded b944 56c1
00000100: 304e 915a 142d 2241 eefe 3756 d8ce 64c1
00000110: 59cb 48c0 d51c 9f41 d8aa fcb6 2b5e 64c1
00000120: 6772 3ec3 7429 7341 df55 d27f 06eb 60c1
00000130: eefe 3756 d8ce 6441 fc3f d477 0e5c 7341
00000140: b037 dc6e d365 60c1 8af3 ef2a cca8 4c41
00000150: e751 79ba 645a 8641 958d 3df8 ec06 56c1
00000160: b037 dc6e d365 6041 df6b f9d1 ea1f 6441
00000170: 8af3 ef2a cca8 4cc1 e2f1 ed60 66d7 5a41
00000180: 2485 097e c995 4cc1 d8aa fcb6 2b5e 64c1
00000190: 9ae2 b18d dd63 c141 70a2 0744 b215 2641
000001a0: b037 dc6e d365 60c1 526a 43fb 748f 4fc1
000001b0: ff24 3ddb 86bf 6541 a8a6 48ea f1ac 51c1
000001c0: b037 dc6e d365 60c1 5e04 646b 5e04 c1c1
000001d0: 1094 b058 18ae 33c1 50b4 4153 a00b 4c41
000001e0: 843a c50c 3afa c941 309f 73a7 16d3 0ec1
000001f0: 8af3 ef2a cca8 4c41 f4f6 e77a 4dbf 35c1
00000200: 43ee b8bd d1f8 4dc1 9c7b 2ef2 58db c9c1
00000210: 5c45 e559 cf54 34c1 8af3 ef2a cca8 4c41
00000220: 91bd 8764 24d5 c0c1 516d 0ba6 ad5f d141
00000230: 6154 6a52 126c 7741 eefe 3756 d8ce 64c1
00000240: d261 3cc5 b367 c1c1 8aa5 8907 523f 69c1
00000250: 6154 6a52 126c 7741 c8a8 9434 da85 4dc1
00000260: eefe 3756 d8ce 64c1 50b4 4153 a00b 4cc1
00000270: 75df 6417 648e 5a41 309f 73a7 16d3 0ec1
00000280: 6154 6a52 126c 7741 761a 4d75 1dd4 9641
00000290: 43ee b8bd d1f8 4d41 eee2 f489 cd70 5b41
000002a0: 6154 6a52 126c 77c1 83af 0253 5e4e 7c41
000002b0: 9522 cded b944 56c1 d8aa fcb6 2b5e 6441
000002c0: 6772 3ec3 7429 7341 70a2 0744 b215 2641
000002d0: eefe 3756 d8ce 64c1 fc54 4250 b5b4 9f41
000002e0: ff24 3ddb 86bf 65c1 f193 8b09 28c6 7341
000002f0: df55 d27f 06eb 60c1 eefe 3756 d8ce 6441
00000300: fc3f d477 0e5c 7341 958d 3df8 ec06 56c1
00000310: b037 dc6e d365 60c1 8af3 ef2a cca8 4c41
00000320: 0985 0d6c ad86 8641 f813 38ac b6c6 56c1
00000330: b037 dc6e d365 6041 df6b f9d1 ea1f 6441
00000340: 8af3 ef2a cca8 4cc1 e2f1 ed60 66d7 5a41
00000350: 526a 43fb 748f 4fc1 ff24 3ddb 86bf 65c1
00000360: 15d9 33c4 4747 c141 ff24 3ddb 86bf 65c1
00000370: b037 dc6e d365 60c1 a8a6 48ea f1ac 51c1
00000380: b037 dc6e d365 60c1 5e04 646b 5e04 c1c1
00000390: f4f6 e77a 4dbf 35c1 43ee b8bd d1f8 4d41
000003a0: 3ae2 9800 63f0 c941 43ee b8bd d1f8 4d41
000003b0: 8af3 ef2a cca8 4c41 9c7b 2ef2 58db c9c1
000003c0: 5c45 e559 cf54 34c1 8af3 ef2a cca8 4c41
000003d0: d261 3cc5 b367 c1c1 111d 8fe7 36ea c141
000003e0: 6154 6a52 126c 7741 eefe 3756 d8ce 64c1
000003f0: 8aa5 8907 523f 69c1 6154 6a52 126c 7741
00000400: c8a8 9434 da85 4dc1 eefe 3756 d8ce 64c1
00000410: 43ee b8bd d1f8 4dc1 eee2 f489 cd70 5b41
00000420: 43ee b8bd d1f8 4d41 6154 6a52 126c 7741
00000430: fb16 9637 157e 9341 6154 6a52 126c 77c1
00000440: 83af 0253 5e4e 7c41 9522 cded b944 56c1
00000450: ff24 3ddb 86bf 6541 f193 8b09 28c6 7341
00000460: ff24 3ddb 86bf 65c1 eefe 3756 d8ce 64c1
00000470: 065d 079e ccfb 9541 df55 d27f 06eb 60c1
00000480: eefe 3756 d8ce 6441 fc3f d477 0e5c 7341
00000490: f813 38ac b6c6 56c1 b037 dc6e d365 60c1
000004a0: 8af3 ef2a cca8 4c41 56d3 05cd cfc5 8341
000004b0: b037 dc6e d365 6041 df6b f9d1 ea1f 6441
000004c0: 8af3 ef2a cca8 4cc1 e2f1 ed60 66d7 5a41
000004d0: a8a6 48ea f1ac 51c1 b037 dc6e d365 6041
000004e0: d0fd 4965 8d67 c141 304e 915a 142d 2241
000004f0: 2c61 a830 308c 5341 2485 097e c995 4cc1
00000500: d8aa fcb6 2b5e 6441 9005 b85d 8311 32c1
00000510: 681c 205a ed7e 4ac1 5e04 646b 5e04 c1c1
00000520: 9c7b 2ef2 58db c9c1 f53a e5f6 002a d541
00000530: 50fa b553 3f54 09c1 8af3 ef2a cca8 4c41
00000540: 1094 b058 18ae 33c1 50b4 4153 a00b 4cc1
00000550: 3815 a929 a35b c0c1 5c45 e559 cf54 34c1
00000560: 8af3 ef2a cca8 4c41 8aa5 8907 523f 69c1
00000570: 6154 6a52 126c 77c1 9634 593f 72e5 d041
00000580: d39e 6d6c a396 6bc1 eefe 3756 d8ce 64c1
00000590: 91bd 8764 24d5 c0c1 a095 234a 3343 4ac1
000005a0: ef09 6738 8141 6341 c8a8 9434 da85 4dc1
000005b0: eefe 3756 d8ce 64c1 6154 6a52 126c 7741
000005c0: 83af 0253 5e4e 7c41 50fa b553 3f54 09c1
000005d0: d39e 6d6c a396 6bc1 8c67 a011 d209 a041
000005e0: 50b4 4153 a00b 4c41 75df 6417 648e 5a41
000005f0: ef09 6738 8141 63c1 e673 13be d0a6 7241
00000600: 9522 cded b944 56c1 df55 d27f 06eb 60c1
00000610: 304e 915a 142d 2241 eefe 3756 d8ce 64c1
00000620: 0487 7e46 aa39 a041 d8aa fcb6 2b5e 64c1
00000630: 6772 3ec3 7429 7341 f02a 44cb ec67 55c1
00000640: eefe 3756 d8ce 6441 fc3f d477 0e5c 7341
00000650: b037 dc6e d365 60c1 df6b f9d1 ea1f 6441
00000660: 2c61 a830 308c 5341 8af3 ef2a cca8 4c41
00000670: 2b27 f40d c0d6 8c41 958d 3df8 ec06 56c1
00000680: 681c 205a ed7e 4a41 9b00 1d76 55d2 5941
00000690: 8af3 ef2a cca8 4cc1 e2f1 ed60 66d7 5a41
000006a0: a8a6 48ea f1ac 51c1 b037 dc6e d365 6041
000006b0: 2485 097e c995 4cc1 d8aa fcb6 2b5e 64c1
000006c0: 9ae2 b18d dd63 c141 70a2 0744 b215 2641
000006d0: b037 dc6e d365 6041 526a 43fb 748f 4fc1
000006e0: ff24 3ddb 86bf 6541 5e04 646b 5e04 c1c1
000006f0: 9c7b 2ef2 58db c9c1 1094 b058 18ae 33c1
00000700: 50b4 4153 a00b 4c41 843a c50c 3afa c941
00000710: 309f 73a7 16d3 0ec1 8af3 ef2a cca8 4c41
00000720: f4f6 e77a 4dbf 35c1 43ee b8bd d1f8 4dc1
00000730: 5c45 e559 cf54 34c1 8af3 ef2a cca8 4c41
00000740: 8aa5 8907 523f 69c1 6154 6a52 126c 77c1
00000750: 91bd 8764 24d5 c0c1 516d 0ba6 ad5f d141
00000760: 6154 6a52 126c 77c1 eefe 3756 d8ce 64c1
00000770: d261 3cc5 b367 c1c1 c8a8 9434 da85 4dc1
00000780: eefe 3756 d8ce 64c1 6154 6a52 126c 7741
00000790: 83af 0253 5e4e 7c41 50b4 4153 a00b 4cc1
000007a0: 75df 6417 648e 5a41 309f 73a7 16d3 0ec1
000007b0: 6154 6a52 126c 77c1 761a 4d75 1dd4 9641
000007c0: 43ee b8bd d1f8 4d41 eee2 f489 cd70 5b41
000007d0: 9522 cded b944 56c1 df55 d27f 06eb 60c1
000007e0: d8aa fcb6 2b5e 6441 6772 3ec3 7429 7341
000007f0: 70a2 0744 b215 2641 eefe 3756 d8ce 64c1

x f8 [1584]
1.38271595579101e-05 -1.226168045666478e-05 -3.140347893678129e-05 3.8696149041857323e-05 1.4625743926368754e-05 2.3296972545910497e-06 -2.4013720857744355e-07 0.00013288848091437268
-6.70002007399281e-05 -1.4321800774362212e-05 -1.8356484815048366e-05 -9.30224707616982e-06 4.3450538407130835e-05 0.00019073342944762268 -0.00010040666691728363 -0.00015842497335542954
0.00013900281991037207 -1.7055490189757334e-05 1.140223705710775e-05 -1.2482851714872255e-05 -0.00010573527422114497 -0.00018669500404558381 0.00016520883017142427 -1.4309489410343848e-06
1.674667118058375e-05 0.00013397395014246372 -0.0001411362670602705 -1.79279676518424e-05 -3.408617466554645e-05 -1.0959273904911128e-05 9.471269270724418e-05 0.0001901166707440755
-0.0001745819827927276 0.000113551827389274 0.00014830543260706795 -1.888360225173986e-05 4.2060388907976394e-05 -1.3103998699539391e-05 -0.00011296738699672132 0.00011281757973323974
0.0003480125777994723 6.214042928106687e-06 -1.2229872904883222e-05 -1.3073549255872424e-05 -9.077920174106607e-05 5.841605648454187e-05 7.769996969197487e-05 8.132494371770178e-06
3.816826636574547e-06 0.00010939219809296514 -0.00014291191272916134 -0.00030335781746067416 0.00020508722446814184 -5.768013847809771e-06 -3.490513722776538e-05 -1.1567319035705063e-05
-0.00011304309386563568 -2.136602113265558e-05 -1.457749697643119e-05 1.2205056802177578e-06 1.2384279489775599e-05 0.00010830967380371292 -0.00022419459018558903 0.00017265507376888983
0.00015800959006362727 -3.3645147195109445e-06 3.5668465493024075e-05 -6.941145698329165e-05 -0.0002735791714725077 6.232477734017835e-05 -4.5318025465663e-05 6.855819218209324e-06
0.00018317693925046816 -0.00020321095947085105 -0.0003248927514332341 -0.00031254703642515986 0.00025022714149543196 1.2497505015404802e-05 -2.1748644117557545e-05 -1.1384972296924481e-05
-5.0979353908631074e-05 1.6149764099189836e-05 -1.0299521186220176e-07 3.3919849787093454e-07 2.0594649700166465e-05 0.00010745374488725339 -9.942428204345173e-05 -2.390406329025718e-05
2.6314453448226547e-05 -5.140714459482948e-06 6.171206989835397e-05 -6.704283255102854e-05 -0.00014867923974979077 -1.2276930220320948e-05 -2.5675864383511505e-05 6.1556023135743495e-06
0.00013312941543693012 -0.0002047938987789472 -0.00019968560755214524 0.0003666306679772098 0.00022665026533192574 1.2415166079648666e-05 1.015507850684532e-05 2.4165872617470747e-05
-2.8145192659013254e-05 -0.00010714379293164619 6.849086250445236e-05 2.104879888637982e-07 1.3680769767642587e-05 2.374157709092357e-05 -8.897955265049434e-05 5.9455892985533946e-05
2.6746056381167196e-05 1.1745986445614218e-06 1.99721915546741e-06 3.262491366725415e-05 -0.00014960062719597864 -3.2903844533960194e-05 1.043422755125776e-05 -7.955257018558913e-06
4.148299656292462e-05 5.1279916634513405e-05 -0.0002085252800395908 -8.9926011403876e-05 -7.653402291412502e-05 -1.614839457643268e-05 -0.00014906382921492026 0.0002680899451680956
-0.0002371702267191324 -0.00014100720994707862 5.693937317206704e-05 -4.7805582210698876e-05 1.0871818718723072e-05 2.3485411822543697e-05 -0.00018292755136326886 -0.0001778160407161322
-0.00011263080248298448 8.678286719997803e-07 1.5878320724486055e-05 3.315004140460077e-05 -0.00029177547995033656 -7.683343655702266e-06 2.7832049099168823e-05 -4.251524796583752e-06
9.287154910331447e-05 5.114858040372857e-05 -0.000401134303409956 -0.00010558622183326086 -2.3886977156121654e-05 -9.263191664428946e-06 8.566566046694706e-06 0.00026767526593233945
-0.00042873403217199023 3.8071533028471196e-05 5.7452057754101684e-05 -5.3213221953056595e-05 3.6421533288238706e-05 2.3282906085470053e-05 -0.00019637860355406917 9.311501455935113e-05
-0.00018413026378929793 3.879104640973441e-06 -2.5318746906497785e-05 3.3412942445289227e-05 -0.00026779501306910475 1.3650537187461865e-05 -1.944589225484871e-06 2.1255773567641042e-07
-1.4136471246004897e-05 4.993995346835846e-05 -0.00034041963406855223 0.00013774348461145346 0.00013834482025925756 3.4469324130659353e-06 -8.656331145733215e-06 2.311439406190189e-05
-0.0001727174042575486 5.266535726509009e-05 -5.6336907611435326e-05 5.476494524797215e-06 -1.319717687413637e-06 3.338453965806751e-05 -0.0003026154055674322 -0.00013534967950121506
-0.00010826489766676681 -6.609718319504824e-06 1.0456653991866947e-05 4.999378587884755e-05 -0.0003676593348224642 -0.00011549609147749684 0.0001507590910330547 -7.498045136011687e-06
-3.2546765091321315e-05 2.3758026503151922e-05 -0.00018357421394489144 -1.0820084943305661e-05 1.0815697132337985e-05 1.8512242179688768e-06 1.2093322661020224e-05 3.428887870899392e-05
-0.00036552005999586167 0.00013278759895060386 -0.00010327262038263408 -4.135195096939061e-06 3.6143413056855385e-05 4.849193937542531e-05 -0.00048520199455173463 0.00015376516622954956
7.89626691882193e-05 2.3015768441689077e-06 0.00018036594117357152 -9.473814550365749e-05 -0.0005772108030158473 -0.00045659975942097855 -9.1008608975816e-05 2.1152743577261955e-05
-2.1600904963062678e-05 2.3710774670527577e-05 -8.83214811320232e-05 1.9056688104669295e-05 1.2029419372413209e-06 1.3110135953960011e-06 2.005090001376309e-05 3.403050761072649e-05
-0.000174080638333741 1.3425248784226367e-06 -4.413471543102583e-06 -4.747449463577596e-06 6.539040011939521e-05 5.0864975812227056e-05 -0.00025905044450153327 -4.402618397356839e-05
2.079546701356454e-05 4.129802010464578e-06 0.00012999060595102175 -9.688354395307423e-05 -0.00035198395211836684 0.0005530522140022303 -9.204609452486974e-05 2.061879988509048e-05
9.328257048238434e-06 3.105740766578328e-05 -2.604707383036254e-05 -8.240675202817027e-05 -6.740064270323832e-05 1.2489194059143742e-07 1.3872076093010289e-05 3.079921492933246e-05
-8.029267864605485e-05 -1.2540216594966502e-05 -2.160494660049867e-05 6.471848804383992e-07 1.949241325091142e-06 1.9479491003821647e-05 -0.00010301901508993276 -2.4651970353908084e-05
00000000: 5131 d156 66ff ec3e a824 9f87 f0b6 e9be
00000010: a8e9 f251 e776 00bf 79ca 928e b549 043f
00000020: 099f 61f0 22ac ee3e 6e4c 3d9c fc8a c33e
00000030: 724c c49c 861d 90be 9af9 ec5b ff6a 213f
00000040: ac85 1baf 4e90 11bf 6062 6d4f f508 eebe
00000050: 4de2 fc07 883f f3be b4e4 631a 1b82 e3be
00000060: 70b3 b121 d5c7 063f 216d f7ae f3ff 283f
00000070: 4b8c 2067 2d52 1abf 2f36 ab28 dcc3 24bf
00000080: 98f9 9121 2938 223f 5836 7f5c 4ce2 f1be
00000090: 3a29 4387 87e9 e73e 5c3d 7713 ae2d eabe
000000a0: 0191 e32d c6b7 1bbf fc73 97df 7178 28bf
000000b0: f1ca 910b 7da7 253f ff0e daff e001 b8be
000000c0: bd92 087b 668f f13e 7f5e 0078 6b8f 213f
000000d0: 1ba3 774d bf7f 22bf 0559 548e 80cc f2be
000000e0: cd1e 210b f8de 01bf 63d1 e422 b7fb e6be
000000f0: 7ae6 b7ab 0fd4 183f 02fe 3bc4 41eb 283f
00000100: c65d 29d0 ffe1 26bf b064 478a 55c4 1d3f
00000110: c446 3af7 4d70 233f 2a59 0044 07cd f3be
00000120: a482 62f5 3f0d 063f 3e9e 18de 277b ebbe
00000130: fadc 3fee 1c9d 1dbf 6cdd ef42 0f93 1d3f
00000140: 301f e7a3 aece 363f 32f1 1d1d 4710 da3e
00000150: f370 e2ee dca5 e9be 5250 8aed ce6a ebbe
00000160: 9983 7fcf 16cc 17bf 491e d46a 78a0 0e3f
00000170: 85de 9d50 5b5e 143f fa97 fc83 190e e13e
00000180: 12dc 2851 4902 d03e e82d 2aa7 2fad 1c3f
00000190: 633b 96fb 53bb 22bf 1bbd ace7 7fe1 33bf
000001a0: 88a5 05d8 95e1 2a3f e1a7 de92 5b31 d8be
000001b0: dd23 0262 e34c 02bf 02c1 0539 2842 e8be
000001c0: 6e85 9490 31a2 1dbf f66a cbca 6567 f6be
000001d0: 9f19 beed 3b92 eebe c51d ea2f 087a b43e
000001e0: 99cf 9e69 c2f8 e93e 60c1 fd06 8a64 1c3f
000001f0: 9849 96dd b862 2dbf 5426 68ca 57a1 263f
00000200: 8870 260b ecb5 243f 8993 2887 3d39 ccbe
00000210: 5ca1 6f24 57b3 023f 834c 37c0 1f32 12bf
00000220: a3be 2698 e5ed 31bf 494b 8985 8b56 103f
00000230: cc29 947f 7bc2 07bf bac9 b13c 61c1 dc3e
00000240: d8e8 4aed 6502 283f d3d0 a8d9 a0a2 2abf
00000250: 6a21 fbbd cb4a 35bf a5c1 c64c ab7b 34bf
00000260: fdcc a863 1d66 303f 3ee0 a402 8c35 ea3e
00000270: 4ca5 8771 1bce f6be e31a 84ad 42e0 e7be
00000280: f13f 3143 55ba 0abf 963b 9b56 2bef f03e
00000290: 7b78 c3ed c6a5 7bbe 606f 27c5 62c3 963e
000002a0: df7e 0b8d 5598 f53e 1e73 ce47 192b 1c3f
000002b0: f99d c228 4010 1abf 9ba4 9eb8 b210 f9be
000002c0: 2fe4 b778 bb97 fb3e 0595 b0d4 cc8f d5be
000002d0: 4b9f b549 6d2d 103f 2eab cb17 2b93 11bf
000002e0: 5ddc d3f1 d87c 23bf 65fb fa70 20bf e9be
000002f0: 70ff 15f7 4fec fabe 1c9e 7614 87d1 d93e
00000300: ef39 8bf8 1473 213f c493 0232 bed7 2abf
00000310: f562 ce4e 562c 2abf 214c 8aba 0a07 383f
00000320: 1d89 57f4 1eb5 2d3f dc18 e46e 5709 ea3e
00000330: 85b1 c65c f74b e53e c71f 031f fa56 f93e
00000340: 2567 83e9 2a83 fdbe 7f81 b058 4c16 1cbf
00000350: 7955 e10e 58f4 113f 7e42 1bee 4f40 8c3e
00000360: b664 f7ad ceb0 ec3e 0ddf 2bc1 14e5 f83e
00000370: 0617 1813 5153 17bf bd50 6bed 082c 0f3f
00000380: d8da cfff 960b fc3e ae4e 1fde dcb4 b33e
00000390: d2b8 a2d7 fec0 c03e 926b 757f d71a 013f
000003a0: 76c6 3f9a c39b 23bf 9519 4f7d 4740 01bf
000003b0: a07c 9f50 d5e1 e53e 3ed6 0033 f2ae e0be
000003c0: db7f 9be8 c0bf 053f 7064 e384 ace2 0a3f
000003d0: 2474 2d84 f254 2bbf 4d5a b61c d592 17bf
000003e0: fb4d 7580 1c10 14bf d00d b539 cdee f0be
000003f0: 7e57 018b c089 23bf fe8c 008c cd91 313f
00000400: 2575 14bc 1c16 2fbf eec6 dfb5 6a7b 22bf
00000410: 2237 0cf7 45da 0d3f a22a 1b4c 5b10 09bf
00000420: 2df6 1463 c3cc e63e 83a6 1c36 51a0 f83e
00000430: 476d 87b3 07fa 27bf 70b5 be28 844e 27bf
00000440: c433 e773 8686 1dbf 5bde 7a6e 971e ad3e
00000450: 8b10 42e4 4da6 f03e cc89 e2bf 5261 013f
00000460: efc2 e724 2e1f 33bf 758f 11b6 f61c e0be
00000470: 5cf9 bfd9 1b2f fd3e a29a c63c 0ad5 d1be
00000480: 7fc0 8310 8158 183f 8461 2fd7 0bd1 0a3f
00000490: 9f29 e6b6 ea49 3abf dbee 8d7a c5ad 1bbf
000004a0: 2951 2b92 1c0c f9be 0c5e 405e 236d e3be
000004b0: 617a 4fdf 23f7 e13e eb52 5c83 d88a 313f
000004c0: 35ad 98a5 f618 3cbf 2439 04ea dff5 033f
000004d0: 3185 52ac 151f 0e3f 0e7c 4f62 28e6 0bbf
000004e0: 4496 d05a 6a18 033f 0ca0 821f f569 f83e
000004f0: 9eb4 1b5c 5fbd 29bf e405 eac4 d768 183f
00000500: a0a3 1fec 6222 28bf 037a 1e2a 2845 d03e
00000510: 6197 fd09 738c fabe 6bfa e4f5 9b84 013f
00000520: 28db bad2 da8c 31bf 80b8 9d8b 93a0 ec3e
00000530: 3f42 7a3b f94f c0be 90ef 979d 6d87 8c3e
00000540: caae 57d0 75a5 edbe e27f 3bbc d32e 0a3f
00000550: b84b fb31 4b4f 36bf 601b f685 e70d 223f
00000560: 6107 09f5 1422 223f b470 5822 3bea cc3e
00000570: b3a3 f417 5527 e2be 7f13 a410 b93c f83e
00000580: 3fd6 9934 6fa3 26bf 6732 8de5 9f9c 0b3f
00000590: 7908 ef67 6989 0dbf 75b1 345a 57f8 d63e
000005a0: 2f53 54f1 2424 b6be 1301 560c cc80 013f
000005b0: f260 2a45 0bd5 33bf 6ccc dae4 94bd 21bf
000005c0: c756 75c7 8861 1cbf c4fb 8289 21b9 dbbe
000005d0: dea0 da94 dfed e53e ba68 1f67 0d36 0a3f
000005e0: bf9b b2d1 4c18 38bf 6c33 2bbe cf46 1ebf
000005f0: c1e5 2abb a2c2 233f 9432 02f4 f672 dfbe
00000600: e3b1 5055 5a10 01bf 43a7 4a26 7fe9 f83e
00000610: 6fa1 957d ba0f 28bf b593 ad26 fdb0 e6be
00000620: 24e6 4d18 a2ae e63e fa94 a38d f20e bf3e
00000630: 08af 4b9c 8d5c e93e 7a63 c0e6 2cfa 013f
00000640: dd9c 26b4 68f4 37bf 992b 24ca 9c67 213f
00000650: 8e33 c41b 8212 1bbf 5bb7 e6c5 2158 d1be
00000660: 3c60 6337 16f3 023f aed1 9259 7a6c 093f
00000670: d169 d4b2 56cc 3fbf c7be 6eb8 8027 243f
00000680: a10f bb53 18b3 143f f71b 4e40 994e c33e
00000690: 0474 26a3 13a4 273f cc02 4df2 c4d5 18bf
000006a0: 2803 ccc2 fee9 42bf 6f1c b908 79ec 3dbf
000006b0: 7fbf 2fff 7bdb 17bf ac6b 5c78 252e f63e
000006c0: bb83 d6e2 72a6 f6be 92da 4207 d0dc f83e
000006d0: 5cbf f27d 2727 17bf ba1a 87a2 7dfb f33e
000006e0: 06ef c4a5 982e b43e d63f 3bb1 c2fe b53e
000006f0: 316d 665b 5f06 f53e c572 8956 7fd7 013f
00000700: 2188 094c 2dd1 26bf 6932 e3b6 1986 b63e
00000710: 55b5 f3d1 ed82 d2be 6783 ccf8 88e9 d3be
00000720: 38d4 1a85 4624 113f d913 d142 fbaa 0a3f
00000730: 44f4 e82f 25fa 30bf 29f4 a429 1815 07bf
00000740: e248 959c 3dce f53e d0c4 2d55 5752 d13e
00000750: f855 7dcd c209 213f 7c59 779c be65 19bf
00000760: be0a 2590 4f11 37bf fa06 0896 561f 423f
00000770: 38c7 e2dc 1b21 18bf 0052 9723 d19e f53e
00000780: f6ec ece2 1190 e33e 8b5b db66 7448 003f
00000790: 3583 bc48 f54f fbbe 5ab8 3f38 399a 15bf
000007a0: 82b5 7c39 2eab 11bf 78f9 8d20 41c3 803e
000007b0: 30ac e69e 8317 ed3e d285 87f7 cc25 003f
000007c0: e7bc 2fb7 590c 15bf 1079 c03e 7a4c eabe
000007d0: 835d 13a0 88a7 f6be ee3a 4c9a 46b7 a53e
000007e0: 63af 4ac0 f659 c03e 982d ca6d fc6c f43e
000007f0: 30c6 e433 7d01 1bbf 18cf d380 76d9 f9be

b f8 [1584]
9.094947017729282e-13 -3.623767952376511e-13 -3.410605131648481e-12 -5.115907697472721e-13 2.2737367544323206e-13 8.881784197001252e-15 4.547473508864641e-13 -3.8983927197477897e-11
1.1667111721180845e-11 1.4210854715202004e-12 2.8421709430404007e-13 -2.1316282072803006e-14 -7.275957614183426e-12 7.034373084024992e-13 -19893.319351702103 -7111.180038830045
7889.4784191319995 -2.842170943040401e-14 4.547473508864641e-12 -2.3305801732931286e-12 -36349.45639636992 -18455.99513415613 16418.094307653224 5.773159728050814e-14
1.8189894035458565e-12 3.835154416265141e-12 -1.858779796748422e-11 1.6129320101754274e-12 -2.2737367544323206e-12 -1.7053025658242404e-13 -7.275957614183426e-12 4.938272013532696e-12
-19893.31935170211 7111.180038830049 7889.478419131998 -1.8474111129762605e-13 -3.637978807091713e-12 -9.308109838457312e-13 -59355.16667135788 10059.38233282417
26296.388433804408 7.105427357601002e-15 -9.094947017729282e-13 -3.694822225952521e-13 -23005.710274988025 8396.61280133197 9878.2941261512 1.4921397450962104e-13
0.0 1.8349766151004587e-11 -31208.810917870385 -13265.032522275455 14570.756146146803 4.973799150320701e-14 -3.637978807091713e-12 -8.837375276016246e-13
-2.1742607714259066e-12 4.973799150320701e-14 2.2737367544323206e-13 -3.019806626980426e-14 1.8189894035458565e-12 -1.091748913495394e-11 -31208.81091787036 13265.03252227547
14570.756146146801 1.4566126083082054e-13 0.0 6.853184686406166e-12 5.3091753215994686e-11 9.094947017729282e-13 -5.229594535194337e-12 -9.237055564881302e-14
-1.4551915228366852e-11 -4.845901457883883e-11 -29157.381734123355 -11808.271953166606 13476.8308565737 4.831690603168681e-13 0.0 1.2789769243681803e-12
6.128431095930864e-13 1.4210854715202004e-14 5.3290705182007514e-14 1.2434497875801753e-14 1.8189894035458565e-12 -7.37188088351104e-12 -6.942002528376179e-12 -2.042810365310288e-14
-6.394884621840902e-13 -2.1316282072803006e-14 -7.275957614183426e-12 -1.2679635119638988e-11 1.7053025658242404e-11 1.7053025658242404e-12 -1.6484591469634324e-12 -4.263256414560601e-14
0.0 3.055333763768431e-12 -29157.381734123333 11808.271953166603 13476.830856573706 -5.684341886080802e-14 -9.094947017729282e-13 3.602007581093858e-12
-15853.120161625879 -4907.822388485476 5135.626047271445 1.3988810110276972e-13 1.8189894035458565e-12 -4.4213521732672234e-12 -15853.120161625862 4907.822388485479
5135.626047271446 9.681144774731365e-14 9.094947017729282e-13 -1.9518608951329952e-11 1.304556462855544e-11 -3.410605131648481e-13 -4.547473508864641e-13 3.979039320256561e-13
-7.275957614183426e-12 -7.432277016050648e-12 -19893.31935170212 -7111.180038830042 -7889.478419132002 -1.0231815394945443e-12 1.4551915228366852e-11 5.303490979713388e-11
-15854.498710783013 -4908.634287884378 5136.094488076614 2.2737367544323206e-13 1.8189894035458565e-12 2.2448709557920665e-12 -36349.45639636993 -18455.995134156157
-16418.094307653235 1.0746958878371515e-13 -5.4569682106375694e-12 1.1999290450148692e-11 7.332801033044234e-11 6.252776074688882e-13 -6.707523425575346e-12 1.5987211554602254e-13
-7.275957614183426e-11 2.8961721909581684e-11 -44984.25883557079 -9280.017894064255 -2489.652567853055 1.7053025658242404e-13 0.0 -4.197886482870672e-11
-15854.498710783017 4908.634287884377 5136.094488076614 1.7053025658242404e-13 1.0913936421275139e-11 -4.661160346586257e-12 -59355.16667135795 10059.38233282416
-26296.388433804437 6.039613253960852e-14 7.275957614183426e-12 5.7056581681536045e-12 -5.962874638498761e-11 1.1368683772161603e-12 -5.684341886080802e-14 9.059419880941277e-14
-9.094947017729282e-12 3.389288849575678e-12 -42339.46743800657 10393.711283002056 10799.651702557892 -1.865174681370263e-13 0.0 7.325695605686633e-12
-23005.71027498795 8396.612801331967 -9878.294126151204 1.0658141036401503e-13 4.547473508864641e-13 -1.7553958286953275e-11 -31208.8109178704 -13265.03252227546
-14570.75614614678 -2.5934809855243657e-13 1.8189894035458565e-12 -1.0111023129866226e-11 -38928.27112654589 -5283.831541706527 10799.651702557894 1.4210854715202004e-14
2.1827872842550278e-11 -5.4356519285647664e-12 3.930011871489114e-11 -1.4637180356658064e-12 9.734435479913373e-13 -1.4033219031261979e-13 0.0 1.2777334745806002e-11
-31208.810917870476 13265.03252227545 -14570.756146146801 9.059419880941277e-14 -1.4551915228366852e-11 -4.405364961712621e-12 -21679.74317240804 11281.318191598752
5399.825851278943 -2.4158453015843406e-13 2.9103830456733704e-11 -1.3073986337985843e-11 -49612.08326913239 -21475.80288249698 -8077.005005294757 -1.0658141036401503e-13
3.637978807091713e-12 -3.912425938779052e-12 -1.502797886132612e-11 1.8474111129762605e-13 9.237055564881302e-14 7.72715225139109e-14 -7.275957614183426e-12 -5.631051180898794e-13
8.716938282304909e-11 -1.6484591469634324e-12 -1.9895196601282805e-13 1.438849039914203e-13 -1.4551915228366852e-11 1.7763568394002505e-13 8.128608897095546e-12 -1.4779288903810084e-12
-6.252776074688882e-13 -8.526512829121202e-14 -2.9103830456733704e-11 4.661160346586257e-12 -49612.0832691325 21475.802882496984 -8077.005005294758 4.831690603168681e-13
7.318590178329032e-13 0.0 -15853.120161625888 -4907.822388485477 -5135.6260472714475 -5.1514348342607263e-14 -3.637978807091713e-12 4.654054919228656e-12
-28982.14450323977 309.9254786258016 -2080.2499091232967 2.291500322826323e-13 2.7267077484793845e-13 -7.275957614183426e-12 2.3987922759260982e-11 4.547473508864641e-13
00000000: 0000 0000 0000 703d 0000 0000 0080 59bd
00000010: 0000 0000 0000 8ebd 0000 0000 0000 62bd
00000020: 0000 0000 0000 503d 0000 0000 0000 043d
00000030: 0000 0000 0000 603d 0000 0000 806e c5bd
00000040: 0000 0000 00a8 a93d 0000 0000 0000 793d
00000050: 0000 0000 0000 543d 0000 0000 0000 18bd
00000060: 0000 0000 0000 a0bd 0000 0000 00c0 683d
00000070: 1d1f 4270 546d d3c0 0e57 0617 2ec7 bbc0
00000080: b81d ad79 7ad1 be40 0000 0000 0000 20bd
00000090: 0000 0000 0000 943d 0000 0000 0080 84bd
000000a0: 5a8f cc9a aebf e1c0 ed2b 47b0 ff05 d2c0
000000b0: 97f7 2209 8608 d040 0000 0000 0040 303d
000000c0: 0000 0000 0000 803d 0000 0000 00de 903d
000000d0: 0000 0000 0070 b4bd 0000 0000 0060 7c3d
000000e0: 0000 0000 0000 84bd 0000 0000 0000 48bd
000000f0: 0000 0000 0000 a0bd 0000 0000 00b8 953d
00000100: 1f1f 4270 546d d3c0 1257 0617 2ec7 bb40
00000110: b61d ad79 7ad1 be40 0000 0000 0000 4abd
00000120: 0000 0000 0000 90bd 0000 0000 0060 70bd
00000130: e92b 5f55 65fb ecc0 0030 48f0 b0a5 c340
00000140: a675 19dc 18ae d940 0000 0000 0000 003d
00000150: 0000 0000 0000 70bd 0000 0000 0000 5abd
00000160: 2f39 2575 6d77 d6c0 e127 4670 4e66 c040
00000170: 27fc eca5 254b c340 0000 0000 0000 453d
00000180: 0000 0000 0000 0000 0000 0000 002d b43d
00000190: 4311 14e6 337a dec0 bc9e b029 84e8 c9c0
000001a0: c29d 65c9 6075 cc40 0000 0000 0000 2c3d
000001b0: 0000 0000 0000 90bd 0000 0000 0018 6fbd
000001c0: 0000 0000 0020 83bd 0000 0000 0000 2c3d
000001d0: 0000 0000 0000 503d 0000 0000 0000 21bd
000001e0: 0000 0000 0000 803d 0000 0000 0002 a8bd
000001f0: 3c11 14e6 337a dec0 c49e b029 84e8 c940
00000200: c19d 65c9 6075 cc40 0000 0000 0080 443d
00000210: 0000 0000 0000 0000 0000 0000 0024 9e3d
00000220: 0000 0000 0030 cd3d 0000 0000 0000 703d
00000230: 0000 0000 0000 97bd 0000 0000 0000 3abd
00000240: 0000 0000 0000 b0bd 0000 0000 00a4 cabd
00000250: e5f5 546e 5879 dcc0 4f82 5ccf 2210 c7c0
00000260: db19 8259 6a52 ca40 0000 0000 0000 613d
00000270: 0000 0000 0000 0000 0000 0000 0080 763d
00000280: 0000 0000 0090 653d 0000 0000 0000 103d
00000290: 0000 0000 0000 2e3d 0000 0000 0000 0c3d
000002a0: 0000 0000 0000 803d 0000 0000 0036 a0bd
000002b0: 0000 0000 0088 9ebd 0000 0000 0000 17bd
000002c0: 0000 0000 0080 66bd 0000 0000 0000 18bd
000002d0: 0000 0000 0000 a0bd 0000 0000 00e2 abbd
000002e0: 0000 0000 00c0 b23d 0000 0000 0000 7e3d
000002f0: 0000 0000 0000 7dbd 0000 0000 0000 28bd
00000300: 0000 0000 0000 0000 0000 0000 00e0 8a3d
00000310: dff5 546e 5879 dcc0 4d82 5ccf 2210 c740
00000320: de19 8259 6a52 ca40 0000 0000 0000 30bd
00000330: 0000 0000 0000 70bd 0000 0000 00af 8f3d
00000340: b1c6 7461 8ff6 cec0 ba41 0d88 d22b b3c0
00000350: 9b4c a244 a00f b440 0000 0000 00b0 433d
00000360: 0000 0000 0000 803d 0000 0000 0072 93bd
00000370: a8c6 7461 8ff6 cec0 bd41 0d88 d22b b340
00000380: 9c4c a244 a00f b440 0000 0000 0040 3b3d
00000390: 0000 0000 0000 703d 0000 0000 0076 b5bd
000003a0: 0000 0000 00b0 ac3d 0000 0000 0000 58bd
000003b0: 0000 0000 0000 60bd 0000 0000 0000 5c3d
000003c0: 0000 0000 0000 a0bd 0000 0000 0058 a0bd
000003d0: 221f 4270 546d d3c0 0a57 0617 2ec7 bbc0
000003e0: bb1d ad79 7ad1 bec0 0000 0000 0000 72bd
000003f0: 0000 0000 0000 b03d 0000 0000 0028 cd3d
00000400: 9a43 c1d5 3ff7 cec0 a7d7 b060 a22c b3c0
00000410: ebde 5e30 1810 b440 0000 0000 0000 503d
00000420: 0000 0000 0000 803d 0000 0000 00bf 833d
00000430: 5c8f cc9a aebf e1c0 f52b 47b0 ff05 d2c0
00000440: 9af7 2209 8608 d0c0 0000 0000 0040 3e3d
00000450: 0000 0000 0000 98bd 0000 0000 0063 aa3d
00000460: 0000 0000 0028 d43d 0000 0000 0000 663d
00000470: 0000 0000 0080 9dbd 0000 0000 0080 463d
00000480: 0000 0000 0000 d4bd 0000 0000 00d8 bf3d
00000490: f388 6148 08f7 e5c0 624a 5a4a 0220 c2c0
000004a0: 96a6 5f1d 4e73 a3c0 0000 0000 0000 483d
000004b0: 0000 0000 0000 0000 0000 0000 0014 c7bd
000004c0: 9c43 c1d5 3ff7 cec0 a6d7 b060 a22c b340
000004d0: ebde 5e30 1810 b440 0000 0000 0000 483d
000004e0: 0000 0000 0000 a83d 0000 0000 0080 94bd
000004f0: f22b 5f55 65fb ecc0 fa2f 48f0 b0a5 c340
00000500: ae75 19dc 18ae d9c0 0000 0000 0000 313d
00000510: 0000 0000 0000 a03d 0000 0000 0018 993d
00000520: 0000 0000 0064 d0bd 0000 0000 0000 743d
00000530: 0000 0000 0000 30bd 0000 0000 0080 393d
00000540: 0000 0000 0000 a4bd 0000 0000 00d0 8d3d
00000550: e48c 40f5 6eac e4c0 0448 520b db4c c440
00000560: 6f4a fd6a d317 c540 0000 0000 0040 4abd
00000570: 0000 0000 0000 0000 0000 0000 001c a03d
00000580: 1a39 2575 6d77 d6c0 df27 4670 4e66 c040
00000590: 29fc eca5 254b c3c0 0000 0000 0000 3e3d
000005a0: 0000 0000 0000 603d 0000 0000 004d b3bd
000005b0: 4711 14e6 337a dec0 bf9e b029 84e8 c9c0
000005c0: b59d 65c9 6075 ccc0 0000 0000 0040 52bd
000005d0: 0000 0000 0000 803d 0000 0000 003c a6bd
000005e0: f693 11ad 0802 e3c0 cbd2 eadf d4a3 b4c0
000005f0: 704a fd6a d317 c540 0000 0000 0000 103d
00000600: 0000 0000 0000 b83d 0000 0000 00e8 97bd
00000610: 0000 0000 009b c53d 0000 0000 00c0 79bd
00000620: 0000 0000 0020 713d 0000 0000 00c0 43bd
00000630: 0000 0000 0000 0000 0000 0000 0019 ac3d
00000640: 5c11 14e6 337a dec0 ba9e b029 84e8 c940
00000650: c19d 65c9 6075 ccc0 0000 0000 0080 393d
00000660: 0000 0000 0000 b0bd 0000 0000 0060 93bd
00000670: f500 2390 ef2b d5c0 4097 80ba a808 c640
00000680: 6c4a fd6a d317 b540 0000 0000 0000 51bd
00000690: 0000 0000 0000 c03d 0000 0000 00c0 acbd
000006a0: 0c07 24aa 8239 e8c0 c444 6d62 f3f8 d4c0
000006b0: 4ae9 0648 018d bfc0 0000 0000 0000 3ebd
000006c0: 0000 0000 0000 903d 0000 0000 0035 91bd
000006d0: 0000 0000 0086 b0bd 0000 0000 0000 4a3d
000006e0: 0000 0000 0000 3a3d 0000 0000 00c0 353d
000006f0: 0000 0000 0000 a0bd 0000 0000 00d0 63bd
00000700: 0000 0000 00f6 d73d 0000 0000 0000 7dbd
00000710: 0000 0000 0000 4cbd 0000 0000 0040 443d
00000720: 0000 0000 0000 b0bd 0000 0000 0000 493d
00000730: 0000 0000 00e0 a13d 0000 0000 0000 7abd
00000740: 0000 0000 0000 66bd 0000 0000 0000 38bd
00000750: 0000 0000 0000 c0bd 0000 0000 0080 943d
00000760: 1b07 24aa 8239 e8c0 c544 6d62 f3f8 d440
00000770: 4be9 0648 018d bfc0 0000 0000 0000 613d
00000780: 0000 0000 00c0 693d 0000 0000 0000 0000
00000790: b6c6 7461 8ff6 cec0 bb41 0d88 d22b b3c0
000007a0: 9e4c a244 a00f b4c0 0000 0000 0000 2dbd
000007b0: 0000 0000 0000 90bd 0000 0000 0078 943d
000007c0: 3f84 8a3f 894d dcc0 70ef acc2 ce5e 7340
000007d0: 10af 16f4 7f40 a0c0 0000 0000 0020 503d
000007e0: 0000 0000 0030 533d 0000 0000 0000 a0bd
000007f0: 0000 0000 0060 ba3d 0000 0000 0000 603d
