python-Linux/neural-sparse-linear-solvers-master/stand_small_test/5585060340674669431_b68392a07d83fb83208473a7f2c5e1ce9575d0b4_3e6f32e49a842ec7ca55cd430e042cf4325474f2.npz (npz, 42878 bytes, 3 tensors)

A_values f8 [10156]
1612799632.8388088 -440263.005203709 -25409090.956094466 -22477332.009438153 41794325.3504512 -13073272.741354465 -25409090.956094466 -1554410677.7055092
1619105821.1505833 295868.9063397385 24717550.405525252 -14897781.46563841 -27700917.765211985 -1576529741.2703323 -12539038.190152653 24717550.405525252
3343533833.3296833 38379671.31621929 -37347815.123164386 -1647913515.2790527 -19746787.15218371 38379671.31621929 -18946281.99254874 -37347815.123164386
295868.9063397385 38379671.31621929 256548622.7920251 27700917.765211985 33879068.5098905 -38379671.31621929 48799056.7585388 -17525488.445054468
-440263.005203709 -37347815.123164386 326720211.7868709 -41794325.3504512 50749018.776836805 -17774873.886418615 37347815.123164386 48188394.88876446
-25409090.956094466 24717550.405525252 168862475.43848628 -18579703.34654616 25409090.956094466 32520489.261960693 -24717550.405525252 32096642.945369374
-22477332.009438153 -41794325.3504512 1589961282.4563017 -41794325.3504512 -25409090.956094466 -13073272.741354465 -25409090.956094466 -1554410677.7055092
-14897781.46563841 27700917.765211985 1603966560.9261234 27700917.765211985 24717550.405525252 -1576529741.2703323 -12539038.190152653 24717550.405525252
-1647913515.2790527 1686606584.4237852 38379671.31621929 -37347815.123164386 -19746787.15218371 38379671.31621929 -18946281.99254874 -37347815.123164386
-27700917.765211985 33879068.5098905 27700917.765211985 38379671.31621929 187050214.9499476 -38379671.31621929 48799056.7585388 -17525488.445054468
41794325.3504512 50749018.776836805 -41794325.3504512 -37347815.123164386 221505692.02592495 -17774873.886418615 37347815.123164386 48188394.88876446
-18579703.34654616 -25409090.956094466 24717550.405525252 150181145.09799972 25409090.956094466 32520489.261960693 -24717550.405525252 32096642.945369374
-13073272.741354465 25409090.956094466 1629748075.9377131 -440263.005203709 -4754876.240310103 -22477332.009438153 41794325.3504512 -16948443.09890434
-30163967.19640457 -1554410677.7055092 -1576529741.2703323 3340769526.2753925 295868.9063397385 24717550.405525252 -14897781.46563841 -27700917.765211985
-1721663705.124809 -12539038.190152653 24717550.405525252 -19746787.15218371 -38379671.31621929 3369074256.6584425 7075860.320240825 -37347815.123164386
-1647913515.2790527 -25540423.328759596 45455531.63646012 -18946281.99254874 -37347815.123164386 38379671.31621929 48799056.7585388 295868.9063397385
7075860.320240825 365618048.4992336 27700917.765211985 33879068.5098905 -45455531.63646012 52729408.22414545 -17525488.445054468 -17774873.886418615
-440263.005203709 -37347815.123164386 346131425.1831745 -41794325.3504512 50749018.776836805 -19411213.39630358 37347815.123164386 48188394.88876446
-25409090.956094466 32520489.261960693 -4754876.240310103 24717550.405525252 240963656.02423233 -18579703.34654616 30163967.19640457 35267373.766551994
-24717550.405525252 32096642.945369374 -13073272.741354465 25409090.956094466 -22477332.009438153 -41794325.3504512 1606909725.555206 -41794325.3504512
-4754876.240310103 -16948443.09890434 -30163967.19640457 -1554410677.7055092 -1576529741.2703323 -14897781.46563841 27700917.765211985 3325630266.0509324
27700917.765211985 24717550.405525252 -1721663705.124809 -12539038.190152653 24717550.405525252 -19746787.15218371 -38379671.31621929 -1647913515.2790527
1712147007.7525449 7075860.320240825 -37347815.123164386 -25540423.328759596 45455531.63646012 -18946281.99254874 -37347815.123164386 38379671.31621929
48799056.7585388 -27700917.765211985 33879068.5098905 27700917.765211985 7075860.320240825 296119640.6571561 -45455531.63646012 52729408.22414545
-17525488.445054468 -17774873.886418615 41794325.3504512 50749018.776836805 -41794325.3504512 -37347815.123164386 240916905.42222852 -19411213.39630358
37347815.123164386 48188394.88876446 -25409090.956094466 32520489.261960693 -18579703.34654616 -4754876.240310103 24717550.405525252 222282325.68374577
30163967.19640457 35267373.766551994 -24717550.405525252 32096642.945369374 -16948443.09890434 30163967.19640457 1627281022.611088 -440263.005203709
8038270.699941352 -22477332.009438153 41794325.3504512 -10606219.414729325 -22125696.496463217 -1554410677.7055092 -1721663705.124809 3233066729.628865
295868.9063397385 24717550.405525252 -14897781.46563841 -27700917.765211985 -1468826944.6238046 -12539038.190152653 24717550.405525252 -25540423.328759596
-45455531.63646012 3365373743.5373335 -11981305.314347409 -37347815.123164386 -1647913515.2790527 -16046274.031074565 33474226.32211271 -18946281.99254874
-37347815.123164386 45455531.63646012 52729408.22414545 295868.9063397385 -11981305.314347409 359092214.71925807 27700917.765211985 33879068.5098905
-33474226.32211271 45797707.712706104 -17525488.445054468 -19411213.39630358 -440263.005203709 -37347815.123164386 344917110.2371944 -41794325.3504512
00000000: 0baf 35a4 5708 d841 001f 5405 1cdf 1ac1
00000010: b629 4c2f 643b 78c1 9fa8 2640 a16f 75c1
00000020: 5cb9 cdaa d8ed 8341 002d b917 6fef 68c1
00000030: b629 4c2f 643b 78c1 1027 6d2d 9b29 d7c1
00000040: 28a3 4907 6620 d841 4086 17a0 f30e 1241
00000050: 0c08 7de6 8e92 7741 8682 e6ae 4e6a 6cc1
00000060: ec4e 3e5c eb6a 7ac1 204d 51d3 fb7d d7c1
00000070: 04bb 15c6 93ea 67c1 0c08 7de6 8e92 7741
00000080: c48c 2ae1 48e9 e841 fb9d 87ba 044d 8241
00000090: 9c3d fc38 0fcf 81c1 00dc d18a 4a8e d8c1
000000a0: 3058 6f32 fed4 72c1 fb9d 87ba 044d 8241
000000b0: ca7a e19f 8e11 72c1 9c3d fc38 0fcf 81c1
000000c0: 4086 17a0 f30e 1241 fb9d 87ba 044d 8241
000000d0: 5084 951d 3e95 ae41 ec4e 3e5c eb6a 7a41
000000e0: 7841 14e4 a027 8041 fb9d 87ba 044d 82c1
000000f0: ca7c 1186 ea44 8741 6ff1 1e07 afb6 70c1
00000100: 001f 5405 1cdf 1ac1 9c3d fc38 0fcf 81c1
00000110: 5f70 c9d3 5a79 b341 5cb9 cdaa d8ed 83c1
00000120: 37f6 36d6 f232 8841 49c5 2e9e 91f3 70c1
00000130: 9c3d fc38 0fcf 8141 8b30 1c57 5ffa 8641
00000140: b629 4c2f 643b 78c1 0c08 7de6 8e92 7741
00000150: 4681 e016 4621 a441 fc73 8b75 0fb8 71c1
00000160: b629 4c2f 643b 7841 b2fd 3094 9203 7f41
00000170: 0c08 7de6 8e92 77c1 a33b 202f 189c 7e41
00000180: 9fa8 2640 a16f 75c1 5cb9 cdaa d8ed 83c1
00000190: 0c34 9d90 38b1 d741 5cb9 cdaa d8ed 83c1
000001a0: b629 4c2f 643b 78c1 002d b917 6fef 68c1
000001b0: b629 4c2f 643b 78c1 1027 6d2d 9b29 d7c1
000001c0: 8682 e6ae 4e6a 6cc1 ec4e 3e5c eb6a 7a41
000001d0: 9b45 3b98 a5e6 d741 ec4e 3e5c eb6a 7a41
000001e0: 0c08 7de6 8e92 7741 204d 51d3 fb7d d7c1
000001f0: 04bb 15c6 93ea 67c1 0c08 7de6 8e92 7741
00000200: 00dc d18a 4a8e d8c1 4c1f 1bbe e421 d941
00000210: fb9d 87ba 044d 8241 9c3d fc38 0fcf 81c1
00000220: 3058 6f32 fed4 72c1 fb9d 87ba 044d 8241
00000230: ca7a e19f 8e11 72c1 9c3d fc38 0fcf 81c1
00000240: ec4e 3e5c eb6a 7ac1 7841 14e4 a027 8041
00000250: ec4e 3e5c eb6a 7a41 fb9d 87ba 044d 8241
00000260: 885f e6cd 514c a641 fb9d 87ba 044d 82c1
00000270: ca7c 1186 ea44 8741 6ff1 1e07 afb6 70c1
00000280: 5cb9 cdaa d8ed 8341 37f6 36d6 f232 8841
00000290: 5cb9 cdaa d8ed 83c1 9c3d fc38 0fcf 81c1
000002a0: 0946 0d38 d167 aa41 49c5 2e9e 91f3 70c1
000002b0: 9c3d fc38 0fcf 8141 8b30 1c57 5ffa 8641
000002c0: fc73 8b75 0fb8 71c1 b629 4c2f 643b 78c1
000002d0: 0c08 7de6 8e92 7741 052d 3232 2ae7 a141
000002e0: b629 4c2f 643b 7841 b2fd 3094 9203 7f41
000002f0: 0c08 7de6 8e92 77c1 a33b 202f 189c 7e41
00000300: 002d b917 6fef 68c1 b629 4c2f 643b 7841
00000310: 7e03 fcda fe48 d841 001f 5405 1cdf 1ac1
00000320: a03d 610f 6f23 52c1 9fa8 2640 a16f 75c1
00000330: 5cb9 cdaa d8ed 8341 b81c 95b1 cd29 70c1
00000340: 1e79 24f3 3fc4 7cc1 1027 6d2d 9b29 d7c1
00000350: 204d 51d3 fb7d d7c1 04d0 c81e 03e4 e841
00000360: 4086 17a0 f30e 1241 0c08 7de6 8e92 7741
00000370: 8682 e6ae 4e6a 6cc1 ec4e 3e5c eb6a 7ac1
00000380: dffc 4736 a0a7 d9c1 04bb 15c6 93ea 67c1
00000390: 0c08 7de6 8e92 7741 3058 6f32 fed4 72c1
000003a0: fb9d 87ba 044d 82c1 f611 15ca ff19 e941
000003b0: 60d3 7e14 05fe 5a41 9c3d fc38 0fcf 81c1
000003c0: 00dc d18a 4a8e d8c1 6c99 4275 745b 78c1
000003d0: 6778 175d c5ac 8541 ca7a e19f 8e11 72c1
000003e0: 9c3d fc38 0fcf 81c1 fb9d 87ba 044d 8241
000003f0: ca7c 1186 ea44 8741 4086 17a0 f30e 1241
00000400: 60d3 7e14 05fe 5a41 c6cd 7f80 e3ca b541
00000410: ec4e 3e5c eb6a 7a41 7841 14e4 a027 8041
00000420: 6778 175d c5ac 85c1 c50c cb01 b224 8941
00000430: 6ff1 1e07 afb6 70c1 49c5 2e9e 91f3 70c1
00000440: 001f 5405 1cdf 1ac1 9c3d fc38 0fcf 81c1
00000450: 86e4 2ee1 8ba1 b441 5cb9 cdaa d8ed 83c1
00000460: 37f6 36d6 f232 8841 6c42 57d6 1083 72c1
00000470: 9c3d fc38 0fcf 8141 8b30 1c57 5ffa 8641
00000480: b629 4c2f 643b 78c1 b2fd 3094 9203 7f41
00000490: a03d 610f 6f23 52c1 0c08 7de6 8e92 7741
000004a0: 2e68 0c90 a0b9 ac41 fc73 8b75 0fb8 71c1
000004b0: 1e79 24f3 3fc4 7c41 03e6 216e 19d1 8041
000004c0: 0c08 7de6 8e92 77c1 a33b 202f 189c 7e41
000004d0: 002d b917 6fef 68c1 b629 4c2f 643b 7841
000004e0: 9fa8 2640 a16f 75c1 5cb9 cdaa d8ed 83c1
000004f0: 7f88 63c7 dff1 d741 5cb9 cdaa d8ed 83c1
00000500: a03d 610f 6f23 52c1 b81c 95b1 cd29 70c1
00000510: 1e79 24f3 3fc4 7cc1 1027 6d2d 9b29 d7c1
00000520: 204d 51d3 fb7d d7c1 8682 e6ae 4e6a 6cc1
00000530: ec4e 3e5c eb6a 7a41 3da1 41e7 22c7 e841
00000540: ec4e 3e5c eb6a 7a41 0c08 7de6 8e92 7741
00000550: dffc 4736 a0a7 d9c1 04bb 15c6 93ea 67c1
00000560: 0c08 7de6 8e92 7741 3058 6f32 fed4 72c1
00000570: fb9d 87ba 044d 82c1 00dc d18a 4a8e d8c1
00000580: b229 f08f 5283 d941 60d3 7e14 05fe 5a41
00000590: 9c3d fc38 0fcf 81c1 6c99 4275 745b 78c1
000005a0: 6778 175d c5ac 8541 ca7a e19f 8e11 72c1
000005b0: 9c3d fc38 0fcf 81c1 fb9d 87ba 044d 8241
000005c0: ca7c 1186 ea44 8741 ec4e 3e5c eb6a 7ac1
000005d0: 7841 14e4 a027 8041 ec4e 3e5c eb6a 7a41
000005e0: 60d3 7e14 05fe 5a41 623b a858 6da6 b141
000005f0: 6778 175d c5ac 85c1 c50c cb01 b224 8941
00000600: 6ff1 1e07 afb6 70c1 49c5 2e9e 91f3 70c1
00000610: 5cb9 cdaa d8ed 8341 37f6 36d6 f232 8841
00000620: 5cb9 cdaa d8ed 83c1 9c3d fc38 0fcf 81c1
00000630: 562e d852 33b8 ac41 6c42 57d6 1083 72c1
00000640: 9c3d fc38 0fcf 8141 8b30 1c57 5ffa 8641
00000650: b629 4c2f 643b 78c1 b2fd 3094 9203 7f41
00000660: fc73 8b75 0fb8 71c1 a03d 610f 6f23 52c1
00000670: 0c08 7de6 8e92 7741 ed13 5eab 847f aa41
00000680: 1e79 24f3 3fc4 7c41 03e6 216e 19d1 8041
00000690: 0c08 7de6 8e92 77c1 a33b 202f 189c 7e41
000006a0: b81c 95b1 cd29 70c1 1e79 24f3 3fc4 7c41
000006b0: 111c a79f 953f d841 001f 5405 1cdf 1ac1
000006c0: d0d6 cbac dfa9 5e41 9fa8 2640 a16f 75c1
000006d0: 5cb9 cdaa d8ed 8341 6f76 456d d13a 64c1
000006e0: 6a83 f107 c819 75c1 1027 6d2d 9b29 d7c1
000006f0: dffc 4736 a0a7 d9c1 a91f 34dd 9516 e841
00000700: 4086 17a0 f30e 1241 0c08 7de6 8e92 7741
00000710: 8682 e6ae 4e6a 6cc1 ec4e 3e5c eb6a 7ac1
00000720: 6aec 2750 21e3 d5c1 04bb 15c6 93ea 67c1
00000730: 0c08 7de6 8e92 7741 6c99 4275 745b 78c1
00000740: 6778 175d c5ac 85c1 d631 f1e5 f012 e941
00000750: 4c22 0f2a 3fda 66c1 9c3d fc38 0fcf 81c1
00000760: 00dc d18a 4a8e d8c1 1690 fe40 189b 6ec1
00000770: a85f 2725 6bec 7f41 ca7a e19f 8e11 72c1
00000780: 9c3d fc38 0fcf 81c1 6778 175d c5ac 8541
00000790: c50c cb01 b224 8941 4086 17a0 f30e 1241
000007a0: 4c22 0f2a 3fda 66c1 4c21 b8f6 4f67 b541
000007b0: ec4e 3e5c eb6a 7a41 7841 14e4 a027 8041
000007c0: a85f 2725 6bec 7fc1 429f b35d 8ad6 8541
000007d0: 6ff1 1e07 afb6 70c1 6c42 57d6 1083 72c1
000007e0: 001f 5405 1cdf 1ac1 9c3d fc38 0fcf 81c1
000007f0: c6b8 3c76 048f b441 5cb9 cdaa d8ed 83c1

x f8 [972]
-1.53429071704554e-06 2.0116124757577137e-06 -3.0713765014137706e-05 -2.1915425800446347e-05 1.3923972573790789e-05 7.973626847347618e-08 3.2925340883280574e-06 2.477913153469748e-05
-4.356504154486903e-05 -3.3540223235746e-05 2.2454564826071933e-05 -6.820473639644191e-07 -2.7635838748004663e-06 2.407320451636164e-06 -4.149233801038462e-05 4.109910547375007e-06
1.326438426846037e-05 -4.334400576319263e-07 4.012131614981608e-06 2.406965382651618e-05 -6.0458572100554264e-05 1.2520646923283247e-06 2.5233290314914128e-05 -3.4115836334770484e-06
8.130945412247719e-08 2.5791669825818647e-06 -3.5533785363516706e-05 -7.113821874047382e-06 1.3518878945120132e-05 -7.831767729612898e-07 2.981161445124067e-05 2.367469645605199e-05
-4.8665461807295484e-05 2.4965740680864548e-05 3.550456073524718e-05 -4.6848887442717905e-06 1.8200219740683581e-06 2.102795274741768e-06 -1.9399501894843294e-05 -1.1797747673437276e-06
2.2187382553039586e-05 -2.9309028335184066e-07 3.1575104139601887e-06 1.575415546658519e-06 -1.9741358999731577e-05 -2.4651804967126437e-06 2.2535793869279762e-05 3.8157807059795237e-07
-2.7013802393427863e-06 1.0570722571005389e-06 -5.2435301541495504e-05 6.555695521534026e-06 1.517026322139162e-05 3.761506407191618e-07 -4.2468184724815855e-06 -2.2712880217597488e-05
-8.20817122793007e-05 -1.1069245384272684e-05 1.2880357915231795e-05 -1.8840978751699225e-06 3.411068887198766e-06 -1.8900299589270545e-05 -9.304375242564433e-05 -2.461887940899672e-05
2.5810458415339558e-05 6.955823628518485e-07 -3.561655562424605e-06 1.039262955829409e-06 -4.718881110294951e-05 1.3119431501008297e-05 1.6135201527170867e-05 -1.6695424991228477e-07
-3.4249745722344294e-06 -2.225549576762954e-05 -7.741974631846776e-05 1.2152814796766185e-05 1.4490206410196876e-05 -1.808756620244437e-06 4.736777987571562e-06 -1.9578726430851126e-05
-8.867008054358259e-05 2.4639515521083998e-05 2.845682937172126e-05 7.802788197547698e-07 -1.010705442316429e-06 9.668630313730884e-07 -4.693136205789711e-05 -2.1111432116996487e-05
1.0850823820902151e-05 -2.0654633677405646e-07 2.4450654267762573e-06 1.6150808499939577e-05 -6.858113445351577e-05 -3.3583846615725266e-05 2.3602837337863074e-05 -5.202048481364597e-07
-2.2509933887066477e-06 1.4239205510979517e-06 -5.688368619361431e-05 5.091448833497702e-06 1.2714813679680892e-05 -3.988164559420454e-07 2.8899496572958314e-06 1.5275634773821216e-05
-8.382413384084382e-05 4.59284547689995e-06 1.5048186601756015e-05 -2.3734534884527265e-06 6.142618227181306e-07 1.6721038177909105e-06 -4.377431398677766e-05 -6.011934746101841e-06
1.9656863117399292e-05 -7.555937856475521e-07 2.9047592221434596e-05 1.4731041177666764e-05 -5.712259016272609e-05 2.8186307659340547e-05 -2.7540483687796383e-05 -5.063334043138064e-06
1.2324784434626787e-06 1.3380425498968684e-06 -2.7882176887799193e-05 -1.0591529476719356e-06 1.9848042260287897e-05 -2.9605360452119637e-07 2.6252682493206113e-06 9.779961856925018e-07
-2.8461567895077925e-05 -4.100687461047176e-06 2.005171946522693e-05 5.0254713488331885e-08 -2.3956276592742253e-06 5.644933571429309e-07 -7.383475353117838e-05 8.915956316950922e-06
1.3505128736348035e-05 2.411804187724919e-07 -3.8063603086636525e-06 -3.893980067515237e-05 -0.00011804467779287515 -8.823626810421277e-06 1.2391634276491588e-05 6.75437202782526e-08
2.2145168525902247e-06 -7.810448276953445e-06 -0.00013612418712324436 -3.3529623341764826e-05 2.079649906936549e-05 1.4543406091591285e-06 -3.2376981971696777e-06 7.03312683990491e-07
-8.32453514063184e-05 -1.5841310227632713e-05 1.4421110634218586e-05 1.0737122267066437e-07 -3.0375290124121073e-06 -3.895600789541631e-05 -0.00013515049311113976 -2.1266280938666332e-05
1.5072801769013776e-05 -8.948316333754476e-07 3.507399348977177e-06 -8.228764630210524e-06 -0.0001530356874921275 2.3330389970066935e-05 2.1830632141096476e-05 1.3722887181493884e-06
-8.746679628734562e-06 1.967747605568207e-06 -3.907683853407629e-05 4.370763156656842e-05 3.0136846244894733e-05 5.363432449964195e-07 1.0744858597767039e-05 -4.1247443052281135e-05
-5.622231236274966e-05 7.788390139482908e-05 5.752089276554195e-05 1.4423975300321973e-06 5.634487077133116e-07 -2.0701390366304005e-06 -4.186700875927129e-05 -2.1455842724098435e-05
-1.8677722116715362e-06 5.688192120148834e-07 6.34917693503697e-08 1.9989168412022898e-05 -5.758145796466507e-05 -4.103043896270753e-05 -6.0541858568684825e-05 9.011461345712056e-07
-1.1496933338055453e-06 -1.610716782780877e-06 -5.332785601253263e-05 3.954354613149874e-06 -6.383120834261155e-06 3.5998573718279535e-08 8.5352667473511e-08 1.9107528425311705e-05
-7.587375742020549e-05 2.8157962527739094e-05 -1.290257016153028e-05 -1.4935047564859524e-06 -2.2997980829848868e-07 -1.8579085972115827e-06 -2.774261474524565e-05 -4.683540890579726e-06
-1.0080809901005722e-05 6.828796231141986e-08 -3.6029124314900624e-07 -2.2805036601840896e-06 -4.767319671801519e-05 -3.0903069538127636e-07 -1.4492875335134562e-05 6.071748767803307e-08
-5.073905356133652e-06 -8.234287548649828e-06 -6.275895299794199e-05 -4.4139633424044145e-05 5.2481897029534245e-05 3.879188607611575e-07 1.1973881464721327e-06 -1.824750903582459e-06
-5.5101618167057866e-05 -1.3413645394226523e-06 -1.4001769053528895e-05 1.8573136516988914e-07 5.564643013349314e-07 -9.267352500158155e-06 -7.723652161349062e-05 1.9338716816498474e-06
4.5063565545418336e-05 2.3868353002360666e-07 -1.5494549261604102e-06 -1.3999740273564953e-06 -8.11809685864654e-05 7.70303217110428e-06 -8.806322389031923e-06 4.4009011410690446e-07
-2.7768201067818547e-06 -1.034931305150878e-05 -0.00013199898608183544 6.063196522250355e-06 -3.5982767359636117e-06 1.8192550763340283e-06 -1.0036385982719944e-06 3.1560943807152504e-06
-0.00015068037282325023 -3.1559235810084133e-05 -1.1503221721999608e-05 -4.6542973912537063e-07 -2.2686234825734e-06 -1.120240326329709e-06 -8.604780947862416e-05 -1.7699338370176186e-05
00000000: 6507 d97b babd b9be e7e3 61a7 e7df c03e
00000010: 6468 20ee 541a 00bf 518e ec97 e0fa f6be
00000020: b2ae fd37 6033 ed3e f82c fc44 6f67 753e
00000030: 2364 eac1 a99e cb3e 633a faf3 98fb f93e
00000040: 1aed f16d 33d7 06bf e736 914b b195 01bf
00000050: d676 f7f1 998b f73e bd5f c603 bee2 a6be
00000060: 6411 664d c02e c7be 9b99 076a ae31 c43e
00000070: 4026 d9e0 01c1 05bf 93bc e69b fb3c d13e
00000080: 7179 a117 43d1 eb3e 4078 8288 7116 9dbe
00000090: 2dc5 3857 fed3 d03e fc08 2404 263d f93e
000000a0: 48b4 2fb8 9cb2 0fbf 7f04 1db0 9301 b53e
000000b0: 2d94 bb81 8275 fa3e 9fc3 e3ef 519e ccbe
000000c0: d6a5 490b 8bd3 753e ae74 2d0b b8a2 c53e
000000d0: 3819 7d91 43a1 02bf 3b8f 9477 68d6 ddbe
000000e0: 746b 0793 e459 ec3e 4af5 dbef 6f47 aabe
000000f0: 9eeb b58b 7e42 ff3e d995 99c0 20d3 f83e
00000100: 1493 0689 c483 09bf b95e cba2 b02d fa3e
00000110: 2e9b f06a 579d 023f 0fe6 8b69 5ca6 d3be
00000120: a586 c352 ef88 be3e 941b 7eed b7a3 c13e
00000130: 1cca 809e 8357 f4be f971 2913 18cb b3be
00000140: 1b32 b651 e143 f73e aee9 b8b2 40ab 93be
00000150: 27d6 1db5 b37c ca3e ee28 4eb6 5b6e ba3e
00000160: 73fa 4adc 47b3 f4be 2a2b 734f efad c4be
00000170: c82f 68f6 67a1 f73e 36b1 231a 769b 993e
00000180: 5152 fa7d 2ba9 c6be 25e8 f23c 17bc b13e
00000190: 5cab 013e bf7d 0bbf 83bd 0fdd 1f7f db3e
000001a0: 7bf1 dd19 79d0 ef3e ff30 5803 383e 993e
000001b0: 7cb6 a892 fccf d1be 967b 643e f1d0 f7be
000001c0: 6bbf 5014 6984 15bf 1ec4 5780 c136 e7be
000001d0: 81df 86e9 1603 eb3e 87b7 8885 239c bfbe
000001e0: 7096 caf3 369d cc3e f86d abb2 82d1 f3be
000001f0: 3552 bc7e 0f64 18bf 06a3 c482 94d0 f9be
00000200: bd95 5532 7110 fb3e 72a4 c4ca 0157 a73e
00000210: 5f0f 3eda 98e0 cdbe 06d0 49b4 996f b13e
00000220: 6ba6 1134 93bd 08bf e781 86ef 7083 eb3e
00000230: 8850 219b 42eb f03e 80b0 d81c 8168 86be
00000240: af25 faae 13bb ccbe c40a 0e06 2a56 f7be
00000250: 10be 2f1d 8d4b 14bf 0c70 bc25 7e7c e93e
00000260: ecf7 facd 5e63 ee3e fcfc 8eef 8c58 bebe
00000270: 640e 6f9e 13de d33e b95e e2d5 9f87 f4be
00000280: 63bf 5f62 8c3e 17bf ec57 179d 1ed6 f93e
00000290: 31a1 8a6c d2d6 fd3e c490 3c45 8b2e aa3e
000002a0: 945c d662 f2f4 b0be 5ff6 3c25 a538 b03e
000002b0: b7f7 5152 059b 08bf e75c 7791 0e23 f6be
000002c0: a6f4 c8de 7dc1 e63e f249 aaca e0b8 8bbe
000002d0: 8568 07ef bc82 c43e 640f e61b 73ef f03e
000002e0: f85f 1ceb 66fa 11bf c51f e02e 8c9b 01bf
000002f0: c3af 9fa1 d6bf f83e 6e28 078f 8674 a1be
00000300: debd d4b3 f8e1 c2be 6147 f533 b1e3 b73e
00000310: c582 3493 ccd2 0dbf c943 75cc e65a d53e
00000320: d4ca 8baf 36aa ea3e 17ab 9752 9dc3 9abe
00000330: 6abc 3da0 1e3e c83e a13a e3a0 8504 f03e
00000340: d891 62a7 57f9 15bf f858 69c0 8743 d33e
00000350: 488a a804 ef8e ef3e 4c6a b1da f3e8 c3be
00000360: 68d7 7c08 789c a43e 98a5 2b97 a10d bc3e
00000370: 1fa0 cff9 49f3 06bf ab47 290a 4437 d9be
00000380: d4ca 0259 999c f43e 7e8b 6f4e 805a a9be
00000390: 8576 8056 6775 fe3e f809 0de2 aae4 ee3e
000003a0: 38a5 bd40 ddf2 0dbf 668e 3f50 348e fd3e
000003b0: 88f6 c9a0 d7e0 fcbe 3ab7 f7a9 b63c d5be
000003c0: f187 2b61 74ad b43e 46f1 9157 d972 b63e
000003d0: b32b 229b 903c fdbe 486b 47fb 06c5 b1be
000003e0: 6877 0f14 ebcf f43e ec36 c085 29de 93be
000003f0: 6b1a ab7b b805 c63e b445 972d 7668 b03e
00000400: 2ca7 860d 18d8 fdbe c423 e662 1433 d1be
00000410: d5bb 57ab 9706 f53e 721b e189 f4fa 6a3e
00000420: c001 cd3b 9218 c4be 8a39 1c05 f6f0 a23e
00000430: 7980 2a68 f75a 13bf f557 95b4 b7b2 e23e
00000440: 1637 91c2 8252 ec3e 0339 07b3 722f 903e
00000450: 3fe2 9db5 18ee cfbe b13f 015d 696a 04bf
00000460: 0544 521f d8f1 1ebf 6df0 de08 2681 e2be
00000470: eb3c 2c3f b5fc e93e 6ef2 79b1 9121 723e
00000480: 540c c183 a393 c23e 3e5e 5bd6 3361 e0be
00000490: 5c8b 20dd 91d7 21bf 2eec e915 4594 01bf
000004a0: c167 b388 84ce f53e 4ba9 1769 5866 b83e
000004b0: ed7d 5268 e728 cbbe b26c b1f2 6899 a73e
000004c0: 9474 513f 80d2 15bf 243a b68c 5e9c f0be
000004d0: 3012 7d5a 463e ee3e 6df0 6886 7ed2 7c3e
000004e0: ef68 033c 0b7b c9be cbd1 383d 966c 04bf
000004f0: 92c8 59e5 e5b6 21bf 19ef beb2 9f4c f6be
00000500: 37b8 dc19 269c ef3e c120 5492 8b06 aebe
00000510: bdbe 082f 156c cd3e d8ab 94cc c841 e1be
00000520: dc7d b98b 060f 24bf 109a d730 b476 f83e
00000530: 8be7 179e 1de4 f63e b53c fb66 ef05 b73e
00000540: 6b65 997e d657 e2be be91 b9af b481 c03e
00000550: 0771 c2f2 cd7c 04bf e438 0ac9 56ea 063f
00000560: 3ea1 ee4d cc99 ff3e b4df c944 27ff a13e
00000570: c81a f21e 9a88 e63e 9a1e 045a 23a0 05bf
00000580: bc64 77f1 077a 0dbf 6afa cc3c b36a 143f
00000590: dd74 7cd3 5228 0e3f bb5e 2cdb 0c33 b83e
000005a0: ac33 c3cf fce7 a23e 52ca 8ff8 965d c1be
000005b0: 8caf 9b77 4bf3 05bf 702b f148 827f f6be
000005c0: 4bf3 c743 0556 bfbe 60af e8ac 1e16 a33e
000005d0: 4294 c904 1f0b 713e 19d5 9331 cdf5 f43e
000005e0: c88e 9cd4 7330 0ebf 15a6 db25 0383 05bf
000005f0: 851f b56b cabd 0fbf 508f 7b4e c93c ae3e
00000600: d278 5b30 e549 b3be a8b3 ebd4 f905 bbbe
00000610: 3541 292e 8bf5 0bbf 1e17 29b8 f495 d03e
00000620: bc8e 0ae5 d2c5 dabe 6cf5 5d36 9b53 633e
00000630: a8c4 6d01 64e9 763e 7834 e85a 2309 f43e
00000640: 8f35 1b3a cde3 13bf 2c70 6b73 9886 fd3e
00000650: cc2d 77bd 030f ebbe 4594 8cd8 8d0e b9be
00000660: 0a58 7ac9 0bde 8ebe ca72 211b a82b bfbe
00000670: b7f8 f4f7 1917 fdbe 7b5b c6ea e9a4 d3be
00000680: 3c86 83f6 1724 e5be 2b9e 9e89 b654 723e
00000690: 8301 19a5 c12d 98be e6c6 5125 5821 c3be
000006a0: 2368 ff90 96fe 08bf 9b2b 245f 1bbd 94be
000006b0: 9aad 6d9e cd64 eebe a1b4 e156 794c 703e
000006c0: 66c9 fc7b 1048 d5be 9285 ffdc bf44 e1be
000006d0: 6bec 459a ae73 10bf d365 9041 5224 07bf
000006e0: 1ef4 4040 0084 0b3f 2c88 3131 6508 9a3e
000006f0: e150 a430 be16 b43e e0af 16d6 3e9d bebe
00000700: 2a56 122f 9de3 0cbf f496 7ee8 1d81 b6be
00000710: 3e00 487c 245d edbe 192d 7c5d aeed 883e
00000720: 2562 84f0 fdab a23e bbd8 a43a 5f6f e3be
00000730: 377a 6956 413f 14bf 86e2 4633 f538 c03e
00000740: 7d2a 7352 54a0 073f 2bec 3744 8d04 903e
00000750: 9e55 41b5 dbfe b9be b9e5 beb8 d77c b7be
00000760: 38e5 a86b f647 15bf fdd0 1eae 8827 e03e
00000770: 4c7f abbb db77 e2be cdae 79ca b088 9d3e
00000780: da6b 71ff 2c4b c7be 90a1 44c1 3eb4 e5be
00000790: ff6d 1aa8 264d 21bf 861f f9c4 4e6e d93e
000007a0: da17 3a8e 3d2f cebe c1ea 3d1c a485 be3e
000007b0: 1314 134f 98d6 b0be 887b 273c a979 ca3e
000007c0: ca5a fe8b febf 23bf 3e32 e515 cf8b 00bf
000007d0: e883 49c1 be1f e8be 744c eca3 053c 9fbe
000007e0: 9817 f6f2 d407 c3be 0495 c343 65cb b2be
000007f0: abfe 431c 928e 16bf 3aa1 7845 218f f2be

b f8 [972]
-2.2737367544323206e-13 1.758593271006248e-13 -30801.230869734845 -5087.4579627743 5233.275860199304 2.842170943040401e-14 4.547473508864641e-13 -8.457234912384592e-12
-23329.58963422382 -5087.457962774299 5233.275860199306 4.973799150320701e-14 -9.094947017729282e-13 3.6060043839825084e-13 -37991.930145276376 821.5790695350923
5233.2758601993055 4.085620730620576e-14 9.094947017729282e-13 2.573585788923083e-11 -30520.288909765382 821.5790695350925 5233.275860199305 2.5579538487363607e-13
3.410605131648481e-13 2.7000623958883807e-13 -38567.7327591318 -1595.0156687248104 5233.275860199306 -6.039613253960852e-14 7.275957614183426e-12 -1.5774048733874224e-11
-22667.620080827426 4265.878893239206 5233.275860199307 1.1368683772161603e-13 -2.2737367544323206e-13 1.1102230246251565e-13 -33113.947599429084 -1197.3322587971188
5233.275860199306 -1.7763568394002505e-14 -4.547473508864641e-13 -1.596500709410975e-13 -33441.47475939452 732.9776804337317 5233.275860199308 1.0880185641326534e-14
0.0 -2.8066438062523957e-13 -38436.493018353525 2586.3327085431824 5233.275860199311 -9.237055564881302e-14 9.094947017729282e-13 7.337241925142735e-12
-28888.404620735815 -3738.916431784224 5233.2758601993055 2.531308496145357e-14 0.0 1.2150280781497713e-12 -21375.895109536938 -3738.916431784226
5233.275860199305 7.105427357601002e-15 9.094947017729282e-13 -1.2212453270876722e-13 -29680.494415594756 3738.916431784223 5233.275860199307 1.7763568394002505e-15
1.8189894035458565e-12 -5.680789172402001e-12 -28888.40462073584 3738.9164317842246 5233.2758601993055 -6.750155989720952e-14 1.8189894035458565e-12 -9.897860309138196e-12
-21375.89510953696 3738.916431784226 5233.275860199304 -4.973799150320701e-14 0.0 -1.2683187833317788e-12 -42089.5051199636 -5087.4579627743
5279.596058855698 5.329070518200751e-15 -2.4158453015843406e-13 -1.1160850021951774e-11 -34617.863884452585 -5087.457962774299 5279.596058855697 -2.4868995751603507e-14
2.2737367544323206e-13 9.203748874142548e-14 -49280.20439550515 821.5790695350929 5279.596058855699 3.6637359812630166e-14 -1.4779288903810084e-12 7.265299473147024e-12
-41808.56315999409 821.5790695350934 5279.5960588556945 1.0658141036401503e-13 9.947598300641403e-13 -3.077538224260934e-13 -49856.00700936054 -1595.0156687248113
5279.5960588556945 -6.994405055138486e-14 -1.0857093002414331e-11 7.247535904753022e-12 -22667.62008082741 4265.878893239207 -5233.275860199306 -3.410605131648481e-13
-6.252776074688882e-13 -3.169686735304822e-13 -44402.22184965786 -1197.332258797119 5279.596058855698 1.3100631690576847e-14 -6.821210263296962e-13 -6.763478666016454e-13
-44729.74900962328 732.9776804337317 5279.596058855695 -3.375077994860476e-14 -2.5011104298755527e-12 -6.217248937900877e-15 -49724.767268582356 2586.332708543182
5279.596058855698 1.0658141036401503e-14 -9.094947017729282e-13 -1.1926459819733282e-11 -40176.67887096452 -3738.9164317842233 5279.596058855695 -1.9895196601282805e-13
-9.094947017729282e-13 2.3812063432160357e-12 -32664.169359765703 -3738.9164317842215 5279.596058855693 2.8421709430404007e-13 2.2737367544323206e-12 -6.128431095930864e-13
-51738.25352838393 -5829.853868517407 5279.596058855701 5.329070518200751e-15 4.092726157978177e-12 7.760903031339694e-12 -50946.163733525005 -5829.853868517402
5279.596058855693 2.4513724383723456e-13 -3.183231456205249e-12 -4.2366110619695974e-13 -32664.16935976566 3738.916431784221 5279.5960588556945 -3.375077994860476e-13
0.0 -4.791722574282176e-13 -37041.909859499116 9568.770300301638 10512.871919055004 -1.6431300764452317e-14 -3.637978807091713e-12 -1.3109513474773848e-12
-29570.26862398811 9568.770300301634 10512.871919055002 5.684341886080802e-14 4.121147867408581e-13 -2.7842173011549676e-12 -43693.190129575596 -5087.457962774302
-2959.909134119548 -5.906386491005833e-14 2.2026824808563106e-13 -3.637978807091713e-12 -26653.452590365596 -5087.457962774302 -10512.871919055004 4.973799150320701e-14
2.2737367544323206e-13 3.107292201320888e-12 -50883.889405117174 821.5790695350934 -2959.909134119549 -4.3520742565306136e-14 -4.547473508864641e-13 2.7764457399825915e-12
-36221.54889406452 5087.4579627743 -2959.909134119548 5.684341886080802e-14 -2.2737367544323206e-13 -9.29700760821106e-13 -43947.18250777359 -1595.0156687248111
-2959.9091341195463 -4.440892098500626e-16 7.815970093361102e-13 -9.920952948050399e-13 -53518.41637046877 -1197.3322587971188 -2959.9091341195467 5.1514348342607263e-14
-1.8189894035458565e-12 2.0161650127192843e-12 -26330.029441935632 -7058.226820761141 7552.9627849354565 -1.7763568394002505e-15 6.821210263296962e-13 4.867217739956686e-13
-53845.943530434146 732.9776804337321 -2959.9091341195417 8.881784197001252e-15 0.0 -3.639755163931113e-12 -35086.02804469439 732.9776804337314
7552.96278493546 -3.197442310920451e-14 2.9558577807620168e-12 1.149302875091962e-12 -51328.45227819432 2586.332708543182 -2959.909134119545 -4.440892098500626e-15
1.3642420526593924e-12 4.496847338941734e-12 -50536.3624833355 2586.332708543181 -2959.909134119548 5.684341886080802e-14 1.3642420526593924e-12 1.850963826655061e-12
-34267.85436937756 -3738.916431784216 -2959.9091341195463 1.7763568394002505e-14 -1.3642420526593924e-12 -2.753353101070388e-13 -53341.938537995884 -5829.853868517411
00000000: 0000 0000 0000 50bd 0000 0000 00c0 483d
00000010: 33da 91c6 4e14 dec0 6762 0c3d 75df b3c0
00000020: 4726 c69e 4671 b440 0000 0000 0000 203d
00000030: 0000 0000 0000 603d 0000 0000 0099 a2bd
00000040: fa2e 91bc 65c8 d6c0 6662 0c3d 75df b3c0
00000050: 4a26 c69e 4671 b440 0000 0000 0000 2c3d
00000060: 0000 0000 0000 70bd 0000 0000 0060 593d
00000070: d206 c0c3 fd8c e2c0 a75a 35ef a1ac 8940
00000080: 4926 c69e 4671 b440 0000 0000 0000 273d
00000090: 0000 0000 0000 703d 0000 0000 004c bc3d
000000a0: 7462 7f7d 12ce ddc0 a85a 35ef a1ac 8940
000000b0: 4826 c69e 4671 b440 0000 0000 0000 523d
000000c0: 0000 0000 0000 583d 0000 0000 0000 533d
000000d0: 5e47 c372 f7d4 e2c0 8652 760b 10ec 98c0
000000e0: 4a26 c69e 4671 b440 0000 0000 0000 31bd
000000f0: 0000 0000 0000 a03d 0000 0000 0058 b1bd
00000100: ab7e 67af e722 d6c0 11b7 25ff e0a9 b040
00000110: 4b26 c69e 4671 b440 0000 0000 0000 403d
00000120: 0000 0000 0000 50bd 0000 0000 0040 3f3d
00000130: b409 bc52 3e2b e0c0 bc6d a63b 54b5 92c0
00000140: 4a26 c69e 4671 b440 0000 0000 0000 14bd
00000150: 0000 0000 0000 60bd 0000 0000 0078 46bd
00000160: 1e9d 3a31 2f54 e0c0 8986 1e4a d2e7 8640
00000170: 4c26 c69e 4671 b440 0000 0000 0080 083d
00000180: 0000 0000 0000 0000 0000 0000 00c0 53bd
00000190: 176d cec6 8fc4 e2c0 2330 c658 aa34 a440
000001a0: 4f26 c69e 4671 b440 0000 0000 0000 3abd
000001b0: 0000 0000 0000 703d 0000 0000 8022 a03d
000001c0: e75e 4ee5 1936 dcc0 84fc 8b36 d535 adc0
000001d0: 4926 c69e 4671 b440 0000 0000 0080 1c3d
000001e0: 0000 0000 0000 0000 0000 0000 0060 753d
000001f0: df82 7949 f9df d4c0 88fc 8b36 d535 adc0
00000200: 4826 c69e 4671 b440 0000 0000 0000 003d
00000210: 0000 0000 0000 703d 0000 0000 0030 41bd
00000220: 874e 81a4 1ffc dcc0 81fc 8b36 d535 ad40
00000230: 4b26 c69e 4671 b440 0000 0000 0000 e03c
00000240: 0000 0000 0000 803d 0000 0000 00fc 98bd
00000250: ee5e 4ee5 1936 dcc0 85fc 8b36 d535 ad40
00000260: 4926 c69e 4671 b440 0000 0000 0000 33bd
00000270: 0000 0000 0000 803d 0000 0000 00c4 a5bd
00000280: e582 7949 f9df d4c0 88fc 8b36 d535 ad40
00000290: 4726 c69e 4671 b440 0000 0000 0000 2cbd
000002a0: 0000 0000 0000 0000 0000 0000 0050 76bd
000002b0: 8757 f129 308d e4c0 6762 0c3d 75df b3c0
000002c0: b72b 5097 989f b440 0000 0000 0000 f83c
000002d0: 0000 0000 0000 51bd 0000 0000 008b a8bd
000002e0: ec01 f1a4 3be7 e0c0 6662 0c3d 75df b3c0
000002f0: b62b 5097 989f b440 0000 0000 0000 1cbd
00000300: 0000 0000 0000 503d 0000 0000 00e8 393d
00000310: 4271 688a 0610 e8c0 ac5a 35ef a1ac 8940
00000320: b82b 5097 989f b440 0000 0000 00a0 243d
00000330: 0000 0000 0000 7abd 0000 0000 00f4 9f3d
00000340: a11b 6805 126a e4c0 b05a 35ef a1ac 8940
00000350: b32b 5097 989f b440 0000 0000 0000 3e3d
00000360: 0000 0000 0080 713d 0000 0000 00a8 55bd
00000370: c9b1 6b39 0058 e8c0 8a52 760b 10ec 98c0
00000380: b32b 5097 989f b440 0000 0000 00b0 33bd
00000390: 0000 0000 00e0 a7bd 0000 0000 00e0 9f3d
000003a0: a77e 67af e722 d6c0 12b7 25ff e0a9 b040
000003b0: 4a26 c69e 4671 b4c0 0000 0000 0000 58bd
000003c0: 0000 0000 0000 66bd 0000 0000 004e 56bd
000003d0: 2474 6419 47ae e5c0 bd6d a63b 54b5 92c0
000003e0: b72b 5097 989f b440 0000 0000 0080 0d3d
000003f0: 0000 0000 0000 68bd 0000 0000 00cc 67bd
00000400: 8c07 e3f7 37d7 e5c0 8986 1e4a d2e7 8640
00000410: b42b 5097 989f b440 0000 0000 0000 23bd
00000420: 0000 0000 0000 86bd 0000 0000 0000 fcbc
00000430: 8fd7 768d 9847 e8c0 2230 c658 aa34 a440
00000440: b72b 5097 989f b440 0000 0000 0000 083d
00000450: 0000 0000 0000 70bd 0000 0000 003a aabd
00000460: da99 4fb9 159e e3c0 82fc 8b36 d535 adc0
00000470: b42b 5097 989f b440 0000 0000 0000 4cbd
00000480: 0000 0000 0000 70bd 0000 0000 00f2 843d
00000490: bd57 cad6 0ae6 dfc0 7efc 8b36 d535 adc0
000004a0: b12b 5097 989f b440 0000 0000 0000 543d
000004b0: 0000 0000 0000 843d 0000 0000 0090 65bd
000004c0: b38e e71c 4843 e9c0 598d 2097 dac5 b6c0
000004d0: ba2b 5097 989f b440 0000 0000 0000 f83c
000004e0: 0000 0000 0000 923d 0000 0000 0011 a13d
000004f0: e516 4e3d 45e0 e8c0 538d 2097 dac5 b6c0
00000500: b12b 5097 989f b440 0000 0000 0040 513d
00000510: 0000 0000 0000 8cbd 0000 0000 00d0 5dbd
00000520: b157 cad6 0ae6 dfc0 7dfc 8b36 d535 ad40
00000530: b32b 5097 989f b440 0000 0000 00c0 57bd
00000540: 0000 0000 0000 0000 0000 0000 00dc 60bd
00000550: 15ab 911d 3d16 e2c0 d145 3399 62b0 c240
00000560: 0029 0b9b 6f88 c440 0000 0000 0080 12bd
00000570: 0000 0000 0000 90bd 0000 0000 0010 77bd
00000580: f7aa 2231 91e0 dcc0 cf45 3399 62b0 c240
00000590: ff28 0b9b 6f88 c440 0000 0000 0000 303d
000005a0: 0000 0000 0000 5d3d 0000 0000 807d 88bd
000005b0: a69e 8a15 a655 e5c0 6a62 0c3d 75df b3c0
000005c0: 46fe 067a d11f a7c0 0000 0000 00a0 30bd
000005d0: 0000 0000 0000 4f3d 0000 0000 0000 90bd
000005e0: ae94 3df7 5c07 dac0 6a62 0c3d 75df b3c0
000005f0: 0029 0b9b 6f88 c4c0 0000 0000 0000 2c3d
00000600: 0000 0000 0000 503d 0000 0000 0055 8b3d
00000610: 65b8 0176 7cd8 e8c0 b05a 35ef a1ac 8940
00000620: 48fe 067a d11f a7c0 0000 0000 0080 28bd
00000630: 0000 0000 0000 60bd 0000 0000 006c 883d
00000640: 0349 8a90 b1af e1c0 6762 0c3d 75df b340
00000650: 46fe 067a d11f a7c0 0000 0000 0000 303d
00000660: 0000 0000 0000 50bd 0000 0000 005b 70bd
00000670: db8a 1ad7 6575 e5c0 8952 760b 10ec 98c0
00000680: 42fe 067a d11f a7c0 0000 0000 0000 c0bc
00000690: 0000 0000 0080 6b3d 0000 0000 0074 71bd
000006a0: 4c29 e852 cd21 eac0 bc6d a63b 54b5 92c0
000006b0: 43fe 067a d11f a7c0 0000 0000 0000 2d3d
000006c0: 0000 0000 0000 80bd 0000 0000 00bc 813d
000006d0: ab6d 60e2 81b6 d9c0 28e7 ec10 3a92 bbc0
000006e0: ded2 1279 f680 bd40 0000 0000 0000 e0bc
000006f0: 0000 0000 0000 683d 0000 0000 0020 613d
00000700: aebc 6631 be4a eac0 8c86 1e4a d2e7 8640
00000710: 38fe 067a d11f a7c0 0000 0000 0000 043d
00000720: 0000 0000 0000 0000 0000 0000 0002 90bd
00000730: a7fc bde5 c021 e1c0 8686 1e4a d2e7 8640
00000740: e2d2 1279 f680 bd40 0000 0000 0000 22bd
00000750: 0000 0000 0000 8a3d 0000 0000 0038 743d
00000760: aa1e 1079 0e10 e9c0 2230 c658 aa34 a440
00000770: 3ffe 067a d11f a7c0 0000 0000 0000 f4bc
00000780: 0000 0000 0000 783d 0000 0000 00c7 933d
00000790: eaa6 7699 0bad e8c0 2030 c658 aa34 a440
000007a0: 46fe 067a d11f a7c0 0000 0000 0000 303d
000007b0: 0000 0000 0000 783d 0000 0000 0048 803d
000007c0: ea72 fe56 7bbb e0c0 72fc 8b36 d535 adc0
000007d0: 42fe 067a d11f a7c0 0000 0000 0000 143d
000007e0: 0000 0000 0000 78bd 0000 0000 0060 53bd
000007f0: ccd5 8008 be0b eac0 5d8d 2097 dac5 b6c0
