python-Linux/neural-sparse-linear-solvers-master/stand_small_test/5656949340770658253_25a432ecb585f13e7a922aea0a975c055b97a544_b5a190d0d46708e55959e0bc976e57d75baee87d.npz (npz, 30133 bytes, 3 tensors)

A_values f8 [7032]
000000 ca 0f b6 05 b2 5d d1 41 66 56 b7 52 0a 24 75 41
       1165412374.8447137 22167717.16976013
000010 de a9 20 18 03 42 7a c1 7a 3b 40 2a 93 31 80 c1
       -27533361.507974498 -33960549.28136344
000020 cc e8 ba 09 f2 a2 8c 41 6a c5 b1 7c be 18 6f c1
       60055105.21626434 -16303603.89670058
000030 de a9 20 18 03 42 7a c1 04 5a 84 ac d7 5d d0 c1
       -27533361.507974498 -1098342066.067994
000040 15 08 f3 6e 3d 32 d8 41 e4 94 3e 41 dc 29 62 c1
       1623782843.7973683 -9522914.038889356
000050 4c bb 33 e0 6a 39 69 41 c8 60 99 a4 84 27 6b c1
       13224791.006314896 -14236709.143722907
000060 06 22 e5 25 75 02 78 c1 40 cb cb f4 e6 cc d7 c1
       -25175890.36844065 -1597217747.1842804
000070 01 3c 6b 08 cd 8a 54 c1 4c bb 33 e0 6a 39 69 41
       -5385012.131545068 13224791.006314896
000080 0f 64 75 ff 5a aa e4 41 40 13 09 80 c9 34 8f 41
       2773669883.668464 65444144.00443125
000090 4c 56 65 1e 56 a4 7e c1 35 3d da 83 ae ba d6 c1
       -32130401.899740502 -1525332495.4099858
0000a0 e7 00 7d ec 7a 7a 82 c1 40 13 09 80 c9 34 8f 41
       -38752093.56103688 65444144.00443125
0000b0 05 f6 58 2c 48 f4 68 c1 4c 56 65 1e 56 a4 7e c1
       -13083201.385859499 -32130401.899740502
0000c0 e4 94 3e 41 dc 29 62 c1 40 13 09 80 c9 34 8f 41
       -9522914.038889356 65444144.00443125
0000d0 2e 89 52 0d c9 46 b0 41 06 22 e5 25 75 02 78 41
       273074445.3224057 25175890.36844065
0000e0 ff c6 4d 50 18 ea 7b 41 40 13 09 80 c9 34 8f c1
       29270405.018988606 -65444144.00443125
0000f0 ef 41 ff 82 34 e8 90 41 61 4b cf fa 77 5f 6e c1
       70913312.74927495 -15924159.837804498
000100 66 56 b7 52 0a 24 75 41 4c 56 65 1e 56 a4 7e c1
       22167717.16976013 -32130401.899740502
000110 50 29 87 aa ac 26 b7 41 cc e8 ba 09 f2 a2 8c c1
       388410538.5279741 -60055105.21626434
000120 cb 2e 9d 70 42 4d 90 41 30 a8 5c f9 92 15 76 c1
       68374684.15349881 -23157039.585121334
000130 4c 56 65 1e 56 a4 7e 41 69 2c ac b4 72 a3 88 41
       32130401.899740502 51670614.58406908
000140 de a9 20 18 03 42 7a c1 4c bb 33 e0 6a 39 69 41
       -27533361.507974498 13224791.006314896
000150 83 8d 62 80 e5 54 a1 41 cf f4 00 54 20 17 75 c1
       145388224.1924859 -22114821.250233468
000160 de a9 20 18 03 42 7a 41 75 ab d8 ff 6e 1d 7d 41
       27533361.507974498 30529263.99039789
000170 4c bb 33 e0 6a 39 69 c1 da 74 b7 3c 4c 80 74 41
       -13224791.006314896 21497027.794789173
000180 7a 3b 40 2a 93 31 80 c1 cc e8 ba 09 f2 a2 8c c1
       -33960549.28136344 -60055105.21626434
000190 6b bf cf c2 95 1d d1 41 cc e8 ba 09 f2 a2 8c c1
       1148606219.2460582 -60055105.21626434
0001a0 de a9 20 18 03 42 7a c1 6a c5 b1 7c be 18 6f c1
       -27533361.507974498 -16303603.89670058
0001b0 de a9 20 18 03 42 7a c1 04 5a 84 ac d7 5d d0 c1
       -27533361.507974498 -1098342066.067994
0001c0 c8 60 99 a4 84 27 6b c1 06 22 e5 25 75 02 78 41
       -14236709.143722907 25175890.36844065
0001d0 3e 69 1d cb c0 17 d8 41 06 22 e5 25 75 02 78 41
       1616839468.4595485 25175890.36844065
0001e0 4c bb 33 e0 6a 39 69 41 40 cb cb f4 e6 cc d7 c1
       13224791.006314896 -1597217747.1842804
0001f0 01 3c 6b 08 cd 8a 54 c1 4c bb 33 e0 6a 39 69 41
       -5385012.131545068 13224791.006314896
000200 35 3d da 83 ae ba d6 c1 28 d7 96 eb 6a 80 d7 41
       -1525332495.4099858 1577167790.356882
000210 40 13 09 80 c9 34 8f 41 4c 56 65 1e 56 a4 7e c1
       65444144.00443125 -32130401.899740502
000220 e7 00 7d ec 7a 7a 82 c1 40 13 09 80 c9 34 8f 41
       -38752093.56103688 65444144.00443125
000230 05 f6 58 2c 48 f4 68 c1 4c 56 65 1e 56 a4 7e c1
       -13083201.385859499 -32130401.899740502
000240 06 22 e5 25 75 02 78 c1 ff c6 4d 50 18 ea 7b 41
       -25175890.36844065 29270405.018988606
000250 06 22 e5 25 75 02 78 41 40 13 09 80 c9 34 8f 41
       25175890.36844065 65444144.00443125
000260 50 60 6d 15 9c eb aa 41 40 13 09 80 c9 34 8f c1
       225824266.71362543 -65444144.00443125
000270 ef 41 ff 82 34 e8 90 41 61 4b cf fa 77 5f 6e c1
       70913312.74927495 -15924159.837804498
000280 cc e8 ba 09 f2 a2 8c 41 cb 2e 9d 70 42 4d 90 41
       60055105.21626434 68374684.15349881
000290 cc e8 ba 09 f2 a2 8c c1 4c 56 65 1e 56 a4 7e c1
       -60055105.21626434 -32130401.899740502
0002a0 9b b3 a4 d0 a3 4a b0 41 30 a8 5c f9 92 15 76 c1
       273327056.64336556 -23157039.585121334
0002b0 4c 56 65 1e 56 a4 7e 41 69 2c ac b4 72 a3 88 41
       32130401.899740502 51670614.58406908
0002c0 cf f4 00 54 20 17 75 c1 de a9 20 18 03 42 7a c1
       -22114821.250233468 -27533361.507974498
0002d0 4c bb 33 e0 6a 39 69 41 ce 78 5a 23 ff 86 9e 41
       13224791.006314896 128040904.83835146
0002e0 de a9 20 18 03 42 7a 41 75 ab d8 ff 6e 1d 7d 41
       27533361.507974498 30529263.99039789
0002f0 4c bb 33 e0 6a 39 69 c1 da 74 b7 3c 4c 80 74 41
       -13224791.006314896 21497027.794789173
000300 6a c5 b1 7c be 18 6f c1 de a9 20 18 03 42 7a 41
       -16303603.89670058 27533361.507974498
000310 8b 77 26 d5 09 93 d1 41 66 56 b7 52 0a 24 75 41
       1179395924.6010463 22167717.16976013
000320 80 07 57 3d d3 3f 44 41 7a 3b 40 2a 93 31 80 c1
       2654118.4792184234 -33960549.28136344
000330 cc e8 ba 09 f2 a2 8c 41 73 e0 33 b8 e7 ab 6a c1
       60055105.21626434 -13983549.756332612
000340 ee c8 75 b0 08 ba 77 c1 04 5a 84 ac d7 5d d0 c1
       -24879243.028756075 -1098342066.067994
000350 40 cb cb f4 e6 cc d7 c1 95 c7 fe 92 cc 64 e7 41
       -1597217747.1842804 3139855511.961863
000360 e4 94 3e 41 dc 29 62 c1 4c bb 33 e0 6a 39 69 41
       -9522914.038889356 13224791.006314896
000370 c8 60 99 a4 84 27 6b c1 06 22 e5 25 75 02 78 c1
       -14236709.143722907 -25175890.36844065
000380 16 87 0a b7 5b 97 d6 c1 01 3c 6b 08 cd 8a 54 c1
       -1516072668.164495 -5385012.131545068
000390 4c bb 33 e0 6a 39 69 41 e7 00 7d ec 7a 7a 82 c1
       13224791.006314896 -38752093.56103688
0003a0 40 13 09 80 c9 34 8f c1 fa 5d ae c6 01 ea e4 41
       -65444144.00443125 2807041589.4489717
0003b0 50 2b 97 83 a1 27 57 c1 4c 56 65 1e 56 a4 7e c1
       -6069894.056101635 -32130401.899740502
0003c0 35 3d da 83 ae ba d6 c1 b2 f5 7c 9c 63 d3 7f c1
       -1525332495.4099858 -33371705.78050775
0003d0 d6 2d 96 4f d5 4f 8c 41 05 f6 58 2c 48 f4 68 c1
       59374249.94832961 -13083201.385859499
0003e0 4c 56 65 1e 56 a4 7e c1 40 13 09 80 c9 34 8f 41
       -32130401.899740502 65444144.00443125
0003f0 ef 41 ff 82 34 e8 90 41 e4 94 3e 41 dc 29 62 c1
       70913312.74927495 -9522914.038889356
000400 50 2b 97 83 a1 27 57 c1 0e 8f e5 12 5a d0 b8 41
       -6069894.056101635 416307730.8967141
000410 06 22 e5 25 75 02 78 41 ff c6 4d 50 18 ea 7b 41
       25175890.36844065 29270405.018988606
000420 d6 2d 96 4f d5 4f 8c c1 ee 6f 44 e7 ed 38 90 41
       -59374249.94832961 68041593.81683323
000430 61 4b cf fa 77 5f 6e c1 30 a8 5c f9 92 15 76 c1
       -15924159.837804498 -23157039.585121334
000440 66 56 b7 52 0a 24 75 41 4c 56 65 1e 56 a4 7e c1
       22167717.16976013 -32130401.899740502
000450 5c a0 75 43 12 76 b8 41 cc e8 ba 09 f2 a2 8c c1
       410391107.45947814 -60055105.21626434
000460 cb 2e 9d 70 42 4d 90 41 d2 70 e7 8e 59 f6 74 c1
       68374684.15349881 -21980568.93150408
000470 4c 56 65 1e 56 a4 7e 41 69 2c ac b4 72 a3 88 41
       32130401.899740502 51670614.58406908
000480 de a9 20 18 03 42 7a c1 75 ab d8 ff 6e 1d 7d 41
       -27533361.507974498 30529263.99039789
000490 80 07 57 3d d3 3f 44 41 4c bb 33 e0 6a 39 69 41
       2654118.4792184234 13224791.006314896
0004a0 9c 2b 9a 16 51 6a a8 41 cf f4 00 54 20 17 75 c1
       204810379.30111396 -22114821.250233468
0004b0 ee c8 75 b0 08 ba 77 41 25 0b eb bf 3a c2 7b 41
       24879243.028756075 29107115.994883675
0004c0 4c bb 33 e0 6a 39 69 c1 da 74 b7 3c 4c 80 74 41
       -13224791.006314896 21497027.794789173
0004d0 6a c5 b1 7c be 18 6f c1 de a9 20 18 03 42 7a 41
       -16303603.89670058 27533361.507974498
0004e0 7a 3b 40 2a 93 31 80 c1 cc e8 ba 09 f2 a2 8c c1
       -33960549.28136344 -60055105.21626434
0004f0 2c 27 40 92 ed 52 d1 41 cc e8 ba 09 f2 a2 8c c1
       1162589769.0023909 -60055105.21626434
000500 80 07 57 3d d3 3f 44 41 73 e0 33 b8 e7 ab 6a c1
       2654118.4792184234 -13983549.756332612
000510 ee c8 75 b0 08 ba 77 c1 04 5a 84 ac d7 5d d0 c1
       -24879243.028756075 -1098342066.067994
000520 40 cb cb f4 e6 cc d7 c1 c8 60 99 a4 84 27 6b c1
       -1597217747.1842804 -14236709.143722907
000530 06 22 e5 25 75 02 78 41 2a f8 13 41 8e 57 e7 41
       25175890.36844065 3132912136.6240435
000540 06 22 e5 25 75 02 78 41 4c bb 33 e0 6a 39 69 41
       25175890.36844065 13224791.006314896
000550 16 87 0a b7 5b 97 d6 c1 01 3c 6b 08 cd 8a 54 c1
       -1516072668.164495 -5385012.131545068
000560 4c bb 33 e0 6a 39 69 41 e7 00 7d ec 7a 7a 82 c1
       13224791.006314896 -38752093.56103688
000570 40 13 09 80 c9 34 8f c1 35 3d da 83 ae ba d6 c1
       -65444144.00443125 -1525332495.4099858
000580 ff ca 08 7a b8 ff d7 41 50 2b 97 83 a1 27 57 c1
       1610539496.13739 -6069894.056101635
000590 4c 56 65 1e 56 a4 7e c1 b2 f5 7c 9c 63 d3 7f c1
       -32130401.899740502 -33371705.78050775
0005a0 d6 2d 96 4f d5 4f 8c 41 05 f6 58 2c 48 f4 68 c1
       59374249.94832961 -13083201.385859499
0005b0 4c 56 65 1e 56 a4 7e c1 40 13 09 80 c9 34 8f 41
       -32130401.899740502 65444144.00443125
0005c0 ef 41 ff 82 34 e8 90 41 06 22 e5 25 75 02 78 c1
       70913312.74927495 -25175890.36844065
0005d0 ff c6 4d 50 18 ea 7b 41 06 22 e5 25 75 02 78 41
       29270405.018988606 25175890.36844065
0005e0 50 2b 97 83 a1 27 57 c1 08 b6 49 10 5f ff b5 41
       -6069894.056101635 369057552.2879338
0005f0 d6 2d 96 4f d5 4f 8c c1 ee 6f 44 e7 ed 38 90 41
       -59374249.94832961 68041593.81683323
000600 61 4b cf fa 77 5f 6e c1 30 a8 5c f9 92 15 76 c1
       -15924159.837804498 -23157039.585121334
000610 cc e8 ba 09 f2 a2 8c 41 cb 2e 9d 70 42 4d 90 41
       60055105.21626434 68374684.15349881
000620 cc e8 ba 09 f2 a2 8c c1 4c 56 65 1e 56 a4 7e c1
       -60055105.21626434 -32130401.899740502
000630 a8 2a 93 69 09 9a b1 41 d2 70 e7 8e 59 f6 74 c1
       295307625.57486963 -21980568.93150408
000640 4c 56 65 1e 56 a4 7e 41 69 2c ac b4 72 a3 88 41
       32130401.899740502 51670614.58406908
000650 de a9 20 18 03 42 7a c1 75 ab d8 ff 6e 1d 7d 41
       -27533361.507974498 30529263.99039789
000660 cf f4 00 54 20 17 75 c1 80 07 57 3d d3 3f 44 41
       -22114821.250233468 2654118.4792184234
000670 4c bb 33 e0 6a 39 69 41 81 da e4 27 eb 58 a6 41
       13224791.006314896 187463059.94697955
000680 ee c8 75 b0 08 ba 77 41 25 0b eb bf 3a c2 7b 41
       24879243.028756075 29107115.994883675
000690 4c bb 33 e0 6a 39 69 c1 da 74 b7 3c 4c 80 74 41
       -13224791.006314896 21497027.794789173
0006a0 73 e0 33 b8 e7 ab 6a c1 ee c8 75 b0 08 ba 77 41
       -13983549.756332612 24879243.028756075
0006b0 f5 28 66 60 3f 66 d1 41 66 56 b7 52 0a 24 75 41
       1167654273.5962498 22167717.16976013
0006c0 00 77 c9 3f c4 db 68 41 7a 3b 40 2a 93 31 80 c1
       13032993.993342876 -33960549.28136344
0006d0 cc e8 ba 09 f2 a2 8c 41 ee f4 14 39 08 67 51 c1
       60055105.21626434 -4561952.891904099
0006e0 dc 1a 22 21 4d 98 66 c1 04 5a 84 ac d7 5d d0 c1
       -11846249.035413198 -1098342066.067994
0006f0 16 87 0a b7 5b 97 d6 c1 14 da f8 aa 99 3b e3 41
       -1516072668.164495 2581384535.776621
000700 e4 94 3e 41 dc 29 62 c1 4c bb 33 e0 6a 39 69 41
       -9522914.038889356 13224791.006314896
000710 c8 60 99 a4 84 27 6b c1 06 22 e5 25 75 02 78 c1
       -14236709.143722907 -25175890.36844065
000720 7b e0 7f 49 02 f5 ce c1 01 3c 6b 08 cd 8a 54 c1
       -1038746770.9990381 -5385012.131545068
000730 4c bb 33 e0 6a 39 69 41 b2 f5 7c 9c 63 d3 7f c1
       13224791.006314896 -33371705.78050775
000740 d6 2d 96 4f d5 4f 8c c1 b2 b3 96 4f 47 b5 e4 41
       -59374249.94832961 2779396732.7094355
000750 37 db f2 1e fd 1d 7d c1 4c 56 65 1e 56 a4 7e c1
       -30531537.93429109 -32130401.899740502
000760 35 3d da 83 ae ba d6 c1 56 ba 49 9a 74 2f 65 c1
       -1525332495.4099858 -11107236.821499985
000770 75 80 39 80 ad 81 7b 41 05 f6 58 2c 48 f4 68 c1
       28842712.01403852 -13083201.385859499
000780 4c 56 65 1e 56 a4 7e c1 d6 2d 96 4f d5 4f 8c 41
       -32130401.899740502 59374249.94832961
000790 ee 6f 44 e7 ed 38 90 41 e4 94 3e 41 dc 29 62 c1
       68041593.81683323 -9522914.038889356
0007a0 37 db f2 1e fd 1d 7d c1 de 90 dd 7b 73 dd b5 41
       -30531537.93429109 366834555.86549175
0007b0 06 22 e5 25 75 02 78 41 ff c6 4d 50 18 ea 7b 41
       25175890.36844065 29270405.018988606
0007c0 75 80 39 80 ad 81 7b c1 b0 68 de db 52 6e 87 41
       -28842712.01403852 49138267.48359811
0007d0 61 4b cf fa 77 5f 6e c1 d2 70 e7 8e 59 f6 74 c1
       -15924159.837804498 -21980568.93150408
0007e0 66 56 b7 52 0a 24 75 41 4c 56 65 1e 56 a4 7e c1
       22167717.16976013 -32130401.899740502
0007f0 c8 61 9b b1 85 fa b7 41 cc e8 ba 09 f2 a2 8c c1
       402294193.6069608 -60055105.21626434

x f8 [684]
000000 cf 50 ed 11 71 ef d0 be d7 38 50 93 99 04 d2 be
       -4.037694707321496e-06 -4.295818418332932e-06
000010 0a f3 80 4a 78 ba 06 bf 4f 8b 22 78 6e 57 f0 be
       -4.3350978842648656e-05 -1.5584496858021918e-05
000020 60 21 dc 42 1a 8b f2 3e 42 4b 26 f9 67 3d 9b 3e
       1.768433519713905e-05 4.059056603274643e-07
000030 dc 98 3a cd 0e a2 f7 3e 7c 54 21 e8 4c bd ce 3e
       2.2538221698419815e-05 3.6644285624035105e-06
000040 e6 51 59 f4 03 36 0e bf 7b 05 1d 5e d0 15 f7 be
       -5.762290542735467e-05 -2.201577252170437e-05
000050 49 83 11 e0 27 92 04 3f 79 25 88 f0 2a 8d c4 3e
       3.92359179464176e-05 2.449922139162352e-06
000060 cf 07 5f 3c 6e 80 cc be c3 02 91 c5 a1 8d d0 be
       -3.3976652699949234e-06 -3.946602270821819e-06
000070 97 57 12 d9 75 f9 0c bf 55 ee 17 55 65 0e ae 3e
       -5.5264386113736807e-05 8.957455667752619e-07
000080 94 13 df 11 86 d0 f2 3e e1 8f 08 bc 32 e5 84 3e
       1.7942949049904228e-05 1.5568215695857886e-07
000090 ae 12 63 f8 99 84 e2 3e 3b c8 8e 77 63 a8 ca 3e
       8.830058288452954e-06 3.17785355404782e-06
0000a0 a3 88 7c 36 b9 67 13 bf 2c ae ac 8b cc 86 bc 3e
       -7.402484845589695e-05 1.7003153931033404e-06
0000b0 65 53 df ed be f7 00 3f 3f 2c db d7 04 bf b8 3e
       3.2363428303184065e-05 1.4749865324011462e-06
0000c0 78 af ff b7 04 88 ca be 1f a4 65 3a 7c 15 cf be
       -3.162780046741682e-06 -3.705492832729615e-06
0000d0 dc 81 f0 bb 96 56 10 bf 71 35 03 f1 5a e7 ef be
       -6.232542999429859e-05 -1.5212884619942719e-05
0000e0 43 c8 8d b5 d2 45 f3 3e 4c bc f8 d1 85 84 81 3e
       1.837992326465138e-05 1.3051678936354313e-07
0000f0 db b6 29 8d 59 50 e6 3e ce b5 d5 9d 35 64 c7 3e
       1.0640080664727134e-05 2.7884773163208747e-06
000100 74 ef ae 96 19 fc 15 bf 79 d2 a4 2e 9b c6 f4 be
       -8.386522465192258e-05 -1.9813352005475995e-05
000110 9d 28 9e d3 c7 8a 00 3f 3a 98 5d cc 32 ae 8c be
       3.1551573967795686e-05 -2.1368609831178455e-07
000120 32 44 e3 30 38 56 c5 be 69 21 a4 28 6f fd c7 be
       -2.543544162049893e-06 -2.8598281619532514e-06
000130 55 eb 43 64 39 fa 0f bf 3a 7e 56 10 fa 36 f1 3e
       -6.0992123083600476e-05 1.6417267962530307e-05
000140 44 f1 8c 5a 7a 2e f3 3e 10 2b 21 42 3e 2d 95 be
       1.8292955846309066e-05 -3.1555788571463535e-07
000150 11 ba 2e 97 b8 2b e9 3e c7 8c 91 dc ea 34 b8 3e
       1.200236576956191e-05 1.4428322734565112e-06
000160 17 d5 c9 5d 9f 77 15 bf 8c ae 4b a3 00 78 f7 3e
       -8.18911571032931e-05 2.2381553395441195e-05
000170 eb 01 f0 f1 cf 1a 01 3f 22 64 10 52 cb 4a ba be
       3.262469385134969e-05 -1.567135150764997e-06
000180 2c 40 9c 89 1f 57 ae be 33 51 d1 a8 d6 b6 c7 be
       -9.04212146242774e-07 -2.826954477211851e-06
000190 dc 9f 2c a4 39 38 0e bf d7 e4 99 7a a6 a6 de be
       -5.763936908059739e-05 -7.307762567182125e-06
0001a0 cb f4 dc b3 d7 f9 f2 3e e7 89 7a fd a4 49 a4 3e
       1.809687386543773e-05 6.046197950813811e-07
0001b0 c5 65 ea 51 24 19 f8 3e 83 5b a7 45 0f fd b3 3e
       2.2981844376523405e-05 1.1914082934571727e-06
0001c0 aa d9 11 20 37 72 14 bf 55 60 8e 83 c1 33 f1 be
       -7.79958864017607e-05 -1.6405269181868642e-05
0001d0 13 f6 c5 42 a8 2c 04 3f 7f 98 2f a0 b5 70 9a be
       3.8479695237275114e-05 -3.939907459712805e-07
0001e0 5e 15 fe 4e 1b eb e1 be 3e 8e 8f 60 5b ab c4 be
       -8.54415199548025e-06 -2.4639800852864667e-06
0001f0 2b 2d 4a 46 72 af 0c bf 7a 08 fc ce 45 f1 b5 be
       -5.4712939150903334e-05 -1.307873215894888e-06
000200 30 0b 8f de 86 c6 f5 3e 2e 17 0b a1 08 44 92 3e
       2.076673073126838e-05 2.721809844559808e-07
000210 23 54 b3 e0 31 cc e7 3e 1c b4 d1 b2 b0 44 9c 3e
       1.1347597157410478e-05 4.212308109600422e-07
000220 f8 d9 74 0d c9 64 12 bf 43 ee c5 ed e6 50 03 3f
       -7.016636970012108e-05 3.684239138387589e-05
000230 8c dd 26 d9 70 88 05 3f c2 c2 43 11 27 7e bf 3e
       4.107088456655879e-05 1.8771161807673683e-06
000240 96 2c 1c 05 56 61 a5 3e 1b 32 53 c2 0b fc c7 be
       6.371801737082722e-07 -2.8591816937150106e-06
000250 b0 7d 68 e3 5f 41 f5 be a9 5e 32 ce 27 dd 03 3f
       -2.0270699872535706e-05 3.788736082660272e-05
000260 bb 5c 47 76 19 48 06 3f ba 97 67 4b 4b d1 b1 be
       4.249885276735298e-05 -1.0620090456990955e-06
000270 db 45 cd 10 44 7d c4 be 1e ae 34 0e f6 bf aa be
       -2.442517262592838e-06 -7.972076016318784e-07
000280 6c b0 d1 2c 18 aa 0b bf 5e 4e a8 7b d6 03 f3 be
       -5.276571537468706e-05 -1.8134109021584992e-05
000290 3b 5c 50 88 fb 12 d8 3e ba 07 df 19 c1 bf ad 3e
       5.739724774598291e-06 8.865904879073335e-07
0002a0 90 4f 01 84 66 57 f5 3e 05 0d e7 61 50 93 d9 3e
       2.0352752699473074e-05 6.097661325590912e-06
0002b0 20 e9 6e cc 96 a9 11 bf 96 3e 1f 5b aa 3c fa be
       -6.73769273892605e-05 -2.502152864974782e-05
0002c0 68 c3 f6 ee 96 1b 00 bf 1e 04 b3 1d 81 5c c7 3e
       -3.072313654273775e-05 2.784889358759426e-06
0002d0 44 e7 9c 25 cc 37 bc be 0c 48 bc 96 99 46 99 be
       -1.68192140965894e-06 -3.7663848816247234e-07
0002e0 2f f6 8f d9 41 3f 13 bf f1 e3 f7 40 5c 42 7a be
       -7.342185416799798e-05 -9.782321818548253e-08
0002f0 4b f1 b8 c2 72 5d c2 3e ac 14 d1 30 40 e0 99 3e
       2.189282460011781e-06 3.855821411639952e-07
000300 da 50 ed 70 69 6d da 3e 9b 0b ab 13 2d d5 d6 3e
       6.30078080983786e-06 5.443744437174954e-06
000310 70 81 cd 96 0b 1a 1a bf bd 5a 80 45 74 0f b4 be
       -9.957023367013706e-05 -1.1956911034665458e-06
000320 22 e0 ba 4e 0e 92 b3 3e 35 a8 2f 14 72 2d b0 3e
       1.1664945373367974e-06 9.642554494823244e-07
000330 de c2 c3 07 dc b7 b9 be 00 4e 42 80 dd 70 51 3e
       -1.532924243593542e-06 1.624308511355436e-08
000340 10 42 42 56 2f 5e 15 bf 36 8b e0 8a ac 3f f0 be
       -8.151210710339468e-05 -1.549599317497292e-05
000350 d1 3b f0 92 e4 46 c5 3e 7e f3 c6 a7 99 eb 9c 3e
       2.536407144322174e-06 4.3094625093078855e-07
000360 ca a3 c5 c6 b8 9e e1 3e aa 38 25 d0 db 18 d4 3e
       8.401874048673519e-06 4.791522999104755e-06
000370 73 6f 4d 16 a5 18 1d bf 73 e2 60 a9 68 7d f4 be
       -0.00011099345790682533 -1.9540670642666972e-05
000380 bb bf 81 db 1e 0d d6 3e d4 37 df 04 e9 c2 96 be
       5.257428192448285e-06 -3.3917081487539635e-07
000390 ef b9 24 d5 37 94 ae be 42 67 9c 52 ea e4 b2 3e
       -9.113245289843912e-07 1.1261821079633826e-06
0003a0 94 56 54 d6 f4 a9 14 bf 2c 30 5b ac 44 69 f3 3e
       -7.882649295639705e-05 1.8511966820608665e-05
0003b0 33 b2 ec c0 41 c2 c3 3e ee 90 3e 0a e1 3c 7b 3e
       2.3554343963254645e-06 1.0146874501613089e-07
0003c0 06 24 28 72 53 ff e3 3e 55 cc 01 de 47 de c9 3e
       9.535487667926636e-06 3.083739770254284e-06
0003d0 95 b7 dd e2 2d 0e 1c bf 4f dc 8e 49 cd 49 fb 3e
       -0.00010702281062232998 2.6024140058669283e-05
0003e0 b4 33 4d 46 e6 f2 b8 3e 49 16 af bd ad 61 b6 be
       1.4870659239163692e-06 -1.334044773969132e-06
0003f0 d6 38 51 20 ac c1 ad 3e 93 e4 42 f6 56 f2 b5 3e
       8.868137803071248e-07 1.308121647487682e-06
000400 09 7c a6 6e 0f c0 11 bf fc 88 7b 93 ac b4 e5 be
       -6.77117747387297e-05 -1.0350112105543274e-05
000410 e1 aa 42 c2 b2 18 d2 3e 40 90 9f 84 e0 76 a7 3e
       4.314536486453163e-06 6.992925218854659e-07
000420 ac c5 f1 31 43 d1 f5 3e 0a 1d ef 35 95 d1 c6 3e
       2.0806724134241818e-05 2.7201989918100143e-06
000430 cc 0d 7a 0d 26 36 17 bf 90 8f f6 3c 21 ed f1 be
       -8.85449147692209e-05 -1.7095840858196885e-05
000440 64 9f b9 d7 4c 50 fe be e0 ad b7 96 3a 04 8f be
       -2.8909370924173365e-05 -2.3109107459506756e-07
000450 7d ea bb 42 79 3f dc be 01 4b 3e 1c a3 5a c0 3e
       -6.734834680828026e-06 1.949554844623918e-06
000460 e8 c5 4c 8c 39 d0 1b bf 6d 01 49 4b 6a c5 c1 be
       -0.00010609961743737013 -2.118486543773045e-06
000470 e9 b6 55 ea 30 20 cf 3e 03 47 94 b4 72 03 a2 3e
       3.7104781138084934e-06 5.368432109151097e-07
000480 d3 7f 55 38 82 de e1 3e 06 3f 1e 4a 40 f7 bc 3e
       8.5206863881803e-06 1.7264976936749191e-06
000490 c8 50 46 92 fd 75 24 bf dd 93 2d a2 29 73 c5 3e
       -0.0001561042819388013 2.557021859516606e-06
0004a0 54 06 eb 30 69 07 c0 be 84 b2 bb 8d d2 b6 a8 3e
       -1.910799603294786e-06 7.36539074589602e-07
0004b0 91 db ce be 5c 53 d0 3e 42 0f 8d e1 70 30 06 bf
       3.892334444913641e-06 -4.232258306172003e-05
0004c0 af ba ab 43 cb 6c 27 bf fb e6 de c7 65 4d 02 bf
       -0.00017871838812007687 -3.490893230613346e-05
0004d0 8f 74 5e c8 76 2e 06 3f f1 d9 07 ab 42 7a c2 be
       4.230785366064152e-05 -2.202699157512237e-06
0004e0 28 3b d0 9e 68 31 a9 be a2 d0 9b 4e 4d 27 c5 3e
       -7.508099862956688e-07 2.5216964915035492e-06
0004f0 62 80 31 62 de 18 16 bf c4 bb 03 f4 34 c9 f9 3e
       -8.429391213971149e-05 2.4591411830362166e-05
000500 2d a3 7e 8b d0 dc b2 be b5 7d 54 c3 e3 61 86 3e
       -1.1242960180434997e-06 1.667617383427547e-07
000510 0e ce ca 1e 94 ce 9e be ec 09 da 07 59 29 b7 3e
       -4.59059292616543e-07 1.3805338591471422e-06
000520 6f e5 2c d3 9d 16 20 bf 55 d7 e6 4c 9f 52 f8 3e
       -0.00012274433682949888 2.319597552410205e-05
000530 8a ef 30 64 e1 7a f2 3e 00 39 f9 74 58 da 83 be
       1.762390298785903e-05 -1.4791572276952092e-07
000540 ec 27 86 62 a2 72 f2 3e c4 15 55 89 64 78 06 bf
       1.7593183800047806e-05 -4.285866558943364e-05
000550 51 59 73 0e b4 22 23 bf c8 66 15 d3 2b d4 0a 3f
       -0.0001459927363842242 5.117186300180942e-05
000560 a3 26 7e 74 4e 8c 08 3f c4 be 14 97 cc 1f b3 be
       4.68217318135404e-05 -1.1398920743525162e-06
000570 a4 5b f7 c8 ca ef ca be d7 67 6e 17 c6 6c dd 3e
       -3.211103439797413e-06 7.01544228478599e-06
000580 2d e5 6e 22 a8 01 fd be 49 46 5f 92 18 69 03 bf
       -2.7662727145138004e-05 -3.702265011863417e-05
000590 89 31 59 a2 44 61 e4 be 75 7a 62 e0 c4 47 63 be
       -9.717919122875062e-06 -3.591244639274749e-08
0005a0 ff db 47 ea c5 f2 74 be 04 3b 5a c0 0a 1a dc 3e
       -7.803861962878425e-08 6.699973715064729e-06
0005b0 95 73 79 75 ac bd 17 bf 0b 6a 0e 22 d7 ef cf be
       -9.056439500327994e-05 -3.807172348447136e-06
0005c0 fe a9 04 03 07 bb c3 be 9d e7 43 7c a2 75 8b be
       -2.3520679165629508e-06 -2.0458929673295007e-07
0005d0 56 25 d5 85 34 72 ce 3e ae a4 f2 10 a1 c0 88 3e
       3.6294596116633283e-06 1.8442018088108428e-07
0005e0 7a 51 37 65 d8 37 21 bf c9 9e 67 61 16 a0 f1 be
       -0.00013136402649983528 -1.6808835505615128e-05
0005f0 d2 1d bf 57 b7 0d d9 be 9c 2c 7c 9e 0e 01 b2 be
       -5.973238668084218e-06 -1.0731297325785352e-06
000600 00 8d 55 3a 78 9f 84 be 04 db 16 88 fe 6c e5 be
       -1.5365278930720494e-07 -1.0216597959506527e-05
000610 de c2 3f 8a 9c da 23 bf 5c 9e a2 b0 f6 09 fb be
       -0.00015147362603286965 -2.5786323967351386e-05
000620 17 51 79 97 f9 57 02 3f 1e 79 24 b9 fe 62 bc 3e
       3.498773997692906e-05 1.6919791262014638e-06
000630 40 b5 8e 55 3f eb 83 3e b7 a6 58 3d 5b 75 dc 3e
       1.4840763176480339e-07 6.785016883928476e-06
000640 af 90 33 5d 12 fd 1d bf c7 b8 b1 58 08 20 f2 be
       -0.00011439728341461579 -1.7285468441868132e-05
000650 2d 45 ea c0 ec 46 ab be 7f 93 8a 8f 4b 3c 85 3e
       -8.129194400565574e-07 1.5821701262078185e-07
000660 78 1e 94 fb a6 65 d9 3e 00 79 66 cc 13 1e 8d 3e
       6.055135537203994e-06 2.1694220304637027e-07
000670 b4 06 f2 e2 11 70 26 bf 1f a2 76 b4 87 94 f0 be
       -0.0001711866220582191 -1.581210679338547e-05
000680 2d 9f 43 16 c1 9d ce be 20 28 d7 c8 ed 5c a5 be
       -3.6497387317819202e-06 -6.366671116361573e-07
000690 12 b0 ee b6 b4 3b dd be 12 16 ec bb d4 56 e6 be
       -6.9697442616582936e-06 -1.0652152807387318e-05
0006a0 ac a5 62 6c b8 90 2a bf 1b ae 2a 8b 73 bd fb be
       -0.00020267726194349073 -2.645496779034142e-05
0006b0 bc ef 44 70 72 03 00 3f df 2e b8 74 70 80 b2 3e
       3.05432604670026e-05 1.1027882064221657e-06
0006c0 b4 1c 88 47 2b bf a0 3e dd 76 f1 1f 6f f9 df 3e
       4.990921658739608e-07 7.623279542815737e-06
0006d0 10 a8 4d 22 59 c6 19 bf a6 b6 70 e2 96 b2 fc 3e
       -9.832304983850592e-05 2.7368178191425556e-05
0006e0 5d 22 8e b8 ad b6 a9 be 7a aa 8a 4b 81 bf 66 3e
       -7.663246473925011e-07 4.2371575974716054e-08
0006f0 ce 3c 39 d5 21 4e dd 3e 70 b8 49 4b 58 8f 59 3e
       6.986905038155329e-06 2.3804550069337934e-08
000700 8c 6e e3 9a 38 da 22 bf 35 71 20 16 34 d3 03 3f
       -0.000143832597536132 3.7813212444089845e-05
000710 4f b4 82 6b 24 63 ca be dd aa e3 02 54 97 a8 be
       -3.1456082432908075e-06 -7.32872654810503e-07
000720 60 51 39 7f 07 fe ce be c1 d2 7e eb 70 10 e9 be
       -3.694570290405593e-06 -1.1951552877900535e-05
000730 c0 c8 7e e9 9f dd 25 bf 05 93 54 e9 a0 76 11 3f
       -0.00016682221462144785 6.661755681542862e-05
000740 94 26 57 07 7e 51 01 3f f2 fe 02 44 c7 a5 9e 3e
       3.3032091703311426e-05 4.566844076340916e-07
000750 83 3d 73 f3 3a 34 a6 3e 31 61 97 e2 ee 9d df 3e
       6.61731497065001e-07 7.53806265537558e-06
000760 87 fb f3 88 6b 8a 03 bf f3 47 4b ee 27 9f e3 be
       -3.72709338254318e-05 -9.35635711965877e-06
000770 58 e0 62 e1 cd 5a c6 be c8 70 22 59 d0 f3 a3 3e
       -2.664888380268136e-06 5.946277943538785e-07
000780 36 1f 4c 45 c4 88 d7 be a2 8e b3 e8 8e f8 de 3e
       -5.611001218104423e-06 7.384045271427839e-06
000790 21 44 3b ec 9b ad 1b bf a4 b7 19 87 64 3f cc be
       -0.00010558380295867853 -3.36737962740911e-06
0007a0 33 5b 86 ce b3 29 cd be 2e fc 4c f0 17 ea 93 3e
       -3.476488576302679e-06 2.967480983613084e-07
0007b0 64 cc 09 e4 a9 cf de 3e 1a 88 c0 82 02 0e e9 be
       7.345959205029473e-06 -1.194702425528012e-05
0007c0 d4 ab ed a4 06 7b 24 bf bd f7 7d 44 85 c1 ef be
       -0.0001562543497713719 -1.5142412067122605e-05
0007d0 19 73 2e 92 7f 31 9e be 9f 7f 04 84 32 0a 99 3e
       -4.499160174921746e-07 3.73122592394257e-07
0007e0 98 0d ee 71 14 e7 c4 3e d6 9a b5 7a 8d a6 04 bf
       2.491790737692376e-06 -3.93878866258767e-05
0007f0 2c a7 6d ef 9e a3 28 bf 68 13 3f 43 29 a1 fd be
       -0.00018798174979944274 -2.8256927364872687e-05

b f8 [684]
000000 00 00 00 00 00 00 70 3d 00 00 00 00 00 c8 75 3d
       9.094947017729282e-13 1.2381207170619746e-12
000010 27 81 f5 49 4b 7f de c0 0d 76 44 bd 0a 66 ac c0
       -31229.17638909924 -3635.0209752458672
000020 73 38 85 dd 0d 07 be 40 00 00 00 00 00 00 26 bd
       7687.054161382944 -3.907985046680551e-14
000030 00 00 00 00 00 00 00 00 00 00 00 00 00 00 43 3d
       0.0 1.3500311979441904e-13
000040 1a c1 0c 6e 50 14 d6 c0 0d 76 44 bd 0a 66 ac c0
       -22609.25671690805 -3635.0209752458672
000050 71 38 85 dd 0d 07 be 40 00 00 00 00 00 00 41 bd
       7687.054161382942 -1.2079226507921703e-13
000060 00 00 00 00 00 00 70 bd 00 00 00 00 00 00 47 3d
       -9.094947017729282e-13 1.6342482922482304e-13
000070 f0 65 59 bc 03 92 e2 c0 31 1a 0b 49 78 f8 78 c0
       -38032.11674184713 -399.5293665345844
000080 70 38 85 dd 0d 07 be 40 00 00 00 00 00 00 0c bd
       7687.054161382941 -1.2434497875801753e-14
000090 00 00 00 00 00 00 70 3d 00 00 00 00 00 40 52 3d
       9.094947017729282e-13 2.5934809855243657e-13
0000a0 e0 0b ca 9c 0c b9 dc c0 49 1a 0b 49 78 f8 78 c0
       -29412.197069655987 -399.5293665345858
0000b0 6f 38 85 dd 0d 07 be 40 00 00 00 00 00 00 3b 3d
       7687.05416138294 9.592326932761353e-14
0000c0 00 00 00 00 00 00 68 3d 00 00 00 00 00 ee 85 bd
       6.821210263296962e-13 -2.4931168240982515e-12
0000d0 40 08 f4 76 fa 43 e4 c0 10 35 75 b9 da cf b1 c0
       -41503.82702066051 -4559.854392362075
0000e0 72 38 85 dd 0d 07 be 40 00 00 00 00 00 00 14 3d
       7687.054161382943 1.7763568394002505e-14
0000f0 00 00 00 00 00 00 90 3d 00 00 00 00 00 5c 79 bd
       3.637978807091713e-12 -1.4415135751733033e-12
000100 3f a8 ff 08 7d 0e e0 c0 0f 35 75 b9 da cf b1 c0
       -32883.90734846936 -4559.854392362074
000110 70 38 85 dd 0d 07 be 40 00 00 00 00 00 a0 42 3d
       7687.054161382941 1.3233858453531866e-13
000120 00 00 00 00 00 00 85 3d 00 00 00 00 00 08 53 3d
       2.3874235921539366e-12 2.7045032879868813e-13
000130 f0 71 12 a4 25 0e e4 c0 93 6a b1 64 7d be b3 40
       -41073.176278326544 5054.489817703742
000140 6e 38 85 dd 0d 07 be 40 00 00 00 00 00 40 29 3d
       7687.054161382939 4.4853010194856324e-14
000150 00 00 00 00 00 00 80 bd 00 00 00 00 00 00 57 3d
       -1.8189894035458565e-12 3.268496584496461e-13
000160 bf 23 3c 6c 50 b1 df c0 93 6a b1 64 7d be b3 40
       -32453.25660613528 5054.489817703742
000170 78 38 85 dd 0d 07 be 40 00 00 00 00 00 00 1c bd
       7687.054161382948 -2.4868995751603507e-14
000180 00 00 00 00 00 00 50 3d 00 00 00 00 00 f0 73 3d
       2.2737367544323206e-13 1.1333156635373598e-12
000190 99 ce ef a0 da 3b e3 c0 88 2c 40 87 9d a9 a2 c0
       -39390.8321455989 -2388.8076725057945
0001a0 72 38 85 dd 0d 07 be 40 00 00 00 00 00 00 00 3d
       7687.054161382943 7.105427357601002e-15
0001b0 00 00 00 00 00 00 00 00 00 00 00 00 00 80 47 bd
       0.0 -1.6697754290362354e-13
0001c0 14 dd f6 65 ba 0c de c0 85 2c 40 87 9d a9 a2 c0
       -30770.912473407647 -2388.807672505793
0001d0 72 38 85 dd 0d 07 be 40 00 00 00 00 00 00 37 bd
       7687.054161382943 -8.171241461241152e-14
0001e0 00 00 00 00 00 00 70 3d 00 00 00 00 00 c0 56 3d
       9.094947017729282e-13 3.232969447708456e-13
0001f0 48 a7 20 0a 57 dc e3 c0 68 4c ae ee 51 95 89 40
       -40674.7199862735 818.6650060288493
000200 70 38 85 dd 0d 07 be 40 00 00 00 00 00 00 18 3d
       7687.054161382941 2.1316282072803006e-14
000210 00 00 00 00 00 00 80 3d 00 00 00 00 00 00 12 bd
       1.8189894035458565e-12 -1.5987211554602254e-14
000220 08 bf fc dc a7 d3 d7 c0 6c cd 96 fb b8 28 b7 40
       -24398.62286299377 5928.72258894458
000230 70 38 85 dd 0d 07 be 40 00 00 00 00 00 00 e0 bc
       7687.054161382941 -1.7763568394002505e-15
000240 00 00 00 00 00 00 40 bd 00 00 00 00 00 8c 62 bd
       -1.1368683772161603e-13 -5.271338920920243e-13
000250 7f 3f b2 db 98 10 d9 c0 df 03 c1 bd 0e f6 b3 40
       -25666.38840919686 5110.057582915731
000260 72 38 85 dd 0d 07 be 40 00 00 00 00 00 80 17 bd
       7687.054161382943 -2.0872192862952943e-14
000270 00 00 00 00 00 00 90 bd 00 00 00 00 80 53 61 3d
       -3.637978807091713e-12 4.924394225724882e-13
000280 b2 3e 80 6d c3 eb e3 c0 08 76 44 bd 0a 66 ac c0
       -40798.107116816 -3635.020975245865
000290 c6 d4 ca 35 1b 74 72 40 00 00 00 00 00 18 31 3d
       295.25664309721867 6.072919944699606e-14
0002a0 00 00 00 00 00 00 10 bd 00 00 00 00 00 00 00 00
       -1.4210854715202004e-14 0.0
0002b0 19 c1 0c 6e 50 14 d6 c0 13 76 44 bd 0a 66 ac c0
       -22609.256716908047 -3635.02097524587
0002c0 76 38 85 dd 0d 07 be c0 00 00 00 00 00 00 41 3d
       -7687.054161382946 1.2079226507921703e-13
0002d0 00 00 00 00 00 80 69 3d 00 00 00 00 00 70 48 3d
       7.247535904753022e-13 1.7363888105137448e-13
0002e0 15 e4 de 84 21 3e e7 c0 4e 1a 0b 49 78 f8 78 c0
       -47601.047469563935 -399.5293665345861
0002f0 d5 d4 ca 35 1b 74 72 40 00 00 00 00 00 80 22 bd
       295.2566430972195 -3.2862601528904634e-14
000300 00 00 00 00 00 00 88 bd 00 00 00 00 00 b0 79 3d
       -2.7284841053187847e-12 1.4601653219870059e-12
000310 fe 83 ea 16 a4 08 e3 c0 57 1a 0b 49 78 f8 78 c0
       -38981.127797372625 -399.5293665345866
000320 ca d4 ca 35 1b 74 72 40 00 00 00 00 00 c0 51 3d
       295.2566430972189 2.5224267119483557e-13
000330 00 00 00 00 00 00 71 bd 00 00 00 00 00 d4 64 bd
       -9.663381206337363e-13 -5.919709167301335e-13
000340 59 86 79 3f 18 f0 e8 c0 12 35 75 b9 da cf b1 c0
       -51072.757748377226 -4559.854392362076
000350 d8 d4 ca 35 1b 74 72 40 00 00 00 00 00 00 fa 3c
       295.2566430972197 5.773159728050814e-15
000360 00 00 00 00 00 00 70 bd 00 00 00 00 00 00 67 3d
       -9.094947017729282e-13 6.536993168992922e-13
000370 54 26 85 d1 9a ba e4 c0 10 35 75 b9 da cf b1 c0
       -42452.838076186046 -4559.854392362075
000380 ee d4 ca 35 1b 74 72 40 00 00 00 00 00 00 e0 bc
       295.25664309722094 -1.7763568394002505e-15
000390 00 00 00 00 00 00 50 bd 00 00 00 00 00 ed 65 3d
       -2.2737367544323206e-13 6.231681837221004e-13
0003a0 03 f0 97 6c 43 ba e8 c0 90 6a b1 64 7d be b3 40
       -50642.10700604322 5054.489817703739
0003b0 ef d4 ca 35 1b 74 72 40 00 00 00 00 00 80 f9 bc
       295.256643097221 -5.662137425588298e-15
0003c0 00 00 00 00 00 00 90 bd 00 00 00 00 00 50 6b bd
       -3.637978807091713e-12 -7.762679388179095e-13
0003d0 f6 8f a3 fe c5 84 e4 c0 95 6a b1 64 7d be b3 40
       -42022.18733385198 5054.489817703744
0003e0 1e d5 ca 35 1b 74 72 40 00 00 00 00 00 00 32 bd
       295.2566430972237 -6.394884621840902e-14
0003f0 00 00 00 00 00 00 60 3d 00 00 00 00 00 38 67 3d
       4.547473508864641e-13 6.59916565837193e-13
000400 b7 4c 75 69 f8 e7 e7 c0 86 2c 40 87 9d a9 a2 c0
       -48959.76287331565 -2388.8076725057936
000410 f2 d4 ca 35 1b 74 72 40 00 00 00 00 00 00 39 3d
       295.2566430972212 8.881784197001252e-14
000420 00 00 00 00 00 40 5a bd 00 00 00 00 00 00 78 bd
       -3.730349362740526e-13 -1.3642420526593924e-12
000430 15 dd f6 65 ba 0c de c0 8b 2c 40 87 9d a9 a2 c0
       -30770.91247340765 -2388.807672505796
000440 70 38 85 dd 0d 07 be c0 00 00 00 00 00 00 2e 3d
       -7687.054161382941 5.3290705182007514e-14
000450 00 00 00 00 00 00 70 3d 00 00 00 00 00 a0 36 3d
       9.094947017729282e-13 8.038014698286133e-14
000460 60 25 a6 d2 74 88 e8 c0 6a 4c ae ee 51 95 89 40
       -50243.65071399021 818.6650060288496
000470 cc d4 ca 35 1b 74 72 40 00 00 00 00 00 00 16 3d
       295.256643097219 1.9539925233402755e-14
000480 00 00 00 00 00 00 88 bd 00 00 00 00 00 d0 5f 3d
       -2.7284841053187847e-12 4.5208281562736374e-13
000490 34 c1 d0 86 77 c6 e8 c0 4a 4c ae ee 51 95 89 40
       -50739.73520696387 818.6650060288459
0004a0 1a d5 ca 35 1b 74 72 40 00 00 00 00 00 c0 36 bd
       295.25664309722345 -8.08242361927114e-14
0004b0 00 00 00 00 00 00 70 3d 00 00 00 00 00 a0 7f 3d
       9.094947017729282e-13 1.7976731214730535e-12
0004c0 71 c3 a4 30 47 b9 d9 c0 e2 03 c1 bd 0e f6 b3 c0
       -26341.112343970166 -5110.057582915733
0004d0 c4 e5 e1 90 4f 2e bf 40 00 00 00 00 00 00 3a bd
       7982.310804480167 -9.237055564881302e-14
0004e0 00 00 00 00 00 00 00 00 00 00 00 00 00 c0 5b bd
       0.0 -3.943512183468556e-13
0004f0 6e 66 d8 bf 9e 81 e4 c0 e1 03 c1 bd 0e f6 b3 40
       -41996.960918617304 5110.057582915732
000500 d6 d4 ca 35 1b 74 72 40 00 00 00 00 00 00 11 3d
       295.2566430972196 1.509903313490213e-14
000510 00 00 00 00 00 00 64 3d 00 00 00 00 00 c0 30 3d
       5.684341886080801e-13 5.950795411990839e-14
000520 2b 2a cc 21 d8 29 e0 c0 de 03 c1 bd 0e f6 b3 40
       -33102.75412567364 5110.05758291573
000530 b9 e5 e1 90 4f 2e bf 40 00 00 00 00 00 00 25 3d
       7982.310804480157 3.730349362740526e-14
000540 00 00 00 00 00 00 a0 bd 00 00 00 00 00 00 56 3d
       -7.275957614183426e-12 3.126388037344441e-13
000550 64 c3 a4 30 47 b9 d9 c0 dc 03 c1 bd 0e f6 b3 40
       -26341.11234397012 5110.057582915728
000560 bc e5 e1 90 4f 2e bf 40 00 00 00 00 00 00 61 bd
       7982.310804480159 -4.831690603168681e-13
000570 00 00 00 00 00 00 80 3d 00 00 00 00 00 50 90 bd
       1.8189894035458565e-12 -3.709033080667723e-12
000580 eb 00 71 94 6f 15 e0 c0 16 76 44 bd 0a 66 ac c0
       -32939.48687029056 -3635.0209752458713
000590 1d 53 7f d1 72 09 9f c0 00 00 00 00 00 00 14 bd
       -1986.3621272940138 -1.7763568394002505e-14
0005a0 00 00 00 00 00 00 50 3d 00 00 00 00 00 c0 53 bd
       2.2737367544323206e-13 -2.8066438062523957e-13
0005b0 d4 6e 49 35 02 b5 e6 c0 5f 1a 0b 49 78 f8 78 c0
       -46504.06900474211 -399.52936653458704
0005c0 14 53 7f d1 72 09 9f c0 00 00 00 00 00 00 23 bd
       -1986.3621272940118 -3.375077994860476e-14
0005d0 00 00 00 00 00 00 78 bd 00 00 00 00 00 b0 4d 3d
       -1.3642420526593924e-12 2.1094237467877974e-13
0005e0 99 4a 1e 8e da cb e3 c0 5a d9 65 c6 19 85 af c0
       -40542.82984842844 -4034.550341780455
0005f0 1d 53 7f d1 72 09 9f c0 00 00 00 00 00 00 3b 3d
       -1986.3621272940138 9.592326932761353e-14
000600 00 00 00 00 00 00 00 00 00 00 00 00 00 80 77 3d
       0.0 1.3358203432289883e-12
000610 d4 07 3e 78 10 a5 d7 c0 5a d9 65 c6 19 85 af c0
       -24212.257339007992 -4034.550341780455
000620 f4 10 82 dc f2 6b b7 40 00 00 00 00 00 00 3c bd
       5995.948677186145 -9.947598300641403e-14
000630 00 00 00 00 00 00 50 3d 00 00 00 00 00 e6 7a bd
       2.2737367544323206e-13 -1.5289991495137656e-12
000640 23 11 e4 ef f8 66 e8 c0 0d 35 75 b9 da cf b1 c0
       -49975.77928355548 -4559.854392362072
000650 20 53 7f d1 72 09 9f c0 00 00 00 00 00 00 1d 3d
       -1986.3621272940145 2.5757174171303632e-14
000660 00 00 00 00 00 00 80 bd 00 00 00 00 00 40 10 bd
       -1.8189894035458565e-12 -1.4432899320127035e-14
000670 e3 ac 0e a4 fb a4 e8 c0 13 35 75 b9 da cf b1 c0
       -50471.863776529 -4559.854392362077
000680 21 53 7f d1 72 09 9f c0 00 00 00 00 00 80 17 bd
       -1986.3621272940147 -2.0872192862952943e-14
000690 00 00 00 00 00 00 90 bd 00 00 00 00 00 e0 53 bd
       -3.637978807091713e-12 -2.824407374646398e-13
0006a0 55 66 0f 52 a9 ab e0 c0 13 35 75 b9 da cf b1 c0
       -34141.29126710879 -4559.854392362077
0006b0 fa 10 82 dc f2 6b b7 40 00 00 00 00 00 00 3b 3d
       5995.94867718615 9.592326932761353e-14
0006c0 00 00 00 00 00 00 50 3d 00 00 00 00 c0 d5 8c bd
       2.2737367544323206e-13 -3.2781555248106997e-12
0006d0 de 7a 02 1d 24 31 e8 c0 91 6a b1 64 7d be b3 40
       -49545.128541221595 5054.48981770374
0006e0 0a 53 7f d1 72 09 9f c0 00 00 00 00 00 e0 2b bd
       -1986.3621272940095 -4.951594689828198e-14
0006f0 00 00 00 00 00 00 70 3d 00 00 00 00 00 00 69 3d
       9.094947017729282e-13 7.105427357601002e-13
000700 76 07 b0 8c 9d 52 e5 c0 db 10 54 ce 33 c9 c0 40
       -43668.92342378099 8594.404734142523
000710 22 53 7f d1 72 09 9f c0 00 00 00 00 00 00 00 bd
       -1986.362127294015 -7.105427357601002e-15
000720 00 00 00 00 00 00 80 bd 00 00 00 00 00 2c 90 bd
       -1.8189894035458565e-12 -3.6770586575585185e-12
000730 d8 81 61 75 96 b2 da c0 d8 10 54 ce 33 c9 c0 40
       -27338.35091436081 8594.404734142518
000740 fa 10 82 dc f2 6b b7 40 00 00 00 00 00 00 f0 3c
       5995.94867718615 3.552713678800501e-15
000750 00 00 00 00 00 00 60 bd 00 00 00 00 00 18 68 3d
       -4.547473508864641e-13 6.847855615887966e-13
000760 eb 0e 66 90 a4 11 e4 c0 84 2c 40 87 9d a9 a2 c0
       -41101.14262679018 -2388.8076725057927
000770 1c 53 7f d1 72 09 9f c0 00 00 00 00 00 00 19 bd
       -1986.3621272940136 -2.220446049250313e-14
000780 00 00 00 00 00 00 00 00 00 00 00 00 00 be 90 bd
       0.0 -3.806732706834737e-12
000790 3e b0 10 83 55 ff e7 c0 57 4c ae ee 51 95 89 40
       -49146.67224916861 818.6650060288474
0007a0 2d 53 7f d1 72 09 9f c0 00 00 00 00 00 30 39 bd
       -1986.3621272940175 -8.948397578478762e-14
0007b0 00 00 00 00 00 00 00 00 00 00 00 00 00 58 81 bd
       0.0 -1.971756091734278e-12
0007c0 f5 8c 6d 24 82 36 e4 c0 df 03 c1 bd 0e f6 b3 c0
       -41396.06694676905 -5110.057582915731
0007d0 28 53 7f d1 72 09 9f c0 00 00 00 00 00 00 22 3d
       -1986.3621272940163 3.197442310920451e-14
0007e0 00 00 00 00 00 00 60 3d 00 00 00 00 00 74 a3 3d
       4.547473508864641e-13 8.846257060213247e-12
0007f0 79 c4 f3 9a 4d e9 e0 c0 de 03 c1 bd 0e f6 b3 c0
       -34634.42516506551 -5110.05758291573
