python-Linux/neural-sparse-linear-solvers-master/stand_small_test/5840724709058426364_0ab9a74ba05b3949cdce26c510517c10e20fac48_b3f17434a48a159ce5285eb28b7b9f181380ef24.npz (npz, 54971 bytes, 3 tensors)

A_values f8 [13042]
000000 4d ef 44 e9 5d ef c8 41 71 cb 1a 56 d4 d6 90 c1
       836680658.5385529 -70628629.52616669
000010 11 8a 4f 59 94 9c 45 c1 c8 44 46 17 dd ec 2e c1
       -2832680.6977398475 -1013358.5454579825
000020 11 8a 4f 59 94 9c 45 c1 c5 ce 71 05 af 80 c7 c1
       -2832680.6977398475 -788618762.8891226
000030 9c e3 8d 1d 81 5e c6 41 68 51 b1 25 d4 8d 62 41
       750584379.1085086 9727649.177895263
000040 eb d1 e4 11 82 57 48 41 de 1a 45 74 d2 23 c6 c1
       3190532.139795532 -742892776.5398824
000050 4e 42 fd d8 ec 7c 32 c1 eb d1 e4 11 82 57 48 41
       -1211628.8476144257 3190532.139795532
000060 d7 8c 1b 88 79 de d4 41 21 b6 d3 26 a2 e1 74 41
       1400497696.4304712 21895714.426687364
000070 00 a6 b1 fd d2 70 77 c1 9c b8 36 3d 5a e1 5d c1
       -24579375.8558712 -7832936.956464913
000080 21 b6 d3 26 a2 e1 74 41 3f 60 e8 9d b7 cd 61 c1
       21895714.426687364 -9334204.934616206
000090 00 a6 b1 fd d2 70 77 c1 68 51 b1 25 d4 8d 62 41
       -24579375.8558712 9727649.177895263
0000a0 21 b6 d3 26 a2 e1 74 41 10 47 e1 fa fa c3 9a 41
       21895714.426687364 112262846.71999764
0000b0 21 b6 d3 26 a2 e1 74 c1 d2 08 6d 30 f5 26 83 41
       -21895714.426687364 40165030.05323948
0000c0 fc bc 40 6f 91 fc 63 c1 71 cb 1a 56 d4 d6 90 c1
       -10478731.476652615 -70628629.52616669
0000d0 00 a6 b1 fd d2 70 77 c1 a4 28 3a 45 75 dd ac 41
       -24579375.8558712 242137762.6135913
0000e0 86 56 b2 b8 e5 d3 62 c1 00 a6 b1 fd d2 70 77 41
       -9871149.771769773 24579375.8558712
0000f0 e7 98 0a 20 4c 36 84 41 11 8a 4f 59 94 9c 45 c1
       42387844.00517445 -2832680.6977398475
000100 eb d1 e4 11 82 57 48 41 aa 9e b9 18 c6 26 83 41
       3190532.139795532 40163523.09063466
000110 11 8a 4f 59 94 9c 45 41 12 e4 dc a8 fa 18 54 41
       2832680.6977398475 5268458.638482111
000120 eb d1 e4 11 82 57 48 c1 4c d2 6e b3 91 51 55 41
       -3190532.139795532 5588550.803639006
000130 c8 44 46 17 dd ec 2e c1 11 8a 4f 59 94 9c 45 41
       -1013358.5454579825 2832680.6977398475
000140 30 4d 40 4d 14 37 c9 41 d2 0c 61 7e 50 b4 86 c1
       846080154.5023556 -47614479.797387734
000150 20 a0 2b be 02 27 fc 40 6d 44 1e 25 bc 1c 60 c1
       115312.17142832326 -8447457.159944737
000160 1f 14 a9 5b b0 f2 75 41 d4 41 93 9b cd 0d 2d c1
       23014149.728778955 -952038.8038578578
000170 10 2d 5e 43 5c bb 44 c1 c5 ce 71 05 af 80 c7 c1
       -2717368.526311524 -788618762.8891226
000180 de 1a 45 74 d2 23 c6 c1 d5 2b 6c b3 d5 0a d6 41
       -742892776.5398824 1479235277.6901753
000190 45 68 2b 99 02 bc 59 41 eb d1 e4 11 82 57 48 41
       6746122.3932743715 3190532.139795532
0001a0 64 74 56 1c f0 b2 30 c1 16 75 6e 64 4b bf 46 c1
       -1094384.1106941933 -2981526.7846208913
0001b0 d4 48 3c d1 d0 ae c5 c1 4e 42 fd d8 ec 7c 32 c1
       -727556514.4709725 -1211628.8476144257
0001c0 eb d1 e4 11 82 57 48 41 9c b8 36 3d 5a e1 5d c1
       3190532.139795532 -7832936.956464913
0001d0 21 b6 d3 26 a2 e1 74 c1 ba 2d 0c 5a 25 2b e0 41
       -21895714.426687364 2170104528.380582
0001e0 60 31 21 2b fe 81 2a c1 00 a6 b1 fd d2 70 77 c1
       -868607.0842376165 -24579375.8558712
0001f0 97 e7 a0 d6 6d b7 c6 c1 82 d0 5a ac 40 1a 5c c1
       -762239917.2570676 -7366914.693042876
000200 96 ac 7a 35 92 0d 74 41 3f 60 e8 9d b7 cd 61 c1
       21027107.342449747 -9334204.934616206
000210 00 a6 b1 fd d2 70 77 c1 21 b6 d3 26 a2 e1 74 41
       -24579375.8558712 21895714.426687364
000220 d2 08 6d 30 f5 26 83 41 45 68 2b 99 02 bc 59 41
       40165030.05323948 6746122.3932743715
000230 60 31 21 2b fe 81 2a c1 2c ec 96 b8 48 49 a8 41
       -868607.0842376165 203727964.2947706
000240 16 75 6e 64 4b bf 46 41 bb a0 ec 4f 53 9d 54 41
       2981526.7846208913 5403981.248817618
000250 96 ac 7a 35 92 0d 74 c1 99 7d f7 f0 d4 ca 82 41
       -21027107.342449747 39410334.12084503
000260 fc bc 40 6f 91 fc 63 c1 86 56 b2 b8 e5 d3 62 c1
       -10478731.476652615 -9871149.771769773
000270 d2 0c 61 7e 50 b4 86 c1 00 a6 b1 fd d2 70 77 c1
       -47614479.797387734 -24579375.8558712
000280 b8 85 f8 2d 61 08 b4 41 1f 14 a9 5b b0 f2 75 c1
       336093485.9707904 -23014149.728778955
000290 98 b7 c1 d6 61 9a 83 41 4e 6b 2a 3f 65 70 62 c1
       41110586.84458846 -9667369.97392812
0002a0 00 a6 b1 fd d2 70 77 41 e7 98 0a 20 4c 36 84 41
       24579375.8558712 42387844.00517445
0002b0 11 8a 4f 59 94 9c 45 c1 12 e4 dc a8 fa 18 54 41
       -2832680.6977398475 5268458.638482111
0002c0 20 a0 2b be 02 27 fc 40 eb d1 e4 11 82 57 48 41
       115312.17142832326 3190532.139795532
0002d0 71 92 6b d5 b4 ea 8c 41 ab a4 43 fd 6b 51 63 c1
       60642970.67752541 -10128223.91450723
0002e0 10 2d 5e 43 5c bb 44 41 1e a2 1b 70 fb af 53 41
       2717368.526311524 5160941.751686601
0002f0 eb d1 e4 11 82 57 48 c1 4c d2 6e b3 91 51 55 41
       -3190532.139795532 5588550.803639006
000300 6d 44 1e 25 bc 1c 60 c1 1f 14 a9 5b b0 f2 75 c1
       -8447457.159944737 -23014149.728778955
000310 c2 56 f4 11 be 13 c8 41 88 72 67 59 52 0a 43 41
       807894051.9088976 2495652.6984694637
000320 10 2d 5e 43 5c bb 44 c1 ac 86 ca 21 2a d6 62 c1
       -2717368.526311524 -9875793.05597242
000330 70 02 d6 a6 fa 53 78 41 d4 41 93 9b cd 0d 2d c1
       25509802.42724842 -952038.8038578578
000340 10 2d 5e 43 5c bb 44 c1 c5 ce 71 05 af 80 c7 c1
       -2717368.526311524 -788618762.8891226
000350 64 74 56 1c f0 b2 30 c1 16 75 6e 64 4b bf 46 41
       -1094384.1106941933 2981526.7846208913
000360 87 87 9e 6e 33 ca c5 41 80 91 1a f2 05 5d 14 c1
       731145949.238511 -333633.48642947525
000370 eb d1 e4 11 82 57 48 41 c4 af 29 cf 5d 95 33 c1
       3190532.139795532 -1283421.8092298368
000380 46 c7 b1 22 ec 4a 49 c1 d4 48 3c d1 d0 ae c5 c1
       -3315160.2710503666 -727556514.4709725
000390 4e 42 fd d8 ec 7c 32 c1 eb d1 e4 11 82 57 48 41
       -1211628.8476144257 3190532.139795532
0003a0 97 e7 a0 d6 6d b7 c6 c1 e7 fc fb a5 39 96 d7 41
       -762239917.2570676 1582884503.937311
0003b0 96 ac 7a 35 92 0d 74 41 00 a6 b1 fd d2 70 77 c1
       21027107.342449747 -24579375.8558712
0003c0 15 bb 86 15 9a f5 c7 c1 82 d0 5a ac 40 1a 5c c1
       -803943467.0525843 -7366914.693042876
0003d0 96 ac 7a 35 92 0d 74 41 3f 60 e8 9d b7 cd 61 c1
       21027107.342449747 -9334204.934616206
0003e0 00 a6 b1 fd d2 70 77 c1 16 75 6e 64 4b bf 46 c1
       -24579375.8558712 -2981526.7846208913
0003f0 bb a0 ec 4f 53 9d 54 41 80 91 1a f2 05 5d 14 c1
       5403981.248817618 -333633.48642947525
000400 96 ac 7a 35 92 0d 74 41 8e 46 3b 1b d8 07 9b 41
       21027107.342449747 113374726.80788633
000410 46 c7 b1 22 ec 4a 49 41 15 b0 30 9e 2b ba 55 41
       3315160.2710503666 5695662.471721669
000420 96 ac 7a 35 92 0d 74 c1 99 7d f7 f0 d4 ca 82 41
       -21027107.342449747 39410334.12084503
000430 fc bc 40 6f 91 fc 63 c1 1f 14 a9 5b b0 f2 75 41
       -10478731.476652615 23014149.728778955
000440 98 b7 c1 d6 61 9a 83 41 88 72 67 59 52 0a 43 41
       41110586.84458846 2495652.6984694637
000450 00 a6 b1 fd d2 70 77 c1 c8 ab 86 ea f9 12 b0 41
       -24579375.8558712 269679082.5260587
000460 70 02 d6 a6 fa 53 78 c1 59 80 e4 0b 16 90 84 41
       -25509802.42724842 43123393.48657293
000470 4e 6b 2a 3f 65 70 62 c1 00 a6 b1 fd d2 70 77 41
       -9667369.97392812 24579375.8558712
000480 e7 98 0a 20 4c 36 84 41 ab a4 43 fd 6b 51 63 c1
       42387844.00517445 -10128223.91450723
000490 10 2d 5e 43 5c bb 44 c1 eb d1 e4 11 82 57 48 41
       -2717368.526311524 3190532.139795532
0004a0 7e c5 62 b9 e1 34 84 41 48 9f 61 b6 fe 5f 64 c1
       42376247.17322825 -10682357.699416772
0004b0 10 2d 5e 43 5c bb 44 41 1e a2 1b 70 fb af 53 41
       2717368.526311524 5160941.751686601
0004c0 eb d1 e4 11 82 57 48 c1 4c d2 6e b3 91 51 55 41
       -3190532.139795532 5588550.803639006
0004d0 ac 86 ca 21 2a d6 62 c1 70 02 d6 a6 fa 53 78 c1
       -9875793.05597242 -25509802.42724842
0004e0 b0 dd 5f 21 4b d3 c7 41 70 02 d6 a6 fa 53 78 c1
       799446594.7489529 -25509802.42724842
0004f0 10 2d 5e 43 5c bb 44 c1 d4 41 93 9b cd 0d 2d c1
       -2717368.526311524 -952038.8038578578
000500 10 2d 5e 43 5c bb 44 c1 c5 ce 71 05 af 80 c7 c1
       -2717368.526311524 -788618762.8891226
000510 c4 af 29 cf 5d 95 33 c1 46 c7 b1 22 ec 4a 49 41
       -1283421.8092298368 3315160.2710503666
000520 4d 5c 90 f6 d9 c1 c5 41 46 c7 b1 22 ec 4a 49 41
       730051565.1278168 3315160.2710503666
000530 eb d1 e4 11 82 57 48 41 d4 48 3c d1 d0 ae c5 c1
       3190532.139795532 -727556514.4709725
000540 4e 42 fd d8 ec 7c 32 c1 eb d1 e4 11 82 57 48 41
       -1211628.8476144257 3190532.139795532
000550 15 bb 86 15 9a f5 c7 c1 37 12 57 75 05 75 c8 41
       -803943467.0525843 820644586.6802434
000560 96 ac 7a 35 92 0d 74 41 00 a6 b1 fd d2 70 77 c1
       21027107.342449747 -24579375.8558712
000570 82 d0 5a ac 40 1a 5c c1 96 ac 7a 35 92 0d 74 41
       -7366914.693042876 21027107.342449747
000580 3f 60 e8 9d b7 cd 61 c1 00 a6 b1 fd d2 70 77 c1
       -9334204.934616206 -24579375.8558712
000590 46 c7 b1 22 ec 4a 49 c1 15 b0 30 9e 2b ba 55 41
       -3315160.2710503666 5695662.471721669
0005a0 46 c7 b1 22 ec 4a 49 41 96 ac 7a 35 92 0d 74 41
       3315160.2710503666 21027107.342449747
0005b0 e2 82 3b b5 1e 72 98 41 96 ac 7a 35 92 0d 74 c1
       102533037.30811647 -21027107.342449747
0005c0 99 7d f7 f0 d4 ca 82 41 fc bc 40 6f 91 fc 63 c1
       39410334.12084503 -10478731.476652615
0005d0 70 02 d6 a6 fa 53 78 41 59 80 e4 0b 16 90 84 41
       25509802.42724842 43123393.48657293
0005e0 70 02 d6 a6 fa 53 78 c1 00 a6 b1 fd d2 70 77 c1
       -25509802.42724842 -24579375.8558712
0005f0 79 1b 49 12 ad 19 a6 41 4e 6b 2a 3f 65 70 62 c1
       185390729.14278772 -9667369.97392812
000600 00 a6 b1 fd d2 70 77 41 e7 98 0a 20 4c 36 84 41
       24579375.8558712 42387844.00517445
000610 48 9f 61 b6 fe 5f 64 c1 10 2d 5e 43 5c bb 44 c1
       -10682357.699416772 -2717368.526311524
000620 eb d1 e4 11 82 57 48 41 a6 b8 23 74 0d c1 7e 41
       3190532.139795532 32248023.258721016
000630 10 2d 5e 43 5c bb 44 41 1e a2 1b 70 fb af 53 41
       2717368.526311524 5160941.751686601
000640 eb d1 e4 11 82 57 48 c1 4c d2 6e b3 91 51 55 41
       -3190532.139795532 5588550.803639006
000650 d4 41 93 9b cd 0d 2d c1 10 2d 5e 43 5c bb 44 41
       -952038.8038578578 2717368.526311524
000660 9f 7b fa 15 59 2f c9 41 d2 0c 61 7e 50 b4 86 c1
       845066795.9568976 -47614479.797387734
000670 10 2d 5e 43 5c bb 44 41 6d 44 1e 25 bc 1c 60 c1
       2717368.526311524 -8447457.159944737
000680 1f 14 a9 5b b0 f2 75 41 c5 ce 71 05 af 80 c7 c1
       23014149.728778955 -788618762.8891226
000690 d4 48 3c d1 d0 ae c5 c1 cc 3c 93 f2 d8 f1 c5 41
       -727556514.4709725 736342501.1502929
0006a0 45 68 2b 99 02 bc 59 41 eb d1 e4 11 82 57 48 41
       6746122.3932743715 3190532.139795532
0006b0 64 74 56 1c f0 b2 30 c1 16 75 6e 64 4b bf 46 c1
       -1094384.1106941933 -2981526.7846208913
0006c0 4e 42 fd d8 ec 7c 32 c1 eb d1 e4 11 82 57 48 41
       -1211628.8476144257 3190532.139795532
0006d0 82 d0 5a ac 40 1a 5c c1 96 ac 7a 35 92 0d 74 c1
       -7366914.693042876 -21027107.342449747
0006e0 5d 92 ed ac 34 1c e0 41 96 ac 7a 35 92 0d 74 c1
       2162271591.4241166 -21027107.342449747
0006f0 00 a6 b1 fd d2 70 77 c1 97 e7 a0 d6 6d b7 c6 c1
       -24579375.8558712 -762239917.2570676
000700 3f 60 e8 9d b7 cd 61 c1 00 a6 b1 fd d2 70 77 c1
       -9334204.934616206 -24579375.8558712
000710 96 ac 7a 35 92 0d 74 41 99 7d f7 f0 d4 ca 82 41
       21027107.342449747 39410334.12084503
000720 45 68 2b 99 02 bc 59 41 96 ac 7a 35 92 0d 74 c1
       6746122.3932743715 -21027107.342449747
000730 7a 7a a5 3f 9e f6 9c 41 16 75 6e 64 4b bf 46 41
       121481103.91160002 2981526.7846208913
000740 bb a0 ec 4f 53 9d 54 41 fc bc 40 6f 91 fc 63 c1
       5403981.248817618 -10478731.476652615
000750 4e 6b 2a 3f 65 70 62 c1 d2 0c 61 7e 50 b4 86 c1
       -9667369.97392812 -47614479.797387734
000760 00 a6 b1 fd d2 70 77 c1 04 f3 32 00 c2 71 b3 41
       -24579375.8558712 326222336.1990206
000770 1f 14 a9 5b b0 f2 75 c1 98 b7 c1 d6 61 9a 83 41
       -23014149.728778955 41110586.84458846
000780 00 a6 b1 fd d2 70 77 41 e7 98 0a 20 4c 36 84 41
       24579375.8558712 42387844.00517445
000790 10 2d 5e 43 5c bb 44 c1 1e a2 1b 70 fb af 53 41
       -2717368.526311524 5160941.751686601
0007a0 10 2d 5e 43 5c bb 44 41 eb d1 e4 11 82 57 48 41
       2717368.526311524 3190532.139795532
0007b0 05 41 b7 3b a6 e0 87 41 ab a4 43 fd 6b 51 63 c1
       50074823.46447948 -10128223.91450723
0007c0 eb d1 e4 11 82 57 48 c1 4c d2 6e b3 91 51 55 41
       -3190532.139795532 5588550.803639006
0007d0 d4 41 93 9b cd 0d 2d c1 10 2d 5e 43 5c bb 44 41
       -952038.8038578578 2717368.526311524
0007e0 6d 44 1e 25 bc 1c 60 c1 1f 14 a9 5b b0 f2 75 c1
       -8447457.159944737 -23014149.728778955
0007f0 c2 56 f4 11 be 13 c8 41 88 72 67 59 52 0a 43 41
       807894051.9088976 2495652.6984694637

x f8 [1254]
000000 d7 ab 06 47 8e d0 de 3e 6b c2 38 ad 0a cd 05 3f
       7.346790070898515e-06 4.1582001042765635e-05
000010 51 a8 fc eb c1 7a f0 be 4c 74 32 4c 8e c6 23 bf
       -1.5716096412856092e-05 -0.00015087592155263658
000020 8b 52 d0 18 39 1e 0a 3f c8 d1 e5 93 39 ac c7 be
       4.98162436103666e-05 -2.822012134357495e-06
000030 67 46 9d 2b 22 04 c3 3e ac 3a d5 b1 b5 fb 04 3f
       2.26690130215243e-06 4.002235639665361e-05
000040 22 fb ce 3a 3f cf 02 bf 9a 7f 5d 9a 08 a4 18 3f
       -3.587638580126162e-05 9.399702557066764e-05
000050 f5 89 6b dd e2 fc 02 3f 82 ff ac e8 7f a0 b0 be
       3.6216424339281026e-05 -9.910435518483984e-07
000060 4c 49 25 d0 e0 a0 e7 be 00 d5 42 14 38 16 f9 be
       -1.126691359290958e-05 -2.392463035568327e-05
000070 19 27 a5 01 27 b3 11 bf c1 e3 bc 0b e2 81 f3 3e
       -6.751943184215812e-05 1.8603663860281486e-05
000080 51 67 7f 85 6f d5 eb be 62 87 73 fb 6c 61 c6 3e
       -1.3272158113797736e-05 2.6679717525104573e-06
000090 ba 70 7c aa fc bd e5 3e e6 ff 76 a6 93 28 09 bf
       1.0367458642295306e-05 -4.7986036232128095e-05
0000a0 ad aa d5 d4 4e 57 19 bf e0 48 c1 d3 f8 76 2d bf
       -9.666842125503434e-05 -0.0002247980827428447
0000b0 9c f8 73 79 86 00 15 3f ee 1f 2e 73 05 b7 c4 3e
       8.011647001990519e-05 2.4694117199443234e-06
0000c0 f0 61 25 b4 57 d5 8f be fa 4b 6e 68 e3 d5 04 3f
       -2.3717708514771092e-07 3.974056476532119e-05
0000d0 94 09 61 2d 0c c1 f0 be fd 1c 67 f4 be d8 fe be
       -1.5977947292586373e-05 -2.9417670953238603e-05
0000e0 df 49 05 f7 1c 2b bd 3e 3b 7a 43 9d ce b4 bd be
       1.7385727596087663e-06 -1.7706321289650754e-06
0000f0 e9 09 b9 cb 85 48 f0 be 59 4a ce fd 11 b6 f7 be
       -1.5528956949015507e-05 -2.2612773921413347e-05
000100 20 84 ef 62 95 6d 08 bf 70 ce c2 47 96 9c e9 be
       -4.659282819097937e-05 -1.2212595031569506e-05
000110 dd 39 08 43 d0 bd e5 be da 26 d9 49 46 61 c7 3e
       -1.036713555982183e-05 2.787110658518437e-06
000120 65 95 89 79 1b f7 d9 3e bc d1 48 5f 58 ad 09 bf
       6.19060110604772e-06 -4.897523823324835e-05
000130 0b 12 9e fc 13 b2 13 bf a2 31 eb 48 99 ff 2f 3f
       -7.513281812349824e-05 0.00024412866738144934
000140 fd 81 c9 ec 8f e4 13 3f d8 d1 92 42 5a ef cb 3e
       7.588509033374515e-05 3.3301080476172335e-06
000150 fb 75 bb 0d 56 f4 bc be 88 7c 5b 79 cb be 46 3e
       -1.725818996093654e-06 1.05916020775412e-08
000160 93 39 0b 66 fc e5 e1 be b1 15 0d f0 86 ae d0 be
       -8.534613870206364e-06 -3.977238294099724e-06
000170 f7 df 42 db 10 d6 d9 be f7 6e e2 9f d6 e2 b8 be
       -6.159828832057172e-06 -1.4833263999651993e-06
000180 c0 d3 35 06 f0 1b f5 3e 04 50 9a a3 dc 41 f8 3e
       2.013123629525707e-05 2.313353818424181e-05
000190 3f 88 2a dd d9 ce f8 be 36 2f 53 d9 fb 7e 04 bf
       -2.3658763732677326e-05 -3.909307557989213e-05
0001a0 9f 9a 0d 8f fa 84 0c 3f b6 58 90 8f d0 b0 e1 be
       5.439653057841731e-05 -8.435574715231656e-06
0001b0 be 39 91 db 25 6d c9 be 4f 6f a4 a5 0f 3c 72 3e
       -3.0310581818134162e-06 6.792922971728364e-08
0001c0 8a ae 9c c5 06 1f fe be 2f 27 75 55 b6 95 c0 be
       -2.8725812035875052e-05 -1.9770638279057745e-06
0001d0 b9 c9 b3 cf cc 10 e4 be 5d 4b 08 a3 2d 5c a8 be
       -9.568035685057816e-06 -7.259867001472741e-07
0001e0 d0 49 9c 93 42 f6 11 3f e3 6b 1f 99 ef 23 f8 3e
       6.851941443767402e-05 2.3022055365955792e-05
0001f0 83 23 45 b7 b1 38 15 bf 7a b3 b0 b7 69 ff 07 bf
       -8.095345203175228e-05 -4.577199339226338e-05
000200 b2 3a 1f ae bb 39 1e 3f dc 6a f3 20 ed 87 d2 be
       0.00011530120858014683 -4.418125640638227e-06
000210 39 50 18 c8 0b d7 b4 3e 8f 0a 78 86 d2 f0 92 3e
       1.2421621992152655e-06 2.8223860801271804e-07
000220 78 69 e9 e2 b0 18 ff be 80 59 fe 36 08 f9 c3 be
       -2.9655884811277564e-05 -2.3809411046723963e-06
000230 d4 38 5e 2d 60 a9 c2 be b5 38 14 4b d4 fb 99 3e
       -2.2246389148112274e-06 3.8718742263820463e-07
000240 df 08 2e c2 85 ff 03 3f 79 30 c6 44 c2 cc f7 3e
       3.814341496079383e-05 2.269729547914364e-05
000250 a5 5d e6 c4 24 db 15 bf 94 5f 94 8c fd 27 14 3f
       -8.337413712521684e-05 7.688984910136774e-05
000260 aa e0 6a 04 52 56 06 3f f6 a4 d3 83 ff ab d1 3e
       4.260480686951844e-05 4.2133015629522085e-06
000270 e8 be b4 db 2f b3 07 3f 50 b1 1e 0f 6c 57 10 bf
       4.520406533925302e-05 -6.233784713910906e-05
000280 6d 5f 56 a2 95 86 1b bf c4 e0 6a d4 a6 99 13 bf
       -0.00010500229162457653 -7.476883647939125e-05
000290 39 63 b3 b3 85 d2 08 3f 61 7c d8 b6 4f 96 e0 3e
       4.7344880351912794e-05 7.909371301072038e-06
0002a0 d5 cd c9 7c e6 6d a8 3e aa 16 11 c9 7c e7 87 3e
       7.280498209430721e-07 1.7810052502420607e-07
0002b0 7c e5 54 96 66 c4 e7 be 10 5d 54 d6 55 43 e4 3e
       -1.13330795082796e-05 9.66216493707023e-06
0002c0 a6 e9 e7 09 ad 6e be 3e 06 e6 2e c1 bc 33 62 3e
       1.8139080918399093e-06 3.390405125349687e-08
0002d0 1b 67 b2 8c 4a d2 f0 3e 6d 57 ab 13 ba f3 f7 3e
       1.604218486459591e-05 2.2842462594172887e-05
0002e0 9f 99 f1 f8 0f c2 00 bf 66 fd e3 33 36 5f f3 be
       -3.196345561988782e-05 -1.847450334313324e-05
0002f0 f9 c1 73 92 5c 28 da be 32 7d 9a fc a2 36 b9 3e
       -6.2364727348861285e-06 1.502837209711575e-06
000300 24 17 eb af 71 4d fb 3e c7 da b7 bf 83 61 10 bf
       2.6037708262169977e-05 -6.248823768105058e-05
000310 6e de b6 03 05 de 0b bf 26 ed 3a ad a1 25 1b 3f
       -5.315258791987748e-05 0.0001035575799574374
000320 0b 87 c1 9d 39 37 0e 3f 82 82 52 89 58 25 d6 3e
       5.7631917770318846e-05 5.2799897690974815e-06
000330 a7 fb 63 17 f5 d5 aa be 8a 6a 69 60 0b db cc be
       -7.997683002801613e-07 -3.4398606232726217e-06
000340 5e 46 8d 8f b4 07 e1 be 4b 27 27 f7 bc 1a f6 3e
       -8.120583957857405e-06 2.1080442317778722e-05
000350 31 5f 1f 2a 90 39 b9 3e 65 96 9a 46 d0 e8 9f be
       1.5035185829594378e-06 -4.754875307745164e-07
000360 16 3f 79 cc 85 b4 d3 3e 93 e2 4e b4 ec 7d e9 3e
       4.698077823286708e-06 1.215548184939464e-05
000370 5e 6b c1 33 e0 ec f8 be 1d d3 64 eb 86 a7 ed be
       -2.3770614675160263e-05 -1.4140320996427998e-05
000380 dd 8b 11 f8 80 94 d0 3e dc 78 ee 2b 86 6f b1 3e
       3.9530021932213855e-06 1.0392451909934112e-06
000390 00 76 a0 79 2e b6 18 3f d5 80 04 7b 32 04 ef be
       9.426745091941496e-05 -1.4789769779144729e-05
0003a0 ec 80 33 1f 07 ce 04 bf fa f7 ce 58 2c 42 20 bf
       -3.968199953319367e-05 -0.00012404242843716535
0003b0 64 f1 07 e2 21 5a 02 3f 10 a6 0d 6a 6a 47 a0 3e
       3.500381376750591e-05 4.851510376605631e-07
0003c0 21 c7 41 d4 b6 0c cc 3e b9 6d 5e df 10 1e cb be
       3.343780607117315e-06 -3.2326513474520037e-06
0003d0 c1 53 29 e8 e5 c4 04 bf c6 23 b0 c4 f4 4d 15 bf
       -3.961397762412096e-05 -8.127027938099806e-05
0003e0 c2 6c 39 13 db 4c f8 be 2d a5 eb 54 18 1c be be
       -2.317449361864395e-05 -1.794680730855053e-06
0003f0 25 57 c8 05 64 91 9f 3e ed 82 00 86 95 e1 ea 3e
       4.7039885034523696e-07 1.2817949198108572e-05
000400 80 d7 1e 46 4a 19 14 bf 89 64 5e 26 8f e6 e8 be
       -7.667079765280409e-05 -1.1873541733641603e-05
000410 21 ed a5 bb cd 2f de 3e 58 17 20 fd 8f ff bc 3e
       7.197077986349847e-06 1.7284328248669432e-06
000420 be b4 29 9e 69 27 20 3f 0d e6 fc aa d0 45 f0 be
       0.00012324489860607817 -1.5518870610997356e-05
000430 3d c3 93 09 89 85 1d bf af 28 c5 b4 47 a1 04 3f
       -0.00011261605176905456 3.9348603055504103e-05
000440 51 5f 4e 41 aa be 0c 3f 5f b8 58 c8 b7 5d d8 3e
       5.482632710779193e-05 5.809327495094341e-06
000450 a8 31 3a e5 05 8a 62 be a9 b4 4e cd ab e2 cf be
       -3.4531862394806567e-08 -3.8010399329909046e-06
000460 5c 04 83 d0 2c 5a 0f bf 46 c7 20 ee f5 b5 13 3f
       -5.9799664144496236e-05 7.519067324393306e-05
000470 0f 89 8b b2 56 58 fa be cf 52 f0 47 af 82 b6 be
       -2.5124619386648425e-05 -1.3417295858842364e-06
000480 f2 2a 6d 2f 1f 66 e5 be 24 b5 1f 31 92 6c eb 3e
       -1.0203797030113621e-05 1.3076832633597e-05
000490 58 3e ff c1 51 ab 21 bf 56 86 82 77 b2 05 ed 3e
       -0.0001348054220202562 1.3838889330766685e-05
0004a0 12 50 e0 85 d8 3f e5 3e 23 50 b0 da 43 d2 cb 3e
       1.0132502378502914e-05 3.3165631143725903e-06
0004b0 ff b2 3a 71 92 be e1 3e 02 6e 66 14 d8 f8 f0 be
       8.461199775788764e-06 -1.6185805429820225e-05
0004c0 ed 16 3b b9 94 6d 2b bf c9 20 c9 dd 04 09 25 bf
       -0.00020925941918486322 -0.00016048607257546633
0004d0 6c ec 71 e5 99 3e ee be cd b1 a8 a5 f7 b1 e0 3e
       -1.442171848808055e-05 7.960884592505494e-06
0004e0 7c 17 d2 53 0e 08 a1 be 9f 97 09 c8 7d 25 d0 be
       -5.075773185237701e-07 -3.84961379094008e-06
0004f0 54 a3 57 ff ce 00 00 bf 63 01 46 b5 1d 9d ee be
       -3.0523602543136797e-05 -1.4597766189395391e-05
000500 3c 24 0f da 99 97 d3 3e 42 66 ed 76 3e d0 be be
       4.671142421260962e-06 -1.8366249283280268e-06
000510 cb 7e f7 a3 ae 7a ec be 2d b5 f8 20 b3 64 ee 3e
       -1.3579953814734678e-05 1.449268259453659e-05
000520 75 d5 0e d4 22 a6 14 bf c7 ad d7 65 06 ab ea be
       -7.876956534754404e-05 -1.271632498408324e-05
000530 3e a4 23 e9 48 54 df 3e 0a 03 b9 dc f2 9c c7 3e
       7.469472295997902e-06 2.814898584252764e-06
000540 0f ce 32 b3 93 47 d2 3e 64 fc 5d fb 21 61 f2 be
       4.3581956560737e-06 -1.7527985356033038e-05
000550 06 da c3 9e 4f 5d 20 bf 3d 64 df 3e 38 32 35 3f
       -0.00012485119749046386 0.0003234278982496319
000560 0c cf 85 62 47 fd 01 bf 12 18 8d 00 c1 00 d0 3e
       -3.431200122152979e-05 3.8153994033670604e-06
000570 93 ef 47 7c ae a3 ce 3e 42 27 9b 3e 4a b5 d0 be
       3.652498863580429e-06 -3.98353675174786e-06
000580 84 22 d4 41 35 3d ec be a7 7f 83 c0 20 26 c5 3e
       -1.346544928050695e-05 2.521149785036887e-06
000590 6d 98 60 a3 c9 36 f3 3e c5 8f ba 1e 16 84 93 be
       1.832391190972236e-05 -2.908105034371611e-07
0005a0 16 b5 5e 22 a2 ac 75 be ed 01 cf 42 ec 48 d1 be
       -8.074324195249686e-08 -4.121030582504988e-06
0005b0 78 6a f7 6d cd 80 f7 be 68 01 d4 ed a7 b9 d3 3e
       -2.241433582903871e-05 4.702858601435572e-06
0005c0 50 36 32 5d a1 19 e3 3e 02 03 eb 23 e3 e5 a0 be
       9.107646212559679e-06 -5.035995583533553e-07
0005d0 66 54 16 07 e2 c5 f3 3e 7a c2 a3 e0 1c b0 d8 3e
       1.8856983336219475e-05 5.886063727298367e-06
0005e0 c6 ae b5 a5 8d aa 0b bf be 95 22 b1 be ed 04 bf
       -5.2769134266520505e-05 -3.99183101234368e-05
0005f0 f2 6f e9 68 32 9a fc be f8 9b a2 1c 42 f8 d1 be
       -2.7277309124648605e-05 -4.284324356763028e-06
000600 82 34 cf 7d 47 3b 05 bf fb ca 67 1d ec 30 da be
       -4.04959862191157e-05 -6.244445521097091e-06
000610 ee d4 d7 53 ab bf 10 bf 62 d4 96 af 75 c0 05 bf
       -6.389125061175328e-05 -4.148825787401372e-05
000620 6c 1e a1 ae df cb ed 3e b0 35 9e 70 66 d9 be be
       1.4208022054997697e-05 -1.8387567614937222e-06
000630 f5 cb af 70 5d ef 70 be 70 08 ed 1f 7f 6b d1 be
       -6.308786397439945e-08 -4.153229837213388e-06
000640 4e 2e 2c b4 37 4b 08 bf b4 64 6f a9 d3 c5 c0 be
       -4.633678192619545e-05 -1.9994689170852834e-06
000650 ab d7 17 a9 f1 76 db 3e f8 70 34 92 e7 1a af be
       6.548076855397292e-06 -9.270040987360928e-07
000660 96 6a 6b b0 29 64 11 3f 4b 76 30 18 14 4a d9 3e
       6.634239626227898e-05 6.029455451387449e-06
000670 dc fc 34 d4 fe c0 21 bf e8 4b d5 5c cb 7f 06 bf
       -0.00013545141892199505 -4.291381228917879e-05
000680 7e 14 f7 00 bd e4 0f bf 2a b3 40 0a 2d 35 cd be
       -6.083204072696804e-05 -3.4818313725731814e-06
000690 ed 8e 44 6d cd 7a 05 bf a5 48 1c 8f db 29 db be
       -4.096927082944215e-05 -6.476284612382464e-06
0006a0 b7 02 95 b0 52 f3 25 bf b4 2d 7f 51 89 8d 06 bf
       -0.00016746887585307953 -4.30161982759263e-05
0006b0 4b 15 dd 86 08 2e f6 3e 01 64 a4 71 db e9 d7 be
       2.115232239609703e-05 -5.701423811532194e-06
0006c0 ee d2 bf 7b 85 4f c3 3e 2f 7e bb 2b 58 23 d1 be
       2.3020065480445757e-06 -4.086032898447828e-06
0006d0 34 0e c6 fb fc b5 09 bf 4e a5 9c 5e 71 92 fe be
       -4.903963369698138e-05 -2.9155771620247455e-05
0006e0 2a dd f3 28 5c 10 e1 3e 25 8c 80 e2 20 72 9d be
       8.136704563884037e-06 -4.387768250976429e-07
0006f0 33 43 9d 86 59 0f 05 3f 1a 7c c5 46 9e e4 da 3e
       4.016868554280184e-05 6.411800410026912e-06
000700 26 7a 59 f8 98 4a 20 bf 1a 09 d7 1c 79 8c 13 3f
       -0.0001242934924218935 7.457246029843705e-05
000710 77 3d e2 ca 39 b0 ff be cc 70 b1 00 ba 8a b5 3e
       -3.0220395892897067e-05 1.28399733758445e-06
000720 81 58 dd e6 0e 35 06 3f 54 d7 e3 2f 7a 67 de be
       4.235698439340828e-05 -7.248928112204629e-06
000730 c5 26 46 44 87 e7 25 bf c6 fe 92 6e 69 46 f9 3e
       -0.0001671173687436881 2.410416246756313e-05
000740 54 62 93 aa 5a ca f7 be 07 f0 53 72 0b 33 ae be
       -2.268833728611066e-05 -9.000120583520066e-07
000750 91 8c c6 04 a2 46 95 3e c9 d8 97 83 43 d2 d2 be
       3.170357601117345e-07 -4.48735777912861e-06
000760 84 df 86 79 38 ba f2 be f9 a6 09 fd 20 b0 0d 3f
       -1.7859863506080733e-05 5.662537262625211e-05
000770 02 20 2b f2 60 37 d3 3e 21 ce 4b e5 a8 c5 93 be
       4.581528431919781e-06 -2.946273743163932e-07
000780 f4 b3 d4 b3 f5 b5 f2 3e da e9 62 a0 0e 51 db 3e
       1.7843990680766573e-05 6.512791975216896e-06
000790 a8 24 39 d4 67 61 03 bf e3 ae 9a 5e bb 17 e7 be
       -3.6965352162862425e-05 -1.1011458769992005e-05
0007a0 e3 1b 2a ec dd fc e4 3e a4 8c 82 9d c1 22 c5 3e
       1.0007744440499892e-05 2.519579748465322e-06
0007b0 b7 82 c6 8d b5 b7 f9 3e 2a ba dc f2 df 6f df be
       2.4526227990431383e-05 -7.495167478484399e-06
0007c0 35 0b ee ac fc 63 0d bf b5 2b 32 1e a4 36 15 3f
       -5.605807165578182e-05 8.09228582047534e-05
0007d0 e6 47 d3 4c 36 92 0c bf a4 92 48 0d 4c 30 df 3e
       -5.4495126826772757e-05 7.435956110889031e-06
0007e0 f4 0c 96 4c 7c 8a ac be 46 8e 5a 1b 07 12 e2 be
       -8.505868659834007e-07 -8.61664816948557e-06
0007f0 80 68 76 0e 92 32 f8 be ca aa 0b 96 3e 62 d5 3e
       -2.3076573510396204e-05 5.098287460407033e-06

b f8 [1254]
000000 00 00 00 00 00 00 60 3d 00 00 00 00 00 a7 b2 3d
       4.547473508864641e-13 1.6964207816272392e-11
000010 2e f8 a8 39 f4 b6 d6 c0 08 3b 70 57 6b 64 c6 c0
       -23259.816019289363 -11464.838605908226
000020 3a eb 81 2e 25 c8 c2 40 00 00 00 00 00 00 08 bd
       9616.290481796128 -1.0658141036401503e-14
000030 00 00 00 00 00 80 62 bd 00 00 00 00 00 87 a4 bd
       -5.258016244624741e-13 -9.334755191048316e-12
000040 2b f8 a8 39 f4 b6 d6 c0 07 3b 70 57 6b 64 c6 40
       -23259.816019289352 11464.838605908224
000050 37 eb 81 2e 25 c8 c2 40 00 00 00 00 00 c0 35 3d
       9616.290481796123 7.72715225139109e-14
000060 00 00 00 00 00 00 80 3d 00 00 00 00 00 a0 68 bd
       1.8189894035458565e-12 -6.998845947236987e-13
000070 00 00 00 00 00 30 a2 3d 00 00 00 00 00 00 5c bd
       8.270717444247566e-12 -3.979039320256561e-13
000080 00 00 00 00 00 00 66 3d 00 00 00 00 00 00 14 bd
       6.252776074688882e-13 -1.7763568394002505e-14
000090 00 00 00 00 00 00 70 bd 00 00 00 00 00 e0 6c 3d
       -9.094947017729282e-13 8.206768598029157e-13
0000a0 72 51 81 38 87 31 d7 c0 00 f2 35 37 7e c6 c7 c0
       -23750.1128238006 -12172.98605989758
0000b0 3a eb 81 2e 25 c8 c2 40 00 00 00 00 00 00 49 3d
       9616.290481796128 1.7763568394002505e-13
0000c0 00 00 00 00 00 00 00 00 00 00 00 00 00 f8 64 3d
       0.0 5.95967719618784e-13
0000d0 00 00 00 00 00 20 92 bd 00 00 00 00 00 00 44 3d
       -4.121147867408581e-12 1.4210854715202004e-13
0000e0 00 00 00 00 00 00 44 3d 00 00 00 00 00 00 04 3d
       1.4210854715202004e-13 8.881784197001252e-15
0000f0 00 00 00 00 00 00 80 3d 00 00 00 00 00 84 91 3d
       1.8189894035458565e-12 3.9825920339353615e-12
000100 00 00 00 00 00 d0 a1 bd 00 00 00 00 00 00 44 3d
       -8.100187187665142e-12 1.4210854715202004e-13
000110 00 00 00 00 00 00 62 bd 00 00 00 00 00 00 24 3d
       -5.115907697472721e-13 3.552713678800501e-14
000120 00 00 00 00 00 00 60 bd 00 00 00 00 00 18 92 3d
       -4.547473508864641e-13 4.11404244005098e-12
000130 6f 51 81 38 87 31 d7 c0 00 f2 35 37 7e c6 c7 40
       -23750.112823800588 12172.98605989758
000140 3a eb 81 2e 25 c8 c2 40 00 00 00 00 00 00 f0 bc
       9616.290481796128 -3.552713678800501e-15
000150 00 00 00 00 00 00 00 bd 00 00 00 00 00 c0 13 bd
       -7.105427357601002e-15 -1.7541523789077473e-14
000160 00 00 00 00 00 00 30 bd 00 00 00 00 00 00 47 bd
       -5.684341886080802e-14 -1.6342482922482304e-13
000170 00 00 00 00 00 00 64 3d 00 00 00 00 00 00 0f 3d
       5.684341886080801e-13 1.3766765505351941e-14
000180 00 00 00 00 00 00 90 bd 00 00 00 00 00 30 6a bd
       -3.637978807091713e-12 -7.442935157087049e-13
000190 33 78 5f 8a 93 3a cc c0 b9 f4 0f 30 60 41 b3 c0
       -14453.152660306636 -4929.375733372924
0001a0 52 1a 14 e9 5c a9 b6 40 00 00 00 00 00 00 f0 bc
       5801.362931496073 -3.552713678800501e-15
0001b0 00 00 00 00 00 80 5f 3d 00 00 00 00 00 00 27 3d
       4.476419235288631e-13 4.085620730620576e-14
0001c0 00 00 00 00 00 40 86 3d 00 00 00 00 00 00 51 3d
       2.5295321393059567e-12 2.4158453015843406e-13
0001d0 00 00 00 00 00 00 73 bd 00 00 00 00 00 00 d0 3c
       -1.0800249583553523e-12 8.881784197001252e-16
0001e0 00 00 00 00 00 00 a0 bd 00 00 00 00 00 c8 a0 bd
       -7.275957614183426e-12 -7.631228982063476e-12
0001f0 d4 ce ba 83 c7 41 e2 c0 22 99 36 8b d7 bf b7 c0
       -37390.234830287896 -6079.8419679759845
000200 65 f8 0b a3 d3 1c ce 40 00 00 00 00 00 00 2a bd
       15417.653413292204 -4.618527782440651e-14
000210 00 00 00 00 00 00 68 3d 00 00 00 00 00 e0 2c bd
       6.821210263296962e-13 -5.129230373768223e-14
000220 00 00 00 00 00 40 a3 bd 00 00 00 00 00 00 30 bd
       -8.753886504564434e-12 -5.684341886080802e-14
000230 00 00 00 00 00 00 48 bd 00 00 00 00 00 00 14 bd
       -1.7053025658242404e-13 -1.7763568394002505e-14
000240 00 00 00 00 00 00 a8 bd 00 00 00 00 00 b8 74 3d
       -1.0913936421275139e-11 1.177724584522366e-12
000250 91 e1 45 42 45 66 d6 c0 f2 46 a3 dd 9b 80 c5 40
       -22937.08216998127 11009.217701348916
000260 3a eb 81 2e 25 c8 c2 40 00 00 00 00 00 00 1a 3d
       9616.290481796128 2.3092638912203256e-14
000270 00 00 00 00 00 00 a0 bd 00 00 00 00 00 ef a0 3d
       -7.275957614183426e-12 7.700506898800086e-12
000280 a8 85 5d fa 5c d8 d0 c0 7c 47 b2 6b 70 9f b8 c0
       -17249.452781086467 -6303.4391433167
000290 21 79 64 f4 25 bb bc 40 00 00 00 00 00 00 04 bd
       7355.148260383198 -8.881784197001252e-15
0002a0 00 00 00 00 00 00 38 3d 00 00 00 00 00 d8 33 3d
       8.526512829121202e-14 7.049916206369744e-14
0002b0 00 00 00 00 00 d0 9b 3d 00 00 00 00 00 00 50 3d
       6.323830348264892e-12 2.2737367544323206e-13
0002c0 00 00 00 00 00 00 40 3d 00 00 00 00 00 00 d0 bc
       1.1368683772161603e-13 -8.881784197001252e-16
0002d0 00 00 00 00 00 00 80 bd 00 00 00 00 00 b4 8c bd
       -1.8189894035458565e-12 -3.26316751397826e-12
0002e0 00 00 00 00 00 18 bb bd 00 00 00 00 00 00 5e bd
       -2.4641622076160274e-11 -4.263256414560601e-13
0002f0 00 00 00 00 00 00 60 bd 00 00 00 00 00 00 2e bd
       -4.547473508864641e-13 -5.3290705182007514e-14
000300 00 00 00 00 00 00 90 bd 00 00 00 00 00 78 8b bd
       -3.637978807091713e-12 -3.1228353236656403e-12
000310 a3 85 5d fa 5c d8 d0 c0 78 47 b2 6b 70 9f b8 40
       -17249.45278108645 6303.439143316697
000320 24 79 64 f4 25 bb bc 40 00 00 00 00 00 00 34 3d
       7355.148260383201 7.105427357601002e-14
000330 00 00 00 00 00 00 50 bd 00 00 00 00 00 28 63 3d
       -2.2737367544323206e-13 5.444533712761768e-13
000340 00 00 00 00 00 d0 87 bd 00 00 00 00 00 c0 78 bd
       -2.7071678232459817e-12 -1.4068746168049984e-12
000350 00 00 00 00 00 00 4e bd 00 00 00 00 00 00 f0 bc
       -2.1316282072803006e-13 -3.552713678800501e-15
000360 00 00 00 00 00 00 70 bd 00 00 00 00 00 a3 92 3d
       -9.094947017729282e-13 4.2374992403892975e-12
000370 00 00 00 00 00 00 93 3d 00 00 00 00 00 00 60 3d
       4.320099833421409e-12 4.547473508864641e-13
000380 00 00 00 00 00 00 50 bd 00 00 00 00 00 80 2d bd
       -2.2737367544323206e-13 -5.240252676230739e-14
000390 00 00 00 00 00 00 c0 bd 00 00 00 00 00 3e 79 bd
       -2.9103830456733704e-11 -1.4348522370255523e-12
0003a0 ea 5f 27 c5 ed fc cb c0 a0 ee 9a 3a c7 27 c1 c0
       -14329.857579156716 -8783.55647598888
0003b0 08 20 b1 62 e6 d9 a3 40 00 00 00 00 00 00 16 bd
       2540.949971709404 -1.9539925233402755e-14
0003c0 00 00 00 00 00 00 88 3d 00 00 00 00 00 26 69 3d
       2.7284841053187847e-12 7.147615832536758e-13
0003d0 28 f8 a8 39 f4 b6 d6 c0 0a 3b 70 57 6b 64 c6 c0
       -23259.81601928934 -11464.83860590823
0003e0 3d eb 81 2e 25 c8 c2 c0 00 00 00 00 00 80 25 3d
       -9616.290481796133 3.8191672047105385e-14
0003f0 00 00 00 00 00 00 50 bd 00 00 00 00 00 16 a1 bd
       -2.2737367544323206e-13 -7.769784815536696e-12
000400 00 00 00 00 00 00 bb 3d 00 00 00 00 00 00 58 3d
       2.4556356947869062e-11 3.410605131648481e-13
000410 00 00 00 00 00 00 8c 3d 00 00 00 00 00 00 20 bd
       3.183231456205249e-12 -2.842170943040401e-14
000420 00 00 00 00 00 00 00 00 00 00 00 00 00 80 96 3d
       0.0 5.115907697472721e-12
000430 b3 a8 ce 0f e6 91 dc c0 6a ec 01 5a ce c3 8c c0
       -29255.594714798684 -920.4757576132081
000440 09 20 b1 62 e6 d9 b3 40 00 00 00 00 00 00 28 3d
       5081.899943418809 4.263256414560601e-14
000450 00 00 00 00 00 00 40 3d 00 00 00 00 10 dc 52 3d
       1.1368683772161603e-13 2.6801130759146474e-13
000460 2d f8 a8 39 f4 b6 d6 c0 09 3b 70 57 6b 64 c6 40
       -23259.81601928936 11464.838605908228
000470 3c eb 81 2e 25 c8 c2 c0 00 00 00 00 00 d4 20 3d
       -9616.290481796132 2.989275493803234e-14
000480 00 00 00 00 00 00 a8 3d 00 00 00 00 00 f0 7b 3d
       1.0913936421275139e-11 1.588063014423824e-12
000490 00 00 00 00 00 60 cb 3d 00 00 00 00 00 00 74 bd
       4.979483492206782e-11 -1.1368683772161603e-12
0004a0 00 00 00 00 00 00 68 bd 00 00 00 00 00 00 37 3d
       -6.821210263296962e-13 8.171241461241152e-14
0004b0 00 00 00 00 00 00 90 bd 00 00 00 00 00 78 ab bd
       -3.637978807091713e-12 -1.2491341294662561e-11
0004c0 fd 9a df ad 86 53 ea c0 10 27 26 28 70 c2 c8 c0
       -53916.20872478744 -12676.876225251268
0004d0 69 b6 52 fa 63 b6 b1 c0 00 00 00 00 00 00 52 3d
       -4534.390538377317 2.5579538487363607e-13
0004e0 00 00 00 00 00 00 40 3d 00 00 00 00 00 a6 82 bd
       1.1368683772161603e-13 -2.120081887824199e-12
0004f0 7d 09 a9 5b 88 1d c0 c0 9e 54 40 60 0f bc a0 c0
       -8251.065297250398 -2142.0300312140744
000500 20 9c 9e 1d e1 14 a2 40 00 00 00 00 00 00 43 3d
       2314.4396791043837 1.3500311979441904e-13
000510 00 00 00 00 00 00 90 bd 00 00 00 00 00 30 50 bd
       -3.637978807091713e-12 -2.3003821070233244e-13
000520 00 00 00 00 80 3d b0 3d 00 00 00 00 00 00 68 3d
       1.4770407119613083e-11 6.821210263296962e-13
000530 00 00 00 00 00 c0 71 bd 00 00 00 00 00 00 27 3d
       -1.0089706847793423e-12 4.085620730620576e-14
000540 00 00 00 00 00 00 00 00 00 00 00 00 00 60 92 3d
       0.0 4.177991286269389e-12
000550 a1 1e 42 17 cf 09 e3 c0 39 9a 30 24 3a db d5 40
       -38990.47158914549 22380.908458853348
000560 66 46 ab 2b 57 a3 bb c0 00 00 00 00 00 00 34 3d
       -7075.340510086715 7.105427357601002e-14
000570 00 00 00 00 00 00 70 bd 00 00 00 00 00 46 7f bd
       -9.094947017729282e-13 -1.7776891070298007e-12
000580 26 50 5c fc 0d 13 d1 c0 b4 fd 0a e3 b2 1d 82 c0
       -17484.21852786853 -579.7123471125292
000590 13 de 27 c0 63 f7 b2 40 00 00 00 00 00 00 ec bc
       4855.389650813787 -3.1086244689504383e-15
0005a0 00 00 00 00 00 00 50 3d 00 00 00 00 00 90 75 bd
       2.2737367544323206e-13 -1.2256862191861728e-12
0005b0 da 96 0f 9d 93 08 c2 c0 0c 14 03 19 7c 43 a5 40
       -9233.15323061815 2721.742378326604
0005c0 10 20 b1 62 e6 d9 a3 40 00 00 00 00 00 80 13 3d
       2540.9499717094077 1.7319479184152442e-14
0005d0 00 00 00 00 00 00 00 00 00 00 00 00 00 38 87 3d
       0.0 2.639666263348772e-12
0005e0 41 78 5f 8a 93 3a cc c0 bb f4 0f 30 60 41 b3 c0
       -14453.152660306661 -4929.375733372925
0005f0 4b 1a 14 e9 5c a9 b6 c0 00 00 00 00 00 00 08 bd
       -5801.362931496066 -1.0658141036401503e-14
000600 00 00 00 00 00 00 b0 3d 00 00 00 00 00 88 76 bd
       1.4551915228366852e-11 -1.2807532812075806e-12
000610 df 76 87 34 59 a9 c3 c0 e9 27 0e cf 92 46 ab c0
       -10066.69691556267 -3491.2867359565466
000620 06 20 b1 62 e6 d9 a3 40 00 00 00 00 00 80 3f 3d
       2540.949971709403 1.1191048088221578e-13
000630 00 00 00 00 00 e0 63 bd 00 00 00 00 00 52 8e 3d
       -5.648814749292796e-13 3.447020446856186e-12
000640 00 00 00 00 00 80 a6 3d 00 00 00 00 00 00 30 bd
       1.0231815394945443e-11 -5.684341886080802e-14
000650 00 00 00 00 00 00 68 bd 00 00 00 00 00 00 13 3d
       -6.821210263296962e-13 1.687538997430238e-14
000660 00 00 00 00 00 00 b0 bd 00 00 00 00 00 d0 7d 3d
       -1.4551915228366852e-11 1.694644424787839e-12
000670 d7 ce ba 83 c7 41 e2 c0 29 99 36 8b d7 bf b7 c0
       -37390.23483028792 -6079.841967975991
000680 63 f8 0b a3 d3 1c ce c0 00 00 00 00 00 00 3b 3d
       -15417.6534132922 9.592326932761353e-14
000690 00 00 00 00 00 00 b8 3d 00 00 00 00 00 00 36 3d
       2.1827872842550278e-11 7.815970093361102e-14
0006a0 6f c2 7f 90 55 34 d8 c0 6f ce 1a 1c cf ff b6 c0
       -24785.33694452274 -5887.809022593879
0006b0 07 20 b1 62 e6 d9 b3 40 00 00 00 00 00 00 32 bd
       5081.899943418807 -6.394884621840902e-14
0006c0 00 00 00 00 00 00 70 bd 00 00 00 00 00 98 6e 3d
       -9.094947017729282e-13 8.695266728864226e-13
0006d0 83 7a 68 6d cd 3b c6 c0 e7 4c 00 f0 df 13 b3 c0
       -11383.60490137083 -4883.87475587728
0006e0 06 20 b1 62 e6 d9 a3 40 00 00 00 00 00 00 e8 bc
       2540.949971709403 -2.6645352591003757e-15
0006f0 00 00 00 00 00 00 b8 3d 00 00 00 00 00 f0 35 bd
       2.1827872842550278e-11 -7.793765632868599e-14
000700 8d e1 45 42 45 66 d6 c0 f4 46 a3 dd 9b 80 c5 40
       -22937.082169981255 11009.21770134892
000710 3b eb 81 2e 25 c8 c2 c0 00 00 00 00 00 20 33 3d
       -9616.29048179613 6.794564910705958e-14
000720 00 00 00 00 00 00 00 00 00 00 00 00 00 70 86 bd
       0.0 -2.5508484213787597e-12
000730 ab 8c 99 f0 05 38 df c0 e6 35 df 2f 50 07 a8 40
       -31968.09281004655 3075.6566152337355
000740 1f e9 0b c3 32 ce b2 c0 00 00 00 00 00 00 34 bd
       -4814.198288673796 -7.105427357601002e-14
000750 00 00 00 00 00 80 53 bd 00 00 00 00 00 5e 85 bd
       -2.7711166694643907e-13 -2.4291679778798425e-12
000760 71 7a 68 6d cd 3b c6 c0 ea 4c 00 f0 df 13 b3 40
       -11383.604901370798 4883.874755877283
000770 03 20 b1 62 e6 d9 a3 40 00 00 00 00 00 c0 32 bd
       2540.949971709402 -6.661338147750939e-14
000780 00 00 00 00 00 00 96 3d 00 00 00 00 00 00 7d bd
       5.002220859751105e-12 -1.6484591469634324e-12
000790 00 00 00 00 00 00 00 00 00 00 00 00 00 00 50 3d
       0.0 2.2737367544323206e-13
0007a0 00 00 00 00 00 00 70 bd 00 00 00 00 00 00 48 3d
       -9.094947017729282e-13 1.7053025658242404e-13
0007b0 00 00 00 00 00 d8 92 3d 00 00 00 00 00 40 6a 3d
       4.284572696633404e-12 7.460698725481052e-13
0007c0 a5 85 5d fa 5c d8 d0 c0 7c 47 b2 6b 70 9f b8 40
       -17249.452781086457 6303.4391433167
0007d0 1d 79 64 f4 25 bb bc c0 00 00 00 00 00 00 00 00
       -7355.148260383195 0.0
0007e0 00 00 00 00 00 00 34 bd 00 00 00 00 00 a0 25 bd
       -7.105427357601002e-14 -3.8413716652030416e-14
0007f0 00 00 00 00 00 dc ae 3d 00 00 00 00 00 80 52 3d
       1.4033219031261979e-11 2.6290081223123707e-13
