python-Linux/neural-sparse-linear-solvers-master/stand_small_test/6169912280110414277_61984e079cf40530cbd2961eb7fb6cfffeeb793a_b93dbbe1ca4c4504ed6434d0b0352b5a868cbef0.npz (npz, 66309 bytes, 3 tensors)

A_values f8 [16452]
000000 63 fa a2 b5 76 2d c1 41 96 4b 21 39 f4 b8 54 c1
       576384363.2732662 -5432272.892657181
000010 75 b5 5a a9 f1 d6 5a c1 33 6e 10 59 a1 18 56 c1
       -7035846.646161427 -5792389.391627836
000020 2b c4 e3 10 03 25 68 41 22 b0 8c d2 13 b7 4a c1
       12658712.527803501 -3501607.6449184576
000030 75 b5 5a a9 f1 d6 5a c1 50 1e b9 8d a7 9a c0 c1
       -7035846.646161427 -557141787.4462376
000040 19 54 77 fc 02 e2 c6 41 5e 74 c7 ff 63 e0 43 41
       767821304.932254 2605255.99827437
000050 9f 3f 90 72 50 1a 4d 41 83 35 29 ae 80 ce 44 c1
       3814560.8950271155 -2727169.3606326
000060 87 ac be e4 47 bc 56 c1 2c 26 90 1e a3 9e c6 c1
       -5959967.574137813 -758990397.1261649
000070 2c 7e 68 3b 96 43 35 c1 9f 3f 90 72 50 1a 4d 41
       -1393558.2320631845 3814560.8950271155
000080 08 df c3 ca e6 0c d7 41 aa d5 ac c9 fa 6f 6c 41
       1546885931.0604877 14909398.302347977
000090 3a 38 10 22 ae 0c 5f c1 2f 99 19 f5 10 cc c4 c1
       -8139448.532239968 -697836010.1999873
0000a0 0e 65 79 4d 37 4e 5c c1 aa d5 ac c9 fa 6f 6c 41
       -7420125.210534347 14909398.302347977
0000b0 dc d6 01 0b b8 af 46 c1 3a 38 10 22 ae 0c 5f c1
       -2973552.085993631 -8139448.532239968
0000c0 5e 74 c7 ff 63 e0 43 41 aa d5 ac c9 fa 6f 6c 41
       2605255.99827437 14909398.302347977
0000d0 18 ec 6a 28 54 d0 93 41 87 ac be e4 47 bc 56 41
       83105034.10441625 5959967.574137813
0000e0 17 e3 e1 c8 c1 77 60 41 aa d5 ac c9 fa 6f 6c c1
       8633870.277574105 -14909398.302347977
0000f0 70 87 78 5c 4d c5 72 41 5b 58 6e 2b 96 8f 51 c1
       19682517.77942604 -4603480.678609933
000100 96 4b 21 39 f4 b8 54 c1 3a 38 10 22 ae 0c 5f c1
       -5432272.892657181 -8139448.532239968
000110 fe 3f cb f7 fe 00 9c 41 2b c4 e3 10 03 25 68 c1
       117456829.9484863 -12658712.527803501
000120 74 12 0c 62 88 5f 71 41 2f 36 75 75 4e ec 57 c1
       18217094.127947286 -6271289.835279032
000130 3a 38 10 22 ae 0c 5f 41 60 63 e9 34 fb 1b 6c 41
       8139448.532239968 14737369.653489769
000140 75 b5 5a a9 f1 d6 5a c1 9f 3f 90 72 50 1a 4d 41
       -7035846.646161427 3814560.8950271155
000150 ed 9f 03 be 07 b9 85 41 25 79 9f c6 d9 fe 55 c1
       45555959.75176988 -5765991.103483473
000160 75 b5 5a a9 f1 d6 5a 41 1f f2 e2 ee fc da 61 41
       7035846.646161427 9361383.465203343
000170 9f 3f 90 72 50 1a 4d c1 a8 20 fb ce 34 75 5a 41
       -3814560.8950271155 6935763.23407761
000180 33 6e 10 59 a1 18 56 c1 2b c4 e3 10 03 25 68 c1
       -5792389.391627836 -12658712.527803501
000190 dc cb 3d e4 8f e1 c0 41 2b c4 e3 10 03 25 68 c1
       566435784.4827838 -12658712.527803501
0001a0 75 b5 5a a9 f1 d6 5a c1 22 b0 8c d2 13 b7 4a c1
       -7035846.646161427 -3501607.6449184576
0001b0 75 b5 5a a9 f1 d6 5a c1 50 1e b9 8d a7 9a c0 c1
       -7035846.646161427 -557141787.4462376
0001c0 83 35 29 ae 80 ce 44 c1 87 ac be e4 47 bc 56 41
       -2727169.3606326 5959967.574137813
0001d0 a1 03 5c 6a 13 be c6 41 87 ac be e4 47 bc 56 41
       763111124.7188607 5959967.574137813
0001e0 9f 3f 90 72 50 1a 4d 41 2c 26 90 1e a3 9e c6 c1
       3814560.8950271155 -758990397.1261649
0001f0 2c 7e 68 3b 96 43 35 c1 9f 3f 90 72 50 1a 4d 41
       -1393558.2320631845 3814560.8950271155
000200 2f 99 19 f5 10 cc c4 c1 d0 8d bf 1b 5d 1b c5 41
       -697836010.1999873 708229687.4965153
000210 aa d5 ac c9 fa 6f 6c 41 3a 38 10 22 ae 0c 5f c1
       14909398.302347977 -8139448.532239968
000220 0e 65 79 4d 37 4e 5c c1 aa d5 ac c9 fa 6f 6c 41
       -7420125.210534347 14909398.302347977
000230 dc d6 01 0b b8 af 46 c1 3a 38 10 22 ae 0c 5f c1
       -2973552.085993631 -8139448.532239968
000240 87 ac be e4 47 bc 56 c1 17 e3 e1 c8 c1 77 60 41
       -5959967.574137813 8633870.277574105
000250 87 ac be e4 47 bc 56 41 aa d5 ac c9 fa 6f 6c 41
       5959967.574137813 14909398.302347977
000260 33 b1 b2 da 2c af 8d 41 aa d5 ac c9 fa 6f 6c c1
       62252443.33725204 -14909398.302347977
000270 70 87 78 5c 4d c5 72 41 5b 58 6e 2b 96 8f 51 c1
       19682517.77942604 -4603480.678609933
000280 2b c4 e3 10 03 25 68 41 74 12 0c 62 88 5f 71 41
       12658712.527803501 18217094.127947286
000290 2b c4 e3 10 03 25 68 c1 3a 38 10 22 ae 0c 5f c1
       -12658712.527803501 -8139448.532239968
0002a0 ca 5b 2b ce 1c 74 91 41 2f 36 75 75 4e ec 57 c1
       73205555.54234233 -6271289.835279032
0002b0 3a 38 10 22 ae 0c 5f 41 60 63 e9 34 fb 1b 6c 41
       8139448.532239968 14737369.653489769
0002c0 25 79 9f c6 d9 fe 55 c1 75 b5 5a a9 f1 d6 5a c1
       -5765991.103483473 -7035846.646161427
0002d0 9f 3f 90 72 50 1a 4d 41 5f a2 4f 88 23 6b 82 41
       3814560.8950271155 38626417.03888392
0002e0 75 b5 5a a9 f1 d6 5a 41 1f f2 e2 ee fc da 61 41
       7035846.646161427 9361383.465203343
0002f0 9f 3f 90 72 50 1a 4d c1 a8 20 fb ce 34 75 5a 41
       -3814560.8950271155 6935763.23407761
000300 22 b0 8c d2 13 b7 4a c1 75 b5 5a a9 f1 d6 5a 41
       -3501607.6449184576 7035846.646161427
000310 a7 93 c9 cf 7f 38 c1 41 96 4b 21 39 f4 b8 54 c1
       577830815.5748185 -5432272.892657181
000320 fa 1d d3 ca af d8 47 41 33 6e 10 59 a1 18 56 c1
       3125599.5845677825 -5792389.391627836
000330 2b c4 e3 10 03 25 68 41 87 88 32 4d 34 12 36 c1
       12658712.527803501 -1446452.3015523271
000340 f0 4c e2 87 33 d5 4d c1 50 1e b9 8d a7 9a c0 c1
       -3910247.0615936443 -557141787.4462376
000350 2c 26 90 1e a3 9e c6 c1 f3 2f 03 2a 05 d9 d3 41
       -758990397.1261649 1331958952.0498016
000360 5e 74 c7 ff 63 e0 43 41 9f 3f 90 72 50 1a 4d 41
       2605255.99827437 3814560.8950271155
000370 83 35 29 ae 80 ce 44 c1 87 ac be e4 47 bc 56 c1
       -2727169.3606326 -5959967.574137813
000380 ce 0b 8f 57 07 d0 c0 c1 2c 7e 68 3b 96 43 35 c1
       -564137647.1175478 -1393558.2320631845
000390 9f 3f 90 72 50 1a 4d 41 0e 65 79 4d 37 4e 5c c1
       3814560.8950271155 -7420125.210534347
0003a0 aa d5 ac c9 fa 6f 6c c1 c2 10 b8 3f ac 18 d7 41
       -14909398.302347977 1549971710.8760228
0003b0 da d7 02 67 92 0d 59 c1 3a 38 10 22 ae 0c 5f c1
       -6567497.609548533 -8139448.532239968
0003c0 2f 99 19 f5 10 cc c4 c1 6a 73 63 e8 e9 8a 47 c1
       -697836010.1999873 -3085779.8155349987
0003d0 7a d3 56 2c 63 d2 5f 41 dc d6 01 0b b8 af 46 c1
       8341900.692799443 -2973552.085993631
0003e0 3a 38 10 22 ae 0c 5f c1 aa d5 ac c9 fa 6f 6c 41
       -8139448.532239968 14909398.302347977
0003f0 70 87 78 5c 4d c5 72 41 5e 74 c7 ff 63 e0 43 41
       19682517.77942604 2605255.99827437
000400 da d7 02 67 92 0d 59 c1 94 a4 f7 c7 df 02 9b 41
       -6567497.609548533 113293297.99183875
000410 87 ac be e4 47 bc 56 41 17 e3 e1 c8 c1 77 60 41
       5959967.574137813 8633870.277574105
000420 7a d3 56 2c 63 d2 5f c1 3b 0a 95 d2 0f 72 6c 41
       -8341900.692799443 14913662.580693355
000430 5b 58 6e 2b 96 8f 51 c1 2f 36 75 75 4e ec 57 c1
       -4603480.678609933 -6271289.835279032
000440 96 4b 21 39 f4 b8 54 c1 3a 38 10 22 ae 0c 5f c1
       -5432272.892657181 -8139448.532239968
000450 db 82 86 8c 7f 1d 9d 41 2b c4 e3 10 03 25 68 c1
       122118115.13135855 -12658712.527803501
000460 74 12 0c 62 88 5f 71 41 c0 2d b4 4b 09 c8 51 c1
       18217094.127947286 -4661285.182872236
000470 3a 38 10 22 ae 0c 5f 41 60 63 e9 34 fb 1b 6c 41
       8139448.532239968 14737369.653489769
000480 75 b5 5a a9 f1 d6 5a c1 1f f2 e2 ee fc da 61 41
       -7035846.646161427 9361383.465203343
000490 fa 1d d3 ca af d8 47 41 9f 3f 90 72 50 1a 4d 41
       3125599.5845677825 3814560.8950271155
0004a0 7d 13 f0 43 b9 74 8c 41 25 79 9f c6 d9 fe 55 c1
       59676456.49222467 -5765991.103483473
0004b0 f0 4c e2 87 33 d5 4d 41 79 67 d7 4a 60 c8 5a 41
       3910247.0615936443 7020929.169397228
0004c0 9f 3f 90 72 50 1a 4d c1 a8 20 fb ce 34 75 5a 41
       -3814560.8950271155 6935763.23407761
0004d0 22 b0 8c d2 13 b7 4a c1 75 b5 5a a9 f1 d6 5a 41
       -3501607.6449184576 7035846.646161427
0004e0 33 6e 10 59 a1 18 56 c1 2b c4 e3 10 03 25 68 c1
       -5792389.391627836 -12658712.527803501
0004f0 21 65 64 fe 98 ec c0 41 2b c4 e3 10 03 25 68 c1
       567882236.7843362 -12658712.527803501
000500 fa 1d d3 ca af d8 47 41 87 88 32 4d 34 12 36 c1
       3125599.5845677825 -1446452.3015523271
000510 f0 4c e2 87 33 d5 4d c1 50 1e b9 8d a7 9a c0 c1
       -3910247.0615936443 -557141787.4462376
000520 2c 26 90 1e a3 9e c6 c1 83 35 29 ae 80 ce 44 c1
       -758990397.1261649 -2727169.3606326
000530 87 ac be e4 47 bc 56 41 b8 87 f5 60 0d c7 d3 41
       5959967.574137813 1327248771.8364086
000540 87 ac be e4 47 bc 56 41 9f 3f 90 72 50 1a 4d 41
       5959967.574137813 3814560.8950271155
000550 ce 0b 8f 57 07 d0 c0 c1 2c 7e 68 3b 96 43 35 c1
       -564137647.1175478 -1393558.2320631845
000560 9f 3f 90 72 50 1a 4d 41 0e 65 79 4d 37 4e 5c c1
       3814560.8950271155 -7420125.210534347
000570 aa d5 ac c9 fa 6f 6c c1 2f 99 19 f5 10 cc c4 c1
       -14909398.302347977 -697836010.1999873
000580 43 f1 a7 05 e8 32 c5 41 da d7 02 67 92 0d 59 c1
       711315467.3120502 -6567497.609548533
000590 3a 38 10 22 ae 0c 5f c1 6a 73 63 e8 e9 8a 47 c1
       -8139448.532239968 -3085779.8155349987
0005a0 7a d3 56 2c 63 d2 5f 41 dc d6 01 0b b8 af 46 c1
       8341900.692799443 -2973552.085993631
0005b0 3a 38 10 22 ae 0c 5f c1 aa d5 ac c9 fa 6f 6c 41
       -8139448.532239968 14909398.302347977
0005c0 70 87 78 5c 4d c5 72 41 87 ac be e4 47 bc 56 c1
       19682517.77942604 -5959967.574137813
0005d0 17 e3 e1 c8 c1 77 60 41 87 ac be e4 47 bc 56 41
       8633870.277574105 5959967.574137813
0005e0 da d7 02 67 92 0d 59 c1 16 11 e6 0c 22 0a 96 41
       -6567497.609548533 92440707.22467455
0005f0 7a d3 56 2c 63 d2 5f c1 3b 0a 95 d2 0f 72 6c 41
       -8341900.692799443 14913662.580693355
000600 5b 58 6e 2b 96 8f 51 c1 2f 36 75 75 4e ec 57 c1
       -4603480.678609933 -6271289.835279032
000610 2b c4 e3 10 03 25 68 41 74 12 0c 62 88 5f 71 41
       12658712.527803501 18217094.127947286
000620 2b c4 e3 10 03 25 68 c1 3a 38 10 22 ae 0c 5f c1
       -12658712.527803501 -8139448.532239968
000630 a6 9e e6 62 9d 90 92 41 c0 2d b4 4b 09 c8 51 c1
       77866840.72521457 -4661285.182872236
000640 3a 38 10 22 ae 0c 5f 41 60 63 e9 34 fb 1b 6c 41
       8139448.532239968 14737369.653489769
000650 75 b5 5a a9 f1 d6 5a c1 1f f2 e2 ee fc da 61 41
       -7035846.646161427 9361383.465203343
000660 25 79 9f c6 d9 fe 55 c1 fa 1d d3 ca af d8 47 41
       -5765991.103483473 3125599.5845677825
000670 9f 3f 90 72 50 1a 4d 41 f0 15 3c 0e d5 26 89 41
       3814560.8950271155 52746913.77933872
000680 f0 4c e2 87 33 d5 4d 41 79 67 d7 4a 60 c8 5a 41
       3910247.0615936443 7020929.169397228
000690 9f 3f 90 72 50 1a 4d c1 a8 20 fb ce 34 75 5a 41
       -3814560.8950271155 6935763.23407761
0006a0 87 88 32 4d 34 12 36 c1 f0 4c e2 87 33 d5 4d 41
       -1446452.3015523271 3910247.0615936443
0006b0 7b 18 2d 17 c8 2b c1 41 96 4b 21 39 f4 b8 54 c1
       576163886.3523096 -5432272.892657181
0006c0 b0 b7 96 4e bc 6f 24 c1 33 6e 10 59 a1 18 56 c1
       -669662.1534936335 -5792389.391627836
0006d0 2b c4 e3 10 03 25 68 41 c2 08 23 6c b6 fe 3b c1
       12658712.527803501 -1834678.4224095796
0006e0 6e fd c3 4d 91 78 51 c1 50 1e b9 8d a7 9a c0 c1
       -4579909.215087278 -557141787.4462376
0006f0 ce 0b 8f 57 07 d0 c0 c1 c7 9b 19 88 32 a4 d1 41
       -564137647.1175478 1183894048.400133
000700 5e 74 c7 ff 63 e0 43 41 9f 3f 90 72 50 1a 4d 41
       2605255.99827437 3814560.8950271155
000710 83 35 29 ae 80 ce 44 c1 87 ac be e4 47 bc 56 c1
       -2727169.3606326 -5959967.574137813
000720 d3 fd bc da fd 34 c2 c1 2c 7e 68 3b 96 43 35 c1
       -610925493.4764961 -1393558.2320631845
000730 9f 3f 90 72 50 1a 4d 41 6a 73 63 e8 e9 8a 47 c1
       3814560.8950271155 -3085779.8155349987
000740 7a d3 56 2c 63 d2 5f c1 e5 32 76 c9 46 0b d7 41
       -8341900.692799443 1546459941.8468564
000750 40 f7 fb f8 83 95 35 41 3a 38 10 22 ae 0c 5f c1
       1414531.9725946933 -8139448.532239968
000760 2f 99 19 f5 10 cc c4 c1 05 11 37 17 82 d1 4d c1
       -697836010.1999873 -3908356.1813679957
000770 a5 e8 4a 15 e2 9b 62 41 dc d6 01 0b b8 af 46 c1
       9756432.665394137 -2973552.085993631
000780 3a 38 10 22 ae 0c 5f c1 7a d3 56 2c 63 d2 5f 41
       -8139448.532239968 8341900.692799443
000790 3b 0a 95 d2 0f 72 6c 41 5e 74 c7 ff 63 e0 43 41
       14913662.580693355 2605255.99827437
0007a0 40 f7 fb f8 83 95 35 41 16 f9 8b 7f 90 32 99 41
       1414531.9725946933 105686047.88669237
0007b0 87 ac be e4 47 bc 56 41 17 e3 e1 c8 c1 77 60 41
       5959967.574137813 8633870.277574105
0007c0 a5 e8 4a 15 e2 9b 62 c1 3c bf 4c 77 a6 ad 6e 41
       -9756432.665394137 16084275.728118531
0007d0 5b 58 6e 2b 96 8f 51 c1 c0 2d b4 4b 09 c8 51 c1
       -4603480.678609933 -4661285.182872236
0007e0 96 4b 21 39 f4 b8 54 c1 3a 38 10 22 ae 0c 5f c1
       -5432272.892657181 -8139448.532239968
0007f0 cf 11 b5 bc d3 d2 9c 41 2b c4 e3 10 03 25 68 c1
       120894703.17682575 -12658712.527803501

x f8 [1524]
000000 6d c2 1d de 9a 30 e2 be ac ee 67 40 49 27 d4 be
       -8.67360262521538e-06 -4.804959650158275e-06
000010 b6 2d 1f 5b e7 41 07 bf 93 f0 09 0b ce a7 02 bf
       -4.436003963767135e-05 -3.5582518994354714e-05
000020 ad 1a 42 35 a7 e7 09 3f 6f b3 55 83 16 9c b4 be
       4.940966633264674e-05 -1.2284349513960862e-06
000030 a5 85 aa 0d 1f 82 05 3f cf c7 6c 6a ee 01 be 3e
       4.102380053906265e-05 1.7885890117416773e-06
000040 4a db 03 dd 56 b1 11 bf 10 97 6e c8 73 69 0b bf
       -6.749241515878221e-05 -5.2284093775596435e-05
000050 d8 24 c0 67 ca a6 1e 3f 20 57 fe a3 c4 dc 9d be
       0.00011692629226457989 -4.4498407091843444e-07
000060 8e 92 52 7a d8 45 94 3e 3c 4f c3 39 44 33 d3 be
       3.0208877383812615e-07 -4.577698657654534e-06
000070 3a ab 7f 8e e2 cc 10 bf 0e ce 61 1f 44 7e f5 be
       -6.4088180465366e-05 -2.0497538536236015e-05
000080 88 f4 71 fb 61 fe 09 3f bf ec 11 e7 27 64 b0 be
       4.9579014949488e-05 -9.769936719906223e-07
000090 8c 14 c9 c9 97 da 00 3f 17 24 54 16 c8 60 b3 3e
       3.214622231388032e-05 1.1550219707909395e-06
0000a0 af 62 d5 5b 80 0f 1a bf a3 93 76 66 84 d8 f9 be
       -9.941311778528348e-05 -2.464844729179221e-05
0000b0 de 50 b8 94 9e 33 1e 3f ed 4c 69 47 52 ce 8c be
       0.00011521010781506992 -2.1462099982164864e-07
0000c0 a5 d9 98 ba 2d 11 bf 3e b2 41 49 4f 7e 88 d1 be
       1.8517436991667715e-06 -4.180235226928043e-06
0000d0 4f 88 07 45 33 3d 11 bf 8e c8 67 c6 ef 58 e3 3e
       -6.576180863463006e-05 9.22556337188223e-06
0000e0 2a 97 35 26 23 4f 09 3f 3e 1d 4b 42 83 9f 76 be
       4.827333466543426e-05 -8.427760229543834e-08
0000f0 2c 45 a8 2d 2a e8 01 3f b0 cb 81 6b b2 72 7b be
       3.415468900781269e-05 -1.0225189839441524e-07
000100 d7 5e 24 29 7b ba 1a bf f4 f8 71 ca 74 cd e7 3e
       -0.00010196091378522218 1.1349946659186258e-05
000110 a4 5f d9 f0 0a a0 1b 3f 0b de 38 36 02 15 b3 be
       0.0001053816488022484 -1.1373797058742884e-06
000120 40 52 ee e0 6e bf ab 3e b7 42 6d d8 a6 7e d0 be
       8.269484527029337e-07 -3.932650890118328e-06
000130 db 45 9c 06 ce ad 0f bf bb 25 43 fc 61 1e ef 3e
       -6.042275420104953e-05 1.4838544196388013e-05
000140 16 bd 99 a3 88 48 09 3f 9e d7 d6 f9 21 0e 84 be
       4.822413434346134e-05 -1.494229281814208e-07
000150 74 f1 8a 85 64 6f 01 3f 23 89 db 9e 55 0d b1 be
       3.32548667691693e-05 -1.0163836309742226e-06
000160 00 ef 1b d7 fc 6e 18 bf 1e e8 0f d3 a0 ca f5 3e
       -9.320657934702367e-05 2.0782009588750474e-05
000170 b5 51 aa f2 34 5e 1b 3f e9 53 08 6f 89 fe b4 be
       0.00010440061729816745 -1.2513568742368277e-06
000180 4b 2a ca 7b f4 be b3 3e cb 7e 10 da 9d 45 d0 be
       1.176948429523278e-06 -3.879532784828182e-06
000190 04 f8 15 9e f8 63 0e bf 91 6e c3 a2 98 69 a4 3e
       -5.79653021857002e-05 6.083394672689584e-07
0001a0 56 a0 98 13 56 4a 0a 3f 5c cf 70 0f 7f 9d 59 be
       5.014491257454626e-05 -2.385603267377823e-08
0001b0 57 37 4c 45 e0 32 03 3f e7 4f bb 43 ed 12 b8 be
       3.661868018954458e-05 -1.4349182170707592e-06
0001c0 c5 59 7d 7f cd 97 17 bf 4b a1 30 2d f4 be e9 be
       -9.000007400792379e-05 -1.2276608151465812e-05
0001d0 15 4b c0 c7 10 d1 1d 3f 35 5f 7b e7 2e 9c a5 be
       0.00011374154013336594 -6.440308899192386e-07
0001e0 ba b8 1d e8 90 c4 c7 3e 58 66 1b 19 cb 8e cf be
       2.833346855738483e-06 -3.761981312117018e-06
0001f0 81 2e 59 bf 03 d5 0a bf 92 8f 51 a5 2d 5d b6 be
       -5.117814718555176e-05 -1.3329969495096242e-06
000200 70 c4 24 79 e6 00 0c 3f b9 d1 60 f7 28 ed c0 be
       5.341246937219039e-05 -2.017784875208407e-06
000210 bf f7 13 58 08 9a 01 3f 09 df ea 3c 89 eb bf be
       3.357255901369161e-05 -1.9025840064922255e-06
000220 91 59 09 08 80 95 13 bf 53 60 4d 1c d9 51 0e 3f
       -7.470697347264898e-05 5.783027476152836e-05
000230 e4 66 e9 6a 21 b6 1e 3f cc 3b 7e 81 67 f4 b8 be
       0.00011715487446775256 -1.4874162896671092e-06
000240 94 f2 0c 2f 7b 6c f4 3e a0 0f 98 e6 68 4d d1 be
       1.94776102404476e-05 -4.1252093097055595e-06
000250 3e d6 45 b6 3f c7 f8 be f5 08 2d e3 03 2c f1 3e
       -2.3630443494812444e-05 1.6376432721240117e-05
000260 53 28 59 3d 3c 64 1a 3f 31 24 b6 b5 b2 3e b8 be
       0.00010067575143427156 -1.4451095101417257e-06
000270 6d ff 02 ff e5 6e f0 3e d3 62 03 60 3e 0c d2 be
       1.5671917879655552e-05 -4.302937213839566e-06
000280 9e a8 35 2b 9f 3b f7 be 56 9b cf 12 0d bb e5 be
       -2.215661761565594e-05 -1.0361990087260551e-05
000290 61 db 6f ac 0a c8 18 3f fd dd ed 83 fa 09 c5 3e
       9.453358789799977e-05 2.5080417169161857e-06
0002a0 90 09 64 51 2e be c6 3e b7 1c 4d 59 a2 35 d3 be
       2.7111642665344314e-06 -4.5799037209977116e-06
0002b0 15 57 4a bf 46 aa 1d bf 39 a0 fc 52 9c 91 09 bf
       -0.00011316353613674238 -4.876859963892682e-05
0002c0 4e 8f 39 5c 89 63 0d 3f 38 2a c4 56 63 29 c2 3e
       5.605471554018128e-05 2.165040021156054e-06
0002d0 cf 9f 36 96 eb 47 e7 3e e0 51 cc d7 10 68 08 bf
       1.1101216563627531e-05 -4.6551717764273725e-05
0002e0 d9 db ce 8a 99 83 2b bf 16 0a e1 cf f1 b2 15 bf
       -0.00020991563124336704 -8.277512458313598e-05
0002f0 4d 48 d5 0f 38 5b 0b 3f 64 9d 1a 1b 16 0f c8 3e
       5.2178047534782135e-05 2.868048078880492e-06
000300 fd ef a7 a2 b7 27 0d 3f ce 6c 21 bc cd 67 0e bf
       5.5609027487663034e-05 -5.7993856459070966e-05
000310 4f e6 21 54 a6 a5 31 bf 2b 3b 88 3d f6 be 12 bf
       -0.00026927290685527667 -7.151010448345751e-05
000320 32 10 3b 18 db e6 08 3f cc c6 11 73 49 ef bb 3e
       4.749637721837597e-05 1.6650387346908234e-06
000330 08 af 44 ca 70 ce 15 3f 2f 95 07 54 bf 67 11 bf
       8.318484703256576e-05 -6.639580988794935e-05
000340 c7 e3 46 6c aa a1 33 bf 52 b7 ea 95 12 19 25 bf
       -0.00029955301968303784 -0.0001609645068660301
000350 e8 d4 5f 60 9c e1 1e 3f 38 be b5 16 ee c7 b9 3e
       0.00011780278154545668 1.5366659578928e-06
000360 2c 30 e5 09 16 21 bb be fc 25 38 4a 2c bc d1 be
       -1.6170288642146115e-06 -4.2283656145418944e-06
000370 aa 33 76 3f ef 32 1c bf 20 16 f8 4c a8 ca 16 3f
       -0.00010757050755767655 8.694317079268503e-05
000380 b7 92 cd 10 a7 8d 0b 3f 67 ba 92 a4 36 a5 97 3e
       5.2553807200072236e-05 3.5234339585801846e-07
000390 6d 33 7a 2a 27 5c dc 3e c4 c0 61 92 a6 47 08 bf
       6.76154437652126e-06 -4.6310206287426765e-05
0003a0 53 22 31 6f 7f c2 2a bf 28 f1 4f 64 d4 3c 17 3f
       -0.00020416074366582052 8.864446961348983e-05
0003b0 2e 43 ed 9f 58 77 0b 3f 98 b3 c3 cf 94 fa c4 3e
       5.238761149562451e-05 2.5008717995295565e-06
0003c0 0d 0a e9 b4 d7 b2 08 3f cd 19 59 69 c1 4c 0e bf
       4.710884842442165e-05 -5.779233212570602e-05
0003d0 e1 3b d7 6a ce 43 31 bf dd 3e 9e c4 04 ac 13 3f
       -0.0002634409855461467 7.504252530865113e-05
0003e0 ed ac ec 94 68 48 08 3f ff 0e f8 fc 3b d8 ba 3e
       4.631585271960303e-05 1.600066742103148e-06
0003f0 0f 07 fd 03 61 10 13 3f 3c 99 2d 6e 22 ef 11 bf
       7.272331367593982e-05 -6.841323515302961e-05
000400 f5 5e 9f 1b 41 3f 33 bf 04 cf 30 66 9b 79 25 3f
       -0.00029368724392274333 0.00016384145701097569
000410 94 46 41 c8 18 b2 1e 3f 7d 4d 78 04 0c 7f b9 3e
       0.00011709476717782836 1.5196965409456182e-06
000420 52 93 47 d1 ad 31 de be a9 ef 48 1f e0 d5 d8 be
       -7.1988245235785325e-06 -5.9212329586686525e-06
000430 e7 b1 1f 2d 56 8a 21 bf 76 62 13 0b 33 84 03 bf
       -0.00013382245975836137 -3.722458621674845e-05
000440 b8 9f 67 20 d1 a5 ed be de 5a 6d 55 a9 8b a7 be
       -1.4137135633654363e-05 -7.017121487023697e-07
000450 b4 df 7f 30 d4 d4 03 3f 80 49 10 88 62 b1 f3 be
       3.782532263579778e-05 -1.878062221656032e-05
000460 50 73 fc aa 1e d8 30 bf e2 f2 b8 61 76 ea 04 bf
       -0.0002570223687017774 -3.989385387768108e-05
000470 ed 8c b4 0d 24 03 f9 be f8 88 c1 75 26 ce a2 be
       -2.3853558429054565e-05 -5.604408488508672e-07
000480 87 47 9f 77 ea 79 f2 be 8d 05 78 ad b9 27 e8 be
       -1.7620309769323806e-05 -1.1518085940134446e-05
000490 4e 4a ea c7 8f 0b 36 bf 3d a7 fc f7 53 e3 08 bf
       -0.00033638248707138364 -4.747009279377913e-05
0004a0 a2 82 22 15 0d 83 fe 3e e8 ec 55 c3 8a 42 9a 3e
       2.9098432897558598e-05 3.913034477204446e-07
0004b0 90 ce 9b 9d 99 65 f9 3e 05 6e 52 e0 91 15 1d 3f
       2.4220347632343683e-05 0.00011094763620394389
0004c0 f0 b9 59 af a2 fa 39 bf 55 0d 7b ab a2 6c 11 bf
       -0.0003964087658009643 -6.646864755581923e-05
0004d0 6b f7 be 75 9a 70 ff 3e 5c 27 8d 01 14 5b a6 3e
       2.9983384010049735e-05 6.662539845183734e-07
0004e0 03 10 cf d2 11 cb 08 3f f4 2d ca c8 c4 83 28 3f
       4.7289353779983465e-05 0.0001870324816944793
0004f0 81 3e 81 bf 46 b5 3b bf e4 66 53 b2 99 83 19 bf
       -0.000422792217709557 -9.732843007572881e-05
000500 4e 32 d9 1a 0f 3e 0f 3f 40 a9 c1 c0 36 9c a9 3e
       5.959018322396603e-05 7.632437486586397e-07
000510 c4 5d 1c ed 51 f9 c1 3e 44 f1 7b 21 13 0e d8 be
       2.1426566058182015e-06 -5.735154011917845e-06
000520 f0 02 35 a8 d2 16 25 bf a3 c5 ee 33 f8 be f2 be
       -0.0001608974599580852 -1.78775546790293e-05
000530 d3 7e 8e d9 1c 97 ed be bf 63 18 76 84 9e a5 be
       -1.4109746915568811e-05 -6.443026274199184e-07
000540 16 1a c0 3a ee 10 fe 3e d7 d9 8c be 60 9f f3 be
       2.8673300832360726e-05 -1.8713540984560892e-05
000550 5f b4 58 f2 35 05 34 bf 1f 51 1a 15 c2 49 f0 be
       -0.0003054863649108504 -1.553355952539734e-05
000560 6a 89 bc a5 38 49 f9 be 35 d3 9f d3 43 2d a0 be
       -2.4114628430224444e-05 -4.821066916781485e-07
000570 ad 35 52 1e 59 ae f4 be ef cd 19 20 5f ca e8 be
       -1.9722983684069477e-05 -1.182103824535257e-05
000580 19 e9 1b 91 73 e6 39 bf a8 68 e5 26 f0 79 f9 be
       -0.00039520570236074994 -2.4296112706913856e-05
000590 40 c0 07 ee c8 60 00 3f 81 09 99 c6 10 ee b1 be
       3.123868168930554e-05 -1.0687079118476151e-06
0005a0 fb c1 ac a7 2f 34 f6 3e 8f e0 0f 92 83 30 1d 3f
       2.1175243527684126e-05 0.00011134913485466774
0005b0 ab 61 52 e2 3a d7 3d bf 55 f3 b9 5d 3d 42 02 3f
       -0.00045533359145502145 3.482579969913436e-05
0005c0 e6 01 a5 d0 7a d6 fe 3e 60 97 09 49 b6 33 a1 3e
       2.940922880978634e-05 5.126595557624577e-07
0005d0 34 40 b3 01 cf 0b 07 3f 1c b1 88 76 9e 68 28 3f
       4.395699962744839e-05 0.00018622335780216985
0005e0 78 a2 43 ac d7 91 3f bf fc a7 5d f4 bc cf 11 3f
       -0.00048171534969169245 6.794539248536341e-05
0005f0 b1 ea 24 c0 1e 3a 0f 3f 8c 52 36 2f d3 1c a9 3e
       5.956083625098996e-05 7.484137242602832e-07
000600 43 22 bc 50 78 25 cd 3e 8e 06 d4 1d 4b a9 d6 be
       3.4745177169874196e-06 -5.402875527639495e-06
000610 0d ff 60 b1 ea ce 1d bf 84 b2 e4 02 d2 f5 ec 3e
       -0.00011370952083300194 1.3809316524581986e-05
000620 4a af 44 9f 22 b1 f0 be 54 3e 32 a8 91 da 53 3e
       -1.5918669263800194e-05 1.8490278208342012e-08
000630 51 3c 28 b3 1f 43 00 3f 25 c4 5d 6a a0 8a f3 be
       3.101768961155021e-05 -1.863623642556571e-05
000640 b9 c9 73 d5 13 2f 2a bf a5 17 27 4a 0c 6f f1 3e
       -0.0001997672759227029 1.6626149440111507e-05
000650 e2 77 8b 06 0f d6 00 bf 5e fe 14 ae 39 7d b3 be
       -3.211243967425594e-05 -1.1616445408506818e-06
000660 67 9c 73 7b da 03 df 3e e8 43 5a 25 02 ba eb be
       7.394564753605057e-06 -1.3221070882781267e-05
000670 76 55 f7 82 b1 65 2e bf 20 b1 37 8e 81 57 01 3f
       -0.00023191253556712935 3.307689783213692e-05
000680 7c ee 8e 3b 06 f7 0d 3f 14 70 fa 2b 49 3e c4 be
       5.7153585152983224e-05 -2.4131898895395855e-06
000690 53 21 0b 32 56 24 c4 3e 85 f4 6e fb 64 c4 d5 be
       2.4011063860277008e-06 -5.189696756721937e-06
0006a0 32 e2 65 52 76 ec 1b bf ed 22 48 82 fd 67 e8 3e
       -0.00010652038745274302 1.1637788767353155e-05
0006b0 05 aa bc 47 ae d6 f0 be 28 6b 08 b5 a4 fb 56 3e
       -1.605853729739518e-05 2.14045699516377e-08
0006c0 94 57 95 3f 0b 91 ff 3e 05 72 ed 24 c7 d7 f3 be
       3.0104234587234236e-05 -1.8923647356105053e-05
0006d0 90 13 4a 8d 50 7a 28 bf 9c 46 9e 46 9f da d7 3e
       -0.0001867507295580076 5.687235082778342e-06
0006e0 5a d5 de 56 02 a0 fd be fe 66 cd a0 57 8a b0 be
       -2.825263566537859e-05 -9.858846425542566e-07
0006f0 93 35 88 3f 04 b9 f8 3e 66 2d 49 6b a4 68 ed be
       2.357742411800629e-05 -1.4023188989706596e-05
000700 62 0a 54 36 fa 45 2c bf d9 29 c1 90 82 70 da be
       -0.00021570853565585068 -6.303666179328286e-06
000710 a0 2b d3 3b 33 0c 0b 3f 80 42 01 ac 27 71 75 3e
       5.1589311149755806e-05 7.987771777460594e-08
000720 35 26 63 19 74 ab c8 3e 5b d8 e7 ee ee 08 d5 be
       2.940862212506813e-06 -5.015109975739237e-06
000730 81 ea 4f 10 c0 a7 23 bf 94 48 b8 d5 4d 5f da be
       -0.0001499578430922029 -6.2876418627390856e-06
000740 be 11 99 1d cf 4c ed be 4a ea 8f a0 71 09 74 be
       -1.3971345583681994e-05 -7.464323216458817e-08
000750 df 4e 6e 10 d6 76 01 3f 47 dc 27 dd 3e 07 f4 be
       3.331032535594329e-05 -1.910047815020476e-05
000760 77 56 bc c3 6e b2 32 bf 0c e3 1a f7 1a fe ef be
       -0.0002852936192863984 -1.5255259970246782e-05
000770 b4 fe df 29 36 30 f6 be 8c 1d ef b9 21 ea a9 be
       -2.1160437079003044e-05 -7.723145819476766e-07
000780 b6 c4 c3 99 60 7e ed 3e 52 91 d7 17 d2 c0 ee be
       1.4063673738880889e-05 -1.4664271243477207e-05
000790 65 e4 83 b5 63 3c 38 bf 17 b4 1f e2 fe 1e f4 be
       -0.0003698104315073613 -1.918895407719911e-05
0007a0 ca c1 a4 22 43 bb 01 3f 3a eb 6d c9 60 36 cb 3e
       3.382013922459714e-05 3.243972581610212e-06
0007b0 27 13 c0 a4 fa 0f f8 3e 87 81 da a1 7c 93 0e bf
       2.294771029200389e-05 -5.831932160771645e-05
0007c0 3d f2 c7 00 c3 10 3c bf d3 54 98 3d dd e8 07 bf
       -0.0004282451707522705 -4.5603992202250574e-05
0007d0 32 26 68 5c 5d f7 fc 3e f5 e6 6d 34 fb a0 d4 3e
       2.7624386143931634e-05 4.918297071715548e-06
0007e0 5d 66 c2 ef 94 b1 1c 3f b4 a9 69 91 47 84 16 bf
       0.00010945769821759642 -8.58944589282932e-05
0007f0 f1 4b b8 e1 bb bb 3d bf 84 26 b0 b8 a2 81 12 bf
       -0.00045369469600692244 -7.059627220953364e-05

b f8 [1524]
000000 00 00 00 00 00 00 70 bd 00 00 00 00 00 2c 6f bd
       -9.094947017729282e-13 -8.859579736508749e-13
000010 62 5a 19 0c c2 42 d5 c0 da 84 dc ed 9b 28 aa c0
       -21771.031988466515 -3348.304549113481
000020 4b 96 e8 f3 ec 45 b8 40 00 00 00 00 00 00 2e 3d
       6213.925596749013 5.3290705182007514e-14
000030 00 00 00 00 00 00 a0 bd 00 00 00 00 00 00 35 bd
       -7.275957614183426e-12 -7.460698725481052e-14
000040 76 b1 9e 07 b0 d7 d0 c0 da 84 dc ed 9b 28 aa c0
       -17246.750465081503 -3348.304549113481
000050 50 96 e8 f3 ec 45 b8 40 00 00 00 00 00 40 25 3d
       6213.925596749017 3.774758283725532e-14
000060 00 00 00 00 00 00 60 bd 00 00 00 00 00 a0 3e 3d
       -4.547473508864641e-13 1.0880185641326534e-13
000070 cd c3 d8 c7 39 d4 db c0 10 c0 81 11 eb 30 a5 c0
       -28496.90282267686 -2712.4591179415656
000080 4a 96 e8 f3 ec 45 b8 40 00 00 00 00 00 00 d0 3c
       6213.925596749012 8.881784197001252e-16
000090 00 00 00 00 00 00 00 00 00 00 00 00 00 40 57 3d
       0.0 3.304023721284466e-13
0000a0 e8 1a 5e c3 27 69 d7 c0 0e c0 81 11 eb 30 a5 c0
       -23972.621299291874 -2712.4591179415647
0000b0 4e 96 e8 f3 ec 45 b8 40 00 00 00 00 00 80 14 3d
       6213.925596749015 1.8207657603852567e-14
0000c0 00 00 00 00 00 00 00 00 00 00 00 00 c0 87 78 3d
       0.0 1.3943846077779654e-12
0000d0 e4 b0 e9 86 20 03 dd c0 14 03 be 36 40 e6 8b 40
       -29708.50823442721 892.7813544125261
0000e0 4b 96 e8 f3 ec 45 b8 40 00 00 00 00 00 80 ef 3c
       6213.925596749013 3.497202527569243e-15
0000f0 00 00 00 00 00 00 a0 3d 00 00 00 00 00 18 61 bd
       7.275957614183426e-12 -4.858335955759685e-13
000100 f0 07 6f 82 0e 98 d8 c0 22 03 be 36 40 e6 8b 40
       -25184.226711042167 892.7813544125277
000110 52 96 e8 f3 ec 45 b8 40 00 00 00 00 00 80 34 bd
       6213.925596749019 -7.283063041541027e-14
000120 00 00 00 00 00 00 50 3d 00 00 00 00 e0 ca 84 bd
       2.2737367544323206e-13 -2.363831352880652e-12
000130 3d fe ad 8d 67 43 db c0 d1 a0 c3 f4 67 c4 9d 40
       -27917.618022440223 1905.10151963872
000140 4e 96 e8 f3 ec 45 b8 40 00 00 00 00 00 e0 10 3d
       6213.925596749015 1.4988010832439613e-14
000150 00 00 00 00 00 00 90 bd 00 00 00 00 00 c0 30 3d
       -3.637978807091713e-12 5.950795411990839e-14
000160 48 55 33 89 55 d8 d6 c0 d5 a0 c3 f4 67 c4 9d 40
       -23393.336499055178 1905.101519638721
000170 49 96 e8 f3 ec 45 b8 40 00 00 00 00 00 00 0e 3d
       6213.925596749011 1.3322676295501878e-14
000180 00 00 00 00 00 00 50 bd 00 00 00 00 40 d1 7b 3d
       -2.2737367544323206e-13 1.5812351428223792e-12
000190 03 61 61 dc 96 f0 d9 c0 16 5c 83 4b a4 0f 5a 40
       -26562.357200951326 104.2444027693567
0001a0 49 96 e8 f3 ec 45 b8 40 00 00 00 00 00 00 d4 3c
       6213.925596749011 1.1102230246251565e-15
0001b0 00 00 00 00 00 00 90 3d 00 00 00 00 00 e0 30 3d
       3.637978807091713e-12 5.995204332975845e-14
0001c0 13 b8 e6 d7 84 85 d5 c0 42 5c 83 4b a4 0f 5a 40
       -22038.0756775663 104.24440276935732
0001d0 4e 96 e8 f3 ec 45 b8 40 00 00 00 00 00 40 42 bd
       6213.925596749015 -1.2967404927621828e-13
0001e0 00 00 00 00 00 00 60 3d 00 00 00 00 00 4c 6c bd
       4.547473508864641e-13 -8.042455590384634e-13
0001f0 23 c3 93 19 cd c9 d9 c0 da 76 0c 7b 8c 6c 58 40
       -26407.204686108173 97.69607425896848
000200 4e 96 e8 f3 ec 45 b8 40 00 00 00 00 00 c0 38 bd
       6213.925596749015 -8.79296635503124e-14
000210 00 00 00 00 00 00 90 bd 00 00 00 00 00 10 53 3d
       -3.637978807091713e-12 2.708944180085382e-13
000220 4f 01 63 15 c6 b3 d0 c0 d6 d8 f0 d4 45 ad a8 40
       -17103.09505534294 3158.636390234441
000230 4d 96 e8 f3 ec 45 b8 40 00 00 00 00 00 00 28 3d
       6213.925596749014 4.263256414560601e-14
000240 00 00 00 00 00 00 90 3d 00 00 00 00 00 b8 50 bd
       3.637978807091713e-12 -2.375877272697835e-13
000250 66 7b 21 7b 40 88 d3 c0 2a 46 50 b4 a1 34 90 40
       -20001.007515306956 1037.1579144041848
000260 46 96 e8 f3 ec 45 b8 40 00 00 00 00 00 40 1e bd
       6213.925596749008 -2.6867397195928788e-14
000270 00 00 00 00 00 00 70 3d 00 00 00 00 00 a4 73 3d
       9.094947017729282e-13 1.1164402735630574e-12
000280 ab 11 a0 92 07 b2 d2 c0 5c 55 48 ea 6b 06 43 c0
       -19144.11832429624 -38.05016830951601
000290 49 96 e8 f3 ec 45 b8 40 00 00 00 00 00 00 1e 3d
       6213.925596749011 2.6645352591003757e-14
0002a0 00 00 00 00 00 00 50 bd 00 00 00 00 00 a8 88 bd
       -2.2737367544323206e-13 -2.8030910925735952e-12
0002b0 07 3e f8 11 c2 96 da c0 0f a6 ff 3e ec 8d ac c0
       -27227.03234678323 -3654.961418141385
0002c0 4c 96 e8 f3 ec 45 b8 40 00 00 00 00 00 00 e0 3c
       6213.9255967490135 1.7763568394002505e-15
0002d0 00 00 00 00 00 00 80 bd 00 00 00 00 80 ce a4 bd
       -1.8189894035458565e-12 -9.461764705065434e-12
0002e0 4b 5e b7 d8 5b 5e d7 c0 b6 8c cc 42 cb 54 b6 c0
       -23929.435102312167 -5716.7939880221875
0002f0 4d 96 e8 f3 ec 45 b8 40 00 00 00 00 00 00 29 3d
       6213.925596749014 4.440892098500626e-14
000300 00 00 00 00 00 00 90 bd 00 00 00 00 00 ec 9b bd
       -3.637978807091713e-12 -6.348699344016495e-12
000310 55 e4 47 51 2f df d7 c0 b8 8c cc 42 cb 54 b6 c0
       -24444.739335988026 -5716.793988022189
000320 49 96 e8 f3 ec 45 b8 40 00 00 00 00 00 00 1c 3d
       6213.925596749011 2.4868995751603507e-14
000330 00 00 00 00 00 00 a0 bd 00 00 00 00 80 12 a4 bd
       -7.275957614183426e-12 -9.127809619258187e-12
000340 e8 6b d9 6e c7 d7 d2 c0 b5 8c cc 42 cb 54 b6 c0
       -19295.116140704515 -5716.793988022187
000350 4c 96 e8 f3 ec 45 b8 40 00 00 00 00 00 80 47 bd
       6213.9255967490135 -1.6697754290362354e-13
000360 00 00 00 00 00 00 40 3d 00 00 00 00 00 a0 75 3d
       1.1368683772161603e-13 1.2292389328649733e-12
000370 cf 8e c3 fa 05 c2 d6 c0 b8 8c cc 42 cb 54 b6 40
       -23304.093430413686 5716.793988022189
000380 4a 96 e8 f3 ec 45 b8 40 00 00 00 00 00 00 00 00
       6213.925596749012 0.0
000390 00 00 00 00 00 00 00 00 00 00 00 00 00 c4 89 3d
       0.0 2.929212428171013e-12
0003a0 47 5e b7 d8 5b 5e d7 c0 ba 8c cc 42 cb 54 b6 40
       -23929.435102312153 5716.793988022191
0003b0 4a 96 e8 f3 ec 45 b8 40 00 00 00 00 00 00 f8 3c
       6213.925596749012 5.329070518200751e-15
0003c0 00 00 00 00 00 00 a0 bd 00 00 00 00 00 b8 91 bd
       -7.275957614183426e-12 -4.028777311759768e-12
0003d0 63 e4 47 51 2f df d7 c0 b6 8c cc 42 cb 54 b6 40
       -24444.739335988077 5716.7939880221875
0003e0 4d 96 e8 f3 ec 45 b8 40 00 00 00 00 00 00 25 bd
       6213.925596749014 -3.730349362740526e-14
0003f0 00 00 00 00 00 00 b0 bd 00 00 00 00 00 ce b4 3d
       -1.4551915228366852e-11 1.8921753053291468e-11
000400 da 6b d9 6e c7 d7 d2 c0 b5 8c cc 42 cb 54 b6 40
       -19295.116140704464 5716.793988022187
000410 4b 96 e8 f3 ec 45 b8 40 00 00 00 00 00 00 49 3d
       6213.925596749013 1.7763568394002505e-13
000420 00 00 00 00 00 00 00 00 00 00 00 00 00 1a 74 3d
       0.0 1.1426415369442111e-12
000430 d1 ef f6 83 73 25 da c0 d9 84 dc ed 9b 28 aa c0
       -26773.804929479786 -3348.3045491134803
000440 1f 48 5e 6d 91 59 a6 c0 00 00 00 00 00 00 fa bc
       -2860.784037538818 -5.773159728050814e-15
000450 00 00 00 00 00 00 90 bd 00 00 00 00 00 88 98 bd
       -3.637978807091713e-12 -5.5777604757167865e-12
000460 51 bf ea 61 c9 c1 da c0 df 84 dc ed 9b 28 aa c0
       -27399.14660137828 -3348.304549113483
000470 28 48 5e 6d 91 59 a6 c0 00 00 00 00 00 00 2a bd
       -2860.7840375388223 -4.618527782440651e-14
000480 00 00 00 00 00 00 80 bd 00 00 00 00 00 80 68 3d
       -1.8189894035458565e-12 6.963318810448982e-13
000490 37 9b c0 04 08 9c d4 c0 d8 84 dc ed 9b 28 aa c0
       -21104.125290061547 -3348.30454911348
0004a0 72 e4 72 7a 48 32 aa 40 00 00 00 00 00 00 18 bd
       3353.141559210192 -2.1316282072803006e-14
0004b0 00 00 00 00 00 00 90 bd 00 00 00 00 00 8f b4 bd
       -3.637978807091713e-12 -1.8697932091527036e-11
0004c0 b7 cb 56 ac fb 9e d5 c0 d7 84 dc ed 9b 28 aa c0
       -22139.932393740597 -3348.3045491134794
0004d0 7c e4 72 7a 48 32 aa 40 00 00 00 00 00 80 62 bd
       3353.1415592101966 -5.258016244624741e-13
0004e0 00 00 00 00 00 00 a0 3d 00 00 00 00 20 b0 d1 3d
       7.275957614183426e-12 6.434852650727407e-11
0004f0 ac 1f 2a eb ae 9d cf c0 d2 84 dc ed 9b 28 aa c0
       -16187.366551652398 -3348.304549113477
000500 74 e4 72 7a 48 32 aa 40 00 00 00 00 00 c0 39 bd
       3353.141559210193 -9.14823772291129e-14
000510 00 00 00 00 00 00 60 3d 00 00 00 00 00 48 52 3d
       4.547473508864641e-13 2.5979218776228663e-13
000520 a7 2c db 9f 75 5b e0 c0 0e c0 81 11 eb 30 a5 c0
       -33499.6757636902 -2712.4591179415647
000530 22 48 5e 6d 91 59 a6 c0 00 00 00 00 00 00 15 bd
       -2860.7840375388196 -1.865174681370263e-14
000540 00 00 00 00 00 00 a0 3d 00 00 00 00 00 91 9e 3d
       7.275957614183426e-12 6.94999613415348e-12
000550 74 14 d5 8e a0 a9 e0 c0 0c c0 81 11 eb 30 a5 c0
       -34125.01743558879 -2712.459117941564
000560 1a 48 5e 6d 91 59 a6 c0 00 00 00 00 00 00 04 3d
       -2860.784037538816 8.881784197001252e-15
000570 00 00 00 00 00 00 00 00 00 00 00 00 00 e0 58 bd
       0.0 -3.5349501104064984e-13
000580 99 04 80 c0 7f 2d db c0 13 c0 81 11 eb 30 a5 c0
       -27829.99612427186 -2712.459117941567
000590 73 e4 72 7a 48 32 aa 40 00 00 00 00 00 00 f8 bc
       3353.1415592101926 -5.329070518200751e-15
0005a0 00 00 00 00 00 00 90 3d 00 00 00 00 00 8c ba 3d
       3.637978807091713e-12 2.4144242161128204e-11
0005b0 d6 cb 56 ac fb 9e d5 c0 d0 84 dc ed 9b 28 aa 40
       -22139.93239374071 3348.3045491134762
0005c0 71 e4 72 7a 48 32 aa 40 00 00 00 00 00 00 32 bd
       3353.1415592101916 -6.394884621840902e-14
0005d0 00 00 00 00 00 00 a0 3d 00 00 00 00 00 96 82 3d
       7.275957614183426e-12 2.112976460466598e-12
0005e0 b2 1f 2a eb ae 9d cf c0 de 84 dc ed 9b 28 aa 40
       -16187.366551652409 3348.3045491134826
0005f0 78 e4 72 7a 48 32 aa 40 00 00 00 00 00 f0 5e 3d
       3353.141559210195 4.39648317751562e-13
000600 00 00 00 00 00 00 88 3d 00 00 00 00 00 08 66 bd
       2.7284841053187847e-12 -6.261657858885883e-13
000610 21 a3 63 ff e8 f2 e0 c0 11 03 be 36 40 e6 8b 40
       -34711.28117544042 892.7813544125257
000620 28 48 5e 6d 91 59 a6 c0 00 00 00 00 00 00 fc bc
       -2860.7840375388223 -6.217248937900877e-15
000630 00 00 00 00 00 00 90 3d 00 00 00 00 80 5a 92 3d
       3.637978807091713e-12 4.1731063049610384e-12
000640 ec 8a 5d ee 13 41 e1 c0 0b 03 be 36 40 e6 8b 40
       -35336.62284733899 892.781354412525
000650 27 48 5e 6d 91 59 a6 c0 00 00 00 00 00 80 11 3d
       -2860.784037538822 1.554312234475219e-14
000660 00 00 00 00 00 00 70 3d 00 00 00 00 00 b0 81 bd
       9.094947017729282e-13 -2.0108359422010835e-12
000670 e6 35 cf 48 42 8c d6 c0 f8 02 be 36 40 e6 8b 40
       -23089.035693934093 892.7813544125229
000680 7a e4 72 7a 48 32 aa 40 00 00 00 00 00 80 41 3d
       3353.1415592101957 1.2434497875801753e-13
000690 00 00 00 00 00 00 60 3d 00 00 00 00 00 0d 73 3d
       4.547473508864641e-13 1.0829115382193777e-12
0006a0 de c9 c5 82 0c 13 e0 c0 d5 a0 c3 f4 67 c4 9d 40
       -32920.39096345355 1905.101519638721
0006b0 1e 48 5e 6d 91 59 a6 c0 00 00 00 00 00 80 0c bd
       -2860.7840375388178 -1.2656542480726785e-14
0006c0 00 00 00 00 00 00 00 00 00 00 00 00 80 21 9e bd
       0.0 -6.850964240356916e-12
0006d0 99 b1 bf 71 37 61 e0 c0 da a0 c3 f4 67 c4 9d 40
       -33545.73263535201 1905.101519638722
0006e0 21 48 5e 6d 91 59 a6 c0 00 00 00 00 00 e0 34 bd
       -2860.784037538819 -7.416289804496046e-14
0006f0 00 00 00 00 00 00 90 3d 00 00 00 00 00 98 5d 3d
       3.637978807091713e-12 4.205524817280093e-13
000700 3f 83 93 4f 89 cc d4 c0 d8 a0 c3 f4 67 c4 9d 40
       -21298.145481947107 1905.1015196387216
000710 72 e4 72 7a 48 32 aa 40 00 00 00 00 00 00 0d bd
       3353.141559210192 -1.2878587085651816e-14
000720 00 00 00 00 00 00 60 3d 00 00 00 00 00 94 77 bd
       4.547473508864641e-13 -1.340261235327489e-12
000730 81 f6 3e 54 48 d3 de c0 21 5c 83 4b a4 0f 5a 40
       -31565.13014196465 104.24440276935685
000740 24 48 5e 6d 91 59 a6 c0 00 00 00 00 00 10 26 3d
       -2860.7840375388205 3.9190872769268026e-14
000750 00 00 00 00 00 00 00 00 00 00 00 00 c0 a7 a6 3d
       0.0 1.0302425579311603e-11
000760 0b c6 32 32 9e 6f df c0 39 5c 83 4b a4 0f 5a 40
       -32190.471813863183 104.2444027693572
000770 27 48 5e 6d 91 59 a6 c0 00 00 00 00 00 00 08 3d
       -2860.784037538822 1.0658141036401503e-14
000780 00 00 00 00 00 00 00 00 00 00 00 00 00 3c 88 bd
       0.0 -2.7551294579097885e-12
000790 d0 a1 08 d5 dc 49 d9 c0 e6 5b 83 4b a4 0f 5a 40
       -25895.45050254633 104.24440276935601
0007a0 76 e4 72 7a 48 32 aa 40 00 00 00 00 00 00 45 bd
       3353.141559210194 -1.4921397450962104e-13
0007b0 00 00 00 00 00 00 a0 bd 00 00 00 00 00 dc af 3d
       -7.275957614183426e-12 1.4487966382148443e-11
0007c0 77 1b 1b ba 11 7b d5 c0 cd d8 f0 d4 45 ad a8 c0
       -21996.276984001943 -3158.636390234437
0007d0 75 e4 72 7a 48 32 aa 40 00 00 00 00 00 80 59 3d
       3353.1415592101935 3.623767952376511e-13
0007e0 00 00 00 00 00 00 00 00 00 00 00 00 00 de bc 3d
       0.0 2.6254554086335702e-11
0007f0 65 bf b2 06 db 55 cf c0 c7 d8 f0 d4 45 ad a8 c0
       -16043.711141913847 -3158.636390234434
