python-Linux/neural-sparse-linear-solvers-master/stand_small_test/6667989172002155540_b3d822e3b7c7d035c57e17035e6b8327641d1f42_baf8aa62ee2cd3865325b4d0629146a123c4bca7.npz (npz, 76571 bytes, 3 tensors)

A_values f8 [18818]
0	0x41d304128073a7ff	1276135937.8071287
1	0xc179fcc08fac0800	-27249672.979499817
2	0xc173504f93bb467a	-20251897.23322151
3	0xc1520cb80dc3eb0c	-4731616.215082895
4	0x416a48c55b395d7f	13780522.85075259
5	0xc16458bbe8d81088	-10667487.27637507
6	0xc173504f93bb467a	-20251897.23322151
7	0xc1d26af9d6458b21	-1236002649.0866168
8	0x41d2d2a71b79060b	1263180909.8909938
9	0x4170c6ee369210f0	17592035.410660684
10	0x41736337162ad534	20329329.385457233
11	0xc146dea1b2744c60	-2997571.3941741437
12	0xc160a6ced614697d	-8730230.689991707
13	0xc1d261c216f912a3	-1233586267.8917625
14	0xc16476e43186ea45	-10729249.54771913
15	0x41736337162ad534	20329329.385457233
16	0x41e0c25e7443c075	2249388962.1172433
17	0x417e3c613481ea43	31704595.28171755
18	0xc17e598bac9d5974	-31824058.788415387
19	0xc1c7f6e49ffe3edf	-804112703.9862937
20	0xc16fda5663448bf6	-16700083.10211752
21	0x417e3c613481ea43	31704595.28171755
22	0xc170048c52668af1	-16795845.15003485
23	0xc17e598bac9d5974	-31824058.788415387
24	0x4170c6ee369210f0	17592035.410660684
25	0x417e3c613481ea43	31704595.28171755
26	0x41a66867f19f357f	187970552.81095502
27	0x4160a6ced614697d	8730230.689991707
28	0x417013ed55697132	16858837.338242717
29	0xc17e3c613481ea43	-31704595.28171755
30	0x4182beed6a1cae31	39312813.26400412
31	0xc16b1710694bd653	-14203011.290507471
32	0xc179fcc08fac0800	-27249672.979499817
33	0xc17e598bac9d5974	-31824058.788415387
34	0x41acbd8c477ad414	241092131.73989928
35	0xc16a48c55b395d7f	-13780522.85075259
36	0x41794c102fb7f6e0	26525954.982413173
37	0xc16b09818e5ffacf	-14175244.449216275
38	0x417e598bac9d5974	31824058.788415387
39	0x4182c733c6cef23f	39380600.851047985
40	0xc173504f93bb467a	-20251897.23322151
41	0x41736337162ad534	20329329.385457233
42	0x419eb1c87a6ee296	128741918.60828623
43	0xc1619fc7e96a4771	-9240127.294223519
44	0x4173504f93bb467a	20251897.23322151
45	0x417821d56abaf041	25304406.67063928
46	0xc1736337162ad534	-20329329.385457233
47	0x41782d043a880695	25350211.658209402
48	0xc1520cb80dc3eb0c	-4731616.215082895
49	0xc16a48c55b395d7f	-13780522.85075259
50	0x41d30a19aa8f9715	1277716138.2435963
51	0x417b9b521884246a	28947745.53226129
52	0xc173504f93bb467a	-20251897.23322151
53	0xc17918691aa5fa1d	-26314385.66552173
54	0x41845fda63106995	42728268.38301388
55	0xc16458bbe8d81088	-10667487.27637507
56	0xc173504f93bb467a	-20251897.23322151
57	0xc1d26af9d6458b21	-1236002649.0866168
58	0xc146dea1b2744c60	-2997571.3941741437
59	0x4160a6ced614697d	8730230.689991707
60	0x41d2d6921b3fb126	1264207980.9951873
61	0xc171d62b938351d6	-18703033.219560467
62	0x41736337162ad534	20329329.385457233
63	0xc1701cbac295a208	-16894892.16153148
64	0xc17a2992fe8d8695	-27433263.909552176
65	0xc1d261c216f912a3	-1233586267.8917625
66	0xc16476e43186ea45	-10729249.54771913
67	0x41736337162ad534	20329329.385457233
68	0xc1c7f6e49ffe3edf	-804112703.9862937
69	0x41e0fc8d40d98bf7	2279893510.7983356
70	0x417e3c613481ea43	31704595.28171755
71	0xc17e598bac9d5974	-31824058.788415387
72	0xc1d57de153a3d53b	-1442284878.5598896
73	0xc16fda5663448bf6	-16700083.10211752
74	0x417e3c613481ea43	31704595.28171755
75	0xc170048c52668af1	-16795845.15003485
76	0xc17e598bac9d5974	-31824058.788415387
77	0xc160a6ced614697d	-8730230.689991707
78	0x417013ed55697132	16858837.338242717
79	0xc171d62b938351d6	-18703033.219560467
80	0x417e3c613481ea43	31704595.28171755
81	0x41a68d31d90d9c7d	189176044.52658454
82	0x417a2992fe8d8695	27433263.909552176
83	0x417bd39b0c0f187a	29178288.753685452
84	0xc17e3c613481ea43	-31704595.28171755
85	0x4182beed6a1cae31	39312813.26400412
86	0xc16b1710694bd653	-14203011.290507471
87	0x416a48c55b395d7f	13780522.85075259
88	0x41794c102fb7f6e0	26525954.982413173
89	0x417b9b521884246a	28947745.53226129
90	0xc17e598bac9d5974	-31824058.788415387
91	0x41acf5845175b142	242926120.729868
92	0xc1845fda63106995	-42728268.38301388
93	0x418571a17ad58543	44971055.35425808
94	0xc16b09818e5ffacf	-14175244.449216275
95	0x417e598bac9d5974	31824058.788415387
96	0x4182c733c6cef23f	39380600.851047985
97	0xc1619fc7e96a4771	-9240127.294223519
98	0xc173504f93bb467a	-20251897.23322151
99	0x41736337162ad534	20329329.385457233
100	0x419ec72d83dc0847	129092448.96487533
101	0xc16f9c7d3c6ca971	-16573417.88826439
102	0x4173504f93bb467a	20251897.23322151
103	0x417821d56abaf041	25304406.67063928
104	0xc1736337162ad534	-20329329.385457233
105	0x41782d043a880695	25350211.658209402
106	0xc17918691aa5fa1d	-26314385.66552173
107	0xc1845fda63106995	-42728268.38301388
108	0x41d354969f84fddf	1297242750.077995
109	0xc140ea3341feb6f0	-2217062.5155857727
110	0xc173504f93bb467a	-20251897.23322151
111	0xc177226b40caad54	-24258228.049481705
112	0x418351372ef07e26	40511205.86742811
113	0xc16458bbe8d81088	-10667487.27637507
114	0xc173504f93bb467a	-20251897.23322151
115	0xc1d26af9d6458b21	-1236002649.0866168
116	0xc1701cbac295a208	-16894892.16153148
117	0x417a2992fe8d8695	27433263.909552176
118	0x41d3067cdccc7cf0	1276769139.1951256
119	0x413620dfeb75a550	1450207.9197638817
120	0x41736337162ad534	20329329.385457233
121	0xc16dad093302f820	-15558729.594112456
122	0xc178c784ffd62c40	-25983055.989788294
123	0xc1d261c216f912a3	-1233586267.8917625
124	0xc16476e43186ea45	-10729249.54771913
125	0x41736337162ad534	20329329.385457233
126	0xc1d57de153a3d53b	-1442284878.5598896
127	0x41e5719a3e098e60	2878132720.2986298
128	0x417e3c613481ea43	31704595.28171755
129	0xc17e598bac9d5974	-31824058.788415387
130	0xc1d4e58c4a5f2440	-1402351913.4865875
131	0xc16fda5663448bf6	-16700083.10211752
132	0x417e3c613481ea43	31704595.28171755
133	0xc170048c52668af1	-16795845.15003485
134	0xc17e598bac9d5974	-31824058.788415387
135	0xc17a2992fe8d8695	-27433263.909552176
136	0x417bd39b0c0f187a	29178288.753685452
137	0x413620dfeb75a550	1450207.9197638817
138	0x417e3c613481ea43	31704595.28171755
139	0x41a973f913917935	213515401.78412786
140	0x4178c784ffd62c40	25983055.989788294
141	0x417b21e380aace7a	28450360.041700818
142	0xc17e3c613481ea43	-31704595.28171755
143	0x4182beed6a1cae31	39312813.26400412
144	0xc16b1710694bd653	-14203011.290507471
145	0x41845fda63106995	42728268.38301388
146	0x418571a17ad58543	44971055.35425808
147	0xc140ea3341feb6f0	-2217062.5155857727
148	0xc17e598bac9d5974	-31824058.788415387
149	0x41b0b926f51694aa	280569589.08820593
150	0xc18351372ef07e26	-40511205.86742811
151	0x4184f155aef8ab6b	43920053.871420704
152	0xc16b09818e5ffacf	-14175244.449216275
153	0x417e598bac9d5974	31824058.788415387
154	0x4182c733c6cef23f	39380600.851047985
155	0xc16f9c7d3c6ca971	-16573417.88826439
156	0xc173504f93bb467a	-20251897.23322151
157	0x41736337162ad534	20329329.385457233
158	0x41a0356124f0838b	135966866.4697536
159	0xc16ebc6e19923de4	-16114544.799101777
160	0x4173504f93bb467a	20251897.23322151
161	0x417821d56abaf041	25304406.67063928
162	0xc1736337162ad534	-20329329.385457233
163	0x41782d043a880695	25350211.658209402
164	0xc177226b40caad54	-24258228.049481705
165	0xc18351372ef07e26	-40511205.86742811
166	0x41d2f034fb1a65f7	1270928364.4124734
167	0xc18351372ef07e26	-40511205.86742811
168	0xc173504f93bb467a	-20251897.23322151
169	0xc16458bbe8d81088	-10667487.27637507
170	0xc173504f93bb467a	-20251897.23322151
171	0xc1d26af9d6458b21	-1236002649.0866168
172	0xc16dad093302f820	-15558729.594112456
173	0x4178c784ffd62c40	25983055.989788294
174	0x41d2c609f1c22668	1259874247.0335941
175	0x4178c784ffd62c40	25983055.989788294
176	0x41736337162ad534	20329329.385457233
177	0xc1d261c216f912a3	-1233586267.8917625
178	0xc16476e43186ea45	-10729249.54771913
179	0x41736337162ad534	20329329.385457233
180	0xc1d4e58c4a5f2440	-1402351913.4865875
181	0x41d56553286f4784	1435847841.73874
182	0x417e3c613481ea43	31704595.28171755
183	0xc17e598bac9d5974	-31824058.788415387
184	0xc16fda5663448bf6	-16700083.10211752
185	0x417e3c613481ea43	31704595.28171755
186	0xc170048c52668af1	-16795845.15003485
187	0xc17e598bac9d5974	-31824058.788415387
188	0xc178c784ffd62c40	-25983055.989788294
189	0x417b21e380aace7a	28450360.041700818
190	0x4178c784ffd62c40	25983055.989788294
191	0x417e3c613481ea43	31704595.28171755
192	0x41a24f9be8ef2bdb	153603572.46713147
193	0xc17e3c613481ea43	-31704595.28171755
194	0x4182beed6a1cae31	39312813.26400412
195	0xc16b1710694bd653	-14203011.290507471
196	0x418351372ef07e26	40511205.86742811
197	0x4184f155aef8ab6b	43920053.871420704
198	0xc18351372ef07e26	-40511205.86742811
199	0xc17e598bac9d5974	-31824058.788415387
200	0x41a6441028ddff77	186779668.43358967
201	0xc16b09818e5ffacf	-14175244.449216275
202	0x417e598bac9d5974	31824058.788415387
203	0x4182c733c6cef23f	39380600.851047985
204	0xc16ebc6e19923de4	-16114544.799101777
205	0xc173504f93bb467a	-20251897.23322151
206	0x41736337162ad534	20329329.385457233
207	0x419c7732a25371e8	119393448.5814892
208	0x4173504f93bb467a	20251897.23322151
209	0x417821d56abaf041	25304406.67063928
210	0xc1736337162ad534	-20329329.385457233
211	0x41782d043a880695	25350211.658209402
212	0xc16458bbe8d81088	-10667487.27637507
213	0x4173504f93bb467a	20251897.23322151
214	0x41d31222ea6d106a	1279822761.7041268
215	0xc179fcc08fac0800	-27249672.979499817
216	0x416385c0bd0cbdb4	10235397.907805301
217	0xc1520cb80dc3eb0c	-4731616.215082895
218	0x416a48c55b395d7f	13780522.85075259
219	0xc14c20d3f2d0d661	-3686823.896998212
220	0xc1631ade6a69cf40	-10016499.325416207
221	0xc1d26af9d6458b21	-1236002649.0866168
222	0xc1d261c216f912a3	-1233586267.8917625
223	0x41dfaaf0619d7f9a	2125185414.4609132
224	0x4170c6ee369210f0	17592035.410660684
225	0x41736337162ad534	20329329.385457233
226	0xc146dea1b2744c60	-2997571.3941741437
227	0xc160a6ced614697d	-8730230.689991707
228	0xc1c9b0928c48f31f	-862004504.5699195
229	0xc16476e43186ea45	-10729249.54771913
230	0x41736337162ad534	20329329.385457233
231	0xc16fda5663448bf6	-16700083.10211752
232	0xc17e3c613481ea43	-31704595.28171755
233	0x41e0cd756cbb9333	2255203173.8617187
234	0xc16e57bd42ab7798	-15908330.08343105
235	0xc17e598bac9d5974	-31824058.788415387
236	0xc1c7f6e49ffe3edf	-804112703.9862937
237	0xc1562df0efa57bbe	-5814211.744475303
238	0x416e210526585cee	15796265.1982865
239	0xc170048c52668af1	-16795845.15003485
240	0xc17e598bac9d5974	-31824058.788415387
241	0x417e3c613481ea43	31704595.28171755
242	0x4182beed6a1cae31	39312813.26400412
243	0x4170c6ee369210f0	17592035.410660684
244	0xc16e57bd42ab7798	-15908330.08343105
245	0x41ad434e568a73e6	245475115.27041548
246	0x4160a6ced614697d	8730230.689991707
247	0x417013ed55697132	16858837.338242717
248	0xc16e210526585cee	-15796265.1982865
249	0x417b03d16e64c9b6	28327190.89960643
250	0xc16b1710694bd653	-14203011.290507471
251	0xc16b09818e5ffacf	-14175244.449216275
252	0xc179fcc08fac0800	-27249672.979499817
253	0xc17e598bac9d5974	-31824058.788415387
254	0x41adebd5f5404be0	250997498.62557888
255	0xc16a48c55b395d7f	-13780522.85075259

x f8 [1746]
0	0xbec2cf6481f28679	-2.242341920658677e-06
1	0xbec4302e554b8033	-2.4066218123758525e-06
2	0xbee089ad3f1c9563	-7.885837451103e-06
3	0x3ee5e0ad68b407ec	1.0432074552205844e-05
4	0x3eb3f9753e52f422	1.190569713301804e-06
5	0xbe9baa1c72795380	-4.1223312272536315e-07
6	0xbeea07d804f4c367	-1.2412376377031552e-05
7	0x3f12015b4ee88181	6.868476678124036e-05
8	0xbef860bca3f7697a	-2.3248556542879055e-05
9	0xbeeed6d177c36d45	-1.4705244887050698e-05
10	0x3ec95634a5cde03f	3.020374875036701e-06
11	0xbe849354ffdda3b8	-1.5329953833721683e-07
12	0x3eed1b4011b69ae3	1.387903517164946e-05
13	0x3f14291a29363a89	7.690641569111692e-05
14	0xbf00d8acdf3ccf9a	-3.21319347719444e-05
15	0x3eda188f4de94a3a	6.221756136586817e-06
16	0x3ec52d10853bf705	2.5243798890119107e-06
17	0x3ebcf61ba01c2021	1.7262315172312457e-06
18	0x3f017139dbd486fc	3.326852627539946e-05
19	0x3f17dcd27ff6f5d7	9.102854527661491e-05
20	0xbf05933b9ce8e192	-4.1151291601373933e-05
21	0xbf089e625165a171	-4.6956420350965647e-05
22	0x3f041269e3248781	3.828416483232702e-05
23	0x3ecb046a7964c120	3.220707138450307e-06
24	0x3e87196991a9230d	1.7210295129496837e-07
25	0xbec3c46d0d843c22	-2.3564444796629584e-06
26	0xbef768a32c281241	-2.232431394057406e-05
27	0xbf1025fb86f0d028	-6.160114001901916e-05
28	0x3ef15f3713f0be92	1.656716744607865e-05
29	0xbeaab7f8f57f8ed5	-7.962775994099637e-07
30	0xbee88b749a84775b	-1.1703847875351307e-05
31	0x3f120f82be6f945d	6.889567849517734e-05
32	0xbf0448a492f0770f	-3.868820419248967e-05
33	0x3edcf039c722a95a	6.899447827427659e-06
34	0x3eb046bd20dc7d4f	9.701444727074e-07
35	0x3e9fe356ec16ca30	4.751688998618976e-07
36	0xbec6f0b82b382db1	-2.73469808021394e-06
37	0x3f1456adf31ca8dd	7.758557037776692e-05
38	0xbf091960e6d2154e	-4.787280054422781e-05
39	0xbeec0edd9199e51d	-1.337912958664311e-05
40	0x3eb5c5fcb00011ac	1.2977949950264277e-06
41	0x3ecb8c697bcda768	3.2840352716571578e-06
42	0x3eec1681924ac349	1.339336137937273e-05
43	0x3f17b2388ac793bf	9.039373498571835e-05
44	0xbf0de87a1aa02972	-5.70451987443485e-05
45	0x3f0395f224347861	3.73568077753773e-05
46	0x3f04efc95920ddc2	3.99335214215607e-05
47	0x3ed646f8fc513d6f	5.31130712484673e-06
48	0x3ee24cc43cad0e8d	8.726057691205917e-06
49	0xbed07413630c41cc	-3.922801213432748e-06
50	0xbef610794b52c0bc	-2.1042204669086766e-05
51	0x3f085c85a7f58f7a	4.6465710506620386e-05
52	0x3f04b87509dd5e1e	3.9521285755735944e-05
53	0x3e9363b4fa0f01e2	2.8892577047179067e-07
54	0x3eb548d3a5f9e63b	1.2686538396741628e-06
55	0xbed0eef2dc551d4b	-4.037235560367637e-06
56	0xbef1b74e54f9a5a2	-1.6895331383192547e-05
57	0x3ee0d6dcb5b9570d	8.02960646876683e-06
58	0x3ef40511bbe0759b	1.9092370841735517e-05
59	0x3ea4851d060dc230	6.115428839836744e-07
60	0xbef42a3b0499ff3a	-1.9230807345226748e-05
61	0xbef35ecfaa1e605f	-1.8473011216352575e-05
62	0xbf026c4b034f11fc	-3.513912125855179e-05
63	0xbebf56dc5ff4f169	-1.8679678531327988e-06
64	0xbee18620bdc2415f	-8.356064363363486e-06
65	0xbed04dc7c066ee32	-3.887135795850896e-06
66	0x3ec9aa5d9daf32bb	3.0595649440411978e-06
67	0x3f0119879daf54e3	3.2615138216543644e-05
68	0xbf07d7be57ff2320	-4.5476433114871465e-05
69	0xbf13fa06e20946ed	-7.620493898599272e-05
70	0x3f07559d63431f5e	4.450689849161306e-05
71	0xbef1089d0b9f7327	-1.6244551012667377e-05
72	0xbe819b8e55c67653	-1.3118714549131515e-07
73	0xbed0d078757cf091	-4.0088505882074195e-06
74	0xbef2ab4757ae85b2	-1.7804200506459866e-05
75	0xbec41afc8bdf57fc	-2.396752363668755e-06
76	0x3ed1b9c3392b52fa	4.2261207393215e-06
77	0xbe96809abf2f8988	-3.353113122145966e-07
78	0xbed8015275394aec	-5.72327720112468e-06
79	0xbef2140b21445a50	-1.724080546335944e-05
80	0xbf0954a5ff385244	-4.8314395737634785e-05
81	0x3ec8ecd28fd693c2	2.9713020228299463e-06
82	0x3ed9a56f7bd1c03c	6.114538277576848e-06
83	0xbebdab76527789a6	-1.7684563519073894e-06
84	0x3f156815f36be965	8.165964105081231e-05
85	0x3f007ae6f4afd142	3.1433270656496776e-05
86	0xbf11d78bf66ed2e7	-6.806175006952472e-05
87	0x3f02555d781b040c	3.496829505201396e-05
88	0x3f049d0c8ef64806	3.9317079308834365e-05
89	0xbee6535b0ae747a4	-1.0645679449892125e-05
90	0x3f23a76a623a101c	0.00014994786862498964
91	0xbecd096e57bed320	-3.4614610608614456e-06
92	0xbf13f3c1c141c34f	-7.611150823706485e-05
93	0xbf014ac33e66479a	-3.2981952062929173e-05
94	0x3f05099c8d61e829	4.012593278530957e-05
95	0xbedca2314cbae621	-6.826773823292939e-06
96	0x3eb752fc13098df3	1.3902282029126035e-06
97	0xbed0fe87e1a03fec	-4.051747533054245e-06
98	0xbef6bb777c1afc87	-2.1679202979238185e-05
99	0x3ed91bef4332bdda	5.986480618932566e-06
100	0x3ec3f44ec4475bd4	2.3787411313857727e-06
101	0xbe9ba53146951593	-4.119468202844349e-07
102	0xbeb13ffbe2f9ee2d	-1.0281763812837515e-06
103	0xbef29c98c0d47b11	-1.774950583410389e-05
104	0xbf0eec7d44862411	-5.89824417743316e-05
105	0xbf12e6a9a5d53266	-7.210169265654264e-05
106	0x3f010b7c6931702b	3.251050397842821e-05
107	0xbec62556b5c3d4bb	-2.639991562354032e-06
108	0x3f1c61cceb6bc153	0.00010826886396464912
109	0x3f00f3a1776d02f0	3.233276850390053e-05
110	0xbf1146142d202d04	-6.589410921280589e-05
111	0xbecec42080b0fab9	-3.6676074209035343e-06
112	0x3ef7eac1cb1010fe	2.2809047269604393e-05
113	0xbee8d90e15771a13	-1.1848388267743576e-05
114	0x3f26d541cb31869f	0.0001742022337536857
115	0xbed0136d869f9dc6	-3.832790847347684e-06
116	0xbf13582531bcf115	-7.379271522451145e-05
117	0x3f03ff674afb9a36	3.8142528294750016e-05
118	0x3f07ea443fdb2682	4.561444073443185e-05
119	0xbee62d17860d24c8	-1.0574407669177574e-05
120	0x3ea4c229d31b3a14	6.186500398299354e-07
121	0xbecb0599d38a52d6	-3.221258932770798e-06
122	0xbefc277d97e71b92	-2.6849994805091026e-05
123	0xbec6b703a6a03088	-2.7078270266098097e-06
124	0xbebd929e2ec2f408	-1.7626718387530222e-06
125	0x3e8198f0cf0fea8a	1.3111102917225838e-07
126	0x3ef52f6d32a8f99f	2.02038383270098e-05
127	0xbef2cf02cc90becf	-1.7937313519121944e-05
128	0xbf1338d19ebb1935	-7.332591456607892e-05
129	0x3f0498ec625d7e74	3.9286340593799965e-05
130	0x3f13472753e9bcc0	7.35395196700293e-05
131	0x3ea4f53f1a3af15f	6.245968972788872e-07
132	0xbeb57d29b488f24e	-1.2808393014116862e-06
133	0xbec894415ece24ae	-2.930059727683323e-06
134	0xbef60c2afb123e27	-2.102616389670748e-05
135	0xbeaa89bebe5533af	-7.90896021266043e-07
136	0xbe7b45da124a133f	-1.0159931613559351e-07
137	0x3e9d29107a46a89d	4.345239353007549e-07
138	0x3ec7582104cb5279	2.7828519136664e-06
139	0xbef2a9baeaae486e	-1.7798431752043637e-05
140	0xbf0e2eac149570f7	-5.7568193890774064e-05
141	0x3f0a54706a4e868c	5.0220184937954914e-05
142	0x3efa325b985db97f	2.4983129626782084e-05
143	0x3ebcb4466963ba37	1.7109036086166901e-06
144	0x3eecde91cf504c84	1.3766008558879649e-05
145	0xbf0d0d8a97f0c226	-5.541400150155624e-05
146	0xbf115f5216d1295d	-6.627024204522909e-05
147	0xbf047edcf12b84ae	-3.909217607201677e-05
148	0x3f017bdbb707ef49	3.334774271831918e-05
149	0x3ecab840df4a80bf	3.1852412070849355e-06
150	0xbed1d0cbb5e8a090	-4.247572035022529e-06
151	0xbec9af11c49aba2d	-3.061755283826552e-06
152	0xbee103ea9cdc57db	-8.113526657232216e-06
153	0x3ed3b65514174405	4.6997632252169076e-06
154	0x3ea9f5ce2761e1dc	7.736735614513758e-07
155	0x3e9563055ac8fee8	3.1868816100301306e-07
156	0x3ed0c24eedc0c30f	3.995660986120361e-06
157	0xbef1f66fa890f0d3	-1.7130509636795903e-05
158	0xbef7236e31c9f9a7	-2.2066497978640066e-05
159	0xbee155c6aebc20ae	-8.266002133009171e-06
160	0x3ec9551c568ab7d9	3.0198649948109434e-06
161	0x3ea4e8bf6e94bbd1	6.231418555930738e-07
162	0x3ef3321635efc64e	1.8306399734718732e-05
163	0xbf0d476b6afd5781	-5.5845227847114126e-05
164	0xbeff8bfa6f0974f7	-3.0085363450606394e-05
165	0x3f0eee9d3b640a8d	5.899827321977523e-05
166	0x3eff0a3f6dc7a210	2.9602079722497855e-05
167	0x3ec40b5756e562f8	2.3894669346876284e-06
168	0xbec2ce6cfddb5f52	-2.241891691716967e-06
169	0xbed0a4e866866dd6	-3.968279635914676e-06
170	0xbef385f802f74628	-1.8618884664983526e-05
171	0x3ef69e22118653fc	2.156992658937719e-05
172	0xbea381ec2d452fc2	-5.813691026728307e-07
173	0xbe9766e77ab84315	-3.4871652118775173e-07
174	0xbeeb01aab1d97519	-1.2877707884213209e-05
175	0x3f11054572e049f2	6.492840177000478e-05
176	0xbf0c830bc7d339b1	-5.4382130636565654e-05
177	0xbf0e2da24d95e286	-5.7560458752219315e-05
178	0x3efd871db46ede6f	2.8159901628048463e-05
179	0xbec33dc9a0c50323	-2.2937485991972943e-06
180	0x3ef001c54cd2a83f	1.526538544697358e-05
181	0x3f1450da800c0ba0	7.749875659261588e-05
182	0xbf10811f4078f4f2	-6.295922514084113e-05
183	0x3ee30c84a83d9a07	9.083222955741562e-06
184	0x3ee462805da41c1d	9.720216372700576e-06
185	0x3eca7d438a5476ac	3.1577720444171276e-06
186	0x3f00f50a45726956	3.234326930475161e-05
187	0x3f1abd65c28de0ce	0.00010200437158214561
188	0xbf12cda3401c9647	-7.172879125202327e-05
189	0xbf09b7b8811d1704	-4.905254185287418e-05
190	0xbef9952a00eac42c	-2.4397537397195256e-05
191	0x3ed642186bc76714	5.306764873280892e-06
192	0xbe84a43355bb441c	-1.5379047623454235e-07
193	0xbecd2f223fd64748	-3.4790177767051856e-06
194	0xbf0b66dbc427798a	-5.2264768345844264e-05
195	0xbf1e2358493cbabc	-0.00011496759753691193
196	0x3efa89a2fe5ee80e	2.5308268867020637e-05
197	0xbea58fa45ee99e89	-6.425709083270009e-07
198	0xbee94325b5ea5c39	-1.2046000560856945e-05
199	0x3f11433b3d09486e	6.585167944564579e-05
200	0xbf16b6b0c3778551	-8.664564017337352e-05
201	0x3f07ecfa6236622b	4.5634642698636915e-05
202	0x3efc1802363dab1c	2.6792320013606296e-05
203	0xbeccaa1242967256	-3.4170557412073928e-06
204	0xbebba8986644e2f8	-1.6485795635968553e-06
205	0x3f1432c23c461ba2	7.705030936309848e-05
206	0xbf18dd3aa5f7f37b	-9.484930478005457e-05
207	0xbef480279487ddf9	-1.9550899454016575e-05
208	0x3ee59b5e88872129	1.0302978140767031e-05
209	0xbec78c09e8b6dfea	-2.8070242643306227e-06
210	0x3ee9d9e1247b8850	1.2326761079820833e-05
211	0x3f1a969e24eb6a6e	0.00010142650829029497
212	0xbf1b230b330d4c5b	-0.0001035190187057984
213	0x3ef9be40bb11d0a9	2.4550605023113698e-05
214	0xbef7058429eacb51	-2.1955058964361164e-05
215	0xbeb7c4bb1c43fdab	-1.4167118119189205e-06
216	0x3ee01a4683c90bd9	7.678336367727554e-06
217	0xbed8b55c8fca6460	-5.890952021880396e-06
218	0xbf0bc3c5ad8b3890	-5.295702948658707e-05
219	0x3f14f83607feef79	7.999257832030743e-05
220	0x3f04620d884b44f9	3.887752339938074e-05
221	0x3e95b0a655c03a3a	3.2320675358378323e-07
222	0x3eaaa338ed264325	7.93861966651587e-07
223	0xbed90960c5362735	-5.969198429220565e-06
224	0xbf05b209fcb43569	-4.138081529890087e-05
225	0x3ef946cd0bf2e43f	2.4105612052880773e-05
226	0x3ed0c1e5b42a9b90	3.995278179991661e-06
227	0x3ea802e9fa83e1d8	7.155949690854244e-07
228	0xbef38fdae231672c	-1.8655713699500923e-05
229	0xbef52acfb1bd8b24	-2.0186645186891176e-05
230	0xbf169e668cbb0693	-8.628369249221784e-05
231	0xbf0bffb20c2d3ce6	-5.3403493004306084e-05
232	0x3f08e21329a8d6ae	4.746075611132321e-05
233	0x3eaac4b201343f73	7.977587323255143e-07
234	0x3ec282d642818579	2.2066929155495734e-06
235	0xbef4cd7b2812e018	-1.983896300281071e-05
236	0xbf1960354e0d6eff	-9.680104586834089e-05
237	0xbf0b1b985ba73066	-5.1704012964032956e-05
238	0xbef845b0840dd049	-2.3147797267822593e-05
239	0xbede7e870ab3719e	-7.270395296657063e-06
240	0xbe8356b65bce9d5e	-1.4408469253583466e-07
241	0xbed63169faa3ba66	-5.291229095967693e-06
242	0xbf065bdc8b3ce844	-4.264609142841426e-05
243	0xbee00a600bd985de	-7.64871981146197e-06
244	0xbedcbbd8e64fd712	-6.850666612647778e-06
245	0xbe826674e2c56ed6	-1.3709232983104446e-07
246	0xbed9a553f4132920	-6.114438123103785e-06
247	0xbef290ef2c003fd4	-1.7706059907196387e-05
248	0xbf1f1d760a00f302	-0.00011869461968756423
249	0x3f02a18378330b7f	3.553564513360859e-05
250	0x3f1317dcb1a1ea1a	7.283482082868394e-05
251	0xbeae370f0ac3ff56	-9.004793546651777e-07
252	0x3f15dedd3e80b4ed	8.342957846770348e-05
253	0xbef818a9667e512e	-2.2980055660663436e-05
254	0xbf222490bfec6861	-0.00013841883625148862
255	0x3efdb0efa8fb0283	2.831569378147987e-05

b f8 [1746]
0	0xbd60000000000000	-4.547473508864641e-13
1	0xbd18000000000000	-2.1316282072803006e-14
2	0x3d8b880000000000	3.1299407510232413e-12
3	0xbd72000000000000	-1.0231815394945443e-12
4	0x3d28000000000000	4.263256414560601e-14
5	0x3d00000000000000	7.105427357601002e-15
6	0xbd90000000000000	-3.637978807091713e-12
7	0x3dc74a0000000000	4.236255790601717e-11
8	0xbdb4400000000000	-1.8417267710901797e-11
9	0x3d70000000000000	9.094947017729282e-13
10	0x0000000000000000	0.0
11	0xbd51000000000000	-2.4158453015843406e-13
12	0xbd90000000000000	-3.637978807091713e-12
13	0x3da3580000000000	8.79651906871004e-12
14	0x3d94400000000000	4.604316927725449e-12
15	0xbd4c000000000000	-1.9895196601282805e-13
16	0xbd71000000000000	-9.663381206337363e-13
17	0x3d5f000000000000	4.405364961712621e-13
18	0x3db8000000000000	2.1827872842550278e-11
19	0x3db5c00000000000	1.978150976356119e-11
20	0xc0c8a3cb52edd8f4	-12615.588468295035
21	0xc0af3f0b1f435bbc	-3999.5217228936654
22	0x40af10404da07e75	3976.125592246472
23	0x0000000000000000	0.0
24	0xbd4c000000000000	-1.9895196601282805e-13
25	0xbd47c00000000000	-1.687538997430238e-13
26	0xc0d1a1703693f01d	-18053.75333116959
27	0xc0c4cc39f917e13a	-10648.452914223646
28	0x40af10404da07e73	3976.125592246471
29	0xbd35000000000000	-7.460698725481052e-14
30	0x3d80000000000000	1.8189894035458565e-12
31	0xbdb7000000000000	-2.091837814077735e-11
32	0xbd83000000000000	-2.1600499167107046e-12
33	0x3d74000000000000	1.1368683772161603e-12
34	0x3d60000000000000	4.547473508864641e-13
35	0x3d50000000000000	2.2737367544323206e-13
36	0x3d68000000000000	6.821210263296962e-13
37	0xbd82300000000000	-2.0676793610618915e-12
38	0x3d94800000000000	4.661160346586257e-12
39	0x3d50000000000000	2.2737367544323206e-13
40	0xbd30000000000000	-5.684341886080802e-14
41	0x3d57000000000000	3.268496584496461e-13
42	0xbd90000000000000	-3.637978807091713e-12
43	0xbda3820000000000	-8.871126055964851e-12
44	0xc0c8a3cb52edd8e5	-12615.588468295007
45	0x40af3f0b1f435bbc	3999.5217228936654
46	0x40af10404da07e7b	3976.1255922464748
47	0x3d5c800000000000	4.050093593832571e-13
48	0x0000000000000000	0.0
49	0x3d73ec0000000000	1.1324274851176597e-12
50	0xc0dcbc28ce2a00a7	-29424.637583256375
51	0x40bccbd4b45d3281	7371.830877137022
52	0x40bd7c5914896bf0	7548.347969616749
53	0xbd1c000000000000	-2.4868995751603507e-14
54	0x3d58000000000000	3.410605131648481e-13
55	0xbd8b240000000000	-3.085531830038235e-12
56	0xc0c635712f2c20fd	-11370.884252086742
57	0x40a9993e7ba51fba	3276.622037086604
58	0x40abe871db725969	3572.222377370276
59	0xbd26000000000000	-3.907985046680551e-14
60	0xbd90000000000000	-3.637978807091713e-12
61	0x3d95b80000000000	4.938272013532696e-12
62	0x3dba800000000000	2.4101609596982598e-11
63	0x3d70000000000000	9.094947017729282e-13
64	0x3d70000000000000	9.094947017729282e-13
65	0x3d47000000000000	1.6342482922482304e-13
66	0x3d70000000000000	9.094947017729282e-13
67	0xbd91a00000000000	-4.007461029686965e-12
68	0xc0ce16af65be803b	-15405.370292484868
69	0xc0bb7fcf595e8eca	-7039.809957418309
70	0x40af10404da07e79	3976.125592246474
71	0x3d20000000000000	2.842170943040401e-14
72	0x3d20000000000000	2.842170943040401e-14
73	0xbd709a0000000000	-9.43689570931383e-13
74	0xbda7d00000000000	-1.0828671292983927e-11
75	0xbd55000000000000	-2.984279490192421e-13
76	0x3d5c000000000000	3.979039320256561e-13
77	0xbd11800000000000	-1.554312234475219e-14
78	0xbd70000000000000	-9.094947017729282e-13
79	0xbdb63d0000000000	-2.0225598973411252e-11
80	0xbd8c000000000000	-3.183231456205249e-12
81	0xbd70000000000000	-9.094947017729282e-13
82	0x0000000000000000	0.0
83	0x3d3d000000000000	1.0302869668521453e-13
84	0x3dc0000000000000	2.9103830456733704e-11
85	0xbdafe00000000000	-1.4495071809506044e-11
86	0xc0ce16af65be804c	-15405.370292484899
87	0x40bb7fcf595e8ec1	7039.809957418301
88	0x40af10404da07e75	3976.125592246472
89	0xbd71000000000000	-9.663381206337363e-13
90	0x0000000000000000	0.0
91	0x3d62000000000000	5.115907697472721e-13
92	0xc0c5ddac7524acef	-11195.347324928704
93	0xc0a8e5fee5c35d00	-3186.997846703627
94	0x40ab6e1fd6543139	3511.062182074555
95	0x3d64000000000000	5.684341886080801e-13
96	0x3d60000000000000	4.547473508864641e-13
97	0x3d789a0000000000	1.3984369218178472e-12
98	0x3d9e800000000000	6.934897101018578e-12
99	0xbd44000000000000	-1.4210854715202004e-13
100	0x3d50000000000000	2.2737367544323206e-13
101	0xbcfc000000000000	-6.217248937900877e-15
102	0x3d90000000000000	3.637978807091713e-12
103	0x3db242b000000000	1.6607826225367717e-11
104	0xc0d34d7890291b04	-19765.883798862822
105	0xc0ca15ef8abc219f	-13355.871421352784
106	0x40af10404da07e75	3976.125592246472
107	0xbd3b600000000000	-9.725553695716371e-14
108	0x0000000000000000	0.0
109	0x3d9bc00000000000	6.30961949354969e-12
110	0x3dc4c00000000000	3.774403012357652e-11
111	0xbd7f800000000000	-1.7905676941154525e-12
112	0x3d8b000000000000	3.069544618483633e-12
113	0x3d72200000000000	1.0302869668521453e-12
114	0x3dc0000000000000	2.9103830456733704e-11
115	0xbd7ba00000000000	-1.5702994460298214e-12
116	0xc0c5ddac7524ace2	-11195.34732492868
117	0x40a8e5fee5c35cfc	3186.9978467036253
118	0x40ab6e1fd6543132	3511.062182074552
119	0x3d4a000000000000	1.8474111129762605e-13
120	0x3d60000000000000	4.547473508864641e-13
121	0xbd60880000000000	-4.698463840213662e-13
122	0x3db6860000000000	2.0484947071963688e-11
123	0x3d5c000000000000	3.979039320256561e-13
124	0xbd65000000000000	-5.968558980384842e-13
125	0x3d30800000000000	5.861977570020827e-14
126	0x3d90000000000000	3.637978807091713e-12
127	0x3db01a0000000000	1.4644285784015665e-11
128	0xc0e1ed251a54ffbe	-36713.1594643588
129	0x40b0ccaad180ea18	4300.667259270813
130	0x40bf10404da07e77	7952.251184492946
131	0x3d10000000000000	1.4210854715202004e-14
132	0x0000000000000000	0.0
133	0xbd6e500000000000	-8.615330671091215e-13
134	0xbdacf00000000000	-1.3159251466277055e-11
135	0x3d35800000000000	7.638334409421077e-14
136	0x3d5a000000000000	3.694822225952521e-13
137	0xbd16000000000000	-1.9539925233402755e-14
138	0xbd80000000000000	-1.8189894035458565e-12
139	0xbda2b40000000000	-8.5051965470484e-12
140	0xc0d08cd1a480e485	-16947.27566549603
141	0x40c1af9a21fbac92	9055.20416208197
142	0x40af10404da07e76	3976.1255922464725
143	0x3d51000000000000	2.4158453015843406e-13
144	0x0000000000000000	0.0
145	0xbda49c0000000000	-9.372058684675721e-12
146	0xc0c80aefde2a4656	-12309.873967441887
147	0xc0adb5124e8cd7ee	-3802.535755540236
148	0x40ae5cc32bf98066	3886.3811948746907
149	0xbd4f800000000000	-2.2382096176443156e-13
150	0xbd70000000000000	-9.094947017729282e-13
151	0xbd5a200000000000	-3.7125857943465235e-13
152	0x3d88300000000000	2.7498003873915877e-12
153	0x3d3c000000000000	9.947598300641403e-14
154	0x3d3a000000000000	9.237055564881302e-14
155	0x3d04000000000000	8.881784197001252e-15
156	0x3d88000000000000	2.7284841053187847e-12
157	0x3d89700000000000	2.8919089345436078e-12
158	0xbdaf740000000000	-1.4303225270850817e-11
159	0xbd10000000000000	-1.4210854715202004e-14
160	0x3d68000000000000	6.821210263296962e-13
161	0xbd18000000000000	-2.1316282072803006e-14
162	0x0000000000000000	0.0
163	0x3db4646000000000	1.8546497670968165e-11
164	0xc0c80aefde2a464c	-12309.873967441868
165	0x40adb5124e8cd7ec	3802.535755540235
166	0x40ae5cc32bf98063	3886.3811948746893
167	0xbd36100000000000	-7.838174553853605e-14
168	0xbd60000000000000	-4.547473508864641e-13
169	0xbd53d30000000000	-2.8171909249863347e-13
170	0x3da27c0000000000	8.405720564041985e-12
171	0x3d6d000000000000	8.242295734817162e-13
172	0x3d30000000000000	5.684341886080802e-14
173	0x3ce9800000000000	2.831068712794149e-15
174	0x3d98000000000000	5.4569682106375694e-12
175	0xbdbf1a0000000000	-2.828670631060959e-11
176	0xc0cfa619ee06d1c3	-16204.202576496527
177	0xc0b59f3aa7ce8e22	-5535.229123029423
178	0x40b9832b9d6b15dd	6531.17037076267
179	0xbd10000000000000	-1.4210854715202004e-14
180	0xbd96e80000000000	-5.208278253121534e-12
181	0x3db0000000000000	1.4551915228366852e-11
182	0xbda5800000000000	-9.777068044058979e-12
183	0xbd50000000000000	-2.2737367544323206e-13
184	0x3d56000000000000	3.126388037344441e-13
185	0xbd50000000000000	-2.2737367544323206e-13
186	0xbda9100000000000	-1.1397105481592007e-11
187	0xbdb0000000000000	-1.4551915228366852e-11
188	0xc0c8a3cb52edd8e9	-12615.588468295015
189	0xc0af3f0b1f435bbe	-3999.5217228936663
190	0xc0af10404da07e75	-3976.125592246472
191	0xbd2c000000000000	-4.973799150320701e-14
192	0x3d50000000000000	2.2737367544323206e-13
193	0xbd5fb80000000000	-4.5075054799781356e-13
194	0xc0e50a101d037d35	-43088.50354170279
195	0xc0d5d55b9a019f02	-22357.43127480057
196	0x40b9e1dd266edcb3	6625.863867691881
197	0x3d43400000000000	1.3677947663381929e-13
198	0x0000000000000000	0.0
199	0x3dbd1a0000000000	2.6467716907063732e-11
200	0xc0cfa619ee06d1c1	-16204.202576496524
201	0x40b59f3aa7ce8e26	5535.229123029427
202	0x40b9832b9d6b15da	6531.1703707626675
203	0xbd62000000000000	-5.115907697472721e-13
204	0x3d78000000000000	1.3642420526593924e-12
205	0xbdb6ea0000000000	-2.084021843984374e-11
206	0xbdd4fb0000000000	-7.632650067534996e-11
207	0x3d58000000000000	3.410605131648481e-13
208	0xbd20000000000000	-2.842170943040401e-14
209	0xbd65000000000000	-5.968558980384842e-13
210	0x3d98000000000000	5.4569682106375694e-12
211	0xbdb31c0000000000	-1.737987531669205e-11
212	0xc0c8a3cb52edd8f5	-12615.588468295036
213	0x40af3f0b1f435bc1	3999.5217228936676
214	0xc0af10404da07e78	-3976.1255922464734
215	0x3d66000000000000	6.252776074688882e-13
216	0xbd94000000000000	-4.547473508864641e-12
217	0x3d8e020000000000	3.411493310068181e-12
218	0xc0f0a0778961373d	-68103.47103997781
219	0x40cc649815821321	14537.188156375256
220	0x40bf7ea7ec704cf0	8062.655951517852
221	0x3d35000000000000	7.460698725481052e-14
222	0x3d80000000000000	1.8189894035458565e-12
223	0xbd73b80000000000	-1.120881165661558e-12
224	0xc0d86dbdeb7de296	-25014.967498275066
225	0x40be8c3e3d0255ce	7820.24311842532
226	0x4096732b1805c0f1	1436.7920838259708
227	0xbd41800000000000	-1.2434497875801753e-13
228	0xbd80000000000000	-1.8189894035458565e-12
229	0xbd7f4e0000000000	-1.779465463869201e-12
230	0xc0d4ad185f7ed85c	-21172.380828582085
231	0xc0c01f00f5b958e1	-8254.007498901747
232	0x40c1f2254f37a76f	9188.29148002315
233	0x3d31000000000000	6.039613253960852e-14
234	0xbd83800000000000	-2.2168933355715126e-12
235	0xbda0c40000000000	-7.624123554705875e-12
236	0xc0ce16af65be8052	-15405.37029248491
237	0xc0bb7fcf595e8ecb	-7039.80995741831
238	0xc0af10404da07e73	-3976.125592246471
239	0xbd45000000000000	-1.4921397450962104e-13
240	0x3d50000000000000	2.2737367544323206e-13
241	0x3d8a182800000000	2.9665853107374573e-12
242	0xbdd6bc0000000000	-8.270717444247566e-11
243	0xbd75800000000000	-1.2221335055073723e-12
244	0xbd58000000000000	-3.410605131648481e-13
245	0x3d31140000000000	6.06736882957648e-14
246	0xbd94000000000000	-4.547473508864641e-12
247	0xbd98f80000000000	-5.6772364587232005e-12
248	0xc0e0d2240d66c7ea	-34449.12663592382
249	0x40adf5552ba4fa5a	3834.6663486056905
250	0x40cb49959b444f73	13971.168800867837
251	0x3d31000000000000	6.039613253960852e-14
252	0x3d8dc00000000000	3.382183422218077e-12
253	0xbda0000000000000	-7.275957614183426e-12
254	0xc0ce16af65be804e	-15405.370292484902
255	0x40bb7fcf595e8ec8	7039.809957418307
