python-Linux/neural-sparse-linear-solvers-master/stand_small_test/6800170803774516486_b0a03f989501c2fe622b5ba2dc8cca26e2e38c8a_84e852335829e0b8c962a1e29f9dfb333afdc889.npz (npz, 57700 bytes, 3 tensors)

A_values f8 [14364]
660901251.6537813 -12382288.591968061 -3121443.974239198 -1075451.8669886868 -3121443.974239198 -655678256.4622161 625119603.276139 2951094.55435936
3456994.500426396 -622877328.322254 -1253783.010072145 3456994.500426396 615315452.4343756 13085643.388556898 -14467520.204212278 -4508483.80721033
13085643.388556898 -5247081.251555219 -14467520.204212278 2951094.55435936 13085643.388556898 69673334.5168245 -13085643.388556898 25050742.806942623
-7002253.8906592205 -12382288.591968061 -14467520.204212278 109690003.88313769 -6651959.482660166 14467520.204212278 26280037.38719044 -3121443.974239198
3456994.500426396 31288549.851515945 3121443.974239198 6024795.603458186 -3456994.500426396 6336939.971297258 -1075451.8669886868 3121443.974239198
663062624.878002 -12382288.591968061 -1844706.7217028034 -2161373.2242207737 -4966150.695942001 -655678256.4622161 -622877328.322254 1411942452.2434363
2951094.55435936 3456994.500426396 -786822848.9672972 -1253783.010072145 3456994.500426396 -4508483.80721033 -13085643.388556898 624291685.0060383
7538894.351227112 -14467520.204212278 -8976232.571662704 20624537.73978401 -5247081.251555219 -14467520.204212278 13085643.388556898 25050742.806942623
2951094.55435936 7538894.351227112 133394828.78176808 -20624537.73978401 31055808.70348467 -7002253.8906592205 -6651959.482660166 -12382288.591968061
-14467520.204212278 118092804.03876297 -8402800.15562529 14467520.204212278 26280037.38719044 -3121443.974239198 6024795.603458186 -1844706.7217028034
3456994.500426396 46533067.89195752 4966150.695942001 7576762.854899113 -3456994.500426396 6336939.971297258 -2161373.2242207737 4966150.695942001
678325690.9604154 14107568.410832262 -1492010.6942207208 -13129411.465631321 26489857.002800323 -3209106.483770581 -6458161.390162722 -655678256.4622161
-786822848.9672972 1690593175.8827376 -3474487.728320789 3456994.500426396 -3184770.4457845828 -6425582.282680149 -898343281.5157708 -1253783.010072145
3456994.500426396 -8976232.571662704 -20624537.73978401 1529061786.6813545 5995270.012608781 -14467520.204212278 -896051013.0367446 -13227572.445782075
26619807.75239279 -5247081.251555219 -14467520.204212278 20624537.73978401 31055808.70348467 -3474487.728320789 5995270.012608781 172033859.98938566
6425582.282680149 8598130.109424945 -26619807.75239279 34923210.778850146 -7002253.8906592205 -8402800.15562529 14107568.410832262 -14467520.204212278
193080661.61166775 -26489857.002800323 34845650.16916204 -9593772.061440727 14467520.204212278 26280037.38719044 -4966150.695942001 7576762.854899113
-1492010.6942207208 3456994.500426396 61381482.51921288 -9569291.997144708 6458161.390162722 8619444.220374826 -3456994.500426396 6336939.971297258
-13129411.465631321 -26489857.002800323 676150156.2626042 -14135582.595058724 -6458161.390162722 -4133381.850986154 12354274.407741599 -3209106.483770581
-6458161.390162722 -655678256.4622161 -3184770.4457845828 6425582.282680149 903766917.6261894 3481266.4978075847 3456994.500426396 -985082.6545619059
-2944315.7848725645 -898343281.5157708 -1253783.010072145 3456994.500426396 -896051013.0367446 1519386376.6135745 26619807.75239279 -14467520.204212278
-604860709.8794926 -13227572.445782075 26619807.75239279 -5247081.251555219 -14467520.204212278 -6425582.282680149 8598130.109424945 3481266.4978075847
26619807.75239279 108298881.98783602 2944315.7848725645 5853024.325590601 -26619807.75239279 34923210.778850146 -7002253.8906592205 26489857.002800323
34845650.16916204 -14135582.595058724 -14467520.204212278 184622347.28610504 -12354274.407741599 24370040.161620118 -9593772.061440727 14467520.204212278
26280037.38719044 -9569291.997144708 -6458161.390162722 3456994.500426396 46129497.67886724 -6459552.710979125 6458161.390162722 8619444.220374826
-3456994.500426396 6336939.971297258 -4133381.850986154 -12354274.407741599 673488720.0345042 10468658.74799195 -6458161.390162722 -10467975.237531297
22822933.155733548 -3209106.483770581 -6458161.390162722 -655678256.4622161 -985082.6545619059 2944315.7848725645 903109663.414335 -2566332.907741543
3456994.500426396 -2527516.233930127 -5510648.692614107 -898343281.5157708 -1253783.010072145 3456994.500426396 -604860709.8794926 1452533501.9790459
26619807.75239279 -14467520.204212278 -829198138.402216 -13227572.445782075 26619807.75239279 -5247081.251555219 -14467520.204212278 -2944315.7848725645
5853024.325590601 -2566332.907741543 26619807.75239279 107023561.11549245 5510648.692614107 7974304.649066599 -26619807.75239279 34923210.778850146
-7002253.8906592205 12354274.407741599 24370040.161620118 10468658.74799195 -14467520.204212278 179548753.69604117 -22822933.155733548 32547516.11812578
-9593772.061440727 14467520.204212278 26280037.38719044 -6459552.710979125 -6458161.390162722 3456994.500426396 45415548.73073958 -8855343.049017042
00000000: 1baf d3c1 46b2 c341 0167 f112 0a9e 67c1
00000010: bbde b3fc 91d0 47c1 78f8 f2dd fb68 30c1
00000020: bbde b3fc 91d0 47c1 e629 3b98 6d8a c3c1
00000030: 8658 a3b9 48a1 c241 5d3f f546 db83 4641
00000040: def8 0d40 f15f 4a41 9e3f 2948 2d90 c2c1
00000050: 8d16 9402 9721 33c1 def8 0d40 f15f 4a41
00000060: 9f99 37fe 7b56 c241 e00e 6f6c 79f5 6841
00000070: 30e8 8806 3898 6bc1 8455 a9f3 d032 51c1
00000080: e00e 6f6c 79f5 6841 107b 1950 1a04 54c1
00000090: 30e8 8806 3898 6bc1 5d3f f546 db83 4641
000000a0: e00e 6f6c 79f5 6841 713a 11da 859c 9041
000000b0: e00e 6f6c 79f5 68c1 ab3c e96c e7e3 7741
000000c0: 888f 0079 23b6 5ac1 0167 f112 0a9e 67c1
000000d0: 30e8 8806 3898 6bc1 3f55 884f f226 9a41
000000e0: 77e7 e3de 0d60 59c1 30e8 8806 3898 6b41
000000f0: 9aee 3156 0610 7941 bbde b3fc 91d0 47c1
00000100: def8 0d40 f15f 4a41 2fcf 9f5d ced6 7d41
00000110: bbde b3fc 91d0 4741 150f 9fe6 96fb 5641
00000120: def8 0d40 f15f 4ac1 f9bb 29fe 6a2c 5841
00000130: 78f8 f2dd fb68 30c1 bbde b3fc 91d0 4741
00000140: 5f62 7030 c4c2 c341 0167 f112 0a9e 67c1
00000150: d283 c1b8 e225 3cc1 2d44 b39c 6e7d 40c1
00000160: 5250 8aac c1f1 52c1 e629 3b98 6d8a c3c1
00000170: 9e3f 2948 2d90 c2c1 7694 0f0d 220a d541
00000180: 5d3f f546 db83 4641 def8 0d40 f15f 4a41
00000190: 65d0 7b60 fb72 c7c1 8d16 9402 9721 33c1
000001a0: def8 0d40 f15f 4a41 8455 a9f3 d032 51c1
000001b0: e00e 6f6c 79f5 68c1 ddc5 80b2 f79a c241
000001c0: 4881 7a96 33c2 5c41 30e8 8806 3898 6bc1
000001d0: 950f 4b12 ed1e 61c1 c227 d69b 49ab 7341
000001e0: 107b 1950 1a04 54c1 30e8 8806 3898 6bc1
000001f0: e00e 6f6c 79f5 6841 ab3c e96c e7e3 7741
00000200: 5d3f f546 db83 4641 4881 7a96 33c2 5c41
00000210: d087 2033 c6cd 9f41 c227 d69b 49ab 73c1
00000220: 2479 410b fc9d 7d41 888f 0079 23b6 5ac1
00000230: 77e7 e3de 0d60 59c1 0167 f112 0a9e 67c1
00000240: 30e8 8806 3898 6bc1 7bb1 2710 d027 9c41
00000250: e3e1 fa04 ee06 60c1 30e8 8806 3898 6b41
00000260: 9aee 3156 0610 7941 bbde b3fc 91d0 47c1
00000270: 150f 9fe6 96fb 5641 d283 c1b8 e225 3cc1
00000280: def8 0d40 f15f 4a41 a0ba 225f 4e30 8641
00000290: 5250 8aac c1f1 5241 c5aa b6b6 2ee7 5c41
000002a0: def8 0d40 f15f 4ac1 f9bb 29fe 6a2c 5841
000002b0: 2d44 b39c 6e7d 40c1 5250 8aac c1f1 5241
000002c0: e4ee 7add 3637 c441 b389 250d 76e8 6a41
000002d0: fc72 b8b1 2ac4 36c1 a873 e66e d80a 69c1
000002e0: 5a78 0b10 4043 7941 c431 ec3d c97b 48c1
000002f0: 116d f858 cca2 58c1 e629 3b98 6d8a c3c1
00000300: 65d0 7b60 fb72 c7c1 c67e f8e5 1931 d941
00000310: 999d 39dd 1b82 4ac1 def8 0d40 f15f 4a41
00000320: 1e78 0f39 414c 48c1 7b6e 1792 fb82 58c1
00000330: c704 c2b8 d0c5 cac1 8d16 9402 9721 33c1
00000340: def8 0d40 f15f 4a41 950f 4b12 ed1e 61c1
00000350: c227 d69b 49ab 73c1 509b ab66 e8c8 d641
00000360: 1095 ce80 c1de 5641 30e8 8806 3898 6bc1
00000370: 0cb4 84a2 53b4 cac1 c5d8 438e c63a 69c1
00000380: 06cd 09fc f962 7941 107b 1950 1a04 54c1
00000390: 30e8 8806 3898 6bc1 c227 d69b 49ab 7341
000003a0: 2479 410b fc9d 7d41 999d 39dd 1b82 4ac1
000003b0: 1095 ce80 c1de 5641 c290 fa87 0e82 a441
000003c0: 7b6e 1792 fb82 5841 be68 8043 4e66 6041
000003d0: 06cd 09fc f962 79c1 c915 3b56 16a7 8041
000003e0: 888f 0079 23b6 5ac1 e3e1 fa04 ee06 60c1
000003f0: b389 250d 76e8 6a41 30e8 8806 3898 6bc1
00000400: 842c 39ab 5a04 a741 5a78 0b10 4043 79c1
00000410: a171 5a91 9e9d 8041 8b52 f781 754c 62c1
00000420: 30e8 8806 3898 6b41 9aee 3156 0610 7941
00000430: 5250 8aac c1f1 52c1 c5aa b6b6 2ee7 5c41
00000440: fc72 b8b1 2ac4 36c1 def8 0d40 f15f 4a41
00000450: 1559 2754 db44 8d41 059c e87f 8140 62c1
00000460: 116d f858 cca2 5841 824f 0d87 b670 6041
00000470: def8 0d40 f15f 4ac1 f9bb 29fe 6a2c 5841
00000480: a873 e66e d80a 69c1 5a78 0b10 4043 79c1
00000490: 049d 21c6 9d26 c441 98b8 0ad3 23f6 6ac1
000004a0: 116d f858 cca2 58c1 421d edec 0289 4fc1
000004b0: 1c38 0c4d 5c90 6741 c431 ec3d c97b 48c1
000004c0: 116d f858 cca2 58c1 e629 3b98 6d8a c3c1
000004d0: 1e78 0f39 414c 48c1 7b6e 1792 fb82 5841
000004e0: f926 d0c2 31ef ca41 b028 b83f 598f 4a41
000004f0: def8 0d40 f15f 4a41 f6bc 224f f50f 2ec1
00000500: 46b4 76e4 9d76 46c1 c704 c2b8 d0c5 cac1
00000510: 8d16 9402 9721 33c1 def8 0d40 f15f 4a41
00000520: 0cb4 84a2 53b4 cac1 ce44 27c2 ffa3 d641
00000530: 06cd 09fc f962 7941 30e8 8806 3898 6bc1
00000540: 3793 f092 b806 c2c1 c5d8 438e c63a 69c1
00000550: 06cd 09fc f962 7941 107b 1950 1a04 54c1
00000560: 30e8 8806 3898 6bc1 7b6e 1792 fb82 58c1
00000570: be68 8043 4e66 6041 b028 b83f 598f 4a41
00000580: 06cd 09fc f962 7941 498b f307 0ad2 9941
00000590: 46b4 76e4 9d76 4641 f679 d614 d853 5641
000005a0: 06cd 09fc f962 79c1 c915 3b56 16a7 8041
000005b0: 888f 0079 23b6 5ac1 5a78 0b10 4043 7941
000005c0: a171 5a91 9e9d 8041 98b8 0ad3 23f6 6ac1
000005d0: 30e8 8806 3898 6bc1 5c7c 9216 3a02 a641
000005e0: 1c38 0c4d 5c90 67c1 fafe 9582 b73d 7741
000005f0: 8b52 f781 754c 62c1 30e8 8806 3898 6b41
00000600: 9aee 3156 0610 7941 059c e87f 8140 62c1
00000610: 116d f858 cca2 58c1 def8 0d40 f15f 4a41
00000620: f351 6ecd 0aff 8541 97ae 802d 28a4 58c1
00000630: 116d f858 cca2 5841 824f 0d87 b670 6041
00000640: def8 0d40 f15f 4ac1 f9bb 29fe 6a2c 5841
00000650: 421d edec 0289 4fc1 1c38 0c4d 5c90 67c1
00000660: a26a 04a8 4f12 c441 d08c ef57 a6f7 6341
00000670: 116d f858 cca2 58c1 3cdb 99e7 50f7 63c1
00000680: 76e2 7d52 01c4 7541 c431 ec3d c97b 48c1
00000690: 116d f858 cca2 58c1 e629 3b98 6d8a c3c1
000006a0: f6bc 224f f50f 2ec1 46b4 76e4 9d76 4641
000006b0: ee08 b50f 2eea ca41 f8df 3074 5e94 43c1
000006c0: def8 0d40 f15f 4a41 236c f11d 8e48 43c1
000006d0: 1fca 532c 7e05 55c1 c704 c2b8 d0c5 cac1
000006e0: 8d16 9402 9721 33c1 def8 0d40 f15f 4a41
000006f0: 3793 f092 b806 c2c1 b0a8 7ebf f9a4 d541
00000700: 06cd 09fc f962 7941 30e8 8806 3898 6bc1
00000710: d07b 339d 47b6 c8c1 c5d8 438e c63a 69c1
00000720: 06cd 09fc f962 7941 107b 1950 1a04 54c1
00000730: 30e8 8806 3898 6bc1 46b4 76e4 9d76 46c1
00000740: f679 d614 d853 5641 f8df 3074 5e94 43c1
00000750: 06cd 09fc f962 7941 a743 7624 3384 9941
00000760: 1fca 532c 7e05 5541 a24e 8a29 686b 5e41
00000770: 06cd 09fc f962 79c1 c915 3b56 16a7 8041
00000780: 888f 0079 23b6 5ac1 1c38 0c4d 5c90 6741
00000790: fafe 9582 b73d 7741 d08c ef57 a6f7 6341
000007a0: 30e8 8806 3898 6bc1 825f 64a3 6467 a541
000007b0: 76e2 7d52 01c4 75c1 dcd7 e3c1 2b0a 7f41
000007c0: 8b52 f781 754c 62c1 30e8 8806 3898 6b41
000007d0: 9aee 3156 0610 7941 97ae 802d 28a4 58c1
000007e0: 116d f858 cca2 58c1 def8 0d40 f15f 4a41
000007f0: fe8d d8e5 e3a7 8541 308c 91e1 e5e3 60c1

x f8 [1308]
1.1730717326514517e-05 3.0745431169939295e-05 -1.6860145904790648e-05 -0.00012982266317252005 5.79234078718897e-05 -5.489065611900015e-07 1.868869253682882e-05 3.0165578978443666e-05
-3.7262778563712215e-05 4.298067294495534e-05 9.751692112142095e-05 1.3559517929268987e-06 5.195977168855987e-07 2.9910687007227467e-05 -2.7080256355480414e-05 1.524239289110671e-05
3.1376541051571024e-05 1.3624215619272193e-06 -1.5209699168550572e-06 1.8582975333572318e-05 -3.589351905688155e-05 -3.99345931404033e-06 -3.733293482976457e-06 -2.348421830691465e-07
-2.167995813282434e-05 1.5852127403513422e-05 -4.845383454959444e-05 -3.6805984503113457e-06 -5.022664727526372e-06 -6.755197084259161e-07 -2.1648959604496447e-05 1.2642862753256014e-06
-5.6900357346175024e-05 -3.910071040012239e-05 4.732771329695518e-05 -2.528584846353879e-06 -7.978089103434148e-07 2.973677532786216e-05 -3.224953507339333e-05 -5.336372128174377e-06
2.813574428462262e-06 -3.1328451363895164e-08 -3.1998012556724593e-06 1.866282611965213e-05 -5.429250085932679e-05 -2.491850077539759e-06 3.399884318021491e-06 -2.962187922572649e-07
-2.0863364810254888e-05 1.6126655523102167e-05 -8.665494908992314e-05 -7.019389131952518e-06 -1.3311409644709342e-05 -2.9477610276485555e-07 -1.2726176449432983e-05 9.692454342685986e-07
-0.00010989829509898504 -1.5875203355102583e-05 9.414652130182525e-05 -1.769023397048219e-06 -1.955672193322611e-06 2.9649387865445545e-05 -3.783345175828889e-05 3.196608953599058e-06
9.3235537000434e-07 5.8029421074078704e-08 -4.176509151855096e-06 1.8704921644962564e-05 -6.336572781154501e-05 2.1359427020448223e-06 5.008087948247439e-06 -4.858488253222787e-07
-1.9430346848893833e-05 1.6701884985713514e-05 -0.00010100328854154046 7.6217899589423e-06 -1.3731371234083296e-05 -1.6268018333221497e-06 -7.185159341680491e-06 3.409512888265525e-07
-0.00012818594961871022 -7.731057912365029e-06 0.00010633297766884006 -3.176287426551957e-06 -3.243507164201182e-06 2.962288298005677e-05 -1.6595382178757895e-05 -1.1756827214278915e-06
-2.5124362835113037e-06 -8.704509795296678e-08 -5.126593377417051e-06 1.8719497114252406e-05 -2.7887423980841445e-05 7.400743022562259e-06 5.50460478574564e-06 -9.328933663048604e-07
-1.1651342024488454e-06 1.7340863194953995e-05 -4.416345216906279e-05 4.977068299227901e-07 -4.479792057467619e-06 -2.5731834672621275e-06 2.2013986394230992e-05 -3.137585453020146e-07
-5.541221714161775e-05 9.05852838817886e-05 5.8340121192420805e-05 -4.632762557774588e-06 1.0695799969749957e-05 3.135272380417519e-05 -3.950093503965073e-05 -0.00021862108083417286
-2.5513472966950965e-07 -1.6749984442688511e-06 1.7019889232868045e-05 3.040167641093313e-05 -7.816892390658838e-05 9.273636624636815e-05 -2.4283707636052915e-05 -1.238091999234161e-07
-1.080171989583644e-05 7.076791476062303e-06 -8.813162444123634e-05 -6.798110494120162e-06 2.4825285333563082e-06 -4.368476219991036e-07 -2.1998839865166205e-05 1.4875635744911914e-05
-0.00010302975729489623 3.962861015915202e-06 -3.6219835843223168e-06 9.025479157931371e-07 -3.469209066784291e-05 -1.6070107945015387e-05 -0.0001138929605645975 -2.209718711844984e-08
3.8078139178435412e-06 -7.53841927832489e-07 -6.763673645041701e-05 4.7524620317178985e-05 -0.00012841024741404254 -9.186839413392283e-06 -8.134719089484695e-06 -1.6278226865190754e-06
8.787625993471878e-06 8.08888481662821e-05 -0.00013967240791892927 -7.012986202920124e-05 7.612369258566269e-05 -1.4793225419440685e-06 1.0420486786359734e-06 2.9450122795177354e-05
-5.495042130132781e-05 7.2404671116454545e-06 -2.0770329425667655e-05 2.000807185319899e-07 -2.703087225185352e-06 7.677090744647901e-06 -8.330253643790273e-05 -1.4958085824702923e-07
5.088295236074489e-06 -7.573326327702e-07 -2.0164435389073856e-05 1.4925449006037216e-05 -0.00012507833359085477 -6.533292372371283e-06 7.0362097774577695e-06 1.316454189757019e-07
-2.3122365666006555e-05 -1.6198424919026123e-05 -0.00015596790776566675 -2.7854192585197164e-05 -1.3836279014651448e-05 -1.6133479757487258e-06 -7.555134913999846e-05 4.801171577149063e-05
-0.0001849254547547658 -1.445945347037011e-05 -1.6044030548366697e-05 -6.202856757845253e-08 1.0923598124784109e-05 8.048460749577719e-05 -0.00020737907258473395 1.1006352568480439e-05
0.00011130391554133768 -2.3256872492600024e-07 -5.480443245908171e-07 2.871835250015182e-05 -6.23769694505203e-05 -4.871271945857458e-06 4.552212306490283e-07 -6.324818603224046e-07
-3.5816068056600845e-06 8.172766550884226e-06 -0.00010468034122305734 -4.102415746724088e-06 8.13994483945604e-07 -2.4272323193894403e-07 -1.8102170056503425e-05 1.5231591778493769e-05
-0.00016783864482980093 -8.529515895105294e-06 1.2702121508138278e-05 3.819740714306675e-07 -1.539290613893163e-05 -1.6563425362731146e-05 -0.0002145451029072068 -1.3008296887262184e-05
-4.2702873775371744e-05 -1.0417369709479489e-06 -8.340400996609906e-05 4.834875325830544e-05 -0.0002462829566535459 -7.869952358429974e-06 -1.7609945152027186e-05 -7.007801542917714e-07
7.968549969479777e-06 8.02039562658251e-05 -0.0002718438899929022 -5.041516424544597e-05 0.00012128861260653963 -8.442679772173058e-07 -1.7002218671094829e-06 2.796162083164803e-05
-7.241520175956174e-05 9.747169572072118e-06 2.55910267550519e-06 -5.964410389439553e-07 -4.524757184568137e-06 8.68341144823507e-06 -0.00012233325440756904 9.778571580038305e-07
9.020490482466986e-07 -3.902573739584252e-07 -1.635870773500164e-05 1.5870219659812345e-05 -0.00019677424459500683 1.1552852495205938e-05 1.1382318979906987e-05 -4.083573682877585e-07
-1.0249065913352531e-05 -1.739384921746054e-05 -0.00025257248978463343 -4.836531671732624e-05 -2.5315465375509383e-05 -2.2353442831033785e-06 -8.410660746420947e-05 4.918866670621663e-05
-0.000269477673000592 -1.0518024889179962e-05 -1.503806025353006e-05 -2.826822997040164e-06 1.9020250345332258e-05 7.950417476301443e-05 -0.0002831623212152514 9.112108565199477e-05
00000000: 74f5 4883 e199 e83e 5524 94f8 941e 003f
00000010: 343a 7e67 dcad f1be 3700 6a2f 2004 21bf
00000020: 94ef cd23 595e 0e3f e6f7 0d4b 126b a2be
00000030: 6fe7 082c b598 f33e f2bb 86cd 82a1 ff3e
00000040: 6d29 8352 5389 03bf 5b84 61ad c488 063f
00000050: f72f b6f2 3f90 193f 1cba 55c3 c4bf b63e
00000060: ddc0 8476 4f6f a13e 2925 8cc2 165d ff3e
00000070: 9ca3 ef0b 4d65 fcbe ea3e 0187 32f7 ef3e
00000080: e203 cebd 4973 003f 0bdf 6959 8edb b63e
00000090: 89a4 ec1b 8484 b9be 1fb6 5357 547c f33e
000000a0: 35cb 84ec 8bd1 02bf 6b86 dabc f1bf d0be
000000b0: 3961 16cc 2f51 cfbe 569e 14b0 1d85 8fbe
000000c0: 4965 e860 abbb f6be 207e 7be6 459f f03e
000000d0: d31c fb13 5d67 09bf b094 8a65 06e0 cebe
000000e0: c72d 4d91 0b11 d5be 8bbf 648c abaa a6be
000000f0: e5c4 072d 59b3 f6be dc22 e775 1136 b53e
00000100: afbd 3664 09d5 0dbf d9f4 e92d 0280 04bf
00000110: 863b b0d8 37d0 083f 1983 5e38 1836 c5be
00000120: 20bc ea58 20c5 aabe 9bc2 eda3 672e ff3e
00000130: f6b3 6d96 75e8 00bf 61d3 1fcd e261 d6be
00000140: 7cd0 5ce6 1a9a c73e cbed c6e3 bfd1 60be
00000150: 29a6 f557 85d7 cabe 4c25 36a5 c391 f33e
00000160: ca89 f71f 0477 0cbf 9e5e 4511 35e7 c4be
00000170: 7df4 9d2b 3285 cc3e 6984 9b06 00e1 93be
00000180: 9c28 4183 77e0 f5be 4593 3c54 f7e8 f03e
00000190: facb 83b0 50b7 16bf 961e 1cfe 0271 ddbe
000001a0: c760 f735 82ea ebbe 3073 a402 37c8 93be
000001b0: fe08 775f 50b0 eabe 50a4 09a0 e042 b03e
000001c0: 471c 5655 26cf 1cbf 8978 eaaa 77a5 f0be
000001d0: 3c48 8beb 10ae 183f c618 7ccb e5ad bdbe
000001e0: 38da 8828 c667 c0be 7895 6e6b f216 ff3e
000001f0: 7e62 0481 ebd5 03bf 2839 625b aad0 ca3e
00000200: acb5 1d24 df48 af3e d761 40be 8027 6f3e
00000210: 2d04 1018 7e84 d1be 6b3f 866d 109d f33e
00000220: 9a08 20ea 669c 10bf 3f1c 28eb e6ea c13e
00000230: 6b43 a6bb 6401 d53e fcc0 95dd 684d a0be
00000240: 965b ac44 cb5f f4be 550b f6cb 6083 f13e
00000250: 15b8 c748 377a 1abf 76f4 cbab d5f7 df3e
00000260: fb34 ca4a f9cb ecbe 33af 2588 0f4b bbbe
00000270: db28 978f 0123 debe 5de3 53a0 7fe1 963e
00000280: 9c1e 3fec 34cd 20bf 1e9d 3a82 9436 e0be
00000290: 56a5 73a5 e2df 1b3f bd20 b57a 06a5 cabe
000002a0: 508f c0eb 6035 cbbe 9c9f 8e04 d50f ff3e
000002b0: 3553 c4fa c966 f1be ad0e a2d2 84b9 b3be
000002c0: 7fb5 3174 6a13 c5be b895 b48e b15d 77be
000002d0: a8dc e041 a380 d5be 6a4f e40b faa0 f33e
000002e0: c970 f82e f93d fdbe 6bb4 7ac0 7c0a df3e
000002f0: a89f f73d 8616 d73e 46be 1b35 7e4d afbe
00000300: 8bc3 7f9a 368c b3be db13 7f0b e72e f23e
00000310: 32fe 75a9 8427 07bf fef5 b8e4 44b3 a03e
00000320: 7bd5 42dd 23ca d2be 868a 4292 de95 c5be
00000330: 74ff 39a0 5515 f73e ac36 edac 540e 95be
00000340: a061 8b48 4d0d 0dbf 85d1 bb53 13bf 173f
00000350: cc77 ef4c 4796 0e3f f98e 4313 646e d3be
00000360: fa63 ec8d 436e e63e 49c4 1463 1770 003f
00000370: b9ad 12cb b9b5 04bf b683 e8c8 b4a7 2cbf
00000380: 1002 5e68 2e1f 91be 2649 1744 101a bcbe
00000390: 1a08 d7e1 bdd8 f13e 83b7 7b4b e3e0 ff3e
000003a0: 806a 10e3 d37d 14bf 99b5 05a4 6e4f 183f
000003b0: e8e6 94ae 9b76 f9be faef 513d 0d9e 80be
000003c0: edb2 0314 21a7 e6be a44a faa0 a5ae dd3e
000003d0: f146 64c7 691a 17bf 7492 4062 6a83 dcbe
000003e0: ac14 8e7e 30d3 c43e 4cc8 e928 fc50 9dbe
000003f0: 8258 abc3 4411 f7be 7a5e 1bcf 4b32 ef3e
00000400: 8257 9cc0 3502 1bbf 1763 0af1 169f d03e
00000410: 7d91 8588 2662 cebe ebff 27db d348 ae3e
00000420: 4d33 a628 4b30 02bf 96f9 b868 c9d9 f0be
00000430: 02b6 d929 3adb 1dbf 9aba b04e 07ba 57be
00000440: 8cf8 ebd6 37f1 cf3e 800b 29ee 734b a9be
00000450: e3a9 c448 06bb 11bf 90af 2785 a5ea 083f
00000460: ed8d 50a0 bbd4 20bf 6ebb 3d98 2544 e3be
00000470: 7855 4847 4b0f e1be b7eb c6f8 714f bbbe
00000480: ac57 bb1e d26d e23e 3006 77d4 5b34 153f
00000490: 2734 2cd9 a04e 22bf 5290 05db 5562 12bf
000004a0: d4b6 9614 93f4 133f b28f 0a56 a4d1 b8be
000004b0: 03e9 8ca3 907b b13e 4760 3e07 75e1 fe3e
000004c0: 7f41 6019 52cf 0cbf adfa e771 645e de3e
000004d0: 9fcc 752b 7ec7 f5be 455c b69c b8da 8a3e
000004e0: f2c1 e0ea d5ac c6be 84c5 5151 9b19 e03e
000004f0: 6130 bfad 56d6 15bf 3346 bb24 8f13 84be
00000500: 688b c4f1 8357 d53e 14a9 5712 7069 a9be
00000510: 955e d872 d924 f5be 64da 6b17 0a4d ef3e
00000520: adfc 54b4 ee64 20bf f2da 96bb 1167 dbbe
00000530: 1470 cf9d 1283 dd3e 5208 ec59 4dab 813e
00000540: fa59 95de dc3e f8be a450 cd48 3bfc f0be
00000550: cee6 4b20 6a71 24bf 6566 138a 0d35 fdbe
00000560: 2e28 2db5 4b04 edbe 1c6a e6db 4611 bbbe
00000570: 0f8f 7e4b 2ace 13bf a2f3 14fe 052c 093f
00000580: 409c 8c8f 113d 28bf 9b47 1a27 dc52 eebe
00000590: 2625 4f62 c9d2 f0be 3028 d519 92a6 70be
000005a0: 41a5 f8e4 8fe8 e63e bdc2 3107 3b19 153f
000005b0: 8021 54ab 7c2e 2bbf ce3b 1c94 fd14 e73e
000005c0: 1d36 6bb5 7a2d 1d3f 0e17 7523 0037 8fbe
000005d0: 9e4f 0037 aa63 a2be d860 1228 061d fe3e
000005e0: 4c77 dd2c 0c5a 10bf 6abc 6009 7d6e d4be
000005f0: ed36 2e25 a48c 9e3e 38ee ce51 fa38 a5be
00000600: fbdd 1a2a 710b cebe e84b 527b b823 e13e
00000610: 5b4b 7f91 fa70 1bbf d40f 3174 ef34 d1be
00000620: ac87 d2cc 2850 ab3e 6185 3a10 f449 90be
00000630: f110 71a7 43fb f2be a2c4 a308 66f1 ef3e
00000640: 893b 29fb baff 25bf a0b1 fdbc 3fe3 e1be
00000650: 8dbb 7549 66a3 ea3e 80a9 70bb 43a2 993e
00000660: 0771 8f74 0024 f0be 3493 83ec 355e f1be
00000670: f661 a866 f01e 2cbf c365 ecb5 c647 ebbe
00000680: ee34 0b92 7b63 06bf 37de a2e9 397a b1be
00000690: d921 0bfb 25dd 15bf 5af7 2a83 4259 093f
000006a0: d049 903e f123 30bf 94b2 1904 2681 e0be
000006b0: 3caf 5837 2277 f2be 0096 37db a783 a7be
000006c0: f076 222b 15b6 e03e 351a 087a 6506 153f
000006d0: b0af fc9d c8d0 31bf 71ce 6eda 9b6e 0abf
000006e0: 2ac6 827f 8acb 1f3f 2c18 73ea 3454 acbe
000006f0: 3e95 72b6 6586 bcbe cd15 c6f3 e351 fd3e
00000700: 9414 73b1 b3fb 12bf ed66 09c9 f870 e43e
00000710: d076 fe92 a177 c53e 2791 17b7 6303 a4be
00000720: c073 c9c8 6bfa d2be fe26 65fb de35 e23e
00000730: 569e 5ea7 d208 20bf a085 c650 dd67 b03e
00000740: 42b8 b1d5 8a44 ae3e 2104 fc14 9230 9abe
00000750: c29d ebd5 4127 f1be 0338 d230 21a4 f03e
00000760: e045 f5e3 a5ca 29bf 98f3 e0f4 633a e83e
00000770: df0a 3902 d6de e73e 5ae7 e9b2 8667 9bbe
00000780: 4c8a a8e4 6c7e e5be 3c4b 7637 203d f2be
00000790: d1e1 5f95 768d 30bf 3be7 e4a0 7b5b 09bf
000007a0: d1da af88 918b fabe e36e 0384 5dc0 c2be
000007b0: 76cd 8483 4c0c 16bf 007c fcb7 fdc9 093f
000007c0: 27e2 e3ca 15a9 31bf 412b 5755 d20e e6be
000007d0: 9958 7443 7f89 efbe 42e6 a060 8eb6 c7be
000007e0: 5ebb afa6 b5f1 f33e 1447 6f52 6fd7 143f
000007f0: ef65 b9e8 ac8e 32bf ccfa d654 08e3 173f

b f8 [1308]
9.094947017729282e-13 -1.4805934256401088e-12 -11969.74527818179 -6079.925491960006 5225.426074408603 -5.329070518200751e-15 3.637978807091713e-12 3.1697977576072844e-12
-21255.88761030299 2451.2398566705706 9405.695676965786 -1.27675647831893e-14 1.1368683772161603e-13 -1.0451528531518761e-11 -9286.142332121206 3628.6856352894333
4180.26960255718 8.43769498715119e-15 -2.2737367544323206e-13 1.0382805726294464e-12 5.087485988042317e-12 9.348077867343818e-14 -4.263256414560601e-13 -4.440892098500626e-15
-5.4569682106375694e-12 -5.07921482650886e-12 -1.0231815394945443e-11 4.050093593832571e-13 -2.2737367544323206e-13 8.659739592076221e-14 0.0 -1.092459456231154e-13
-7730.977688674034 -2783.675604717236 3291.5078198920564 -2.4868995751603507e-14 5.684341886080802e-14 2.1036949959807316e-11 -5.307754236127948e-12 -1.5631940186722204e-13
1.2434497875801753e-13 -2.6645352591003757e-15 4.547473508864641e-13 -2.2859492077031973e-13 1.4210854715202004e-13 4.263256414560601e-14 -2.6290081223123707e-13 2.375877272697835e-14
-1.8189894035458565e-12 5.0246473648485335e-12 -5.9401372709544376e-12 -9.663381206337363e-13 2.2737367544323206e-13 3.9968028886505635e-15 1.8189894035458565e-12 -1.7275070263167436e-13
-18956.60580018396 -2309.8858728979303 8449.726900999758 5.5067062021407764e-14 0.0 2.9398705692074145e-12 1.3365308859647484e-11 -1.7053025658242404e-13
4.689582056016661e-13 -6.661338147750939e-15 0.0 1.155520124029863e-12 -9.347189688924118e-12 1.092459456231154e-13 3.517186542012496e-13 -1.9095836023552692e-14
-1.6370904631912708e-11 -2.992939229784497e-12 4.192202140984591e-11 2.8421709430404007e-13 4.547473508864641e-13 -1.4344081478157023e-13 9.094947017729282e-13 6.217248937900877e-15
-21917.40468479737 456.1791903652571 10062.225177428165 -1.4210854715202004e-14 6.821210263296962e-13 7.522871214860061e-13 3.979039320256561e-12 1.1368683772161603e-13
2.2737367544323206e-13 1.0658141036401503e-14 -9.094947017729282e-13 -7.474021401776554e-13 -3.2223113066720543e-12 -2.2737367544323206e-13 5.755396159656812e-13 -3.4638958368304884e-14
-8.810729923425242e-13 1.0119682869458302e-12 -7.332801033044234e-12 -1.4344081478157023e-13 -4.547473508864641e-13 8.37108160567368e-14 -1.8189894035458565e-12 -6.039613253960852e-14
-10691.776573287418 4637.3822872499095 4904.006096320452 -2.4868995751603507e-14 -9.094947017729282e-13 1.5170087408478139e-12 -24308.12640816476 -12172.475510311417
497.80823930179395 2.3092638912203256e-14 -7.275957614183426e-12 -5.6488147492927965e-12 -33594.268740285974 8543.789875021988 -3682.4613632553855 6.661338147750939e-15
-1.8189894035458565e-12 1.1404210908949608e-12 3.7331915336835664e-11 9.805489753489383e-13 -2.7000623958883807e-13 9.769962616701378e-15 5.4569682106375694e-12 9.170442183403793e-13
-7.247535904753022e-11 -9.094947017729282e-13 -1.0231815394945443e-12 7.105427357601002e-14 7.275957614183426e-12 -1.1879386363489175e-12 8.398615136684384e-12 -3.552713678800501e-14
1.7053025658242404e-13 -4.440892098500626e-15 7.275957614183426e-12 -1.582112219011833e-11 5.832134775118902e-11 1.7053025658242404e-13 -1.5916157281026244e-12 -1.5987211554602254e-14
1.8189894035458565e-12 6.907363570007874e-12 -9493.25923210659 -3740.439360117809 4366.994796131994 6.927791673660977e-14 3.410605131648481e-13 8.363809644862386e-12
-9286.142332121199 3628.6856352894324 -4180.26960255718 -2.225997164373439e-14 1.1368683772161603e-12 3.078870491890484e-12 2.0605739337042905e-11 1.708855279503041e-12
1.4210854715202004e-14 -2.6645352591003757e-14 5.4569682106375694e-12 -3.5724756486388287e-12 2.1383783632700215e-11 9.947598300641403e-14 1.7763568394002505e-13 1.5765166949677223e-14
3.637978807091713e-12 3.860023412016744e-12 -7730.97768867408 -2783.67560471724 -3291.5078198920573 -7.283063041541027e-14 0.0 -1.6819878823071122e-12
2.7284841053187847e-11 -8.739675649849232e-13 -1.3642420526593924e-12 7.993605777301127e-15 1.8189894035458565e-12 3.018896244100233e-11 -17321.116645300353 871.0340590841785
7730.579504571241 -5.047073869945962e-13 -1.1368683772161603e-13 -4.377831430701917e-12 -9.555911617553647e-12 4.192202140984591e-13 3.836930773104541e-13 1.687538997430238e-14
0.0 1.9576562593215385e-12 9.482192808718537e-12 1.3500311979441904e-13 2.2737367544323206e-13 -6.217248937900877e-15 -5.4569682106375694e-12 -1.904010282771651e-11
-2.2016166667526704e-11 3.637978807091713e-12 1.4921397450962104e-13 -1.1102230246251565e-14 -7.275957614183426e-12 -1.13447029548297e-11 -18956.605800184112 -2309.885872897932
-8449.726900999765 -1.3766765505351941e-14 -2.9103830456733704e-11 4.845013279464183e-12 2.3646862246096134e-11 -1.2221335055073723e-12 -3.410605131648481e-12 -2.611244553918368e-13
1.8189894035458565e-12 2.2497559371004172e-12 -19388.93173555149 -2381.024124091241 8834.68230373626 5.5067062021407764e-14 -4.547473508864641e-13 1.6566747973456586e-11
4.979128220838902e-11 -5.329070518200751e-13 -1.2079226507921703e-13 -1.687538997430238e-14 4.092726157978177e-12 1.6715517858756357e-12 -7.823075520718703e-12 -1.2789769243681803e-12
-4.689582056016661e-13 -8.881784197001252e-15 3.637978807091713e-12 1.4115708601991628e-11 1.7973178501051734e-11 -9.769962616701378e-13 4.121147867408581e-13 -4.4853010194856324e-14
0.0 1.1016965117960353e-11 -32910.35448208754 -4324.021956422476 -4878.133479924272 1.723066134218243e-13 0.0 -4.289901767151605e-12
2.2737367544323206e-13 6.608047442568932e-13 9.094947017729282e-13 -9.947598300641403e-14 -3.637978807091713e-12 -3.4585667663122877e-12 -11561.074322357661 5250.429425124878
00000000: 0000 0000 0000 703d 0000 0000 000c 7abd
00000010: 9b84 4665 df60 c7c0 f084 0aed ecbf b7c0
00000020: 9d62 3613 6d69 b440 0000 0000 0000 f8bc
00000030: 0000 0000 0000 903d 0000 0000 c0e1 8b3d
00000040: bc71 9bce f8c1 d4c0 a857 7ece 7a26 a340
00000050: 515c f10b d95e c240 0000 0000 00c0 0cbd
00000060: 0000 0000 0000 403d 0000 0000 b0fb a6bd
00000070: e05e f037 1223 c2c0 33b2 960b 5f59 ac40
00000080: 0256 ac04 4554 b040 0000 0000 0000 033d
00000090: 0000 0000 0000 50bd 0000 0000 0044 723d
000000a0: 0000 0000 0060 963d 0000 0000 0050 3a3d
000000b0: 0000 0000 0000 5ebd 0000 0000 0000 f4bc
000000c0: 0000 0000 0000 98bd 0000 0000 b056 96bd
000000d0: 0000 0000 0080 a6bd 0000 0000 0080 5c3d
000000e0: 0000 0000 0000 50bd 0000 0000 0060 383d
000000f0: 0000 0000 0000 0000 0000 0000 00c0 3ebd
00000100: a510 ce49 fa32 bec0 1b8b dce8 59bf a5c0
00000110: 4809 f800 04b7 a940 0000 0000 0000 1cbd
00000120: 0000 0000 0000 303d 0000 0000 6021 b73d
00000130: 0000 0000 0058 97bd 0000 0000 0000 46bd
00000140: 0000 0000 0080 413d 0000 0000 0000 e8bc
00000150: 0000 0000 0000 603d 0000 0000 0016 50bd
00000160: 0000 0000 0000 443d 0000 0000 0000 283d
00000170: 0000 0000 0080 52bd 0000 0000 00c0 1a3d
00000180: 0000 0000 0000 80bd 0000 0000 4019 963d
00000190: 0000 0000 0020 9abd 0000 0000 0000 71bd
000001a0: 0000 0000 0000 503d 0000 0000 0000 f23c
000001b0: 0000 0000 0000 803d 0000 0000 0050 48bd
000001c0: 8122 6ec5 2683 d2c0 0cea 2191 c50b a2c0
000001d0: b28a 170b dd80 c040 0000 0000 0000 2f3d
000001e0: 0000 0000 0000 0000 0000 0000 00dc 893d
000001f0: 0000 0000 0064 ad3d 0000 0000 0000 48bd
00000200: 0000 0000 0080 603d 0000 0000 0000 febc
00000210: 0000 0000 0000 0000 0000 0000 0054 743d
00000220: 0000 0000 008e a4bd 0000 0000 00c0 3e3d
00000230: 0000 0000 00c0 583d 0000 0000 0080 15bd
00000240: 0000 0000 0000 b2bd 0000 0000 8053 8abd
00000250: 0000 0000 000c c73d 0000 0000 0000 543d
00000260: 0000 0000 0000 603d 0000 0000 0030 44bd
00000270: 0000 0000 0000 703d 0000 0000 0000 fc3c
00000280: 7910 5be6 5967 d5c0 9a68 b7f6 dd82 7c40
00000290: e22c 9dd2 1ca7 c340 0000 0000 0000 10bd
000002a0: 0000 0000 0000 683d 0000 0000 0078 6a3d
000002b0: 0000 0000 0080 913d 0000 0000 0000 403d
000002c0: 0000 0000 0000 503d 0000 0000 0000 083d
000002d0: 0000 0000 0000 70bd 0000 0000 004c 6abd
000002e0: 0000 0000 0058 8cbd 0000 0000 0000 50bd
000002f0: 0000 0000 0040 643d 0000 0000 0080 23bd
00000300: 0000 0000 0000 6fbd 0000 0000 80cd 713d
00000310: 0000 0000 0020 a0bd 0000 0000 0030 44bd
00000320: 0000 0000 0000 60bd 0000 0000 0090 373d
00000330: 0000 0000 0000 80bd 0000 0000 0000 31bd
00000340: 34e4 c066 e3e1 c4c0 0ac4 93dd 611d b240
00000350: f848 878f 0128 b340 0000 0000 0000 1cbd
00000360: 0000 0000 0000 70bd 0000 0000 00b0 7a3d
00000370: 6645 1217 08bd d7c0 399a 85dd 3cc6 c7c0
00000380: c088 558c ee1c 7f40 0000 0000 0000 1a3d
00000390: 0000 0000 0000 a0bd 0000 0000 00d8 98bd
000003a0: 6c3a 8599 4867 e0c0 afed 9f1a e5af c040
000003b0: eafa cd37 ecc4 acc0 0000 0000 0000 fe3c
000003c0: 0000 0000 0000 80bd 0000 0000 0010 743d
000003d0: 0000 0000 0086 c43d 0000 0000 0040 713d
000003e0: 0000 0000 0000 53bd 0000 0000 0000 063d
000003f0: 0000 0000 0000 983d 0000 0000 0022 703d
00000400: 0000 0000 00ec d3bd 0000 0000 0000 70bd
00000410: 0000 0000 0000 72bd 0000 0000 0000 343d
00000420: 0000 0000 0000 a03d 0000 0000 00e6 74bd
00000430: 0000 0000 0078 a23d 0000 0000 0000 24bd
00000440: 0000 0000 0000 483d 0000 0000 0000 f4bc
00000450: 0000 0000 0000 a03d 0000 0000 4065 b1bd
00000460: 0000 0000 0008 d03d 0000 0000 0000 483d
00000470: 0000 0000 0000 7cbd 0000 0000 0000 12bd
00000480: 0000 0000 0000 803d 0000 0000 0061 9e3d
00000490: f085 842e a18a c2c0 5032 cff3 e038 adc0
000004a0: 1a95 f5aa fe0e b140 0000 0000 0080 333d
000004b0: 0000 0000 0000 583d 0000 0000 6864 a23d
000004c0: dc5e f037 1223 c2c0 31b2 960b 5f59 ac40
000004d0: 0256 ac04 4554 b0c0 0000 0000 0010 19bd
000004e0: 0000 0000 0000 743d 0000 0000 0015 8b3d
000004f0: 0000 0000 00a8 b63d 0000 0000 0010 7e3d
00000500: 0000 0000 0000 103d 0000 0000 0000 1ebd
00000510: 0000 0000 0000 983d 0000 0000 806c 8fbd
00000520: 0000 0000 0083 b73d 0000 0000 0000 3c3d
00000530: 0000 0000 0000 493d 0000 0000 00c0 113d
00000540: 0000 0000 0000 903d 0000 0000 00fa 903d
00000550: d810 ce49 fa32 bec0 238b dce8 59bf a5c0
00000560: 4a09 f800 04b7 a9c0 0000 0000 0080 34bd
00000570: 0000 0000 0000 0000 0000 0000 0097 7dbd
00000580: 0000 0000 0000 be3d 0000 0000 00c0 6ebd
00000590: 0000 0000 0000 78bd 0000 0000 0000 023d
000005a0: 0000 0000 0000 803d 0000 0000 b898 c03d
000005b0: 90d9 1d77 47ea d0c0 6de5 c4c0 4538 8b40
000005c0: 5d5d 695a 9432 be40 0000 0000 00c2 61bd
000005d0: 0000 0000 0000 40bd 0000 0000 0041 93bd
000005e0: 0000 0000 8003 a5bd 0000 0000 0080 5d3d
000005f0: 0000 0000 0000 5b3d 0000 0000 0000 133d
00000600: 0000 0000 0000 0000 0000 0000 4038 813d
00000610: 0000 0000 00da a43d 0000 0000 0000 433d
00000620: 0000 0000 0000 503d 0000 0000 0000 fcbc
00000630: 0000 0000 0000 98bd 0000 0000 50ef b4bd
00000640: 0000 0000 0035 b8bd 0000 0000 0000 903d
00000650: 0000 0000 0000 453d 0000 0000 0000 09bd
00000660: 0000 0000 0000 a0bd 0000 0000 80f2 a8bd
00000670: ab22 6ec5 2683 d2c0 10ea 2191 c50b a2c0
00000680: b68a 170b dd80 c0c0 0000 0000 0000 0fbd
00000690: 0000 0000 0000 c0bd 0000 0000 004f 953d
000006a0: 0000 0000 0000 ba3d 0000 0000 0080 75bd
000006b0: 0000 0000 0000 8ebd 0000 0000 0060 52bd
000006c0: 0000 0000 0000 803d 0000 0000 00ca 833d
000006d0: 8b26 8ea1 3bef d2c0 da2d fe59 0c9a a2c0
000006e0: 9694 ba55 5741 c140 0000 0000 0000 2f3d
000006f0: 0000 0000 0000 60bd 0000 0000 2037 b23d
00000700: 0000 0000 805f cb3d 0000 0000 00c0 62bd
00000710: 0000 0000 0000 41bd 0000 0000 0000 13bd
00000720: 0000 0000 0000 923d 0000 0000 0068 7d3d
00000730: 0000 0000 0034 a1bd 0000 0000 0080 76bd
00000740: 0000 0000 0080 60bd 0000 0000 0000 04bd
00000750: 0000 0000 0000 903d 0000 0000 700a af3d
00000760: 0000 0000 00c3 b33d 0000 0000 0030 71bd
00000770: 0000 0000 0000 5d3d 0000 0000 0040 29bd
00000780: 0000 0000 0000 0000 0000 0000 003a a83d
00000790: a0d1 ea57 cb11 e0c0 79a4 ef9e 05e4 b0c0
000007a0: 6c85 bd2b 220e b3c0 0000 0000 0040 483d
000007b0: 0000 0000 0000 0000 0000 0000 00de 92bd
000007c0: 0000 0000 0000 503d 0000 0000 0040 673d
000007d0: 0000 0000 0000 703d 0000 0000 0000 3cbd
000007e0: 0000 0000 0000 90bd 0000 0000 006c 8ebd
000007f0: c21f 6583 8994 c6c0 6f13 ceee 6d82 b440
