python-Linux/neural-sparse-linear-solvers-master/stand_small_test/7427184813284741474_b4e9af74ca148d218b85d8b9a46ca7f6948597a1_739abe845aa8edfe783eb30c05a5f154c9f816e3.npz (npz, 177855 bytes, 3 tensors)

A_values f8 [45214]
000000 52 64 21 e1 13 85 d6 41 d4 6c 42 35 a5 d5 63 c1
       1511280516.521748 -10399017.664358534
000010 ea 75 f4 6e b6 9d 58 c1 16 7a 8a 81 f9 4e 69 c1
       -6452953.733670691 -13268940.048153918
000020 1e b0 87 db 3b 62 7c 41 a5 fb 1b 51 a2 c5 44 c1
       29762493.720626943 -2722628.633666473
000030 ea 75 f4 6e b6 9d 58 c1 3c f8 99 45 35 f8 d5 c1
       -6452953.733670691 -1474352406.405776
000040 42 5d 26 b1 fb 62 ce 41 b6 f3 d6 13 48 ee 43 41
       1019606882.299721 2612368.1549973143
000050 47 6c d0 74 cd 5e 6a 41 5c a2 26 91 12 7c 48 c1
       13825643.650442256 -3209253.1339915227
000060 21 a5 ef 7c b4 75 5b c1 02 59 1e 39 0a e2 cd c1
       -7198417.952126772 -1002706034.2370913
000070 71 f1 02 77 0f 5c 60 c1 47 6c d0 74 cd 5e 6a 41
       -8577147.719109269 13825643.650442256
000080 82 a6 57 ea 67 77 e1 41 cb e4 d2 58 68 84 79 41
       2344304466.7390757 26756741.551487725
000090 97 70 a9 b5 1f 95 8a c1 d2 3c 1d 48 86 93 cf c1
       -55747574.70773428 -1059523728.2284186
0000a0 3e 4f 9b b7 4d 88 65 c1 cb e4 d2 58 68 84 79 41
       -11289197.737708684 26756741.551487725
0000b0 66 ef 06 9f c2 7d 80 c1 97 70 a9 b5 1f 95 8a c1
       -34584659.878386304 -55747574.70773428
0000c0 b6 f3 d6 13 48 ee 43 41 cb e4 d2 58 68 84 79 41
       2612368.1549973143 26756741.551487725
0000d0 ba 4c 9e 96 19 b5 a1 41 21 a5 ef 7c b4 75 5b 41
       148540619.30917913 7198417.952126772
0000e0 0c 5f b7 b6 cb 70 64 41 cb e4 d2 58 68 84 79 c1
       10716765.70988419 -26756741.551487725
0000f0 10 82 65 e0 62 d2 83 41 e8 14 58 d8 ae 88 6f c1
       41569372.04956448 -16532854.760752156
000100 d4 6c 42 35 a5 d5 63 c1 97 70 a9 b5 1f 95 8a c1
       -10399017.664358534 -55747574.70773428
000110 12 d3 6d bb 38 7f b3 41 1e b0 87 db 3b 62 7c c1
       327104699.4290019 -29762493.720626943
000120 51 2a 4d 03 21 d3 84 41 f9 a0 7c dc 39 72 65 c1
       43672608.41267837 -11243982.890213476
000130 97 70 a9 b5 1f 95 8a 41 bb 75 06 53 f1 87 8b 41
       55747574.70773428 57736746.37815424
000140 ea 75 f4 6e b6 9d 58 c1 47 6c d0 74 cd 5e 6a 41
       -6452953.733670691 13825643.650442256
000150 bf 18 ac 83 8e 21 92 41 00 8b e4 7e 53 a9 66 c1
       76047264.91806315 -11881115.965398312
000160 ea 75 f4 6e b6 9d 58 41 b3 e8 30 aa fb 5e 63 41
       6452953.733670691 10155997.318470335
000170 47 6c d0 74 cd 5e 6a c1 29 74 5e 4a ad 18 6c 41
       -13825643.650442256 14730602.324029999
000180 16 7a 8a 81 f9 4e 69 c1 1e b0 87 db 3b 62 7c c1
       -13268940.048153918 -29762493.720626943
000190 7a f2 b5 3e 44 a0 d6 41 38 10 9c 02 be 02 72 41
       1518407930.8429246 18885600.163101405
0001a0 ea 75 f4 6e b6 9d 58 c1 1a d3 15 3c 8d c3 7a c1
       -6452953.733670691 -28063955.755328275
0001b0 2b e0 11 ef 7c 32 87 41 a5 fb 1b 51 a2 c5 44 c1
       48648093.88372835 -2722628.633666473
0001c0 ea 75 f4 6e b6 9d 58 c1 3c f8 99 45 35 f8 d5 c1
       -6452953.733670691 -1474352406.405776
0001d0 5c a2 26 91 12 7c 48 c1 21 a5 ef 7c b4 75 5b 41
       -3209253.1339915227 7198417.952126772
0001e0 19 15 0c 96 b2 70 ce 41 63 52 cf b9 46 3f 52 c1
       1021404460.0943938 -4783386.90327892
0001f0 47 6c d0 74 cd 5e 6a 41 44 d7 44 40 06 5e 5a c1
       13825643.650442256 -6912025.004201714
000200 c2 7b 5f 9b 7d da 66 c1 02 59 1e 39 0a e2 cd c1
       -11981804.855405692 -1002706034.2370913
000210 71 f1 02 77 0f 5c 60 c1 47 6c d0 74 cd 5e 6a 41
       -8577147.719109269 13825643.650442256
000220 d2 3c 1d 48 86 93 cf c1 40 b5 ef 21 4a 73 e2 41
       -1059523728.2284186 2476364047.4908752
000230 cb e4 d2 58 68 84 79 41 97 70 a9 b5 1f 95 8a c1
       26756741.551487725 -55747574.70773428
000240 ff 5d 69 6f d2 6d d4 c1 3e 4f 9b b7 4d 88 65 c1
       -1370966461.646362 -11289197.737708684
000250 cb e4 d2 58 68 84 79 41 66 ef 06 9f c2 7d 80 c1
       26756741.551487725 -34584659.878386304
000260 97 70 a9 b5 1f 95 8a c1 21 a5 ef 7c b4 75 5b c1
       -55747574.70773428 -7198417.952126772
000270 0c 5f b7 b6 cb 70 64 41 63 52 cf b9 46 3f 52 c1
       10716765.70988419 -4783386.90327892
000280 cb e4 d2 58 68 84 79 41 c9 13 9f 84 47 05 a2 41
       26756741.551487725 151167938.31069782
000290 c2 7b 5f 9b 7d da 66 41 c5 1d f8 d6 4c 37 6a 41
       11981804.855405692 13744742.717787633
0002a0 cb e4 d2 58 68 84 79 c1 10 82 65 e0 62 d2 83 41
       -26756741.551487725 41569372.04956448
0002b0 e8 14 58 d8 ae 88 6f c1 1e b0 87 db 3b 62 7c 41
       -16532854.760752156 29762493.720626943
0002c0 51 2a 4d 03 21 d3 84 41 38 10 9c 02 be 02 72 41
       43672608.41267837 18885600.163101405
0002d0 97 70 a9 b5 1f 95 8a c1 94 b5 74 41 5e 1a b4 41
       -55747574.70773428 337272385.45589566
0002e0 2b e0 11 ef 7c 32 87 c1 19 ce 3b b5 d5 f7 89 41
       -48648093.88372835 54459062.654201694
0002f0 f9 a0 7c dc 39 72 65 c1 97 70 a9 b5 1f 95 8a 41
       -11243982.890213476 55747574.70773428
000300 bb 75 06 53 f1 87 8b 41 00 8b e4 7e 53 a9 66 c1
       57736746.37815424 -11881115.965398312
000310 ea 75 f4 6e b6 9d 58 c1 47 6c d0 74 cd 5e 6a 41
       -6452953.733670691 13825643.650442256
000320 81 44 37 15 f1 7b 92 41 10 cb 22 45 9a 52 6d c1
       77528133.30397226 -15373522.160497218
000330 ea 75 f4 6e b6 9d 58 41 b3 e8 30 aa fb 5e 63 41
       6452953.733670691 10155997.318470335
000340 47 6c d0 74 cd 5e 6a c1 29 74 5e 4a ad 18 6c 41
       -13825643.650442256 14730602.324029999
000350 1a d3 15 3c 8d c3 7a c1 2b e0 11 ef 7c 32 87 c1
       -28063955.755328275 -48648093.88372835
000360 1e 26 5d be 27 ae d6 41 14 c1 e9 04 ce 34 6a c1
       1522048761.4554515 -13739632.15353445
000370 ea 75 f4 6e b6 9d 58 c1 fe 25 92 aa 5c 20 70 c1
       -6452953.733670691 -16909770.660680763
000380 e6 6f d7 6d 49 a5 80 41 a5 fb 1b 51 a2 c5 44 c1
       34908461.7301939 -2722628.633666473
000390 ea 75 f4 6e b6 9d 58 c1 3c f8 99 45 35 f8 d5 c1
       -6452953.733670691 -1474352406.405776
0003a0 44 d7 44 40 06 5e 5a c1 c2 7b 5f 9b 7d da 66 41
       -6912025.004201714 11981804.855405692
0003b0 89 85 b0 d6 91 77 ce 41 4c 7e 66 ae 62 ae 4a 41
       1022305197.3790752 3497157.3625028487
0003c0 47 6c d0 74 cd 5e 6a 41 f8 12 97 35 53 5b 4f c1
       13825643.650442256 -4109990.4186729155
0003d0 2f dc c5 ef e4 2e 60 c1 02 59 1e 39 0a e2 cd c1
       -8484647.492902843 -1002706034.2370913
0003e0 71 f1 02 77 0f 5c 60 c1 47 6c d0 74 cd 5e 6a 41
       -8577147.719109269 13825643.650442256
0003f0 ff 5d 69 6f d2 6d d4 c1 3e 68 ef ee 25 22 e3 41
       -1370966461.646362 2568040311.481475
000400 cb e4 d2 58 68 84 79 41 97 70 a9 b5 1f 95 8a c1
       26756741.551487725 -55747574.70773428
000410 65 04 0e be 7a 27 d1 c1 3e 4f 9b b7 4d 88 65 c1
       -1151199992.2190182 -11289197.737708684
000420 cb e4 d2 58 68 84 79 41 66 ef 06 9f c2 7d 80 c1
       26756741.551487725 -34584659.878386304
000430 97 70 a9 b5 1f 95 8a c1 c2 7b 5f 9b 7d da 66 c1
       -55747574.70773428 -11981804.855405692
000440 c5 1d f8 d6 4c 37 6a 41 4c 7e 66 ae 62 ae 4a 41
       13744742.717787633 3497157.3625028487
000450 cb e4 d2 58 68 84 79 41 cb 02 32 c6 68 3d a2 41
       26756741.551487725 153007203.09767756
000460 2f dc c5 ef e4 2e 60 41 85 a3 30 43 19 28 66 41
       8484647.492902843 11616458.099687347
000470 cb e4 d2 58 68 84 79 c1 10 82 65 e0 62 d2 83 41
       -26756741.551487725 41569372.04956448
000480 e8 14 58 d8 ae 88 6f c1 2b e0 11 ef 7c 32 87 41
       -16532854.760752156 48648093.88372835
000490 19 ce 3b b5 d5 f7 89 41 14 c1 e9 04 ce 34 6a c1
       54459062.654201694 -13739632.15353445
0004a0 97 70 a9 b5 1f 95 8a c1 10 6a 0a 75 d3 89 b4 41
       -55747574.70773428 344576885.0406809
0004b0 e6 6f d7 6d 49 a5 80 c1 d2 d1 57 97 20 67 86 41
       -34908461.7301939 46982162.91788067
0004c0 f9 a0 7c dc 39 72 65 c1 97 70 a9 b5 1f 95 8a 41
       -11243982.890213476 55747574.70773428
0004d0 bb 75 06 53 f1 87 8b 41 10 cb 22 45 9a 52 6d c1
       57736746.37815424 -15373522.160497218
0004e0 ea 75 f4 6e b6 9d 58 c1 47 6c d0 74 cd 5e 6a 41
       -6452953.733670691 13825643.650442256
0004f0 ee f9 1c f7 af ba 92 41 6c 36 12 8e 4a 9f 68 c1
       78556157.77829716 -12909140.439723216
000500 ea 75 f4 6e b6 9d 58 41 b3 e8 30 aa fb 5e 63 41
       6452953.733670691 10155997.318470335
000510 47 6c d0 74 cd 5e 6a c1 29 74 5e 4a ad 18 6c 41
       -13825643.650442256 14730602.324029999
000520 fe 25 92 aa 5c 20 70 c1 e6 6f d7 6d 49 a5 80 c1
       -16909770.660680763 -34908461.7301939
000530 d2 ce 6c 89 19 43 d6 41 e6 6f d7 6d 49 a5 80 c1
       1493984805.7001233 -34908461.7301939
000540 ea 75 f4 6e b6 9d 58 c1 a5 fb 1b 51 a2 c5 44 c1
       -6452953.733670691 -2722628.633666473
000550 ea 75 f4 6e b6 9d 58 c1 3c f8 99 45 35 f8 d5 c1
       -6452953.733670691 -1474352406.405776
000560 f8 12 97 35 53 5b 4f c1 2f dc c5 ef e4 2e 60 41
       -4109990.4186729155 8484647.492902843
000570 db fb 2f ca d5 42 ce 41 2f dc c5 ef e4 2e 60 41
       1015393172.3748735 8484647.492902843
000580 47 6c d0 74 cd 5e 6a 41 02 59 1e 39 0a e2 cd c1
       13825643.650442256 -1002706034.2370913
000590 71 f1 02 77 0f 5c 60 c1 47 6c d0 74 cd 5e 6a 41
       -8577147.719109269 13825643.650442256
0005a0 65 04 0e be 7a 27 d1 c1 7e 72 75 6e 79 d6 d1 41
       -1151199992.2190182 1197073849.835113
0005b0 cb e4 d2 58 68 84 79 41 97 70 a9 b5 1f 95 8a c1
       26756741.551487725 -55747574.70773428
0005c0 3e 4f 9b b7 4d 88 65 c1 cb e4 d2 58 68 84 79 41
       -11289197.737708684 26756741.551487725
0005d0 66 ef 06 9f c2 7d 80 c1 97 70 a9 b5 1f 95 8a c1
       -34584659.878386304 -55747574.70773428
0005e0 2f dc c5 ef e4 2e 60 c1 85 a3 30 43 19 28 66 41
       -8484647.492902843 11616458.099687347
0005f0 2f dc c5 ef e4 2e 60 41 cb e4 d2 58 68 84 79 41
       8484647.492902843 26756741.551487725
000600 32 19 31 a3 50 da 9d 41 cb e4 d2 58 68 84 79 c1
       125211688.79794767 -26756741.551487725
000610 10 82 65 e0 62 d2 83 41 e8 14 58 d8 ae 88 6f c1
       41569372.04956448 -16532854.760752156
000620 e6 6f d7 6d 49 a5 80 41 d2 d1 57 97 20 67 86 41
       34908461.7301939 46982162.91788067
000630 e6 6f d7 6d 49 a5 80 c1 97 70 a9 b5 1f 95 8a c1
       -34908461.7301939 -55747574.70773428
000640 9e 31 32 0f 82 76 ab 41 f9 a0 7c dc 39 72 65 c1
       230375687.5980348 -11243982.890213476
000650 97 70 a9 b5 1f 95 8a 41 bb 75 06 53 f1 87 8b 41
       55747574.70773428 57736746.37815424
000660 6c 36 12 8e 4a 9f 68 c1 ea 75 f4 6e b6 9d 58 c1
       -12909140.439723216 -6452953.733670691
000670 47 6c d0 74 cd 5e 6a 41 18 41 f1 5c b9 20 8e 41
       13825643.650442256 63182635.61779994
000680 ea 75 f4 6e b6 9d 58 41 b3 e8 30 aa fb 5e 63 41
       6452953.733670691 10155997.318470335
000690 47 6c d0 74 cd 5e 6a c1 29 74 5e 4a ad 18 6c 41
       -13825643.650442256 14730602.324029999
0006a0 a5 fb 1b 51 a2 c5 44 c1 ea 75 f4 6e b6 9d 58 41
       -2722628.633666473 6452953.733670691
0006b0 db 0a 32 05 d1 8a d6 41 d4 6c 42 35 a5 d5 63 c1
       1512784916.7819126 -10399017.664358534
0006c0 c6 12 f4 7a 77 0d 40 41 16 7a 8a 81 f9 4e 69 c1
       2104046.960573527 -13268940.048153918
0006d0 1e b0 87 db 3b 62 7c 41 5a 22 9a 42 90 f4 36 c1
       29762493.720626943 -1504400.260164401
0006e0 87 6c 7a b1 fa 96 50 c1 3c f8 99 45 35 f8 d5 c1
       -4348906.773097164 -1474352406.405776
0006f0 02 59 1e 39 0a e2 cd c1 25 44 a5 5c 92 71 db 41
       -1002706034.2370913 1841711474.5822842
000700 b6 f3 d6 13 48 ee 43 41 47 6c d0 74 cd 5e 6a 41
       2612368.1549973143 13825643.650442256
000710 5c a2 26 91 12 7c 48 c1 21 a5 ef 7c b4 75 5b c1
       -3209253.1339915227 -7198417.952126772
000720 08 2b 24 08 29 80 c8 c1 71 f1 02 77 0f 5c 60 c1
       -822104592.2825632 -8577147.719109269
000730 47 6c d0 74 cd 5e 6a 41 3e 4f 9b b7 4d 88 65 c1
       13825643.650442256 -11289197.737708684
000740 cb e4 d2 58 68 84 79 c1 0e fb 90 97 66 83 e1 41
       -26756741.551487725 2350593212.5306463
000750 ac 34 ad 74 21 5c 60 c1 97 70 a9 b5 1f 95 8a c1
       -8577291.64614328 -55747574.70773428
000760 d2 3c 1d 48 86 93 cf c1 02 16 a9 72 5a fd 57 c1
       -1059523728.2284186 -6288745.7915701885
000770 75 4a 7c 9e 57 56 71 41 66 ef 06 9f c2 7d 80 c1
       18179449.905344445 -34584659.878386304
000780 97 70 a9 b5 1f 95 8a c1 cb e4 d2 58 68 84 79 41
       -55747574.70773428 26756741.551487725
000790 10 82 65 e0 62 d2 83 41 b6 f3 d6 13 48 ee 43 41
       41569372.04956448 2612368.1549973143
0007a0 ac 34 ad 74 21 5c 60 c1 af 4d 7f 8d 87 1b aa 41
       -8577291.64614328 219005894.74863955
0007b0 21 a5 ef 7c b4 75 5b 41 0c 5f b7 b6 cb 70 64 41
       7198417.952126772 10716765.70988419
0007c0 75 4a 7c 9e 57 56 71 c1 e9 16 14 0f 9a 84 80 41
       -18179449.905344445 34640705.88480932
0007d0 e8 14 58 d8 ae 88 6f c1 f9 a0 7c dc 39 72 65 c1
       -16532854.760752156 -11243982.890213476
0007e0 d4 6c 42 35 a5 d5 63 c1 97 70 a9 b5 1f 95 8a c1
       -10399017.664358534 -55747574.70773428
0007f0 46 f2 0d 9b e3 0b b4 41 1e b0 87 db 3b 62 7c c1
       336323483.05447805 -29762493.720626943

x f8 [3978]
000000 3b 64 f6 8e b2 5e 47 be 96 3c 38 be e1 76 90 3e
       -1.0882463346086527e-08 2.4533841111533625e-07
000010 b6 4b 71 05 2e 0b 12 3e 47 9d 73 73 90 cc 61 be
       1.0502798819622735e-09 -3.315336843408219e-08
000020 1b 54 55 2a 49 4e 40 be bd b3 21 fc 70 c9 4d 3e
       -7.592981641583024e-09 1.3870597007960251e-08
000030 b3 5c 32 91 6e 86 79 be 36 f5 6c 14 7a f3 a4 3e
       -9.508849911837358e-08 6.243908864178433e-07
000040 a8 d1 7d 4f fd bd 1c 3e 76 24 20 7f e6 16 5c be
       1.6730131151675166e-09 -2.6160343176459896e-08
000050 26 ba 2a 3b bf 8d 45 be ab 09 a1 83 d3 61 4e 3e
       -1.003672331819924e-08 1.4147783489988735e-08
000060 2f cc 5b 82 50 f7 81 be 90 d5 f0 1e 85 48 aa 3e
       -1.3385766910837675e-07 7.833028216111137e-07
000070 8d 51 47 5d 77 44 22 3e 7c 8c 68 71 b4 fd 55 be
       2.1266106464592213e-09 -2.0480746954398478e-08
000080 ac 07 0b b2 ee a3 3a be e4 89 72 f1 68 05 51 3e
       -6.202692388089318e-09 1.585216499441303e-08
000090 41 64 1b e2 77 73 84 be ac 63 b6 96 33 16 b0 3e
       -1.5237218158636812e-07 9.58843510234638e-07
0000a0 d3 4f f5 ea c0 87 24 3e 4c 6a 17 a3 90 c5 46 be
       2.3900400197718973e-09 -1.06039169415058e-08
0000b0 ca 19 48 54 20 e7 1d be a6 bf 27 76 72 c2 56 3e
       -1.740574199638063e-09 2.1196491126488807e-08
0000c0 96 de 29 da c7 a2 4b be 66 35 fe 48 ef 6d 90 3e
       -1.2868951075982533e-08 2.448176212803708e-07
0000d0 4d 4f f7 7c 44 cb 24 be 87 da f0 bb 89 fa 4f be
       -2.4207418081599165e-09 -1.4891225917380415e-08
0000e0 97 5d 93 6b 4c 60 2b be 92 1e 0b f0 6d 1a 1a 3e
       -3.187005184588135e-09 1.5194085435773886e-09
0000f0 c1 4d b9 a2 aa 12 5f be 04 1f e9 2e a9 ee a4 3e
       -2.893890830989691e-08 6.238302299810341e-07
000100 69 9d 46 1c 65 49 33 be f6 bd 2b da 6d 4d 4d be
       -4.490534559140605e-09 -1.3645020063037453e-08
000110 00 c6 73 d6 a6 6e 32 be 18 74 92 37 68 b4 28 be
       -4.291588729558038e-09 -2.8760073737260913e-09
000120 5b d5 08 c3 fd 6a 71 be 93 95 09 f8 25 42 aa 3e
       -6.488686277939094e-08 7.825610595756391e-07
000130 9d 93 df ba 60 b6 37 be 26 64 6f 14 e9 81 45 be
       -5.520976493663484e-09 -1.0015192798282832e-08
000140 37 95 6e bb 10 75 43 be 9c 78 ec b2 e5 5e 21 be
       -9.060505108181692e-09 -2.02221474929012e-09
000150 cd 62 2d b1 d8 39 7e be c9 47 21 1c 05 15 b0 3e
       -1.1260048564160937e-07 9.585684073343316e-07
000160 c0 79 86 ef db 40 39 be 27 c8 43 c5 a4 1c 37 be
       -5.879755120637088e-09 -5.381156038330626e-09
000170 04 4e db 48 a2 d8 2e be ae 65 ad de 4d 42 38 3e
       -3.5909733579521317e-09 5.648238747231926e-09
000180 7e 8b ed e6 8f 7e 4a be 8b 2d 5b cf 81 63 90 3e
       -1.2337408620497196e-08 2.442106529053977e-07
000190 19 e3 f1 c3 77 92 10 be e9 ef 7d 7d ab af 55 be
       -9.646255042824718e-10 -2.0196857380524568e-08
0001a0 89 c5 35 9b c2 6b 28 be de 4f 70 66 10 f7 29 3e
       -2.8429713806041687e-09 3.022734773863158e-09
0001b0 da 80 39 8a f7 db 5b be b9 ef 6c 3a 24 e9 a4 3e
       -2.5945944627493576e-08 6.231876924288089e-07
0001c0 bd c2 3d 82 93 e4 20 be e0 22 d9 6b 3f fe 51 be
       -1.9665895734186972e-09 -1.6757431656088584e-08
0001d0 0c 79 68 9c 0d 7f 30 be 88 11 c8 09 fa e5 31 3e
       -3.840844481463282e-09 4.167283542987309e-09
0001e0 71 8d 0d 34 67 be 70 be d5 28 59 b5 8c 3a aa 3e
       -6.237537509899737e-08 7.816764575144207e-07
0001f0 bd b3 8d 0c cf a0 25 be 38 25 74 f0 de ac 49 be
       -2.5178491274807913e-09 -1.1955982438907412e-08
000200 56 de cf 4d 75 dc 42 be 61 0c 2e 05 1b 4f 33 3e
       -8.782914335036705e-09 4.495728306018137e-09
000210 4b 59 39 1e c0 97 7c be 19 5a 32 f8 55 14 b0 3e
       -1.0651638820391857e-07 9.58409118100744e-07
000220 ff 81 0b 67 81 6e 26 be 9b 32 79 a1 8c 9f 32 be
       -2.611389153840351e-09 -4.336060864160557e-09
000230 ee 8e ef 07 e9 88 28 be 07 b0 a2 11 04 69 41 3e
       -2.8562273097760735e-09 8.107264682796724e-09
000240 53 c0 9f 42 c1 d0 48 be ac 16 8d 1a 49 59 90 3e
       -1.1555593887991555e-08 2.4361568278330665e-07
000250 2a 6e 4d 4c 45 ae d0 3d 8b a8 9b ff 88 d4 52 be
       6.068419644880657e-11 -1.7537004715519917e-08
000260 6f a8 65 91 7d f9 22 be c6 a7 48 08 27 41 e8 3d
       -2.2089309367555414e-09 1.7647472731570445e-10
000270 f7 c6 d4 25 96 ae 4f be 88 79 de 76 9c e4 a4 3e
       -1.4753070926886185e-08 6.226602928710213e-07
000280 19 b1 89 64 3a 19 ca 3d 31 80 8e f7 bb d0 4f be
       4.7472980899854465e-11 -1.4815185288470466e-08
000290 7d 81 55 f4 d5 bb fa 3d 26 37 17 ad d3 0c f3 3d
       3.890270226913273e-10 2.7721551190917665e-10
0002a0 45 6c 44 02 63 df 50 be dc 63 2f 46 f9 32 aa 3e
       -1.5713837468305073e-08 7.807945049356091e-07
0002b0 78 8e 44 79 f7 8a e4 bd 08 d1 da a0 fe 5d 49 be
       -1.4946882328529692e-10 -1.181250744038831e-08
0002c0 a1 73 8a 08 1c 88 fa bd 77 7b 56 c1 84 65 20 be
       -3.8608672555953236e-10 -1.9088104523239212e-09
0002d0 4b 45 fd f5 b3 22 52 be 51 b9 79 9a 33 14 b0 3e
       -1.6890055020665128e-08 9.583778623162827e-07
0002e0 72 3e fa 27 9f 45 f7 bd 96 6f e7 cf e0 9d 49 be
       -3.386515859209836e-10 -1.1928710905274765e-08
0002f0 24 1a a0 a1 65 3a ff 3d 95 d7 6a 72 f8 5d 33 3e
       4.5442885706608357e-10 4.509247897540481e-09
000300 ab 82 51 41 be c9 45 be 54 cb 2a 56 a7 50 90 3e
       -1.0145855747722978e-08 2.431132399102554e-07
000310 88 c5 48 14 77 84 d2 bd 5a 41 12 48 be 29 51 be
       -6.736606157550266e-11 -1.5984344962711155e-08
000320 46 ff f8 66 0a b7 1f be f0 12 ad 78 29 a7 24 3e
       -1.846056109965928e-09 2.404322912125599e-09
000330 4e 42 cf 71 ab dc 48 be bd 83 ed e0 8a e1 a4 3e
       -1.1577266751095091e-08 6.223030498514096e-07
000340 b4 51 f6 a9 c9 e0 a6 3d 3f 09 3e 34 92 a2 4e be
       1.0403744976036786e-11 -1.4265553745016718e-08
000350 f3 e1 29 5e ff f6 04 3e df db 52 c9 f5 b4 2d 3e
       6.101569773105178e-10 3.458335460529895e-09
000360 5b e6 49 d2 27 b9 45 be d8 f0 8e 0a 47 2d aa 3e
       -1.0115683021468569e-08 7.801313773796225e-07
000370 5a 09 13 50 dc 73 d0 3d 37 54 b6 37 5a 59 2e be
       5.985413902234584e-11 -3.533092427733687e-09
000380 39 a6 a5 5f d7 1f 16 3e 72 4c 32 9f 1f 40 34 3e
       1.2878084142376859e-09 4.714932877409858e-09
000390 1f 56 03 e0 9b 18 46 be e9 12 27 38 db 47 90 3e
       -1.0289311625306465e-08 2.4260116773489697e-07
0003a0 11 93 e1 ac 1a 9c ea 3d cd 8f 2d 47 9d 17 52 be
       1.9361164619502362e-10 -1.684971491100337e-08
0003b0 bd 0a 8a 4d ec 4e 20 be f0 cc 07 6c 35 9c 2a 3e
       -1.8985352008506647e-09 3.0978338507630574e-09
0003c0 5a 01 f2 31 e5 29 49 be ec bb 2e a0 8a de a4 3e
       -1.1717739277365222e-08 6.219536888752852e-07
0003d0 91 f1 d5 ff f2 c3 04 3e 53 95 0c 47 c3 97 4d be
       6.043534558833976e-10 -1.3780232262204748e-08
0003e0 94 c6 32 49 50 d5 f8 3d f1 6f 4d df df fd 33 3e
       3.613714407559922e-10 4.65467974306701e-09
0003f0 05 b1 37 70 d2 20 52 be 7b 2b dd 10 bf 2d aa 3e
       -1.6883212173720844e-08 7.80185958262693e-07
000400 b4 1d 9c 27 ce dc 0f 3e 4d b8 8b ab 7c d7 4d be
       9.273213995468284e-10 -1.3896145888031035e-08
000410 18 b6 31 e8 cd f1 2a be e8 c0 a8 db 94 42 3f 3e
       -3.1367582433868334e-09 7.278305453595112e-09
000420 47 62 34 ef c5 1b 6a be 15 d3 2f e8 3a b3 b1 3e
       -4.863085036939381e-08 1.0550092219816584e-06
000430 ab 76 d8 0b 67 3a 17 3e cc b4 b8 9a 09 f0 4c be
       1.3520553976602315e-09 -1.3475141744698458e-08
000440 ba 75 78 e2 ed 71 26 be 88 7d 23 2b 82 21 0d 3e
       -2.612946098868768e-09 8.478205553209727e-10
000450 bd 3a 50 66 d5 07 45 be 5a bd ba 50 a7 3e 90 3e
       -9.793136255081721e-09 2.420654971841534e-07
000460 ad 8d a3 95 ee 2e 22 3e ef d7 a2 a5 94 34 50 be
       2.1168179822816973e-09 -1.509244849296528e-08
000470 a5 70 e3 4c 20 ff 20 be df 1e e9 8d 8b dd 17 be
       -1.978663100646577e-09 -1.3891497324344363e-09
000480 dd 69 08 11 99 ff 4a be 41 4c 74 c9 aa dc a4 3e
       -1.2572123371048109e-08 6.217354834601859e-07
000490 4f cf 4c a3 21 71 32 3e 1b 68 a9 c0 eb 02 4d be
       4.293843992864675e-09 -1.3509490433598192e-08
0004a0 67 0e d4 3d c2 b4 06 3e f5 e5 97 44 a4 fa 04 be
       6.608341613998244e-10 -6.105712681859926e-10
0004b0 8d 1d 18 9c 89 48 4d be e6 8a f3 5c f6 2b aa 3e
       -1.3636122345012128e-08 7.799782738816997e-07
0004c0 79 bf 49 38 bf 8d 38 3e eb 69 b8 27 ac fe 49 be
       5.716853550109506e-09 -1.2104778727161263e-08
0004d0 04 3c a9 79 dd 4a 15 be 92 6f ef 86 be 3c c9 3d
       -1.239383240693004e-09 4.590634891918357e-11
0004e0 df 92 5c 36 2e 47 52 be 9d 89 01 8e ac b7 b1 3e
       -1.7022759555374915e-08 1.056043906565684e-06
0004f0 fa 9f 17 1b 6f 64 3f 3e 69 dc fb 23 ce 7f 51 be
       7.309094150646578e-09 -1.629743651053905e-08
000500 b5 49 41 2c 4e c3 07 3e 4c 5d c6 4d 05 26 01 3e
       6.915917495891997e-10 4.99087572961821e-10
000510 f6 ab bd 48 04 98 56 be b8 e0 aa 5b fb 02 b7 3e
       -2.1042130301568716e-08 1.3716010999597878e-06
000520 e8 03 fd 89 65 ba 42 3e af 1e 26 00 5b 07 60 be
       8.720956678707782e-09 -2.9855840483084616e-08
000530 85 00 d4 2d 8f 44 35 be fb 99 70 2a d8 24 4f 3e
       -4.951797830500994e-09 1.4502519475319263e-08
000540 e0 cb 13 8d d5 69 76 be 9a 95 76 98 d5 44 bf 3e
       -8.34964766388179e-08 1.8637707358352182e-06
000550 09 78 ed 6b f3 d3 43 3e 25 26 9d 57 26 aa 4a be
       9.233100837436138e-09 -1.2416694106616813e-08
000560 bc 73 17 93 3c 41 1d be be 0d d5 c4 60 5a 54 3e
       -1.7028552564260839e-09 1.8955244753384778e-08
000570 5f 74 18 33 fc e4 42 be d7 97 7b 79 33 37 90 3e
       -8.798424741427604e-09 2.416317044076394e-07
000580 4f 4c d0 4b ce b9 1d be 84 5f 72 cd 62 09 4f be
       -1.7302695242334978e-09 -1.4452572845346233e-08
000590 26 a0 bd 4c 1b 85 20 be d1 da aa 0e 76 f9 30 3e
       -1.923175041029269e-09 3.952173902968556e-09
0005a0 c3 9a d3 82 f7 6e 47 be e9 5f 1d a5 b7 db a4 3e
       -1.0912057114192415e-08 6.216249153019233e-07
0005b0 4e 93 8f 97 88 f3 2c be f6 0f 09 eb d4 73 4c be
       -3.3703752536143428e-09 -1.3249212700167095e-08
0005c0 dd e6 39 51 42 2b fe 3d 1f ac 3c a0 85 80 35 3e
       4.390164492584251e-10 5.006333573212581e-09
0005d0 31 7d f4 05 20 41 49 be f8 8f 3d 6e ad 28 aa 3e
       -1.1759994032884837e-08 7.79595862071286e-07
0005e0 d9 6c e9 02 98 8d 33 be 18 f1 6e d3 fd e3 4a be
       -4.552561035262264e-09 -1.2521907606182389e-08
0005f0 5e 18 2a 1e db 6e 14 be d9 3b e3 f2 82 c0 38 3e
       -1.1893589382959227e-09 5.763023653954535e-09
000600 9b e9 b6 ce a9 a3 4d be 6f af 92 fb 8d b9 b1 3e
       -1.380187915940584e-08 1.0564817627773572e-06
000610 86 1c 9b 93 8c 72 39 be 77 60 43 38 ef 6d 4b be
       -5.924947915707301e-09 -1.2772824361051168e-08
000620 97 cd 41 a8 fb f2 0a be 6f 34 e9 41 04 b3 28 3e
       -7.843235648748228e-10 2.8753750624316033e-09
000630 a8 82 13 6c fd 45 58 be 15 91 4c 5a 09 01 b7 3e
       -2.260636367413873e-08 1.371148166736762e-06
000640 6f f9 ea 04 94 7d 40 be 77 05 de bd 76 00 4c be
       -7.679006012114258e-09 -1.303935975492029e-08
000650 48 60 b5 2e 78 7a 3a be ab da ad bf 16 70 2a 3e
       -6.164982062469021e-09 3.0777704806911184e-09
000660 22 62 5e 5f 20 20 80 be f2 a9 04 51 91 44 bf 3e
       -1.2014429245640774e-07 1.8637086363718615e-06
000670 19 6d be e3 10 25 43 be a8 d7 19 17 ad bc 4d be
       -8.914987074777675e-09 -1.3847377219904003e-08
000680 c4 50 de 61 a7 97 3c be 4a b4 e9 3b 41 ee 4b 3e
       -6.657186383657586e-09 1.3006237751048345e-08
000690 39 be 46 ae 88 f5 42 be bd 1c 8b 93 35 2e 90 3e
       -8.82852675066881e-09 2.411083133532508e-07
0006a0 30 2f ee 3a 55 44 24 be 1c 23 59 73 e4 48 50 be
       -2.3593806556421704e-09 -1.5166342145944255e-08
0006b0 32 30 75 10 ab 61 1d be e0 ba e4 82 b6 e7 22 3e
       -1.7102293486176654e-09 2.2008466361403168e-09
0006c0 f6 59 36 a2 71 9b 48 be 24 e3 b9 bc 9f db a4 3e
       -1.14586216685228e-08 6.216140433077338e-07
0006d0 a3 04 9d 97 31 8c 35 be 8a 8f 55 3d bf f2 4b be
       -5.016948962007661e-09 -1.3014409031958981e-08
0006e0 7e 1e 02 5d 45 46 e0 3d 71 ce b7 6c d0 b8 24 3e
       1.1841254236184374e-10 2.4123501857070253e-09
0006f0 f6 96 d8 d1 b8 9b 51 be c2 0d 4d eb bc 22 aa 3e
       -1.6398996929625958e-08 7.789044135026856e-07
000700 c1 2f c7 98 af 30 3e be 7c 63 4a aa 38 32 4b be
       -7.02919890041665e-09 -1.2664206857931362e-08
000710 70 f9 82 59 64 20 05 be c1 d6 b9 a2 05 f7 03 3e
       -6.148629825973907e-10 5.810559303257251e-10
000720 e2 4a ed 88 18 64 55 be 2e 2d 4a 28 5f bb b1 3e
       -1.9921920609118564e-08 1.0569048366795353e-06
000730 16 7b 1f 20 b0 9a 43 be a9 66 9f a8 17 0f 60 be
       -9.128940273799621e-09 -2.991213417210095e-08
000740 bb a9 3f 6d 82 5d ee bd e3 51 06 1f c8 f0 2b be
       -2.2093642768091453e-10 -3.252708540184883e-09
000750 57 f7 91 47 5c a4 53 be 07 50 02 a8 1d ff b6 3e
       -1.8293068813634037e-08 1.3707009714246738e-06
000760 73 89 48 03 91 75 45 be 49 1b 7e 2a a1 d7 51 be
       -9.992739171775436e-09 -1.661693951841036e-08
000770 fd 8a ef 86 f3 7d 17 3e 5a 01 6c b5 04 e2 30 3e
       1.367414205948445e-09 3.930852829651882e-09
000780 12 6d 0b 0a 92 66 43 be dd 0c e6 22 24 24 90 3e
       -9.034139049197505e-09 2.405222713429767e-07
000790 96 c4 8b 22 bc 3d 01 be 4e d5 f0 d0 f0 f6 52 be
       -5.017835635646458e-10 -1.766217133329666e-08
0007a0 01 cf 32 b9 4e f1 18 be 57 e6 d9 8f 9e 32 36 3e
       -1.4518508381580445e-09 5.168312220571055e-09
0007b0 ce 6d 0e af e8 7f 3e be 83 eb a7 3d 75 dc a4 3e
       -7.101251795709792e-09 6.217111335188317e-07
0007c0 52 0c 9b b6 c9 24 06 be 8e 32 f5 d0 05 cb 4b be
       -6.444665749076191e-10 -1.2942150933109649e-08
0007d0 d8 f2 e0 81 d2 d3 17 3e 2c db b6 5e 41 c3 38 3e
       1.3869390146036883e-09 5.765519155352419e-09
0007e0 bc 3a 69 de 38 a4 26 be 1c ae d3 d1 71 19 aa 3e
       -2.6358166650076486e-09 7.77822524303807e-07
0007f0 d3 90 d4 58 2a 44 0a be b8 fc b9 fb 5b 33 28 be
       -7.644491026830271e-10 -2.817323233917593e-09

b f8 [3978]
000000 b0 d7 85 cc 54 da f2 bf 10 d0 46 41 15 d9 e5 3f
       -1.1783035267994642 0.6827493929799875
000010 00 00 00 00 00 00 c4 bc d0 7e 8b 99 79 83 ae bf
       -5.551115123125783e-16 -0.05959682463958205
000020 a0 76 6f 98 ba 8d b0 bf 37 2b 67 4d 4d 3c e3 3f
       -0.06466261121337391 0.60111107938551
000030 80 d5 0a bb 2a b6 f1 bf f4 8a 8a 44 ba e0 e4 3f
       -1.10697434485823 0.6524325693793274
000040 00 00 00 00 00 00 c4 3c c0 8d 1c e5 6e 9e b6 3f
       5.551115123125783e-16 0.08835499852698714
000050 60 81 7a 98 8a d1 b8 3f 1f df 62 be 50 1a e2 3f
       0.09694734785671733 0.5657123297196199
000060 80 17 c3 fb bd cd f0 bf f8 7d 2a 8f a4 f0 e3 3f
       -1.050230010457625 0.6231253429613721
000070 00 00 00 00 00 00 c6 3c a8 dd 98 cd 6a b9 ab bf
       6.106226635438361e-16 -0.05414899596911066
000080 80 87 53 73 dc c9 ae bf f6 36 20 71 01 51 e1 3f
       -0.06013382823745328 0.5411383828629528
000090 00 04 11 5d b8 c1 e2 bf 98 13 5f 48 6e ad d5 3f
       -0.5861474816994132 0.338710375476063
0000a0 00 00 00 00 00 00 ba bc 6c bf b4 0b be 2f c2 3f
       -3.608224830031759e-16 0.14208198138794204
0000b0 48 27 f3 61 b4 19 ca 3f 89 aa aa f0 95 33 d3 3f
       0.20390944273668254 0.3000235414753339
0000c0 f0 53 00 7a 57 21 04 c0 00 00 00 00 00 0a 2d 3d
       -2.51628012956143 5.1583737281646336e-14
0000d0 00 00 00 00 00 e0 e2 3c 00 00 00 00 00 00 d2 3c
       2.095545958979983e-15 9.992007221626409e-16
0000e0 b7 df e7 74 34 5f c2 bf de a0 69 20 ad 6a c0 3f
       -0.1435304232434171 0.1282555015816404
0000f0 00 70 87 8b 82 a6 02 c0 00 00 00 00 00 f0 1f 3d
       -2.3313036823947186 2.836619827917275e-14
000100 00 00 00 00 00 00 ea bc 00 00 00 00 00 00 b2 3c
       -2.886579864025407e-15 2.498001805406602e-16
000110 1e e8 a9 91 6b 8b cb 3f e6 2d d3 26 44 d7 b5 3f
       0.2151922665833021 0.08531595180391313
000120 c0 b1 19 2c ab 7e 01 c0 00 00 00 00 00 50 03 3d
       -2.186849922689561 8.576472865229334e-15
000130 00 00 00 00 00 00 b0 3c 00 00 00 00 00 80 f3 bc
       2.220446049250313e-16 -4.3298697960381105e-15
000140 8c 49 42 55 ce 15 c1 bf f0 3a d1 fb 6e 6b ac 3f
       -0.13347796595605776 0.055507152785699065
000150 80 1b e7 0c 63 04 f4 bf 00 00 00 00 80 be 50 bd
       -1.2510710243238634 -2.379485497527867e-13
000160 00 00 00 00 00 00 df bc 00 00 00 00 00 80 dc bc
       -1.7208456881689926e-15 -1.582067810090848e-15
000170 d0 18 62 11 a1 f7 dc 3f 34 4c a8 56 62 40 b0 3f
       0.45261408517434365 0.06348242393168918
000180 1c 0c 99 41 78 68 05 c0 00 00 00 00 80 3e 30 bd
       -2.676010620577939 -5.771078059879642e-14
000190 00 00 00 00 00 00 b0 bc 00 00 00 00 00 00 d1 3c
       -2.220446049250313e-16 9.43689570931383e-16
0001a0 77 78 be af f5 30 c4 bf 00 34 b3 2f 03 84 06 3f
       -0.15774413186312916 4.294523929502386e-05
0001b0 90 81 22 d6 e8 96 03 c0 00 00 00 00 c0 75 67 bd
       -2.44868628781132 -6.667721930142534e-13
0001c0 00 00 00 00 00 00 e7 3c 00 00 00 00 00 00 f7 3c
       2.55351295663786e-15 5.10702591327572e-15
0001d0 68 23 3e 8b b7 45 ce 3f 00 20 f8 39 69 29 e3 3e
       0.23650259303056065 9.13704008011218e-06
0001e0 20 f2 1c 7e 9b 2f 02 c0 00 00 00 00 00 7a 31 bd
       -2.273245797403675 -6.208922265216188e-14
0001f0 00 00 00 00 00 00 b4 3c 00 00 00 00 00 00 a0 3c
       2.7755575615628914e-16 1.1102230246251565e-16
000200 3e 64 9e cf f0 c6 c2 bf 00 80 3f de d4 0e ee be
       -0.14669618737824125 -1.43327405978666e-05
000210 80 9d 61 1a 2b 47 f5 bf 00 00 00 00 00 15 5d 3d
       -1.3298750906486418 4.132805209167145e-13
000220 00 00 00 00 00 00 d0 bc 00 00 00 00 00 00 cf 3c
       -8.881784197001252e-16 8.604228440844963e-16
000230 24 2a 0a 48 fe d5 df 3f 00 60 ec 36 9f fb f5 3e
       0.4974361136925458 2.0964525385996913e-05
000240 f4 6f 1a ae b2 f2 03 c0 00 00 00 00 00 61 2f 3d
       -2.4935048677270917 5.5740134730086766e-14
000250 00 00 00 00 00 40 d3 bc 00 00 00 00 00 00 b0 bc
       -1.0685896612017132e-15 -2.220446049250313e-16
000260 6f bc 3d bf 2b 2f c2 bf cf 7c 2d da 1b ac c2 bf
       -0.14206454122492881 -0.14587734368521985
000270 e0 a9 f8 ba 2d 7f 02 c0 00 00 00 00 80 20 4b 3d
       -2.31209894248353 1.92748594862735e-13
000280 00 00 00 00 00 00 a9 3c 00 00 00 00 00 80 e2 bc
       1.734723475976807e-16 -2.0539125955565396e-15
000290 44 5b 46 5c 67 43 cb 3f 11 2f cc f5 74 8b b9 bf
       0.2129944992600149 -0.09978419304769327
0002a0 50 8f dd 5e ff 86 f9 bf 00 00 00 00 00 70 54 bd
       -1.5954583841020913 -2.9043434324194095e-13
0002b0 00 00 00 00 00 e0 d8 3c 00 00 00 00 00 e0 f3 3c
       1.3808398868775384e-15 4.413136522884997e-15
0002c0 b4 f6 6c 2a 6f 30 b1 3f 58 90 89 e6 db 6e d2 bf
       0.067145297868559 -0.28801629556096975
0002d0 a0 08 06 78 48 47 e5 bf 00 00 00 00 00 9f 4a 3d
       -0.6649515480242094 1.8915424782051105e-13
0002e0 00 00 00 00 00 00 8e bc 00 00 00 00 00 00 d5 3c
       -5.204170427930421e-17 1.1657341758564144e-15
0002f0 bf 49 43 cf 6e d6 cf 3f e8 94 40 a6 ed b7 d2 bf
       0.24873147125488335 -0.2924760936314912
000300 b0 c7 5c a1 e9 92 02 c0 00 00 00 00 00 76 4e bd
       -2.3217346769751757 -2.1643797865067427e-13
000310 00 00 00 00 00 00 a3 bc 00 00 00 00 00 00 d4 bc
       -1.3183898417423734e-16 -1.1102230246251565e-15
000320 d4 9c a6 1d ae 43 c0 bf dc 57 9e 46 9a ef 80 3f
       -0.12706543395800074 0.008269505767923784
000330 80 ce 3b b3 15 7a 01 c0 00 00 00 00 60 1b 61 bd
       -2.1846117022158182 -4.862082958467795e-13
000340 00 00 00 00 00 d0 c2 bc 00 00 00 00 00 60 f4 3c
       -5.221517662690189e-16 4.524158825347513e-15
000350 6c 76 40 87 85 62 c8 3f f0 6f 12 ff a4 02 7c 3f
       0.1905066404732908 0.00683845950802818
000360 60 d0 3e bc 59 72 ed bf 00 00 00 00 00 c6 58 3d
       -0.9202088047663999 3.5205172110863714e-13
000370 00 00 00 00 00 00 94 3c 00 00 00 00 00 00 cd 3c
       6.938893903907228e-17 8.049116928532385e-16
000380 96 b0 36 a7 ea 14 d2 3f 00 f4 56 f6 97 5f 5c 3f
       0.28252664880234 0.0017317756659018801
000390 60 83 83 00 e6 fa 02 c0 00 00 00 00 80 ed 3b 3d
       -2.3725090065130843 9.921924393196946e-14
0003a0 00 00 00 00 00 00 a8 bc 00 00 00 00 00 80 e4 bc
       -1.6653345369377348e-16 -2.275957200481571e-15
0003b0 e4 ac 34 1f 50 b2 c0 bf 26 19 b1 6a 0e ff 9f 3f
       -0.13044168018072988 0.031246400129270623
0003c0 74 fe 82 1f c3 d0 01 c0 00 00 00 00 00 6b 48 bd
       -2.226934667763823 -1.7350010317329634e-13
0003d0 00 00 00 00 00 c0 b6 3c 00 00 00 00 00 00 dc bc
       3.157196726277789e-16 -1.5543122344752192e-15
0003e0 3c 8a f0 23 64 08 c9 3f 10 12 ef e0 85 cf 99 3f
       0.1955685782896398 0.025205699781297553
0003f0 00 8d 84 46 74 7f f8 bf 00 00 00 00 00 95 59 3d
       -1.5311167482948917 3.635425294135075e-13
000400 00 00 00 00 00 80 d3 bc 00 00 00 00 00 40 f0 3c
       -1.0824674490095276e-15 3.608224830031759e-15
000410 12 df 4f eb 30 83 b4 3f 2c 94 8f 0c d0 67 cf 3f
       0.08012681717798056 0.24535561192820532
000420 80 7b fd 3a 1b 33 e3 bf 00 00 00 00 c0 16 61 bd
       -0.5999885704185175 -4.856948176978904e-13
000430 00 00 00 00 00 00 90 bc 00 00 00 00 00 00 ee bc
       -5.551115123125783e-17 -3.3306690738754696e-15
000440 d4 17 fe 14 3a de ca 3f 79 83 8c 19 40 b4 ce 3f
       0.2099068262579623 0.23987580535415612
000450 b0 e9 0d 58 e5 c8 00 c0 00 00 00 00 80 0f 35 3d
       -2.0980936888929236 7.482209296583164e-14
000460 00 00 00 00 00 80 c9 bc 00 00 00 00 00 00 d7 bc
       -7.077671781985373e-16 -1.27675647831893e-15
000470 49 29 d0 82 43 40 c2 bf 12 27 57 5b 33 77 d0 bf
       -0.1425861729370104 -0.25727542800869785
000480 60 7d 59 c7 38 b7 ff bf 00 00 00 00 00 b0 4c 3d
       -1.9822318827717353 2.0383694732117874e-13
000490 00 00 00 00 00 00 9a bc 00 00 00 00 00 00 be bc
       -9.020562075079397e-17 -4.163336342344337e-16
0004a0 66 51 e4 b0 37 e5 ca 3f 70 54 cd 63 dc 23 cc bf
       0.2101201642732448 -0.2198443877520364
0004b0 40 47 ef 70 53 23 fe bf 00 00 00 00 80 26 57 bd
       -1.883624497557733 -3.289868377720495e-13
0004c0 00 00 00 00 00 30 c9 bc 00 00 00 00 00 00 b2 bc
       -6.990935608186533e-16 -2.498001805406602e-16
0004d0 d5 ac 8e dc 39 74 c0 bf ac cf 8d ff 9f 9b c8 bf
       -0.12854693669701214 -0.19224929788799494
0004e0 b0 96 9e 9c 2d b1 f7 bf 75 85 9f f6 c0 79 d5 3f
       -1.480756389422293 0.335556259959126
0004f0 00 00 00 00 00 98 f2 3c f0 79 cd b4 ed bd c1 bf
       4.128641872824801e-15 -0.1386086590600395
000500 36 2d f8 69 5a 6f cb 3f fd e9 bb 01 c7 14 ac 3f
       0.21433572935380035 0.054846018754648874
000510 10 17 1a d1 d3 29 f1 bf 53 82 a4 6b 56 47 ea 3f
       -1.0727117698710948 0.8212082006830975
000520 00 00 00 00 00 00 d0 bc be d8 8f 74 5b e4 ca bf
       -8.881784197001252e-16 -0.21009391013621398
000530 24 25 43 66 0d 3c d1 bf bd c3 8e bb d1 68 d7 3f
       -0.2692903040557033 0.3657726604097283
000540 00 8e ff de e7 4c e4 bf 8f fb a8 e0 eb 14 df 3f
       -0.6343879085001731 0.4856519407221009
000550 00 00 00 00 00 00 b4 bc 00 aa ae 94 24 51 d6 3f
       -2.7755575615628914e-16 0.34870256919626286
000560 98 a4 c4 bb fe 15 dc 3f a2 c3 8e bb d1 68 c7 3f
       0.4388424714730461 0.1828863302048634
000570 18 1c 0f 8e dd 43 ff bf 00 00 00 00 00 16 4a 3d
       -1.9540687131100238 1.8535173396116988e-13
000580 00 00 00 00 00 60 d3 3c 00 00 00 00 00 00 c7 3c
       1.0755285551056204e-15 6.38378239159465e-16
000590 ad 86 49 23 e0 b4 c2 bf b7 a2 03 a6 ca 9e c1 3f
       -0.1461448833752476 0.13765843492662608
0005a0 70 73 5a 89 90 be fd bf 00 00 00 00 40 76 56 3d
       -1.8590245595325676 3.192029973675403e-13
0005b0 00 00 00 00 00 50 e6 3c 00 00 00 00 00 80 d3 bc
       2.4771851236948805e-15 -1.0824674490095276e-15
0005c0 53 dd f5 49 b2 c7 ca 3f 8d 9b 3a a2 ac 1d be 3f
       0.20921925174091402 0.11764029465358146
0005d0 40 aa 02 e1 f7 65 fc bf 00 00 00 00 00 f2 2c 3d
       -1.774894598910251 5.141720382795256e-14
0005e0 00 00 00 00 00 c0 dd bc 00 00 00 00 00 00 ea bc
       -1.6514567491299204e-15 -2.886579864025407e-15
0005f0 13 a6 57 3d 13 c8 be bf 16 00 e0 65 77 fb bc 3f
       -0.12024040458313605 0.1132120727270379
000600 d0 fb 1c 9a d9 e8 fe bf 00 00 00 00 80 78 48 3d
       -1.9318481464431336 1.7387480344410733e-13
000610 00 00 00 00 00 80 b8 3c 00 00 00 00 00 80 e4 3c
       3.400058012914542e-16 2.275957200481571e-15
000620 c8 6c 75 45 b5 f0 7f 3f 18 7c dc bf d7 b7 c2 3f
       0.007797916499238507 0.1462354361364937
000630 90 2b 39 5c 14 88 f9 bf 66 e5 fd 73 7e 82 d0 3f
       -1.595722542044971 0.25796471907923146
000640 00 00 00 00 00 00 b4 3c 00 a2 e5 be 52 b5 c7 bf
       2.7755575615628914e-16 -0.1852210456957124
000650 28 16 c9 5f 7d 46 b7 bf 80 e4 1f 8b b3 02 5f bf
       -0.09091933811677022 -0.0018927338937813343
000660 00 8f ff de e7 4c e4 bf 48 e9 fd 73 7e 82 d0 3f
       -0.6343879085002015 0.25796471907928664
000670 00 00 00 00 00 00 d5 bc da a2 e5 be 52 b5 c7 3f
       -1.1657341758564144e-15 0.18522104569571846
000680 8e a4 c4 bb fe 15 dc 3f 56 92 6b 7c e8 f7 b2 bf
       0.43884247147304556 -0.07409527814486103
000690 20 ee 8b e6 df 7e 01 c0 00 00 00 00 80 84 3c bd
       -2.1869504939511586 -1.0131478989094944e-13
0006a0 00 00 00 00 00 00 9e 3c 00 00 00 00 00 00 90 bc
       1.0408340855860843e-16 -5.551115123125783e-17
0006b0 2c 15 61 3a 46 d2 c0 bf 2c 7b 9b 78 a2 28 ad 3f
       -0.13141706324146563 0.05695064279802006
0006c0 08 37 e7 ea d8 8b 00 c0 00 00 00 00 40 ad 53 bd
       -2.0682848312197883 -2.796235465396535e-13
0006d0 00 00 00 00 00 b0 e4 3c 00 00 00 00 00 00 b8 3c
       2.2967738821932926e-15 3.3306690738754696e-16
0006e0 26 1a 63 90 f4 6b c8 3f cc fc 5c 4e 9e f6 a9 3f
       0.1907945351615165 0.05070967394430567
0006f0 80 88 97 b8 cb 97 f6 bf 96 54 43 97 67 07 c7 3f
       -1.4120595179197437 0.17991347204102642
000700 00 00 00 00 00 80 c5 3c 84 f4 fb 05 00 52 b3 bf
       5.967448757360216e-16 -0.07546997209643008
000710 56 92 d1 bc 21 2b b5 3f cc 01 da 7a b2 5d c1 bf
       0.08268938884573038 -0.13567191122639455
000720 d0 22 fd 9a 39 d1 f0 bf 1f c3 f3 8b f4 eb d6 3f
       -1.0510803274393545 0.35815156619269034
000730 00 00 00 00 00 40 bf bc 00 04 5e 3c 34 3a 5e 3f
       -4.3368086899420177e-16 0.0018449316134765414
000740 c8 77 65 4c 55 99 6b 3f d2 06 24 1e e0 d7 d2 bf
       0.0033690134033994325 -0.29442599242621015
000750 c0 28 3e 16 81 bc e0 bf 42 65 a4 80 81 d0 c6 3f
       -0.523010772173869 0.17823809415203057
000760 00 00 00 00 00 80 da bc a0 7a 0a 35 17 d9 b2 3f
       -1.4710455076283324e-15 0.07362504048294705
000770 cf bf a1 1c dc d4 c6 3f ff 53 55 15 e3 b9 c2 bf
       0.1783709659389374 -0.146297822395951
000780 6c 49 96 57 6d af 03 c0 00 00 00 00 00 2f 21 bd
       -2.46065777232541 -3.05241942832879e-14
000790 00 00 00 00 00 00 70 3c 00 00 00 00 00 00 ce bc
       1.3877787807814457e-17 -8.326672684688674e-16
0007a0 e6 ce 83 10 07 e7 c1 bf 00 a5 20 d4 c0 6e c5 3f
       -0.13986290270224017 0.16744242055691672
0007b0 58 bb 04 42 2b 47 02 c0 00 00 00 00 00 3c 43 bd
       -2.284750476617244 -1.3666845433135677e-13
0007c0 00 00 00 00 00 00 a7 3c 00 00 00 00 00 00 c2 3c
       1.5959455978986625e-16 4.996003610813204e-16
0007d0 22 ac 33 a3 3d d7 ca 3f 95 42 5b 8f d3 6d be 3f
       0.20969362706031897 0.11886331796564271
0007e0 cc 16 1b 07 49 8d ed bf 00 00 00 00 00 e3 3a bd
       -0.9234967364106637 -9.55208134811869e-14
0007f0 00 00 00 00 00 60 c1 bc 00 00 00 00 00 c0 d1 bc
       -4.822531263215524e-16 -9.853229343548264e-16
