python-Linux/neural-sparse-linear-solvers-master/stand_small_test/7506588236381816716_b396ee9cb2a7dfde4687c7916ff2c08515a115be_872454207f40c011f0cbfeee1d5e8a4ccc895008.npz (npz, 129040 bytes, 3 tensors)

A_values f8 [33016]
0	0x41cb1f5d51729031	910080674.8950254
1	0xc1704901ec850804	-17076254.782478347
2	0xc15a416d480291e4	-6882741.125156853
3	0xc1656c8be8df8e3d	-11232351.277289504
4	0x41782e89d36b2752	25356445.213660546
5	0xc143ee13f90a801d	-2612263.945632948
6	0xc15a416d480291e4	-6882741.125156853
7	0xc1c9fa6609507585	-871681042.6285864
8	0x41cdf8304fa3b338	1005609119.2789068
9	0x4158c29e472caf48	6490745.112102337
10	0x41545e5182113f6f	5339462.032302721
11	0xc14f99ba514063ca	-4141940.634777521
12	0xc161d588c7757798	-9350214.233089253
13	0xc1cd850b56642f9a	-990516908.7827027
14	0xc13b3668488ee925	-1783400.2834306445
15	0x41545e5182113f6f	5339462.032302721
16	0x41e3f479dadf940e	2678312662.986823
17	0x4171e2738c691fd6	18753336.775665127
18	0xc16bd4c9d5016a2c	-14591566.656422697
19	0xc1d13a1a2d073fcc	-1156081844.1132689
20	0xc15b26ca71ad0d4a	-7117609.77618725
21	0x4171e2738c691fd6	18753336.775665127
22	0xc1529769749eb5bb	-4873637.822186883
23	0xc16bd4c9d5016a2c	-14591566.656422697
24	0x4158c29e472caf48	6490745.112102337
25	0x4171e2738c691fd6	18753336.775665127
26	0x41a0a170fb690b11	139507837.70516255
27	0x4161d588c7757798	9350214.233089253
28	0x416ab326e4460f02	13998391.133552078
29	0xc171e2738c691fd6	-18753336.775665127
30	0x417f152ad358b788	32592557.209159404
31	0xc16005c08a4eb158	-8400388.322106048
32	0xc1704901ec850804	-17076254.782478347
33	0xc16bd4c9d5016a2c	-14591566.656422697
34	0x41ad126909de8cf8	243872900.93466926
35	0xc1782e89d36b2752	-25356445.213660546
36	0x4181ef3904c493d9	37611296.59598512
37	0xc16234f129d438a0	-9545609.307155907
38	0x416bd4c9d5016a2c	14591566.656422697
39	0x417b8c4d9a25a639	28886233.634191725
40	0xc15a416d480291e4	-6882741.125156853
41	0x41545e5182113f6f	5339462.032302721
42	0x4190fdd2cdb797c6	71267507.4292899
43	0xc1654004c7627870	-11141158.23077032
44	0x415a416d480291e4	6882741.125156853
45	0x4166f8921fa78f85	12043408.989204178
46	0xc1545e5182113f6f	-5339462.032302721
47	0x4164446e1e752c0a	10625904.951803226
48	0xc1656c8be8df8e3d	-11232351.277289504
49	0xc1782e89d36b2752	-25356445.213660546
50	0x41cacb4c52938a25	899061925.1526533
51	0x414958ddcdeb5968	3322299.608744789
52	0xc15a416d480291e4	-6882741.125156853
53	0xc169d18169a2f9aa	-13536267.30114444
54	0x417b59a58d28927f	28678744.822405335
55	0xc143ee13f90a801d	-2612263.945632948
56	0xc15a416d480291e4	-6882741.125156853
57	0xc1c9fa6609507585	-871681042.6285864
58	0xc14f99ba514063ca	-4141940.634777521
59	0x4161d588c7757798	9350214.233089253
60	0x41cdd86c954a1a59	1001445674.5789291
61	0xc1331424b6fb7dd0	-1250340.714774955
62	0x41545e5182113f6f	5339462.032302721
63	0xc15316283831735a	-5003424.878018225
64	0xc164380d5e54e752	-10600554.947864208
65	0xc1cd850b56642f9a	-990516908.7827027
66	0xc13b3668488ee925	-1783400.2834306445
67	0x41545e5182113f6f	5339462.032302721
68	0xc1d13a1a2d073fcc	-1156081844.1132689
69	0x41e1e16bc1ab3bd0	2399886861.3510513
70	0x4171e2738c691fd6	18753336.775665127
71	0xc16bd4c9d5016a2c	-14591566.656422697
72	0xc1d25aff2268ec12	-1231813769.6394086
73	0xc15b26ca71ad0d4a	-7117609.77618725
74	0x4171e2738c691fd6	18753336.775665127
75	0xc1529769749eb5bb	-4873637.822186883
76	0xc16bd4c9d5016a2c	-14591566.656422697
77	0xc161d588c7757798	-9350214.233089253
78	0x416ab326e4460f02	13998391.133552078
79	0xc1331424b6fb7dd0	-1250340.714774955
80	0x4171e2738c691fd6	18753336.775665127
81	0x419fae6094af714f	132880421.17133068
82	0x4164380d5e54e752	10600554.947864208
83	0x416c63983c45fd42	14884033.883543614
84	0xc171e2738c691fd6	-18753336.775665127
85	0x417f152ad358b788	32592557.209159404
86	0xc16005c08a4eb158	-8400388.322106048
87	0x41782e89d36b2752	25356445.213660546
88	0x4181ef3904c493d9	37611296.59598512
89	0x414958ddcdeb5968	3322299.608744789
90	0xc16bd4c9d5016a2c	-14591566.656422697
91	0x41ab02a76e335442	226579383.1002522
92	0xc17b59a58d28927f	-28678744.822405335
93	0x4182ffe66ff49b74	39845069.99443713
94	0xc16234f129d438a0	-9545609.307155907
95	0x416bd4c9d5016a2c	14591566.656422697
96	0x417b8c4d9a25a639	28886233.634191725
97	0xc1654004c7627870	-11141158.23077032
98	0xc15a416d480291e4	-6882741.125156853
99	0x41545e5182113f6f	5339462.032302721
100	0x41905a0dfa533199	68584318.58124389
101	0xc166a46154437619	-11870986.633235024
102	0x415a416d480291e4	6882741.125156853
103	0x4166f8921fa78f85	12043408.989204178
104	0xc1545e5182113f6f	-5339462.032302721
105	0x4164446e1e752c0a	10625904.951803226
106	0xc169d18169a2f9aa	-13536267.30114444
107	0xc17b59a58d28927f	-28678744.822405335
108	0x41ca759a22f00bec	887829573.8753638
109	0xc17b59a58d28927f	-28678744.822405335
110	0xc15a416d480291e4	-6882741.125156853
111	0xc143ee13f90a801d	-2612263.945632948
112	0xc15a416d480291e4	-6882741.125156853
113	0xc1c9fa6609507585	-871681042.6285864
114	0xc15316283831735a	-5003424.878018225
115	0x4164380d5e54e752	10600554.947864208
116	0x41cdb8d2daf8d9f5	997303733.9441515
117	0x4164380d5e54e752	10600554.947864208
118	0x41545e5182113f6f	5339462.032302721
119	0xc1cd850b56642f9a	-990516908.7827027
120	0xc13b3668488ee925	-1783400.2834306445
121	0x41545e5182113f6f	5339462.032302721
122	0xc1d25aff2268ec12	-1231813769.6394086
123	0x41d288bd564f37d5	1243805017.2377827
124	0x4171e2738c691fd6	18753336.775665127
125	0xc16bd4c9d5016a2c	-14591566.656422697
126	0xc15b26ca71ad0d4a	-7117609.77618725
127	0x4171e2738c691fd6	18753336.775665127
128	0xc1529769749eb5bb	-4873637.822186883
129	0xc16bd4c9d5016a2c	-14591566.656422697
130	0xc164380d5e54e752	-10600554.947864208
131	0x416c63983c45fd42	14884033.883543614
132	0x4164380d5e54e752	10600554.947864208
133	0x4171e2738c691fd6	18753336.775665127
134	0x4198f4285695307f	104663573.64569281
135	0xc171e2738c691fd6	-18753336.775665127
136	0x417f152ad358b788	32592557.209159404
137	0xc16005c08a4eb158	-8400388.322106048
138	0x417b59a58d28927f	28678744.822405335
139	0x4182ffe66ff49b74	39845069.99443713
140	0xc17b59a58d28927f	-28678744.822405335
141	0xc16bd4c9d5016a2c	-14591566.656422697
142	0x41a1d8c16ec6fdd6	149708983.38865536
143	0xc16234f129d438a0	-9545609.307155907
144	0x416bd4c9d5016a2c	14591566.656422697
145	0x417b8c4d9a25a639	28886233.634191725
146	0xc166a46154437619	-11870986.633235024
147	0xc15a416d480291e4	-6882741.125156853
148	0x41545e5182113f6f	5339462.032302721
149	0x418b641ac2cdc516	57443160.35047357
150	0x415a416d480291e4	6882741.125156853
151	0x4166f8921fa78f85	12043408.989204178
152	0xc1545e5182113f6f	-5339462.032302721
153	0x4164446e1e752c0a	10625904.951803226
154	0xc143ee13f90a801d	-2612263.945632948
155	0x415a416d480291e4	6882741.125156853
156	0x41cb2db1e00d158f	911958976.1022204
157	0xc1704901ec850804	-17076254.782478347
158	0x4134b06aebe1eabc	1355882.9214159688
159	0xc1656c8be8df8e3d	-11232351.277289504
160	0x41782e89d36b2752	25356445.213660546
161	0xc13ca91d350abc92	-1878301.2071950776
162	0xc15515528d0a1735	-5526858.203740885
163	0xc1c9fa6609507585	-871681042.6285864
164	0xc1cd850b56642f9a	-990516908.7827027
165	0x41dc337e65a996b0	1892546966.6498222
166	0x4158c29e472caf48	6490745.112102337
167	0x41545e5182113f6f	5339462.032302721
168	0xc14f99ba514063ca	-4141940.634777521
169	0xc161d588c7757798	-9350214.233089253
170	0xc1ca6ecc7baf7a28	-886937847.3709154
171	0xc13b3668488ee925	-1783400.2834306445
172	0x41545e5182113f6f	5339462.032302721
173	0xc15b26ca71ad0d4a	-7117609.77618725
174	0xc171e2738c691fd6	-18753336.775665127
175	0x41e3fe434a4e1c6e	2683443794.4409704
176	0xc14be2de1a9b2528	-3655100.207859654
177	0xc16bd4c9d5016a2c	-14591566.656422697
178	0xc1d13a1a2d073fcc	-1156081844.1132689
179	0xc15392dedd10bf11	-5131131.454147116
180	0x416ccc2f922b7662	15098236.567805473
181	0xc1529769749eb5bb	-4873637.822186883
182	0xc16bd4c9d5016a2c	-14591566.656422697
183	0x4171e2738c691fd6	18753336.775665127
184	0x417f152ad358b788	32592557.209159404
185	0x4158c29e472caf48	6490745.112102337
186	0xc14be2de1a9b2528	-3655100.207859654
187	0x41a7b8ce541c36a4	198993706.05510437
188	0x4161d588c7757798	9350214.233089253
189	0x416ab326e4460f02	13998391.133552078
190	0xc16ccc2f922b7662	-15098236.567805473
191	0x417c01920fb02579	29366560.980504487
192	0xc16005c08a4eb158	-8400388.322106048
193	0xc16234f129d438a0	-9545609.307155907
194	0xc1704901ec850804	-17076254.782478347
195	0xc16bd4c9d5016a2c	-14591566.656422697
196	0x41ae1741be1a2620	252420319.05107212
197	0xc1782e89d36b2752	-25356445.213660546
198	0x4181ef3904c493d9	37611296.59598512
199	0xc1604d8b43b9927f	-8547418.116402863
200	0x416bd4c9d5016a2c	14591566.656422697
201	0x417b8c4d9a25a639	28886233.634191725
202	0xc15a416d480291e4	-6882741.125156853
203	0x4166f8921fa78f85	12043408.989204178
204	0x4134b06aebe1eabc	1355882.9214159688
205	0x41545e5182113f6f	5339462.032302721
206	0x41962b4fdab0700d	92984310.67230244
207	0xc1654004c7627870	-11141158.23077032
208	0x415515528d0a1735	5526858.203740885
209	0x41649d96f4eb3e18	10808503.653716132
210	0xc1545e5182113f6f	-5339462.032302721
211	0x4164446e1e752c0a	10625904.951803226
212	0xc143ee13f90a801d	-2612263.945632948
213	0x415a416d480291e4	6882741.125156853
214	0xc1656c8be8df8e3d	-11232351.277289504
215	0xc1782e89d36b2752	-25356445.213660546
216	0x41cad9a0e12e0f83	900940226.3598484
217	0x414958ddcdeb5968	3322299.608744789
218	0x4134b06aebe1eabc	1355882.9214159688
219	0xc169d18169a2f9aa	-13536267.30114444
220	0x417b59a58d28927f	28678744.822405335
221	0xc13ca91d350abc92	-1878301.2071950776
222	0xc15515528d0a1735	-5526858.203740885
223	0xc1c9fa6609507585	-871681042.6285864
224	0xc1cd850b56642f9a	-990516908.7827027
225	0xc14f99ba514063ca	-4141940.634777521
226	0x4161d588c7757798	9350214.233089253
227	0x41dc239c887cca41	1888383521.9498446
228	0xc1331424b6fb7dd0	-1250340.714774955
229	0x41545e5182113f6f	5339462.032302721
230	0xc15316283831735a	-5003424.878018225
231	0xc164380d5e54e752	-10600554.947864208
232	0xc1ca6ecc7baf7a28	-886937847.3709154
233	0xc13b3668488ee925	-1783400.2834306445
234	0x41545e5182113f6f	5339462.032302721
235	0xc15b26ca71ad0d4a	-7117609.77618725
236	0xc171e2738c691fd6	-18753336.775665127
237	0xc1d13a1a2d073fcc	-1156081844.1132689
238	0x41e1eb353119c430	2405017992.8051987
239	0xc14be2de1a9b2528	-3655100.207859654
240	0xc16bd4c9d5016a2c	-14591566.656422697
241	0xc1d25aff2268ec12	-1231813769.6394086
242	0xc15392dedd10bf11	-5131131.454147116
243	0x416ccc2f922b7662	15098236.567805473
244	0xc1529769749eb5bb	-4873637.822186883
245	0xc16bd4c9d5016a2c	-14591566.656422697
246	0x4171e2738c691fd6	18753336.775665127
247	0x417f152ad358b788	32592557.209159404
248	0xc161d588c7757798	-9350214.233089253
249	0x416ab326e4460f02	13998391.133552078
250	0xc1331424b6fb7dd0	-1250340.714774955
251	0xc14be2de1a9b2528	-3655100.207859654
252	0x41a6ee8da30ae43a	192366289.52127248
253	0x4164380d5e54e752	10600554.947864208
254	0x416c63983c45fd42	14884033.883543614
255	0xc16ccc2f922b7662	-15098236.567805473

x f8 [2952]
0	0x3ec14c671e37f340	2.0621357508229853e-06
1	0x3ecf10dbb13cd452	3.7033381746995158e-06
2	0xbf0b5ae84cb2cee0	-5.2175726147933024e-05
3	0xbf0ac9e139cfa8cd	-5.1095186087328494e-05
4	0x3f02c331851aa706	3.5786579826903e-05
5	0x3e6f7f0375cc10a0	5.8666144586397704e-08
6	0x3ed820cdce9d4df2	5.752596942648873e-06
7	0x3ee71e67b688b371	1.1023888604711034e-05
8	0xbf194b486234130a	-9.648923201062087e-05
9	0xbf06e85fe4c5b49d	-4.369299549265261e-05
10	0x3efe61535f137046	2.897279586454328e-05
11	0xbe80cd07244fd1a4	-1.25176386727951e-07
12	0x3eff0519557256c5	2.9582898915045717e-05
13	0x3f172a201dfd8e34	8.836575534370493e-05
14	0xbf1e10b451b9f895	-0.00011468983250925915
15	0xbf1d1ec4d690a2df	-0.00011108471302690878
16	0x3f110edf20f6870a	6.507145757564059e-05
17	0xbeb21aaefd31ca42	-1.0790963542976771e-06
18	0x3eb545a4c4311ea2	1.2679127088399641e-06
19	0x3ecfbff3bd055a45	3.784872639449394e-06
20	0xbf114e0a581392ed	-6.601274619162283e-05
21	0xbea4d14cad85ade6	-6.204121190517226e-07
22	0x3f029962068dd91b	3.547506714245333e-05
23	0x3e64201c37456ec4	3.748653557247532e-08
24	0x3ee1ab29441e63e5	8.425044260284033e-06
25	0x3ee7f35fc54592ff	1.1420574232709391e-05
26	0xbf1f4542020d5355	-0.00011928763752895356
27	0xbeedc4be1795ade8	-1.4194739139403647e-05
28	0x3f003d09902e7bff	3.09723418674343e-05
29	0xbeaa349165862d68	-7.809800975240406e-07
30	0x3f04598f371c8c68	3.881424244258567e-05
31	0x3f16d4b0d108bf34	8.709267809403344e-05
32	0xbf22071e874c98d7	-0.0001375412718058247
33	0x3f19c85793fc23f2	9.835276159376997e-05
34	0x3f10f2f046099560	6.46552230221995e-05
35	0xbeb36cfd6c6154ec	-1.1578644474504147e-06
36	0xbe7667939ae4bd72	-8.346362421052593e-08
37	0x3ed0e13ed2f74f00	4.024473397607397e-06
38	0xbf08769baf7cac05	-4.6660066742219875e-05
39	0x3ed7ecdae2615834	5.70421574338201e-06
40	0x3f00adf4fb579091	3.181365847718208e-05
41	0x3e7656b0cc18b60b	8.321790103605403e-08
42	0x3ef2c7da90f6ad81	1.7910651022451984e-05
43	0x3ee598f321c8a898	1.0298471402842965e-05
44	0xbf13a8651c3cd5bc	-7.498852852168882e-05
45	0x3ee20165f3998e41	8.58567328804801e-06
46	0x3f0ebdc15a9e8e41	5.8634246058700014e-05
47	0x3e9d48f99089de2f	4.3638137062855487e-07
48	0x3ea8bde5526d22e8	7.373625166918776e-07
49	0x3ed1af6560890a44	4.216466102993094e-06
50	0xbf113ac3e42078a1	-6.572552322878452e-05
51	0xbee83497f423aa82	-1.1542054953091579e-05
52	0x3f02938b97578376	3.5431573376382594e-05
53	0xbe69608d50ea7a1d	-4.726863710623761e-08
54	0x3ed78baf36b2d115	5.613718580811207e-06
55	0x3ee3bcb6e1552890	9.411413922539685e-06
56	0xbf1f28936702f18f	-0.00011886024163038619
57	0xbed0ee57fd9c4aa4	-4.0366721465618685e-06
58	0x3eff7d7eef68f9e8	3.003141224610677e-05
59	0x3ea45f29a34f50ac	6.071248380653755e-07
60	0x3efe086cf5364da9	2.8641617360115248e-05
61	0xbebee2df82420117	-1.84096234881476e-06
62	0xbf21fae5c361f077	-0.0001371770355865808
63	0xbf1ccd092a720273	-0.0001098667950021422
64	0x3f11335bec69c805	6.561516338779445e-05
65	0xbe7d244bd6a91ea0	-1.0856159852426462e-07
66	0x3ebde67cdcb1f5c0	1.782199307936438e-06
67	0x3ed26f68b697e26c	4.39529217421322e-06
68	0xbf116b19df5da8b1	-6.644578374240502e-05
69	0x3efcea8bf414a371	2.7576635379808688e-05
70	0x3f030c72c8d4f94d	3.633237165921958e-05
71	0xbe61c553635c4744	-3.310070122003044e-08
72	0x3ee2de72608666c9	8.99740827335921e-06
73	0x3ee4755aff6c5db2	9.755334742274746e-06
74	0xbf2027e72791a4dc	-0.0001232595130063245
75	0x3ef9c677f9688257	2.458121124438087e-05
76	0x3eff061bfb4020d0	2.9586662734033136e-05
77	0x3e73f14f7d28b846	7.429204566179721e-08
78	0x3f0246667a5e3126	3.48567985347401e-05
79	0xbecb4f77e2ec37c5	-3.2556561316903723e-06
80	0xbf23599c83f7c60e	-0.00014762912358849727
81	0x3f0bdb182dd011e4	5.313079393690407e-05
82	0x3f11dedf9b965f4d	6.817092698551998e-05
83	0x3e93f468cbe8f790	2.973485599167236e-07
84	0x3ebb5beda6820517	1.6307291393072282e-06
85	0x3ed2cce956359867	4.4823731032203785e-06
86	0xbf10a0711ff7228d	-6.342592677478273e-05
87	0xbef3f2348faa2184	-1.902209712992396e-05
88	0x3f03fed2593e7892	3.813819344532331e-05
89	0x3e7d63e05c097375	1.0948681162512974e-07
90	0x3edcd56865eac214	6.874471721360804e-06
91	0x3ee48a8363a01d8d	9.794744176629448e-06
92	0xbf1ee2733bb36952	-0.00011781528785396081
93	0xbef53c3156c1dfcb	-2.0251396037867895e-05
94	0x3f017d169af0dd5d	3.335690723143645e-05
95	0x3ea476058b51b02f	6.097859769466655e-07
96	0x3f000d6ab70c1a06	3.061754148885394e-05
97	0xbece47c3510cce4e	-3.609695916751029e-06
98	0xbf22670851822ca9	-0.00014039970915677894
99	0xbf03db77354e223d	-3.787477059008892e-05
100	0x3f14fd246d6a66db	8.006605944857073e-05
101	0x3ec2898ec5b59551	2.209822509579664e-06
102	0x3eb5580f34c53b26	1.2722004668235122e-06
103	0x3ed39e166461e2fe	4.677183431771963e-06
104	0xbf1c7225c1d1ba07	-0.0001085124535664465
105	0xbecf475a6f235364	-3.7287144262023104e-06
106	0x3f03565ed74a4c87	3.688313419050135e-05
107	0x3e70ef59de632e13	6.308766095917613e-08
108	0x3eda7dc1c94cbc45	6.316003369018798e-06
109	0x3ee54e2343c4bb44	1.0159123228518253e-05
110	0xbf2ccb081e145d6b	-0.00021967386332087264
111	0xbee44f889989bca4	-9.684886024900683e-06
112	0x3f02e1c1326a22a4	3.6014278795686445e-05
113	0x3e94c57d4e493112	3.09518624318188e-07
114	0x3eea3e46856ff398	1.2513763222083034e-05
115	0xbed3b6b16c656b80	-4.700099174160806e-06
116	0xbf334a95553cf119	-0.0002943625051903417
117	0xbee2183108f5559e	-8.628129107772158e-06
118	0x3f068603e1ec6b18	4.296016071788348e-05
119	0x3ec1b5b73128f4aa	2.111175839729521e-06
120	0x3eeb4f3f6f9bdc8a	1.3022213795717161e-05
121	0xbf04130e30efa3cb	-3.8288946704607614e-05
122	0xbf369cac15c11336	-0.0003450317506159985
123	0xbf065ab9327731e3	-4.263761212150768e-05
124	0x3f052a9794fecb2b	4.037165729133535e-05
125	0x3ecd74a58c42389a	3.511387236149774e-06
126	0x3f10e38640a3c6b2	6.44255343649435e-05
127	0xbf108e268e81bc26	-6.315336543293078e-05
128	0xbf38167772e4d988	-0.000367550051027087
129	0xbf12db2cf0a9f38f	-7.19305209404121e-05
130	0x3f19a0be13d6fbb2	9.776268139825744e-05
131	0x3ec8b854d09d177f	2.946858903482335e-06
132	0x3eb628bde3d94c3b	1.3207881147850011e-06
133	0x3ed4c4e1cfef4812	4.951732306817198e-06
134	0xbf1a9f256ba0b0a4	-0.00010155359169123024
135	0x3ef256856e3033ea	1.748845432918484e-05
136	0x3f02cd58beed44db	3.586222725594233e-05
137	0xbe7006cb32ce150e	-5.970350676176767e-08
138	0x3edc7e1c1ab78f56	6.793169102323743e-06
139	0x3ee6636c9803655b	1.0675609474141803e-05
140	0xbf2afc2f8d40a7dc	-0.00020587997880855316
141	0x3efecd7cdd75a678	2.9375731029379686e-05
142	0x3f018d3a5a4d1b68	3.347715691020306e-05
143	0xbe867168c5771a44	-1.672134170972426e-07
144	0x3ee9c745b44646da	1.229210250456045e-05
145	0xbed73bb327a0a27f	-5.539227112585074e-06
146	0xbf3222d229e144e1	-0.00027673369357212983
147	0x3f01d7655b390e00	3.402975144386686e-05
148	0x3f03b3030631c573	3.757336596600215e-05
149	0xbeb44448028041a9	-1.207990871780147e-06
150	0x3ed030e2d55b506c	3.8602259643979535e-06
151	0xbf03e16dbc7c10de	-3.791919840348696e-05
152	0xbf355df94e4a0eb1	-0.0003260358483105726
153	0x3f0bf717e03e3593	5.333940137495631e-05
154	0x3f02b28c719088b5	3.566256618394004e-05
155	0x3ec438d78061afe0	2.4106548180326818e-06
156	0x3f0e5e75bc4059e4	5.7924240110352414e-05
157	0xbf10caa87ce5ea93	-6.405499809673314e-05
158	0xbf36c94f8037c72c	-0.0003476924032091873
159	0x3f163a0ab816fb11	8.478823112676957e-05
160	0x3f156bda21c6f357	8.17157637759807e-05
161	0x3ebd6fcfa5f64278	1.7545677549504707e-06
162	0x3ebd91f90267c162	1.7625216145422035e-06
163	0x3ed530218ee2ef3e	5.051615728553757e-06
164	0xbf08fda85c9dad25	-4.7666264051249894e-05
165	0x3ef73c2921df5abe	2.2158625249203303e-05
166	0x3f02cca576cb439c	3.5857009469737066e-05
167	0xbe797a3538c8c914	-9.491061642925973e-08
168	0x3ee0515507ca75db	7.780887466164496e-06
169	0x3ee6f40430acf0d7	1.0944933384153897e-05
170	0xbf171f119cbf6ece	-8.820099827693968e-05
171	0x3f022188dcbc7981	3.458212776606945e-05
172	0x3efeb74b7a0b4c2c	2.9293055947853818e-05
173	0xbe95a6cbbaba0687	-3.22633179485143e-07
174	0x3ef9d28bdc7b5694	2.4626204121988725e-05
175	0xbed9bf6462a245a7	-6.138712288843e-06
176	0xbf1b540e0e3e683e	-0.00010424934185807117
177	0x3f11381be7cc9bb0	6.568594285437271e-05
178	0x3f0f93a2a39bc1fb	6.022777638559417e-05
179	0xbec1fee215312d12	-2.1452471315235326e-06
180	0x3ec296e0bafa50f3	2.2160251871937766e-06
181	0x3ed08305eca27501	3.936722075573554e-06
182	0xbf12f12017fdb014	-7.225759872903109e-05
183	0xbf0aeb13e0678b8d	-5.13425293780157e-05
184	0xbeb7703a7ae0bce6	-1.397037049165854e-06
185	0x3e71514f4796fb82	6.451314673356361e-08
186	0x3edbd9291573b1d2	6.639548096415127e-06
187	0x3eec0d52aa050662	1.3376256277400348e-05
188	0xbf21989741f855e5	-0.00013424726874748587
189	0xbf07ab38b3d2d3f4	-4.514471809483742e-05
190	0x3ec873411a7ad0e5	2.9146924197203104e-06
191	0x3ddc1225f988b340	1.0212131000509491e-10
192	0x3efc272f1f0ea3dd	2.6848852886427486e-05
193	0x3f15224b2415b481	8.061965583801464e-05
194	0xbf25213deed3dcf4	-0.00016120797173588936
195	0xbf1b7c13f0d50276	-0.00010484573086434211
196	0x3ebb6334f4b6ac73	1.6324238057790157e-06
197	0xbec80a3b01ada50d	-2.8657868943916734e-06
198	0x3eb7c9f70fd70ca6	1.4179304906748653e-06
199	0x3ed0e02da003fcd2	4.023479505343296e-06
200	0xbf16bdd81863353d	-8.67522377092271e-05
201	0xbea4c54210eac5fd	-6.19010309529748e-07
202	0xbe831fffed7b472a	-1.4249234569232644e-07
203	0x3e650d075b478740	3.921034466885048e-08
204	0x3ee3615c70353370	9.241255162573228e-06
205	0x3eecddabe8a7e378	1.3764335808895528e-05
206	0xbf24c56f073dd881	-0.0001584718735291903
207	0xbee8b2cf95e159e1	-1.1777153016517948e-05
208	0x3ed935212c1f3d2f	6.009945254306037e-06
209	0xbe9b454a1dd684bb	-4.063645329903334e-07
210	0x3f02f3f7308dc200	3.614996064172163e-05
211	0x3f14d06d7b8d77cc	7.939975956847075e-05
212	0xbf285f894316fde1	-0.00018595266878483534
213	0x3f176d524065841a	8.936705134977887e-05
214	0x3ee21d104c365d9c	8.637204138391492e-06
215	0xbecb23796503f01e	-3.235169778402157e-06
216	0x3ea981fe2f4330ff	7.60191225990188e-07
217	0x3ed1c4985590685f	4.236209258068763e-06
218	0xbf0fe460c5e07598	-6.0829356456996986e-05
219	0x3ed7ecdbd8d2685a	5.704219245528531e-06
220	0x3eafe39cb4f42948	9.503695340984473e-07
221	0x3e75a606961456b3	8.064708858045398e-08
222	0x3ef04f37e1ddd163	1.5553900190438767e-05
223	0x3eeadecf0638063b	1.2812779636386866e-05
224	0xbf19ee155a06ff27	-9.891515083548502e-05
225	0x3ee1e56f4f7e5e91	8.533587319267055e-06
226	0x3ed463576d3121c6	4.860890572784933e-06
227	0x3ea36bcd3662d9bd	5.787938846178074e-07
228	0x3ead5f2550ff1666	8.753437743472779e-07
229	0x3ed26ec97e5028ed	4.394712935793514e-06
230	0xbf1648a6a9692098	-8.500592444094163e-05
231	0xbee748f83a00117f	-1.1103171175371556e-05
232	0xbec0843c65541d57	-1.968925782084147e-06
233	0x3e67f491517e9504	4.462030228574291e-08
234	0x3edb5e98eab199b5	6.5254022657335274e-06
235	0x3ee9591dbcb408a2	1.2086920739399623e-05
236	0xbf244ee7a72a36cc	-0.00015493943972837707
237	0xbed46b7bc6f1dd74	-4.8684733960838195e-06
238	0x3ec2ea57bdd2f740	2.2548915540034303e-06
239	0x3eaed7a9b3aedea2	9.191761373072264e-07
240	0x3efb17a94749e3cb	2.5837351545796542e-05
241	0x3ee0ddcf070e04e0	8.04254543296457e-06
242	0xbf27ca3910acd23b	-0.00018150278659735835
243	0xbf18abd96c068fb7	-9.41134885637508e-05
244	0xbecd18195070cf7a	-3.4682913141684384e-06
245	0x3ec5d2823d33cc9a	2.6014208543922786e-06
246	0x3ebfb6a834a9893d	1.8902721473859086e-06
247	0x3ed30c31dac00bdb	4.5413102434136604e-06
248	0xbf1764ccc42474b7	-8.924007218920586e-05
249	0x3ef5a2dcd1173cca	2.0633870979666615e-05
250	0xbebf2bdb8243d1ea	-1.8579553478478835e-06
251	0x3e10c79fafd38ac0	9.767117664175592e-10
252	0x3ee4fd07ba9ebbba	1.0008048622582123e-05
253	0x3ee9f42ad3809b85	1.2375725972969265e-05
254	0xbf25db05715f2693	-0.00016674462739123662
255	0x3ee2b55ea76b36ab	8.920896318011356e-06

b f8 [2952]
0	0xbd50000000000000	-2.2737367544323206e-13
1	0xbd621c8000000000	-5.147549053674538e-13
2	0xc0dc2ac57d29a36f	-28843.085764321902
3	0xc0bb1e21798dcbbc	-6942.130761015167
4	0x40c181fec023fe94	8963.990238665872
5	0x3d00800000000000	7.327471962526033e-15
6	0x3d70000000000000	9.094947017729282e-13
7	0x3d894ecc80000000	2.877164652359543e-12
8	0xc0dd4fb81c068828	-30014.876710541692
9	0xc0bb1e21798dcbb9	-6942.130761015164
10	0x40c181fec023fe94	8963.990238665872
11	0x3d38238400000000	8.575800659882393e-14
12	0x3d90000000000000	3.637978807091713e-12
13	0x3dac9c0000000000	1.3010037491767434e-11
14	0xc0d6b29e21fa8b9e	-23242.47082389483
15	0xc0bb1e21798dcbb9	-6942.130761015164
16	0x40c181fec023fe97	8963.990238665878
17	0xbd59400000000000	-3.588240815588506e-13
18	0x0000000000000000	0.0
19	0x3d48b80000000000	1.7563728249569976e-13
20	0xc0e264d32a14b819	-37670.59888683278
21	0xc09ad07bbe411a2a	-1716.120842950079
22	0x40c181fec023fe94	8963.990238665872
23	0x3cf7000000000000	5.10702591327572e-15
24	0x3d70000000000000	9.094947017729282e-13
25	0xbd92dc8000000000	-4.288569499522055e-12
26	0xc0e2f74c79832a80	-38842.38983305264
27	0xc09ad07bbe411a25	-1716.1208429500778
28	0x40c181fec023fe92	8963.990238665869
29	0xbd25800000000000	-3.8191672047105385e-14
30	0x3d90000000000000	3.637978807091713e-12
31	0xbd9d940000000000	-6.725286993969348e-12
32	0xc0d6b29e21fa8ba2	-23242.470823894844
33	0x40bb1e21798dcbb8	6942.130761015163
34	0x40c181fec023fe93	8963.99023866587
35	0x3d4e000000000000	2.1316282072803006e-13
36	0x3d58000000000000	3.410605131648481e-13
37	0xbd84cbc000000000	-2.364219930939271e-12
38	0xc0e298d86558fc6e	-38086.76237153342
39	0x408e2f060685dd0c	965.8779421289523
40	0x40c181fec023fe96	8963.990238665876
41	0xbd20400000000000	-2.886579864025407e-14
42	0x0000000000000000	0.0
43	0x3d94618000000000	4.634070904785403e-12
44	0xc0e010d07b1a8fbe	-32902.515027313944
45	0x408e2f060685dd24	965.877942128955
46	0x40c181fec023fe94	8963.990238665872
47	0x3d10000000000000	1.4210854715202004e-14
48	0x0000000000000000	0.0
49	0x3d8380b000000000	2.2171986469032845e-12
50	0xc0e28d433ad31211	-37994.10093072442
51	0xc0888880039559d0	-785.0625068347963
52	0x40c181fec023fe92	8963.990238665869
53	0xbd0d800000000000	-1.3100631690576847e-14
54	0x3d80000000000000	1.8189894035458565e-12
55	0x3da78d0000000000	1.070965538474411e-11
56	0xc0e31fbc8a41846d	-39165.8918769442
57	0xc0888880039559c1	-785.0625068347946
58	0x40c181fec023fe92	8963.990238665869
59	0x3d2b000000000000	4.796163466380676e-14
60	0x3d90000000000000	3.637978807091713e-12
61	0xbd1e000000000000	-2.6645352591003757e-14
62	0xc0d7823a28d5a408	-24072.908742342173
63	0xc0c08eb7d46000f0	-8477.43616867109
64	0x40c181fec023fe95	8963.990238665874
65	0xbcf0000000000000	-3.552713678800501e-15
66	0x0000000000000000	0.0
67	0xbd7ecd8d00000000	-1.7509440078389282e-12
68	0xc0e11bb6912a974c	-35037.705220504286
69	0x40b4a04e325ce8ea	5280.30545597731
70	0x40c181fec023fe96	8963.990238665876
71	0x3cfd4a0000000000	6.50347831143705e-15
72	0x3d80000000000000	1.8189894035458565e-12
73	0xbdadd1c000000000	-1.3560264022771662e-11
74	0xc0e1ae2fe09909b5	-36209.496166724166
75	0x40b4a04e325ce8e4	5280.3054559773045
76	0x40c181fec023fe95	8963.990238665874
77	0x3d3ac00000000000	9.50350909079134e-14
78	0x3da0000000000000	7.275957614183426e-12
79	0xbd78080000000000	-1.3660184094987926e-12
80	0xc0dcbf45c72616bd	-29437.090280077176
81	0x40b4a04e325ce8e1	5280.305455977302
82	0x40c181fec023fe95	8963.990238665874
83	0xbd32000000000000	-6.394884621840902e-14
84	0x0000000000000000	0.0
85	0x3d8d38a000000000	3.3220648454346247e-12
86	0xc0e0580d3ddb305c	-33472.41380080648
87	0xc0a3a46e6759ccfb	-2514.2156322539063
88	0x40c181fec023fe96	8963.990238665876
89	0x3d16000000000000	1.9539925233402755e-14
90	0x0000000000000000	0.0
91	0x3daa0a8000000000	1.184208286986177e-11
92	0xc0e0ea868d49a2b9	-34644.20474702627
93	0xc0a3a46e6759ccf6	-2514.215632253904
94	0x40c181fec023fe93	8963.99023866587
95	0xbd00000000000000	-7.105427357601002e-15
96	0x0000000000000000	0.0
97	0x3d80d80000000000	1.91491267287347e-12
98	0xc0db37f3208748ce	-27871.798860379313
99	0xc0a3a46e6759ccf6	-2514.215632253904
100	0x40c181fec023fe94	8963.990238665872
101	0x3d3f000000000000	1.1013412404281553e-13
102	0xbd50000000000000	-2.2737367544323206e-13
103	0xbd8b438000000000	-3.099520640148512e-12
104	0xc0e13aee8dcfd4c9	-35287.4548110157
105	0xc02ecf1e57232dc3	-15.404528353733332
106	0x40c181fec023fe93	8963.99023866587
107	0x3cb0000000000000	2.220446049250313e-16
108	0xbd70000000000000	-9.094947017729282e-13
109	0xbda6b14000000000	-1.0319300969285905e-11
110	0xc0e1cd67dd3e4728	-36459.245757235505
111	0xc02ecf1e57232552	-15.404528353729493
112	0x40c181fec023fe8b	8963.990238665856
113	0xbd43200000000000	-1.3589129821411916e-13
114	0xbda0000000000000	-7.275957614183426e-12
115	0x3d86780000000000	2.55440113505756e-12
116	0xc0e20620391d6635	-36913.006972026466
117	0xc02ecf1e57231bbc	-15.404528353725134
118	0x40c181fec023fe91	8963.990238665867
119	0x3d1c000000000000	2.4868995751603507e-14
120	0x3d80000000000000	1.8189894035458565e-12
121	0xbda8020000000000	-1.091748913495394e-11
122	0xc0de1d833eb415c9	-30838.05070211532
123	0xc0b65ec0393b910a	-5726.75087330142
124	0x40c181fec023fe94	8963.990238665872
125	0xbcf0000000000000	-3.552713678800501e-15
126	0xbdb0000000000000	-1.4551915228366852e-11
127	0x3d81b92000000000	2.0148882562409653e-12
128	0xc0d70ef88ce9db51	-23611.88360067766
129	0xc0b65ec0393b9107	-5726.750873301417
130	0x40c181fec023fe97	8963.990238665878
131	0xbd48a40000000000	-1.7508217098338719e-13
132	0xbd60000000000000	-4.547473508864641e-13
133	0x3d86524000000000	2.5376367673857203e-12
134	0xc0e0224c214f70a8	-33042.37906620029
135	0x40a7b08a89f217d2	3032.270583691986
136	0x40c181fec023fe91	8963.990238665867
137	0x3d1e300000000000	2.681188604469753e-14
138	0xbd80000000000000	-1.8189894035458565e-12
139	0x3d9830a000000000	5.500155886295488e-12
140	0xc0e0b4c570bde2f9	-34214.17001241999
141	0x40a7b08a89f217df	3032.2705836919918
142	0x40c181fec023fe93	8963.99023866587
143	0xbce8000000000000	-2.6645352591003757e-15
144	0xbd80000000000000	-1.8189894035458565e-12
145	0xbd7b7a0000000000	-1.5618617510426702e-12
146	0xc0e0ed7dcc9d0218	-34667.931227211084
147	0x40a7b08a89f217e8	3032.270583691996
148	0x40c181fec023fe97	8963.990238665878
149	0xbcfc000000000000	-6.217248937900877e-15
150	0x0000000000000000	0.0
151	0x3d39000000000000	8.881784197001252e-14
152	0xc0de1d833eb41588	-30838.050702115084
153	0x40b65ec0393b9105	5726.750873301416
154	0x40c181fec023fe95	8963.990238665874
155	0xbd45000000000000	-1.4921397450962104e-13
156	0xbda0000000000000	-7.275957614183426e-12
157	0xbdc3b20000000000	-3.582556473702425e-11
158	0xc0d70ef88ce9db54	-23611.88360067767
159	0x40b65ec0393b9105	5726.750873301416
160	0x40c181fec023fe95	8963.990238665874
161	0xbd3a000000000000	-9.237055564881302e-14
162	0x0000000000000000	0.0
163	0x3d42470000000000	1.2986833830552769e-13
164	0xc0d941ca046525b8	-25863.15651825603
165	0x40a50cf5e8850a34	2694.480289609428
166	0x40c181fec023fe93	8963.99023866587
167	0x3cf4200000000000	4.468647674116255e-15
168	0x0000000000000000	0.0
169	0xbd92d20000000000	-4.279243626115203e-12
170	0xc0da66bca3420a80	-27034.947464475874
171	0x40a50cf5e8850a3a	2694.4802896094307
172	0x40c181fec023fe95	8963.990238665874
173	0x3d42d00000000000	1.3367085216486885e-13
174	0x3d90000000000000	3.637978807091713e-12
175	0x3d84320000000000	2.2959412149248237e-12
176	0xc0d3c9a2a9360de2	-20262.54157782894
177	0x40a50cf5e8850a38	2694.4802896094297
178	0x40c181fec023fe93	8963.99023866587
179	0xbd23000000000000	-3.375077994860476e-14
180	0x0000000000000000	0.0
181	0xbd61560000000000	-4.927169783286445e-13
182	0xc0e2687207cf1787	-37699.5634532413
183	0xc0bb1e21798dcbbd	-6942.130761015168
184	0xc06f1a771851c35e	-248.82703796357504
185	0x3d00000000000000	7.105427357601002e-15
186	0x0000000000000000	0.0
187	0xbd8dd82000000000	-3.3928970744057096e-12
188	0xc0e2faeb573d8a03	-38871.35439946132
189	0xc0bb1e21798dcbbc	-6942.130761015167
190	0xc06f1a771851c34b	-248.8270379635745
191	0xbd1ff00000000000	-2.836619827917275e-14
192	0xbda0000000000000	-7.275957614183426e-12
193	0x3db7318000000000	2.1094237467877974e-11
194	0xc0df58bcb46f1732	-32098.94851281419
195	0xc0bb1e21798dcbc0	-6942.130761015171
196	0xc06f1a771851c326	-248.82703796357345
197	0x3d00000000000000	7.105427357601002e-15
198	0x3d50000000000000	2.2737367544323206e-13
199	0x3d76f14000000000	1.3041234758759401e-12
200	0xc0e6b7e2734efdfe	-46527.07657575233
201	0xc09ad07bbe411a29	-1716.1208429500787
202	0xc06f1a771851c356	-248.8270379635748
203	0x3cfa000000000000	5.773159728050814e-15
204	0x3da0000000000000	7.275957614183426e-12
205	0x3d9f77e000000000	7.155054326801746e-12
206	0xc0e74a5bc2bd7061	-47698.86752197217
207	0xc09ad07bbe411a28	-1716.1208429500784
208	0xc06f1a771851c368	-248.82703796357532
209	0x3d33300000000000	6.816769371198461e-14
210	0x3db0000000000000	1.4551915228366852e-11
211	0xbd97034000000000	-5.232481115058363e-12
212	0xc0df58bcb46f1745	-32098.94851281426
213	0x40bb1e21798dcbbf	6942.13076101517
214	0xc06f1a771851c2fd	-248.82703796357228
215	0xbd30c80000000000	-5.96189764223709e-14
216	0x0000000000000000	0.0
217	0xbd35900000000000	-7.66053886991358e-14
218	0xc0e6ebe7ae93422f	-46943.240060452714
219	0x408e2f060685dd16	965.8779421289535
220	0xc06f1a771851c35c	-248.82703796357498
221	0x3cfa800000000000	5.88418203051333e-15
222	0x3d80000000000000	1.8189894035458565e-12
223	0xbd99698000000000	-5.778044709359165e-12
224	0xc0e463dfc454d598	-41758.99271623342
225	0x408e2f060685dd09	965.877942128952
226	0xc06f1a771851c337	-248.82703796357393
227	0x3d04000000000000	8.881784197001252e-15
228	0xbd40000000000000	-1.1368683772161603e-13
229	0x3d83599000000000	2.199823656567901e-12
230	0xc0e6e052840d57dc	-46850.578619643784
231	0xc0888880039559cb	-785.0625068347957
232	0xc06f1a771851c342	-248.82703796357424
233	0xbcd2000000000000	-9.992007221626409e-16
234	0x0000000000000000	0.0
235	0x3d61280000000000	4.876099524153688e-13
236	0xc0e772cbd37bca59	-48022.36956586381
237	0xc0888880039559d3	-785.0625068347966
238	0xc06f1a771851c376	-248.82703796357572
239	0xbd2c800000000000	-5.062616992290714e-14
240	0x0000000000000000	0.0
241	0xbd5ea40000000000	-4.354294702579864e-13
242	0xc0e0142c5da517d5	-32929.386431261584
243	0xc0c08eb7d46000ed	-8477.436168671085
244	0xc06f1a771851c345	-248.82703796357433
245	0xbd26400000000000	-3.952393967665557e-14
246	0xbd68000000000000	-6.821210263296962e-13
247	0xbd86fe0800000000	-2.6139229669652764e-12
248	0xc0e56ec5da64dd1d	-43894.1829094237
249	0x40b4a04e325ce8ec	5280.305455977312
250	0xc06f1a771851c326	-248.82703796357345
251	0xbcf3c00000000000	-4.385380947269368e-15
252	0x3d80000000000000	1.8189894035458565e-12
253	0xbd725a0000000000	-1.043165553937797e-12
254	0xc0e6013f29d34f7a	-45065.97385564349
255	0x40b4a04e325ce8ec	5280.305455977312
