python-Linux/neural-sparse-linear-solvers-master/stand_small_test/7628362922960315652_b244d90bd17421c96fa372e63fcf13712b272fcb_6d51c555d48b501f85e0e5aca5f4c9e8dfec440b.npz (npz, 51158 bytes, 3 tensors)

A_values f8 [12274]
0	0x41c9c14aa6ff4a86	864195917.9944618
1	0xc16dc562dc03fdf8	-15608598.875487313
2	0xc1749ed4d9f15358	-21622093.621417373
3	0xc1644d2f806f3f76	-10643836.013580065
4	0xc1749ed4d9f15358	-21622093.621417373
5	0xc1c9475aec48d44a	-848213464.5689785
6	0x41d2666aec1315f4	1234807728.298215
7	0x41642b7aa2c0b2e2	10574805.086022798
8	0x4163f2c21d32dde9	10458640.91245933
9	0xc1d24b0cedbcc44e	-1227633590.9494815
10	0xc14b23b78ed3579e	-3557231.1158246538
11	0x4163f2c21d32dde9	10458640.91245933
12	0x41ca0ad39a9be9d7	873834293.2180737
13	0x417e4009943a5626	31719577.264242314
14	0xc16d722711aac939	-15438136.552097904
15	0xc16dc84355002fde	-15614490.656272825
16	0x417e4009943a5626	31719577.264242314
17	0xc15407ced61acbb4	-5250875.345385481
18	0xc16d722711aac939	-15438136.552097904
19	0x41642b7aa2c0b2e2	10574805.086022798
20	0x417e4009943a5626	31719577.264242314
21	0x41a08c8fbe1eeb27	138823647.06038782
22	0xc17e4009943a5626	-31719577.264242314
23	0x41841819adc3e74a	42140469.72065599
24	0xc1647ce5e719acaa	-10741551.22188409
25	0xc16dc562dc03fdf8	-15608598.875487313
26	0xc16d722711aac939	-15438136.552097904
27	0x41a0632774383b2a	137466810.1098264
28	0xc16da7076ec59336	-15546427.461618047
29	0x416d722711aac939	15438136.552097904
30	0x417c989b83544ec3	29985208.208082926
31	0xc1749ed4d9f15358	-21622093.621417373
32	0x4163f2c21d32dde9	10458640.91245933
33	0x419a6ebb37a43072	110866125.91034105
34	0x41749ed4d9f15358	21622093.621417373
35	0x417b9178aafc2b02	28907402.686564453
36	0xc163f2c21d32dde9	-10458640.91245933
37	0x41736e36371b3b91	20374371.444148604
38	0xc1644d2f806f3f76	-10643836.013580065
39	0x41749ed4d9f15358	21622093.621417373
40	0x41c9e879617bd824	869331650.9675336
41	0xc16dc562dc03fdf8	-15608598.875487313
42	0x415f9344ec2aff88	8277267.6901244
43	0xc153975d3e46cefd	-5135732.973071811
44	0xc16974073dcd26ec	-13344825.931292973
45	0xc1c9475aec48d44a	-848213464.5689785
46	0xc1d24b0cedbcc44e	-1227633590.9494815
47	0x41e059c91a360ca0	2194557137.689041
48	0x41642b7aa2c0b2e2	10574805.086022798
49	0x4163f2c21d32dde9	10458640.91245933
50	0xc1cc9a4e90b20699	-959749409.3908263
51	0xc14b23b78ed3579e	-3557231.1158246538
52	0x4163f2c21d32dde9	10458640.91245933
53	0xc16dc84355002fde	-15614490.656272825
54	0xc17e4009943a5626	-31719577.264242314
55	0x41ca449258e9729d	881403057.8238102
56	0xc166fd1b1b76d49c	-12052696.858255677
57	0xc16d722711aac939	-15438136.552097904
58	0xc15cdf5f26c46336	-7568764.605736544
59	0x4172c17c067eebd8	19666880.405986637
60	0xc15407ced61acbb4	-5250875.345385481
61	0xc16d722711aac939	-15438136.552097904
62	0x417e4009943a5626	31719577.264242314
63	0x41841819adc3e74a	42140469.72065599
64	0x41642b7aa2c0b2e2	10574805.086022798
65	0xc166fd1b1b76d49c	-12052696.858255677
66	0x41a8b806eb52948a	207356789.6612895
67	0xc172c17c067eebd8	-19666880.405986637
68	0x41800e718cf3b56d	33672753.618998386
69	0xc1647ce5e719acaa	-10741551.22188409
70	0xc16da7076ec59336	-15546427.461618047
71	0xc16dc562dc03fdf8	-15608598.875487313
72	0xc16d722711aac939	-15438136.552097904
73	0x41a1d610ae23b4f5	149620823.06973997
74	0xc1672e939eb79cb0	-12154012.959913582
75	0x416d722711aac939	15438136.552097904
76	0x417c989b83544ec3	29985208.208082926
77	0xc1749ed4d9f15358	-21622093.621417373
78	0x417b9178aafc2b02	28907402.686564453
79	0x415f9344ec2aff88	8277267.6901244
80	0x4163f2c21d32dde9	10458640.91245933
81	0x41a2bfd6b65be6a4	157281115.17949402
82	0x416974073dcd26ec	13344825.931292973
83	0x4175dfa340b20eb9	22936116.043471072
84	0xc163f2c21d32dde9	-10458640.91245933
85	0x41736e36371b3b91	20374371.444148604
86	0xc153975d3e46cefd	-5135732.973071811
87	0x416974073dcd26ec	13344825.931292973
88	0x41ca2fb5ced4a8f6	878668701.6614063
89	0xc16dc562dc03fdf8	-15608598.875487313
90	0xc1728397bfae2bbe	-19413371.980022185
91	0xc1730e256b51b9f6	-19980886.707452737
92	0xc17f3d9b5e94bf34	-32758197.911315158
93	0xc1c9475aec48d44a	-848213464.5689785
94	0xc1cc9a4e90b20699	-959749409.3908263
95	0x41e2899058ae343b	2488042181.443876
96	0x41642b7aa2c0b2e2	10574805.086022798
97	0x4163f2c21d32dde9	10458640.91245933
98	0xc1d6aa9b6aad1383	-1521118634.704316
99	0xc14b23b78ed3579e	-3557231.1158246538
100	0x4163f2c21d32dde9	10458640.91245933
101	0xc15cdf5f26c46336	-7568764.605736544
102	0xc172c17c067eebd8	-19666880.405986637
103	0x41caabb4ad81a2af	894921051.0127772
104	0x417acb2aba5b453a	28095147.647282816
105	0xc16d722711aac939	-15438136.552097904
106	0xc17bc86c3d861a24	-29132483.845239773
107	0x4186c653606d1889	47762028.05326945
108	0xc15407ced61acbb4	-5250875.345385481
109	0xc16d722711aac939	-15438136.552097904
110	0x4172c17c067eebd8	19666880.405986637
111	0x41800e718cf3b56d	33672753.618998386
112	0x41642b7aa2c0b2e2	10574805.086022798
113	0x417acb2aba5b453a	28095147.647282816
114	0x41ab01ef2e322dd1	226555799.0980058
115	0xc186c653606d1889	-47762028.05326945
116	0x41882a734fc06061	50679401.96893383
117	0xc1647ce5e719acaa	-10741551.22188409
118	0xc1672e939eb79cb0	-12154012.959913582
119	0xc16dc562dc03fdf8	-15608598.875487313
120	0xc16d722711aac939	-15438136.552097904
121	0x41a2477cc040dd28	153337440.1266873
122	0xc1725ee4484c0b34	-19263044.51856537
123	0x416d722711aac939	15438136.552097904
124	0x417c989b83544ec3	29985208.208082926
125	0xc16974073dcd26ec	-13344825.931292973
126	0x4175dfa340b20eb9	22936116.043471072
127	0xc1728397bfae2bbe	-19413371.980022185
128	0x4163f2c21d32dde9	10458640.91245933
129	0x41a457f033145b49	170653721.53975895
130	0x417f3d9b5e94bf34	32758197.911315158
131	0x4180bcb522e536b1	35100324.36192072
132	0xc163f2c21d32dde9	-10458640.91245933
133	0x41736e36371b3b91	20374371.444148604
134	0xc1730e256b51b9f6	-19980886.707452737
135	0x417f3d9b5e94bf34	32758197.911315158
136	0x41ca088714581b58	873532968.6883345
137	0xc16dc562dc03fdf8	-15608598.875487313
138	0x417f3d9b5e94bf34	32758197.911315158
139	0xc1c9475aec48d44a	-848213464.5689785
140	0xc1d6aa9b6aad1383	-1521118634.704316
141	0x41d6c5f969036529	1528292772.0530493
142	0x41642b7aa2c0b2e2	10574805.086022798
143	0x4163f2c21d32dde9	10458640.91245933
144	0xc14b23b78ed3579e	-3557231.1158246538
145	0x4163f2c21d32dde9	10458640.91245933
146	0xc17bc86c3d861a24	-29132483.845239773
147	0xc186c653606d1889	-47762028.05326945
148	0x41ca71f5ef3419e9	887352286.4070407
149	0xc186c653606d1889	-47762028.05326945
150	0xc16d722711aac939	-15438136.552097904
151	0xc15407ced61acbb4	-5250875.345385481
152	0xc16d722711aac939	-15438136.552097904
153	0x4186c653606d1889	47762028.05326945
154	0x41882a734fc06061	50679401.96893383
155	0x41642b7aa2c0b2e2	10574805.086022798
156	0xc186c653606d1889	-47762028.05326945
157	0x41a2d67800fe846f	158022656.49710414
158	0xc1647ce5e719acaa	-10741551.22188409
159	0xc1725ee4484c0b34	-19263044.51856537
160	0xc16dc562dc03fdf8	-15608598.875487313
161	0xc16d722711aac939	-15438136.552097904
162	0x41a0d4938655635e	141183427.16677374
163	0x416d722711aac939	15438136.552097904
164	0x417c989b83544ec3	29985208.208082926
165	0xc17f3d9b5e94bf34	-32758197.911315158
166	0x4180bcb522e536b1	35100324.36192072
167	0x417f3d9b5e94bf34	32758197.911315158
168	0x4163f2c21d32dde9	10458640.91245933
169	0x419d9eee311519be	124238732.27060601
170	0xc163f2c21d32dde9	-10458640.91245933
171	0x41736e36371b3b91	20374371.444148604
172	0x41ca176b132584af	875484710.2931117
173	0x413e861f2995cbc0	2000415.162441954
174	0xc17a75bbf94f4bc5	-27745215.58185937
175	0xc1586e90286122f8	-6404672.630928747
176	0x4170cb13609b5bb8	17609014.037929267
177	0xc16d9e0275cd385d	-15527955.68130129
178	0xc17a75bbf94f4bc5	-27745215.58185937
179	0xc1c9475aec48d44a	-848213464.5689785
180	0x41d4f82295ad542e	1407224406.708263
181	0xc134d170f7c47350	-1364336.9678413458
182	0x4163f2c21d32dde9	10458640.91245933
183	0xc15090acf92cc268	-4342451.893356897
184	0xc166c5a8c1b9414c	-11939142.053864144
185	0xc1d4cc33ea5dd5c6	-1395707817.4661727
186	0xc14b23b78ed3579e	-3557231.1158246538
187	0x4163f2c21d32dde9	10458640.91245933
188	0x41daa490c1e94d90	1787970311.645359
189	0x418357c2088b1b2e	40564801.067922935
190	0xc16d722711aac939	-15438136.552097904
191	0xc1cb0839f44f1c39	-907047912.6180488
192	0xc175a6a04772b9c0	-22702596.465509176
193	0x418357c2088b1b2e	40564801.067922935
194	0xc15407ced61acbb4	-5250875.345385481
195	0xc16d722711aac939	-15438136.552097904
196	0xc134d170f7c47350	-1364336.9678413458
197	0x418357c2088b1b2e	40564801.067922935
198	0x41a71b9242fd86ee	193841441.49517006
199	0x4166c5a8c1b9414c	11939142.053864144
200	0x4174b957e86b73e7	21730686.52623358
201	0xc18357c2088b1b2e	-40564801.067922935
202	0x4186798dc6c5bbaf	47133112.846549384
203	0xc1647ce5e719acaa	-10741551.22188409
204	0x413e861f2995cbc0	2000415.162441954
205	0xc16d722711aac939	-15438136.552097904
206	0x41a8605019bc8baa	204482572.86825305
207	0xc170cb13609b5bb8	-17609014.037929267
208	0x417e762324f853bf	31941170.31062674
209	0xc170db27b0fda23a	-17674875.06192229
210	0x416d722711aac939	15438136.552097904
211	0x417c989b83544ec3	29985208.208082926
212	0xc17a75bbf94f4bc5	-27745215.58185937
213	0x4163f2c21d32dde9	10458640.91245933
214	0x419f023ad7ab376b	130059957.91720359
215	0xc165e8b2e41a7e38	-11486615.128234014
216	0x417a75bbf94f4bc5	27745215.58185937
217	0x417eff490192e246	32502928.098360322
218	0xc163f2c21d32dde9	-10458640.91245933
219	0x41736e36371b3b91	20374371.444148604
220	0xc1586e90286122f8	-6404672.630928747
221	0xc170cb13609b5bb8	-17609014.037929267
222	0x41c9eeb01670cb71	870146092.8812085
223	0xc170cb13609b5bb8	-17609014.037929267
224	0xc17a75bbf94f4bc5	-27745215.58185937
225	0xc16d9e0275cd385d	-15527955.68130129
226	0xc17a75bbf94f4bc5	-27745215.58185937
227	0xc1c9475aec48d44a	-848213464.5689785
228	0xc15090acf92cc268	-4342451.893356897
229	0x4166c5a8c1b9414c	11939142.053864144
230	0x41d4ea56731e6c34	1403607500.4753542
231	0x4166c5a8c1b9414c	11939142.053864144
232	0x4163f2c21d32dde9	10458640.91245933
233	0xc1d4cc33ea5dd5c6	-1395707817.4661727
234	0xc14b23b78ed3579e	-3557231.1158246538
235	0x4163f2c21d32dde9	10458640.91245933
236	0xc1cb0839f44f1c39	-907047912.6180488
237	0x41cbdd7e9436e79e	935001384.4289434
238	0x418357c2088b1b2e	40564801.067922935
239	0xc16d722711aac939	-15438136.552097904
240	0xc175a6a04772b9c0	-22702596.465509176
241	0x418357c2088b1b2e	40564801.067922935
242	0xc15407ced61acbb4	-5250875.345385481
243	0xc16d722711aac939	-15438136.552097904
244	0xc166c5a8c1b9414c	-11939142.053864144
245	0x4174b957e86b73e7	21730686.52623358
246	0x4166c5a8c1b9414c	11939142.053864144
247	0x418357c2088b1b2e	40564801.067922935
248	0x41a22da33a45e15a	152490397.13648492
249	0xc18357c2088b1b2e	-40564801.067922935
250	0x4186798dc6c5bbaf	47133112.846549384
251	0xc1647ce5e719acaa	-10741551.22188409
252	0x4170cb13609b5bb8	17609014.037929267
253	0x417e762324f853bf	31941170.31062674
254	0xc170cb13609b5bb8	-17609014.037929267
255	0xc16d722711aac939	-15438136.552097904

x f8 [1158]
0	0x3ef4e348c6ac34af	1.99201862570066e-05
1	0x3ee35c48ad6ebe1a	9.231798157787472e-06
2	0xbef3e2afdb60f545	-1.8964286674573857e-05
3	0xbf0abf581328b0d5	-5.1016688662337884e-05
4	0x3f18394afa40f8cd	9.24064648310824e-05
5	0xbeb18cb25b3cb970	-1.0460374654897626e-06
6	0x3eff000443dc5c39	2.956396587369353e-05
7	0x3ee26c806c916474	8.785168932034226e-06
8	0xbf0cc80c6b6c20c2	-5.489623929661034e-05
9	0xbef9ea93d016b0c1	-2.4715726800004322e-05
10	0x3f297390f1c28fa9	0.00019417900410189967
11	0xbe7da99419c81c88	-1.1050111087966504e-07
12	0x3ef35687b76a4418	1.8442161911883746e-05
13	0x3ee0a886e1496481	7.943300297673938e-06
14	0xbf085b3829a841b7	-4.6456004572206976e-05
15	0x3f03eabb09bf5831	3.798850340756865e-05
16	0x3f2382f430bb17d8	0.00014886122550289318
17	0x3ecb35114952b98c	3.2433623099105355e-06
18	0x3ed32130d17adda6	4.560864247763797e-06
19	0x3ee02aaac4f0b503	7.708868137691014e-06
20	0xbee6be895d44a1ad	-1.0845319515854384e-05
21	0x3efe21fd56e5bbd1	2.873685064613466e-05
22	0x3f0ab5b34c639a06	5.0944837811251655e-05
23	0x3eca53496f92f056	3.1382249941741217e-06
24	0xbee95079242d1b26	-1.2070821986077235e-05
25	0x3ee118bba7bf50fa	8.152300544774373e-06
26	0xbef2651d43c4e4bf	-1.7542817873226988e-05
27	0x3ee57dcb7bfdf6c4	1.0247891509381094e-05
28	0xbee085a8ecaca160	-7.878355423666147e-06
29	0x3e8fb06dfffa7b50	2.3610277820760044e-07
30	0xbee4c2e187d3dc0d	-9.899737273928408e-06
31	0x3ece4f6cd1d7e6d8	3.6132638701031265e-06
32	0xbf01b1a462510849	-3.374846372895862e-05
33	0xbf1052b9cccb6b67	-6.226786645006714e-05
34	0x3f0f4608d0757e7a	5.964960478865591e-05
35	0xbeb76b33010c466a	-1.3958660966578031e-06
36	0xbee5fc0bf7736393	-1.048305396837856e-05
37	0x3ee2386c12163257	8.688163293490607e-06
38	0xbef18b4791d04e50	-1.6731320204922608e-05
39	0xbee5b103fef94727	-1.0343297588341953e-05
40	0xbee09538ca2b60d4	-7.907341858113063e-06
41	0x3e8baf179941de80	2.062615293040532e-07
42	0xbed0f47503c3ad1d	-4.042365670846383e-06
43	0x3eca7363dd5ba055	3.15317422915424e-06
44	0xbf00e6672f0e4fe2	-3.223421470646672e-05
45	0x3f114be093bd05cf	6.598051271302436e-05
46	0x3f0b1c5b38e0cb62	5.170968425751464e-05
47	0xbeb973c429583ede	-1.5170700512524223e-06
48	0x3ef23572c66e63a7	1.736524827897529e-05
49	0x3ef31cb02af5129b	1.8226683718996534e-05
50	0xbef8f527b724d5bf	-2.3801457652091728e-05
51	0xbf1a1ed35e9ccdda	-9.964146707091369e-05
52	0x3f163f91faf3ce4c	8.487061016975681e-05
53	0x3e8384dd8fe195a0	1.4542792564906175e-07
54	0x3ef323e92ad305b3	1.8253590202693074e-05
55	0x3ef22372247f2e2b	1.729818384869749e-05
56	0xbf13331498ae61bd	-7.324040613666031e-05
57	0x3efab3ca5f51db89	2.5465304095164134e-05
58	0xbee13275c70943dd	-8.20022089090434e-06
59	0xbe907055ff7d0087	-2.4495739080546856e-07
60	0xbee0e5c02063f38f	-8.057338174877349e-06
61	0xbedb87dcc1e1a6f9	-6.563833293874013e-06
62	0xbf186eab0f8a624b	-9.320181914985422e-05
63	0xbf15eadc921aa1e9	-8.36083532030973e-05
64	0x3f11f5808fe24a15	6.850812130413553e-05
65	0x3ec03e493c617c50	1.936352847883449e-06
66	0x3efb9033432722fc	2.628639431082306e-05
67	0x3ef245c0bbb55624	1.7425987363614334e-05
68	0xbf1bf7c4b36d2389	-0.00010668886248511705
69	0xbf0243a762d29df2	-3.483633586514799e-05
70	0xbf1c3f188b4ec606	-0.00010775172525148016
71	0x3e870c940d18835c	1.7172943116239487e-07
72	0xbefc2c2cf677dbde	-2.6867447926872424e-05
73	0xbede00cd080512ba	-7.153303272670783e-06
74	0xbf242cbc1a41c5d9	-0.00015392109083082922
75	0x3f0b4561b9562852	5.201534728900614e-05
76	0x3f06c739c973ebef	4.3446017281532796e-05
77	0x3eb8938398771f78	1.464857264698068e-06
78	0x3edfb431c49951a9	7.558795070379209e-06
79	0xbeeaa45d2d65d141	-1.2703917872094172e-05
80	0xbf272037e999219b	-0.00017643625760600527
81	0xbf1f53aa268dc913	-0.00011950231568195009
82	0x3f19083502184b09	9.548972641252816e-05
83	0x3ea91893cb641cd4	7.479192365719187e-07
84	0x3ef0a72296026ece	1.588141583451393e-05
85	0x3ef208dd00c9e1dd	1.7199156035792535e-05
86	0xbf18273b79a754d5	-9.21373415743888e-05
87	0x3f035bcaf8cdb21f	3.692353411719286e-05
88	0xbf14ae5518c27864	-7.889170064109965e-05
89	0x3ebffb3b3a8f8b19	1.9062383478310928e-06
90	0xbefbbc912c6545f5	-2.6451673670385316e-05
91	0xbedba6218fa82725	-6.592023277915577e-06
92	0xbf2160236d1388af	-0.00013256485411889315
93	0xbed57b84802c775c	-5.121824872470829e-06
94	0xbedc7cef1baaef84	-6.792074084212874e-06
95	0xbeae9b833a674942	-9.121737221623888e-07
96	0x3ef6d6798d4aecb0	2.1779815898109636e-05
97	0xbeed2f9545b30ffb	-1.3916908008566867e-05
98	0xbf2639abc53d2010	-0.0001695654087774394
99	0x3f111fc216560f7f	6.532308687750946e-05
100	0x3f21d2e6a99ced45	0.00013598504738774657
101	0xbeba0639b6e8e37d	-1.551170239045949e-06
102	0x3ecdf5de88e8999d	3.5715612008047085e-06
103	0x3ef204f142b7da6b	1.718454966056564e-05
104	0xbf09f020df756cb6	-4.947281189046067e-05
105	0x3ef1e5cc531472d4	1.706852817050487e-05
106	0xbef38089c7341a56	-1.8598654105717677e-05
107	0x3ec4a045cc571ed7	2.4588185591789676e-06
108	0xbefa36abb38ec562	-2.4999196486857006e-05
109	0xbedbd6ce592c4232	-6.637355357567075e-06
110	0xbf15d8eea1b57464	-8.334118358761935e-05
111	0x3ed89ef542bd98d1	5.870087118475639e-06
112	0xbeec41b3ed34f2b7	-1.3473821502624007e-05
113	0x3e45da3b5906c1e0	1.017584841462848e-08
114	0x3efeb8e8eb672ce1	2.9299072332550426e-05
115	0xbeedaceaddcead63	-1.4150361431783641e-05
116	0xbf1ce0183f2b8dd7	-0.00011015079489200913
117	0xbee37b9f6931ce1b	-9.290171226284405e-06
118	0x3f20b00e9aa9c70a	0.0001273172213874174
119	0x3ea2a1d08a3ba468	5.552795027927313e-07
120	0xbee72177d252aca2	-1.1029593745290261e-05
121	0x3ef2168f81b01209	1.7250182377652845e-05
122	0xbf0ec0683f298be6	-5.8654004438072994e-05
123	0xbedb70edc5a1d668	-6.542474773598568e-06
124	0x3ed2172f3c39562b	4.3131266838823175e-06
125	0x3eb331357363ad31	1.1439455654360182e-06
126	0xbefc942d94f21c93	-2.725488712631821e-05
127	0xbedb03f6ba2d00b9	-6.440993191969714e-06
128	0xbf1ddc182e64356a	-0.00011390588369782564
129	0x3ee2f3d1617cd88c	9.03721506482723e-06
130	0xbefbc0fa21398b18	-2.646810214769054e-05
131	0xbea6aead0ef52094	-6.759860563887947e-07
132	0x3ef6a791b0714cee	2.160507849808824e-05
133	0xbeee96606075182e	-1.4585212751893556e-05
134	0xbf255c28fe97283f	-0.00016296387120312732
135	0xbf1365baca28319c	-7.399513791756521e-05
136	0x3f29229274397d42	0.00019176519173223257
137	0x3ebf948d309ed5bf	1.8823313347853663e-06
138	0xbee70a95fa789b91	-1.0986972326666198e-05
139	0x3ef24cdfacea182a	1.7452514664138972e-05
140	0xbf11cf569b3eb788	-6.793943504021353e-05
141	0x3eec4bad5c6f281b	1.3492400183685212e-05
142	0x3edb1bc072668b81	6.463147462917592e-06
143	0xbe4852a1b6bd7c40	-1.1326177072339881e-08
144	0xbee7018299d63259	-1.09700675306131e-05
145	0xbed4bca7776a0f81	-4.944069465498999e-06
146	0xbf216b577fb58517	-0.00013289874173509
147	0xbf120864dff6dda7	-6.878963176048265e-05
148	0xbef17570230ad6e4	-1.6649954150258365e-05
149	0xbebb9a9b8083d547	-1.6453227563139205e-06
150	0x3eedcc2c23d162f8	1.4208578358475176e-05
151	0xbef14dd22affb833	-1.6502369078290508e-05
152	0xbf24e838249e8253	-0.00015950856532944094
153	0x3f273c3332c9990e	0.0001772701738389022
154	0x3f21cde59e3b2c98	0.00013583591418462183
155	0x3ec040212f0a6015	1.937211316093571e-06
156	0xbee3ebe2ef3b6cdc	-9.499278781735535e-06
157	0x3ef32c2463e2e268	1.828425433167622e-05
158	0xbf029038463c4fbe	-3.540679679594993e-05
159	0xbee2999750c8b9f3	-8.869154521110186e-06
160	0x3ec1eeb4345f46f9	2.1377130989618586e-06
161	0x3e8cdf1540562ed8	2.1510882690052403e-07
162	0xbed483cf56b433a4	-4.891129133055656e-06
163	0xbed833392c730bef	-5.769751346198871e-06
164	0xbf11ee006be85920	-6.839635441511062e-05
165	0x3f1e22c7b74f202f	0.00011495918245352296
166	0xbed05d26ee401453	-3.901451893999452e-06
167	0xbeb66048cf78ea70	-1.3337201475576678e-06
168	0x3ef0c366942eb1bc	1.598671338924757e-05
169	0x3ef24c776810faec	1.7450997351393696e-05
170	0xbf07ba51e9a2ded6	-4.525721051734453e-05
171	0xbf24143c7e293552	-0.00015319097936343035
172	0xbf02faa3e3910c56	-3.61996903355469e-05
173	0xbeb9d988733089d1	-1.5407644695727744e-06
174	0x3ef318e1e7073475	1.8212506292237787e-05
175	0x3ef0df4f95b52bbb	1.6090686910257462e-05
176	0xbf15f7b90e4588b3	-8.38000010552644e-05
177	0x3f169d6b90d41f04	8.626908330111252e-05
178	0xbef0b76e15d2bc36	-1.594211913829806e-05
179	0xbeb77e17be3c6eae	-1.400265085166779e-06
180	0xbee37a46d0023fd6	-9.287663943063835e-06
181	0xbef3291d09faf5bb	-1.827297148681237e-05
182	0xbf1ea3f472d18585	-0.00011688403601930158
183	0xbf108f1af24c95b1	-6.316759079235433e-05
184	0xbf00ec3501596125	-3.227745780226753e-05
185	0x3e8a75eabc3f468e	1.9714693000202136e-07
186	0x3eb0a3f4d8e50ca8	9.918483985939175e-07
187	0x3ee20dad69d5b935	8.608544983271068e-06
188	0xbf2074a34a01d958	-0.0001255463912490189
189	0xbef117473becfb40	-1.6299181648134252e-05
190	0x3ef7cac81a485c91	2.268992979467512e-05
191	0x3ebced4b14f38f53	1.7241792027938832e-06
192	0x3ef9a57245b6e666	2.4458193690546358e-05
193	0x3ef069a2c7e9c6c9	1.565231331785466e-05
194	0xbf16b171b4a1edec	-8.656746391182802e-05
195	0xbef3ffbf8d074c42	-1.907254847017767e-05
196	0x3ee6fe061316f274	1.0963573546679215e-05
197	0xbeadf2dd3636807f	-8.925404525912807e-07
198	0xbef806fd4b8b9265	-2.291422126434114e-05
199	0xbef225ee7a081d40	-1.730744372887877e-05
200	0xbf26a3d85378e8dd	-0.0001727296419050177
201	0x3f075a5feaf142c1	4.454236238216536e-05
202	0xbefe01dcb282c5b7	-2.861716635100205e-05
203	0x3e90139941f585e0	2.395593714146873e-07
204	0x3ed1e5ad1e152039	4.267018512145497e-06
205	0x3ee001139ae483a0	7.631399821907321e-06
206	0xbf2df011599dc98e	-0.00022840701859256875
207	0xbf1c56b5aba94243	-0.00010810359791802678
208	0xbefbd25537717590	-2.653275757002121e-05
209	0x3eb407593053a602	1.1938038267329597e-06
210	0x3eec97b32d2bcd8a	1.3634003527474335e-05
211	0x3eef2c237a973cc9	1.4864166433618813e-05
212	0xbf14566393cb161e	-7.758124133790858e-05
213	0x3ee2c9cec863bd3d	8.958965065335357e-06
214	0x3eda3061c8f5009c	6.243942279937763e-06
215	0x3ea713532edb9898	6.87703133297996e-07
216	0xbef75222609fc47e	-2.2240483339379124e-05
217	0xbeef848121f04438	-1.502876062711894e-05
218	0xbf23e3f27ff3cc78	-0.00015175185396962602
219	0xbee7fcc1b1422288	-1.143805051408263e-05
220	0x3ed1e55cacbbf8d0	4.266725863065308e-06
221	0xbea58ab50fc34709	-6.419964218245913e-07
222	0x3ef3d0d114858298	1.889771491059514e-05
223	0x3ed6a71e57a034aa	5.400849994796937e-06
224	0xbf2c9af564a882d1	-0.00021824117205062344
225	0x3f185cc63c656f0c	9.293518005420667e-05
226	0xbf0b5717017de0e1	-5.214728315555847e-05
227	0x3ea445285c08098e	6.040974583345996e-07
228	0x3ec51b57cdc46381	2.516127649465313e-06
229	0x3eeeb4e4d1a67ba0	1.4642055749911943e-05
230	0xbf10fe596bda832b	-6.482525619811985e-05
231	0xbec9a44e768bc46f	-3.0567434133812276e-06
232	0x3ec1fa3518540c0a	2.143069823491634e-06
233	0x3eb30d92bb77c48b	1.1356485013459503e-06
234	0xbef7414271d3345e	-2.217762004335201e-05
235	0xbeeea714de46ae9c	-1.4616328322634383e-05
236	0xbf207071272e247d	-0.0001254213453559006
237	0x3ee997fd55e0253f	1.2204031630618838e-05
238	0x3ece30fcae1ec34a	3.5990900508421033e-06
239	0xbea09e0fc0160c55	-4.952379414755471e-07
240	0x3efc6aaf7547eae7	2.7100314882825846e-05
241	0x3ed44def1b01f9b2	4.840953281014269e-06
242	0xbf279f2cbfd6c5e5	-0.0001802198529908115
243	0xbf0500ff1cf7e6dc	-4.0061746059150935e-05
244	0xbf02451ceeea7637	-3.4847207520654856e-05
245	0x3eb7394a1fe292c2	1.384245592408646e-06
246	0xbee847adb70bd95b	-1.1577603545625986e-05
247	0x3eee60fc0f2d165a	1.4485762653070035e-05
248	0xbf1a21383012deb7	-9.967713778535446e-05
249	0x3ec67a0a33ca595e	2.679433605055878e-06
250	0xbeb91f0307711f6f	-1.4973366242610307e-06
251	0xbe5aec90eb80f79a	-2.5075009374640916e-08
252	0xbef864720696f12d	-2.3262371916508616e-05
253	0xbeecf5381398b71e	-1.3808196501842762e-05
254	0xbf29673bcfbea710	-0.00019381146546253907
255	0xbf1107eb8a12731f	-6.496787183825043e-05

b f8 [1158]
0	0x3d80000000000000	1.8189894035458565e-12
1	0xbd814f0000000000	-1.9677592888456275e-12
2	0xc0d29605091972f3	-19032.078680383926
3	0xc0bbf8056b9211c3	-7160.021172646843
4	0x40c030a6349d4b5e	8289.298480665017
5	0x3d14000000000000	1.7763568394002505e-14
6	0x0000000000000000	0.0
7	0x3d51f40000000000	2.5512925105886097e-13
8	0xc0e6631a02c924fc	-45848.81284005378
9	0xc0b1cacffe6bdc84	-4554.812475911462
10	0x40d4d0d8442852d3	21315.379160004504
11	0xbd45300000000000	-1.5054624213917123e-13
12	0x3d80000000000000	1.8189894035458565e-12
13	0x3d78300000000000	1.3749001936957939e-12
14	0xc0e2ce300f7deebd	-38513.50189110402
15	0x40bb8b2fcfe57fdd	7051.18676599857
16	0x40cf7ef56b9618b1	16125.91734577375
17	0xbd42000000000000	-1.2789769243681803e-13
18	0x3d60000000000000	4.547473508864641e-13
19	0xbd5ac00000000000	-3.801403636316536e-13
20	0xc0c6d86245060cea	-11696.76773143416
21	0x40b237a59a186e6b	4663.646882559736
22	0x40a837ac5f8af9b0	3099.8366664342684
23	0x3d44000000000000	1.4210854715202004e-13
24	0xbd90000000000000	-3.637978807091713e-12
25	0xbd816f4800000000	-1.9820950436510998e-12
26	0x3d82e00000000000	2.1458390619955026e-12
27	0xbd30000000000000	-5.684341886080802e-14
28	0xbd61000000000000	-4.831690603168681e-13
29	0x3d36380000000000	7.893685705084863e-14
30	0x3d90000000000000	3.637978807091713e-12
31	0x3d72c00000000000	1.0658141036401503e-12
32	0xc0ccc323eabfa678	-14726.280601459774
33	0xc0b5a366ace0d3d4	-5539.401075412479
34	0x40b4c56045bc7426	5317.376064089161
35	0xbd4d000000000000	-2.0605739337042905e-13
36	0xbd70000000000000	-9.094947017729282e-13
37	0x3d83470000000000	2.191580250610059e-12
38	0x3da2a40000000000	8.476774837617995e-12
39	0xbd53000000000000	-2.7000623958883807e-13
40	0xbd4a000000000000	-1.8474111129762605e-13
41	0xbd1f000000000000	-2.7533531010703882e-14
42	0x0000000000000000	0.0
43	0xbd6e600000000000	-8.633094239485217e-13
44	0xc0ccc323eabfa67d	-14726.280601459783
45	0x40b5a366ace0d3d3	5539.401075412478
46	0x40b4c56045bc742b	5317.376064089166
47	0xbd1c000000000000	-2.4868995751603507e-14
48	0xbd90000000000000	-3.637978807091713e-12
49	0x3d71e00000000000	1.0160761121369433e-12
50	0xc0d5c97c063d74c9	-22309.937880863235
51	0xc0c12688e2b76968	-8781.06941883704
52	0x40c3c4e21629fbe4	10121.766301391595
53	0xbd24000000000000	-3.552713678800501e-14
54	0xbd98000000000000	-5.4569682106375694e-12
55	0xbdacca0000000000	-1.3091749906379846e-11
56	0xc0e42fc087ab73dc	-41342.01656124715
57	0x4099543167730434	1621.0482461901966
58	0x409ca1df0c65842a	1832.4678207265774
59	0xbd35000000000000	-7.460698725481052e-14
60	0x0000000000000000	0.0
61	0xbd6a380000000000	-7.451816941284051e-13
62	0xc0d2336490654545	-18637.57131320729
63	0xc0ba715a7a744c8c	-6769.353431004227
64	0x40bf460c5810328a	8006.048218738879
65	0x3d34c00000000000	7.37188088351104e-14
66	0x0000000000000000	0.0
67	0x3d909e0000000000	3.778310997404333e-12
68	0xc0e6631a02c92500	-45848.81284005381
69	0xc0b1cacffe6bdc81	-4554.812475911459
70	0xc0d4d0d8442852d4	-21315.379160004508
71	0xbd2a000000000000	-4.618527782440651e-14
72	0x0000000000000000	0.0
73	0x3d940f8000000000	4.561240274369993e-12
74	0xc0d2336490654544	-18637.571313207285
75	0x40ba715a7a744c8e	6769.353431004229
76	0x40bf460c58103286	8006.048218738875
77	0x3d45000000000000	1.4921397450962104e-13
78	0x0000000000000000	0.0
79	0xbd7a780000000000	-1.5045742429720121e-12
80	0xc0d8ea1b79338b3b	-25512.429272542922
81	0xc0c5a1d280096eed	-11075.644532374537
82	0x40c7074d5a52d4b6	11790.604318956244
83	0x3d1c000000000000	2.4868995751603507e-14
84	0xbd98000000000000	-5.4569682106375694e-12
85	0xbda3730000000000	-8.844480703373847e-12
86	0xc0e2ce300f7deeba	-38513.501891103995
87	0x40bb8b2fcfe57fe3	7051.1867659985755
88	0xc0cf7ef56b9618b5	-16125.917345773758
89	0x3d25000000000000	3.730349362740526e-14
90	0x0000000000000000	0.0
91	0xbd5b900000000000	-3.9168668308775523e-13
92	0x3d66000000000000	6.252776074688882e-13
93	0x3d50000000000000	2.2737367544323206e-13
94	0x3d61000000000000	4.831690603168681e-13
95	0x3d3b800000000000	9.769962616701378e-14
96	0xbd90000000000000	-3.637978807091713e-12
97	0x3d81f00000000000	2.0392576516314875e-12
98	0xc0e26e4a6197b966	-37746.324413168055
99	0x40ba0a7510cfe3fe	6666.45728778187
100	0x40ce91358510028c	15650.418123246425
101	0xbd51e00000000000	-2.540190280342358e-13
102	0x0000000000000000	0.0
103	0xbd8d1c0000000000	-3.3093527918026666e-12
104	0xc0c6d86245060cf3	-11696.767731434176
105	0x40b237a59a186e6d	4663.646882559738
106	0xc0a837ac5f8af9ab	-3099.836666434266
107	0x3d4d000000000000	2.0605739337042905e-13
108	0xbd90000000000000	-3.637978807091713e-12
109	0xbd91d20000000000	-4.051869950671971e-12
110	0x3db7bc0000000000	2.1586288312391844e-11
111	0xbd93000000000000	-4.320099833421409e-12
112	0x3d86000000000000	2.5011104298755527e-12
113	0x3d61e00000000000	5.080380560684716e-13
114	0x3d90000000000000	3.637978807091713e-12
115	0xbdb1da0000000000	-1.623590151211829e-11
116	0xc0df1a08793355b8	-31848.132397493086
117	0xc0a62e4b96ea117d	-2839.147635759959
118	0x40c850595b3fdc0b	12448.69809721226
119	0x3d1c000000000000	2.4868995751603507e-14
120	0xbd80000000000000	-1.8189894035458565e-12
121	0x3d98c57000000000	5.632327937377113e-12
122	0xbda01e0000000000	-7.329248319365433e-12
123	0x3d48000000000000	1.7053025658242404e-13
124	0xbd5c800000000000	-4.050093593832571e-13
125	0xbd37d00000000000	-8.459899447643693e-14
126	0x3da0000000000000	7.275957614183426e-12
127	0x3d5cc00000000000	4.085620730620576e-13
128	0xbddb680000000000	-9.970335668185726e-11
129	0x3d6c000000000000	7.958078640513122e-13
130	0xbd81000000000000	-1.9326762412674725e-12
131	0xbd40800000000000	-1.1723955140041653e-13
132	0x0000000000000000	0.0
133	0x3d95600000000000	4.860112312599085e-12
134	0xc0e7f02e6dc96fe0	-49025.450901716715
135	0xc0c072e603558969	-8421.79697674951
136	0x40d4c3ea0165f9be	21263.656335348023
137	0xbd58000000000000	-3.410605131648481e-13
138	0x3d90000000000000	3.637978807091713e-12
139	0xbd8bd80000000000	-3.1654678878112463e-12
140	0x3dcb140000000000	4.9254822442890145e-11
141	0x3d7c800000000000	1.6200374375330284e-12
142	0xbd51c00000000000	-2.5224267119483557e-13
143	0xbd22000000000000	-3.197442310920451e-14
144	0xbda6000000000000	-1.000444171950221e-11
145	0x3d70b00000000000	9.485745522397337e-13
146	0xc0dce7541e48bfd9	-29597.314348399497
147	0xc0c50c4796b2d082	-10776.559286453066
148	0x4073a3083e1ebb74	314.1895123672941
149	0xbd46000000000000	-1.5631940186722204e-13
150	0x3d80000000000000	1.8189894035458565e-12
151	0xbd36000000000000	-7.815970093361102e-14
152	0xc0dcb8cdac5b718c	-29411.213644848714
153	0x40ce9b10e0b18ab1	15670.131857102127
154	0x40c8c162d2494548	12674.772042425946
155	0x3d14000000000000	1.7763568394002505e-14
156	0xbd90000000000000	-3.637978807091713e-12
157	0x3d78b00000000000	1.4033219031261979e-12
158	0xbdac6c0000000000	-1.2924772363476222e-11
159	0x3d78980000000000	1.3979928326079971e-12
160	0xbd18000000000000	-2.1316282072803006e-14
161	0x3d14000000000000	1.7763568394002505e-14
162	0x0000000000000000	0.0
163	0xbd5b800000000000	-3.907985046680551e-13
164	0xc0dce7541e48bfc6	-29597.314348399428
165	0x40c50c4796b2d088	10776.559286453077
166	0x4073a3083e1ebbac	314.1895123672973
167	0x3d18000000000000	2.1316282072803006e-14
168	0xbd90000000000000	-3.637978807091713e-12
169	0x3d73e00000000000	1.1297629498585593e-12
170	0xc0e25eb3247e1b53	-37621.59820466363
171	0xc0cee60507b91f55	-15820.039298191356
172	0xc0b87cab0cf4cad6	-6268.6681664462285
173	0x3d46000000000000	1.5631940186722204e-13
174	0x0000000000000000	0.0
175	0x3d7ba00000000000	1.5702994460298214e-12
176	0xc0e25eb3247e1b55	-37621.59820466364
177	0x40cee60507b91f5c	15820.039298191368
178	0xc0b87cab0cf4cad5	-6268.668166446228
179	0xbd4e000000000000	-2.1316282072803006e-13
180	0x3d80000000000000	1.8189894035458565e-12
181	0x3d97f00000000000	5.4427573559223674e-12
182	0xc0d2336490654536	-18637.571313207234
183	0xc0ba715a7a744c89	-6769.353431004224
184	0xc0bf460c58103289	-8006.048218738878
185	0x3d38000000000000	8.526512829121202e-14
186	0x3d60000000000000	4.547473508864641e-13
187	0x3d7b200000000000	1.5418777365994174e-12
188	0xc0ca41e6ece33b1b	-13443.80410423647
189	0xc0b3337e0853b9f4	-4915.492314560794
190	0x40ae1a323ebe59db	3853.0981349453627
191	0xbd18000000000000	-2.1316282072803006e-14
192	0x3da0000000000000	7.275957614183426e-12
193	0x3d84d80000000000	2.369660023759934e-12
194	0xbdc8aa0000000000	-4.4863668335892726e-11
195	0x3d69000000000000	7.105427357601002e-13
196	0xbd86000000000000	-2.5011104298755527e-12
197	0xbd2c000000000000	-4.973799150320701e-14
198	0xbd90000000000000	-3.637978807091713e-12
199	0xbd94740000000000	-4.650502205549856e-12
200	0xc0d2336490654526	-18637.571313207176
201	0x40ba715a7a744c8f	6769.35343100423
202	0xc0bf460c5810328c	-8006.048218738881
203	0x0000000000000000	0.0
204	0xbd80000000000000	-1.8189894035458565e-12
205	0xbd8a800000000000	-3.0127011996228248e-12
206	0xc0eb6b0ea01b0a13	-56152.45704414337
207	0xc0cea8e3e32d1806	-15697.78037036584
208	0xc0afe8d0ebce9f0c	-4084.4080490655087
209	0x3d26000000000000	3.907985046680551e-14
210	0xbd90000000000000	-3.637978807091713e-12
211	0xbd35800000000000	-7.638334409421077e-14
212	0xbdc48c0000000000	-3.737454790098127e-11
213	0x3d5c000000000000	3.979039320256561e-13
214	0xbd60000000000000	-4.547473508864641e-13
215	0x3d32800000000000	6.572520305780927e-14
216	0xbdb4000000000000	-1.8189894035458565e-11
217	0x3d9d828000000000	6.709743871624596e-12
218	0x3dd9400000000000	9.185896487906575e-11
219	0x3da2400000000000	8.29913915367797e-12
220	0x3d58000000000000	3.410605131648481e-13
221	0xbd40a00000000000	-1.1812772982011666e-13
222	0x0000000000000000	0.0
223	0x3d76900000000000	1.2825296380469808e-12
224	0xc0f0096226e2044b	-65686.13449289014
225	0x40c9dbb0618a740a	13239.377976709995
226	0xc0c091dfe795cea7	-8483.749254918961
227	0x3d52800000000000	2.6290081223123707e-13
228	0xbd70000000000000	-9.094947017729282e-13
229	0xbd5dc00000000000	-4.227729277772596e-13
230	0x3d91c00000000000	4.035882739117369e-12
231	0x3d86700000000000	2.5508484213787597e-12
232	0x3d58000000000000	3.410605131648481e-13
233	0xbd4e800000000000	-2.1671553440683056e-13
234	0x3d90000000000000	3.637978807091713e-12
235	0xbda02f0000000000	-7.359446385635238e-12
236	0xbde0180000000000	-1.170974428532645e-10
237	0x3d8fc00000000000	3.609557097661309e-12
238	0x3d70000000000000	9.094947017729282e-13
239	0xbd4f000000000000	-2.2026824808563106e-13
240	0xbdb0000000000000	-1.4551915228366852e-11
241	0x3d67000000000000	6.536993168992922e-13
242	0xc0eb96e097535105	-56503.01847234558
243	0xc0b4a86e95eaa26e	-5288.431975044876
244	0xc0b4a2077b8b5058	-5282.029228884807
245	0xbd4a000000000000	-1.8474111129762605e-13
246	0x3d80000000000000	1.8189894035458565e-12
247	0xbd814e0000000000	-1.9673151996357774e-12
248	0x3dd5c00000000000	7.912603905424476e-11
249	0xbd4c000000000000	-1.9895196601282805e-13
250	0x3d78000000000000	1.3642420526593924e-12
251	0x3ce0000000000000	1.7763568394002505e-15
252	0xbd90000000000000	-3.637978807091713e-12
253	0x3d70c00000000000	9.521272659185342e-13
254	0xc0d34ff9944fbe1e	-19775.899677215253
255	0xc0ca70fad74c9e5c	-13537.959695412945
