python-Linux/neural-sparse-linear-solvers-master/stand_small_test/7647584068134632292_1335530c4285156abc46ce0350e334288ae97f46_b0e7efa94b3edcf5e83486da1b5aa40b7181b189.npz (npz, 66716 bytes, 3 tensors)

A_values f8 [16590]
00000000: 08e4 1838 1df7 c041 6067 ebc3 c5b1 41c1
00000010: a741 1dc3 1f07 39c1 5468 052a aef2 44c1
00000020: 52b2 500b d3da 5d41 79da 032e 2230 21c1
00000030: a741 1dc3 1f07 39c1 bbbb dfe3 debe c0c1
00000040: 07ff 6a7a b732 bb41 6092 3498 ad82 1f41
00000050: 2056 a544 2a27 4341 99a3 534c 2b54 22c1
00000060: 5670 e864 381f 3ac1 77cb d6e4 a50b bbc1
00000070: 2a0e be58 cb49 30c1 2056 a544 2a27 4341
00000080: 2e0f 94ec 16cf cd41 fa78 54a9 ce9e 5c41
00000090: bc3f 752f 15c1 65c1 e8db 2e20 eca1 bbc1
000000a0: 67a6 435a bba7 43c1 fa78 54a9 ce9e 5c41
000000b0: 4abf 9c2d 1c80 52c1 bc3f 752f 15c1 65c1
000000c0: 6092 3498 ad82 1f41 fa78 54a9 ce9e 5c41
000000d0: 21d2 5c35 a7cf 8641 5670 e864 381f 3a41
000000e0: ab6e 1f15 ccc5 4841 fa78 54a9 ce9e 5cc1
000000f0: 8946 58ab 5b8d 6b41 d262 3dc4 ffb7 51c1
00000100: 6067 ebc3 c5b1 41c1 bc3f 752f 15c1 65c1
00000110: bb2a 2f2e 4ab2 9841 52b2 500b d3da 5dc1
00000120: b7bd 25d7 a11e 6c41 fd11 dec8 029e 4cc1
00000130: bc3f 752f 15c1 6541 4459 4352 0fd6 7041
00000140: a741 1dc3 1f07 39c1 2056 a544 2a27 4341
00000150: 08d0 ca9f 746c 7541 0645 bcaf 043d 4dc1
00000160: a741 1dc3 1f07 3941 ad12 82f7 8940 4841
00000170: 2056 a544 2a27 43c1 e135 2270 36f2 4d41
00000180: 5468 052a aef2 44c1 52b2 500b d3da 5dc1
00000190: 7ae6 0a44 08f0 c041 d044 82de a3ec 2541
000001a0: a741 1dc3 1f07 39c1 b45f a475 a9ea 47c1
000001b0: 767d 90c3 334c 6041 79da 032e 2230 21c1
000001c0: a741 1dc3 1f07 39c1 bbbb dfe3 debe c0c1
000001d0: 99a3 534c 2b54 22c1 5670 e864 381f 3a41
000001e0: 330c a9ac 932f bb41 90d5 ccd9 a777 03c1
000001f0: 2056 a544 2a27 4341 23b8 b1a6 cdf3 24c1
00000200: 080b 2260 2d8e 3cc1 77cb d6e4 a50b bbc1
00000210: 2a0e be58 cb49 30c1 2056 a544 2a27 4341
00000220: e8db 2e20 eca1 bbc1 be52 2f10 4d7c cc41
00000230: fa78 54a9 ce9e 5c41 bc3f 752f 15c1 65c1
00000240: 4acf c418 5ee5 bcc1 67a6 435a bba7 43c1
00000250: fa78 54a9 ce9e 5c41 4abf 9c2d 1c80 52c1
00000260: bc3f 752f 15c1 65c1 5670 e864 381f 3ac1
00000270: ab6e 1f15 ccc5 4841 90d5 ccd9 a777 03c1
00000280: fa78 54a9 ce9e 5c41 b4be ce0e 0f84 8641
00000290: 080b 2260 2d8e 3c41 0763 7f3c 4ae4 4941
000002a0: fa78 54a9 ce9e 5cc1 8946 58ab 5b8d 6b41
000002b0: d262 3dc4 ffb7 51c1 52b2 500b d3da 5d41
000002c0: b7bd 25d7 a11e 6c41 d044 82de a3ec 2541
000002d0: bc3f 752f 15c1 65c1 a014 66d9 5e09 9841
000002e0: 767d 90c3 334c 60c1 af86 6f9c a255 6d41
000002f0: fd11 dec8 029e 4cc1 bc3f 752f 15c1 6541
00000300: 4459 4352 0fd6 7041 0645 bcaf 043d 4dc1
00000310: a741 1dc3 1f07 39c1 2056 a544 2a27 4341
00000320: 6b4f 1619 d612 7541 0f64 85a2 4293 4ec1
00000330: a741 1dc3 1f07 3941 ad12 82f7 8940 4841
00000340: 2056 a544 2a27 43c1 e135 2270 36f2 4d41
00000350: b45f a475 a9ea 47c1 767d 90c3 334c 60c1
00000360: 3fd7 38c0 a8ef c041 306d f2f5 aec0 28c1
00000370: a741 1dc3 1f07 39c1 9a2c f657 2a93 44c1
00000380: 46ad 62a8 5180 5d41 79da 032e 2230 21c1
00000390: a741 1dc3 1f07 39c1 bbbb dfe3 debe c0c1
000003a0: 23b8 b1a6 cdf3 24c1 080b 2260 2d8e 3c41
000003b0: af8a b384 692f bb41 7807 11c9 a7f9 0541
000003c0: 2056 a544 2a27 4341 a49c 5061 dbff 21c1
000003d0: 19ea ff66 f8ce 39c1 77cb d6e4 a50b bbc1
000003e0: 2a0e be58 cb49 30c1 2056 a544 2a27 4341
000003f0: 4acf c418 5ee5 bcc1 f0b0 9a71 ef66 cc41
00000400: fa78 54a9 ce9e 5c41 bc3f 752f 15c1 65c1
00000410: 4d98 05e3 3077 bbc1 67a6 435a bba7 43c1
00000420: fa78 54a9 ce9e 5c41 4abf 9c2d 1c80 52c1
00000430: bc3f 752f 15c1 65c1 080b 2260 2d8e 3cc1
00000440: 0763 7f3c 4ae4 4941 7807 11c9 a7f9 0541
00000450: fa78 54a9 ce9e 5c41 966d 5989 487f 8641
00000460: 19ea ff66 f8ce 3941 efcf 2301 ea9f 4841
00000470: fa78 54a9 ce9e 5cc1 8946 58ab 5b8d 6b41
00000480: d262 3dc4 ffb7 51c1 767d 90c3 334c 6041
00000490: af86 6f9c a255 6d41 306d f2f5 aec0 28c1
000004a0: bc3f 752f 15c1 65c1 5638 747b a2fe 9741
000004b0: 46ad 62a8 5180 5dc1 71ba fc4b 5ff5 6b41
000004c0: fd11 dec8 029e 4cc1 bc3f 752f 15c1 6541
000004d0: 4459 4352 0fd6 7041 0f64 85a2 4293 4ec1
000004e0: a741 1dc3 1f07 39c1 2056 a544 2a27 4341
000004f0: 865e 353a 2f0d 7541 dbbd b4b8 cd0f 4dc1
00000500: a741 1dc3 1f07 3941 ad12 82f7 8940 4841
00000510: 2056 a544 2a27 43c1 e135 2270 36f2 4d41
00000520: 9a2c f657 2a93 44c1 46ad 62a8 5180 5dc1
00000530: 7cca 137e aa5a c141 e034 2c07 bc99 7141
00000540: a741 1dc3 1f07 39c1 94f3 12ea 8c5d 70c1
00000550: 32e0 4471 d0f9 7841 79da 032e 2230 21c1
00000560: a741 1dc3 1f07 39c1 bbbb dfe3 debe c0c1
00000570: a49c 5061 dbff 21c1 19ea ff66 f8ce 3941
00000580: 726d fa3b 1860 bb41 41bb ea71 6f1e 50c1
00000590: 2056 a544 2a27 4341 5ecf 1d0d 4f94 4dc1
000005a0: c7b5 aa8b 2d92 56c1 77cb d6e4 a50b bbc1
000005b0: 2a0e be58 cb49 30c1 2056 a544 2a27 4341
000005c0: 4d98 05e3 3077 bbc1 c8c3 e157 22e1 d341
000005d0: fa78 54a9 ce9e 5c41 bc3f 752f 15c1 65c1
000005e0: 453e 8b4a 04ce c9c1 67a6 435a bba7 43c1
000005f0: fa78 54a9 ce9e 5c41 4abf 9c2d 1c80 52c1
00000600: bc3f 752f 15c1 65c1 19ea ff66 f8ce 39c1
00000610: efcf 2301 ea9f 4841 41bb ea71 6f1e 50c1
00000620: fa78 54a9 ce9e 5c41 b501 d689 b502 8941
00000630: c7b5 aa8b 2d92 5641 2288 4983 72d0 5641
00000640: fa78 54a9 ce9e 5cc1 8946 58ab 5b8d 6b41
00000650: d262 3dc4 ffb7 51c1 46ad 62a8 5180 5d41
00000660: 71ba fc4b 5ff5 6b41 e034 2c07 bc99 7141
00000670: bc3f 752f 15c1 65c1 1985 0f0b 1474 9d41
00000680: 32e0 4471 d0f9 78c1 6772 d1be 51a4 7841
00000690: fd11 dec8 029e 4cc1 bc3f 752f 15c1 6541
000006a0: 4459 4352 0fd6 7041 dbbd b4b8 cd0f 4dc1
000006b0: a741 1dc3 1f07 39c1 2056 a544 2a27 4341
000006c0: e429 b2d2 410e 7841 82df 35b3 eb4d 5bc1
000006d0: a741 1dc3 1f07 3941 ad12 82f7 8940 4841
000006e0: 2056 a544 2a27 43c1 e135 2270 36f2 4d41
000006f0: 94f3 12ea 8c5d 70c1 32e0 4471 d0f9 78c1
00000700: a13d 3b7b 3895 c141 78ef bd62 b315 5cc1
00000710: a741 1dc3 1f07 39c1 9654 dadf 49c8 63c1
00000720: 5464 9598 63f4 7141 79da 032e 2230 21c1
00000730: a741 1dc3 1f07 39c1 bbbb dfe3 debe c0c1
00000740: 5ecf 1d0d 4f94 4dc1 c7b5 aa8b 2d92 5641
00000750: 3ee9 d8a2 627a bb41 4455 092e 7339 3a41
00000760: 2056 a544 2a27 4341 c80c 9247 2aa5 41c1
00000770: 7660 28c0 d003 50c1 77cb d6e4 a50b bbc1
00000780: 2a0e be58 cb49 30c1 2056 a544 2a27 4341
00000790: 453e 8b4a 04ce c9c1 c407 60ef 52dc d741
000007a0: fa78 54a9 ce9e 5c41 bc3f 752f 15c1 65c1
000007b0: 1f54 7fa0 f9b1 c5c1 67a6 435a bba7 43c1
000007c0: fa78 54a9 ce9e 5c41 4abf 9c2d 1c80 52c1
000007d0: bc3f 752f 15c1 65c1 c7b5 aa8b 2d92 56c1
000007e0: 2288 4983 72d0 5641 4455 092e 7339 3a41
000007f0: fa78 54a9 ce9e 5c41 8bdf 3504 bcc7 8a41
569260656.194459 -2319243.530621454 -1640223.762165168 -2745692.328290025 7826252.176800327 -563217.0898731492 -1640223.762165168 -561888711.7479166
456308602.4179539 516267.3986380454 2510420.5362956673 -600597.6490756153 -1711928.3941717348 -453748196.8390421 -1067467.3466500142 2510420.5362956673
1000222169.1567132 7502650.645780796 -11405481.483062617 -463596576.183043 -2576246.7051895144 7502650.645780796 -4849776.712692091 -11405481.483062617
516267.3986380454 7502650.645780796 47838438.670322664 1711928.3941717348 3247000.1650217376 -7502650.645780796 14445277.354525821 -4644863.066246705
-2319243.530621454 -11405481.483062617 103584395.54606144 -7826252.176800327 14742798.723357065 -3750917.5692770467 11405481.483062617 17654005.141442552
-1640223.762165168 2510420.5362956673 22464329.9870148 -3832329.372933033 1640223.762165168 3178771.9336570115 -2510420.5362956673 3925100.8760440205
-2745692.328290025 -7826252.176800327 568332424.0851586 718417.9345876221 -1640223.762165168 -3134802.9190787915 8544670.11138795 -563217.0898731492
-1640223.762165168 -561888711.7479166 -600597.6490756153 1711928.3941717348 456102828.6603424 -159476.98134772154 2510420.5362956673 -686566.8255746405
-1871405.3755194563 -453748196.8390421 -1067467.3466500142 2510420.5362956673 -463596576.183043 955816480.3697126 7502650.645780796 -11405481.483062617
-484793880.768788 -2576246.7051895144 7502650.645780796 -4849776.712692091 -11405481.483062617 -1711928.3941717348 3247000.1650217376 -159476.98134772154
7502650.645780796 47219169.850949675 1871405.3755194563 3393684.4726375374 -7502650.645780796 14445277.354525821 -4644863.066246705 7826252.176800327
14742798.723357065 718417.9345876221 -11405481.483062617 100816822.34968805 -8544670.11138795 15379732.888614027 -3750917.5692770467 11405481.483062617
17654005.141442552 -3832329.372933033 -1640223.762165168 2510420.5362956673 22097249.567946833 -4007557.269695766 1640223.762165168 3178771.9336570115
-2510420.5362956673 3925100.8760440205 -3134802.9190787915 -8544670.11138795 568283520.4440688 -811095.4803651925 -1640223.762165168 -2696788.687200141
7733574.631022757 -563217.0898731492 -1640223.762165168 -561888711.7479166 -686566.8255746405 1871405.3755194563 456092036.7013349 180020.97317701182
2510420.5362956673 -589805.6900681448 -1691384.4023424445 -453748196.8390421 -1067467.3466500142 2510420.5362956673 -484793880.768788 953016035.2085247
7502650.645780796 -11405481.483062617 -460796131.0218552 -2576246.7051895144 7502650.645780796 -4849776.712692091 -11405481.483062617 -1871405.3755194563
3393684.4726375374 180020.97317701182 7502650.645780796 47180049.16866605 1691384.4023424445 3227604.008905403 -7502650.645780796 14445277.354525821
-4644863.066246705 8544670.11138795 15379732.888614027 -811095.4803651925 -11405481.483062617 100640926.86349615 -7733574.631022757 14658298.374600621
-3750917.5692770467 11405481.483062617 17654005.141442552 -4007557.269695766 -1640223.762165168 2510420.5362956673 22074099.638029598 -3809179.4430157966
1640223.762165168 3178771.9336570115 -2510420.5362956673 3925100.8760440205 -2696788.687200141 -7733574.631022757 582309116.1546168 18455488.448292613
-1640223.762165168 -17160398.629626825 26189063.07931537 -563217.0898731492 -1640223.762165168 -561888711.7479166 -589805.6900681448 1691384.4023424445
459282491.9782325 -4225469.779951871 2510420.5362956673 -3877022.10247223 -5916854.182294316 -453748196.8390421 -1067467.3466500142 2510420.5362956673
-460796131.0218552 1334085983.5275745 7502650.645780796 -11405481.483062617 -865863829.0878378 -2576246.7051895144 7502650.645780796 -4849776.712692091
-11405481.483062617 -1691384.4023424445 3227604.008905403 -4225469.779951871 7502650.645780796 52450993.22949544 5916854.182294316 5980618.051363023
-7502650.645780796 14445277.354525821 -4644863.066246705 7733574.631022757 14658298.374600621 18455488.448292613 -11405481.483062617 123536642.76515616
-26189063.07931537 25838875.926134493 -3750917.5692770467 11405481.483062617 17654005.141442552 -3809179.4430157966 -1640223.762165168 2510420.5362956673
25224221.16849698 -7157678.800163152 1640223.762165168 3178771.9336570115 -2510420.5362956673 3925100.8760440205 -17160398.629626825 -26189063.07931537
589983990.4628183 -7362253.542842738 -1640223.762165168 -10371662.995401662 18826809.536472633 -563217.0898731492 -1640223.762165168 -561888711.7479166
-3877022.10247223 5916854.182294316 461005474.847309 1718643.1798299113 2510420.5362956673 -2312788.55914459 -4198211.002464404 -453748196.8390421
-1067467.3466500142 2510420.5362956673 -865863829.0878378 1601260477.500474 7502650.645780796 -11405481.483062617 -727970624.9947547 -2576246.7051895144
7502650.645780796 -4849776.712692091 -11405481.483062617 -5916854.182294316 5980618.051363023 1718643.1798299113 7502650.645780796 56162176.52630528

x f8 [1530]
00000000: eacb f31c 5e1d e4be c89f 9a60 ca4c ff3e
00000010: a925 2fb3 6570 2fbf effb 0363 ca4e 25bf
00000020: aca0 c3d6 159b 023f 7818 fb7c 7818 a1be
00000030: 12e9 c1fc da34 07bf 2a06 009b aab3 143f
00000040: 7c24 6f11 4f6d 3ebf 0e2f 0afd c8eb 24bf
00000050: 71fb 3888 11cb 033f 5862 ce33 7290 92be
00000060: b5cb 054f 2c1f fc3e da1c 7892 1275 1c3f
00000070: 4592 8b1f 58a6 44bf 6153 9538 aee9 25bf
00000080: 17c3 a0f2 390d 0b3f 52f4 dfd7 99fe b43e
00000090: f43c c63e 9861 143f ed47 9d73 7e97 1e3f
000000a0: 88ee 0270 8eab 48bf d518 6d00 6cfc 23bf
000000b0: 8a97 6de1 f311 043f 30d9 cbc8 a609 ca3e
000000c0: 6227 dfd8 1fe1 1a3f 66b2 a816 5564 303f
000000d0: 53d2 9e3a 8e01 4abf 5da3 bb23 e301 24bf
000000e0: e954 f410 9bad fa3e 6846 9c74 5b02 c93e
000000f0: c0e4 ff22 734a 213f f175 88ed 9eb5 363f
00000100: eedf 8fdb 56b9 4abf 2630 f80b 6aad 30bf
00000110: 8754 c6a9 5267 113f 90b5 850d 2125 c73e
00000120: 3cc5 ed58 a81e e6be 13ae 1c39 1abd ff3e
00000130: 490b a982 9548 33bf d81c 3063 1d5a 063f
00000140: 9a2e 3c12 938b 023f 111d 63ff 9100 80be
00000150: b022 0dac 490e 09bf d060 ec86 afbe 143f
00000160: 9a8a 5c88 707b 42bf 8012 029e 20a1 063f
00000170: ec86 553c 40b5 033f 01f4 419a 178a a33e
00000180: 15c4 3e0a 91fc eb3e 44ac f9dd 286d 1c3f
00000190: 0b70 1405 73d8 48bf 3584 b2c3 e5f2 0a3f
000001a0: 48b1 39f3 e433 0a3f a1c7 3af9 2521 cd3e
000001b0: 42f5 26e7 b697 113f fda6 c66f c905 1f3f
000001c0: 3d69 931c 4158 4dbf f36b 7956 7a21 023f
000001d0: 435f 3d45 462b 053f 44e2 0c4b c5b1 ba3e
000001e0: eb2c 0b24 0ff2 173f 47e3 d53e 836b 303f
000001f0: 67f7 26c1 11af 4ebf ff40 b71b 3aea 193f
00000200: 6c18 5ccb b1f6 f93e 5be9 5d83 878e c53e
00000210: a7c1 191e af4e 1f3f 1ee7 1c3d 9a7e 363f
00000220: 774b 7ac6 f266 4fbf 7260 5c41 1de1 2a3f
00000230: 991c e399 b160 113f 1d95 c4bd c823 c63e
00000240: 5553 5ec9 7a55 e9be 9065 fa93 df05 003f
00000250: 1715 bfa7 83fd 2cbf 67e1 5ad5 87e7 eebe
00000260: 63eb 6da1 f9ae 023f 06ec 8bbd cd48 a0be
00000270: 0e8e 2abf 1cb5 09bf 6173 8f22 4ac7 143f
00000280: 5e9c 4260 37d2 3abf 0186 26e1 51f2 dabe
00000290: e7d8 0e4f 956c 033f cd4d 83f8 078a c4be
000002a0: 5c58 8c32 1061 febe b1b0 fa59 c56d 1c3f
000002b0: f6c3 9099 2339 41bf 7afd 631a 39bf bebe
000002c0: 49ae 98d5 6d7e 053f c246 d2f7 364a ab3e
000002d0: e6b5 80f0 b2d9 143f 62fe 9950 30cb 1e3f
000002e0: 9d96 45ae 1b09 43bf ba38 e927 8ee4 e53e
000002f0: bbe6 d06c 0b66 173f b2b2 83e8 2f12 cc3e
00000300: d7ab 5921 c79a e7be aa86 24ff 342f 003f
00000310: 1515 e4a9 ed76 2dbf 2c55 e960 91c7 093f
00000320: 3973 cade 00d4 043f f571 8411 011f bfbe
00000330: cc56 a974 2e09 d4be 0327 eaa0 b8cd 143f
00000340: 5de1 429f deb7 3bbf 6373 1741 9dac 093f
00000350: 99c4 0e87 f55c 053f e30d 4f9d b4ea cebe
00000360: 68e7 8056 ea4e bb3e cd23 a66a 976c 1c3f
00000370: 8c6b 7176 1835 42bf 6700 307c 37d2 093f
00000380: e232 a365 677a 083f 606f 3377 734a c0be
00000390: a7a6 a7ec 6b0a fa3e b552 92d8 fb91 1e3f
000003a0: 3bc3 3deb f7d3 44bf aa09 a2ec 43e0 093f
000003b0: e6f3 5674 552a 043f 4139 6a97 6a7a e03e
000003c0: f6c4 520e 149d 093f 4c25 6524 4476 103f
000003d0: 298c 07e7 c647 45bf 7fdc 83bc b787 fdbe
000003e0: 9eb6 1d1a d88a 0f3f 2194 d2b9 a81d e13e
000003f0: 1530 1f96 de4a c8be 7889 0eb8 263c 003f
00000400: 8137 7857 19bb 2abf 7565 32fc a69e eabe
00000410: c011 8f29 6bc9 053f 147c 508b 1003 b6be
00000420: 8d09 22a3 81b9 c53e 8107 c630 eacf 143f
00000430: 40f5 b190 ae47 39bf ea7c 4da4 2eb8 e2be
00000440: f1c5 dbd5 1ec9 063f 0cc1 9b37 eb14 a9be
00000450: bd36 badc 6c6e e13e 4281 cdc7 906d 1c3f
00000460: ab6d 73f7 03ab 40bf 37d2 c4fc 6ea1 d6be
00000470: d427 931a dc52 093f b407 2acb e467 8abe
00000480: 17d7 c186 6cbc ba3e 8272 aa17 3c87 1e3f
00000490: 68ff 3d1a b921 43bf ef6e 0477 66f7 92be
000004a0: 77c8 0e1c ee75 063f 09bf f4ad a84d c23e
000004b0: ef2e 2924 0aeb 003f 5e4d a032 6b6e 103f
000004c0: 862e af4a 7d99 43bf 0f39 4903 ffc1 0d3f
000004d0: 2c90 885a c091 113f 9779 e4f4 14c0 da3e
000004e0: 5b3f bb35 2f9d c9be 3605 f12d fb4d 003f
000004f0: fc05 7f2f d132 2bbf 7dfa 2c60 137c fdbe
00000500: cb55 40e6 f74e 073f f71b 1a2a dc6c 92be
00000510: 1cd3 3fd1 cb19 a83e 7658 5252 cad2 143f
00000520: bc41 a7cc 9222 39bf 46b6 0847 4d2d f8be
00000530: 207d 361b 7606 0b3f aa64 84ce 37df a1be
00000540: 7107 3053 d318 df3e 1d23 41ba 386e 1c3f
00000550: 1e8f 69f5 dc20 40bf 65a0 4962 b6a6 f3be
00000560: 48f0 f461 1489 0b3f da51 4fca ab02 a5be
00000570: b76b d975 a00b 013f fce2 73dd 766b 1e3f
00000580: 7bfe 83cb dcca 41bf c306 03d7 8711 f6be
00000590: 146c a780 e9f7 1e3f 6a37 0068 57aa d1be
000005a0: 2673 6995 6440 b8be cbb4 70ca f46a 003f
000005b0: ddb9 6dce e634 25bf 5d37 3926 dac5 193f
000005c0: 601d 0168 d39b 073f 8507 80be c90c acbe
000005d0: b2cc 37f2 7d8b e13e 90b9 8232 bbd6 143f
000005e0: d9cd 0f99 5196 33bf d9ba b7eb ff2d 1a3f
000005f0: 849b 0cb0 d066 0b3f 1519 8984 89b5 b6be
00000600: 2786 0061 ebf1 ed3e 5168 e035 0a6f 1c3f
00000610: e002 8fd8 6a0e 39bf 2276 a3f1 2741 1b3f
00000620: c7b8 6b63 c860 0b3f 2671 37e6 cd30 9dbe
00000630: 8a48 5826 6fc2 0c3f ea1f 4160 ac3c 1e3f
00000640: 5fa2 a476 c877 3bbf 91a4 f163 2e7a 213f
00000650: 2228 739e c97d 203f 30cc 89aa b94e ae3e
00000660: 6f07 318f 7a1a e3be 2f89 a478 1f07 f93e
00000670: 23e2 74ce 8534 31bf 8240 cf93 cf27 25bf
00000680: 61f4 74e2 5349 cabe 4691 2cc1 aaf1 a6be
00000690: 1b51 34b5 0453 07bf 9ed9 9873 1b89 133f
000006a0: 3fe8 d7a6 065c 40bf 1aa4 6a18 3128 25bf
000006b0: 7903 f8f3 00ec d5be 10e5 bb1b 2d98 a03e
000006c0: 57b1 979a 4327 fc3e dc33 e8ad 89aa 1d3f
000006d0: 6a83 cc3b 57cd 45bf 338f 341e 8df5 25bf
000006e0: 4d56 713d 1f86 01bf 8610 a149 797e b83e
000006f0: 011c ee70 4ab3 143f 7b3e d090 ce03 223f
00000700: 8f1e 5ea2 29d3 49bf be57 9296 e7ed 23bf
00000710: 9d8b f16f 2044 f7be aa3c 7581 e43d ca3e
00000720: c244 8407 5ff6 1a3f bfb1 fe89 d28d 313f
00000730: ee46 d983 6129 4bbf 2ed1 4003 a2f6 23bf
00000740: 0a0b f595 80f5 e4be 4435 aec2 6c15 c93e
00000750: bf7e d54b 4bf5 203f ef74 089e 1eab 373f
00000760: f5e5 4d14 3be1 4bbf 25fa 7a59 4ca9 30bf
00000770: b09b 2508 3ddc 0abf 5823 44ff 4126 c73e
00000780: bcb5 9269 a81a e5be c3b1 baf3 a073 f93e
00000790: d97e cf34 01bf 34bf 9fc2 bf95 b7be 053f
000007a0: f9e2 0155 cb6a d1be e7a2 5247 ff2f 9dbe
000007b0: 6fed eae5 7f29 09bf decb 288b 6391 133f
000007c0: c0d3 b995 ec9b 43bf e9ef 68c3 6dbd 053f
000007d0: b1f7 8829 ed4f e3be 3cf4 8229 74f6 a53e
000007e0: 0456 869b 750d ec3e 26f3 ffe1 f6a0 1d3f
000007f0: 1198 9aaa 60fb 49bf 2659 bd35 c64f 0a3f
-9.591444636280648e-06 2.9849970849454654e-05 -0.0002398609300072023 -0.00016256542722456422 3.5487750979447174e-05 -5.094882400073468e-07 -4.426282211596374e-05 7.89711837114951e-05
-0.0004642789876326337 -0.00015961483451964364 3.775260213644591e-05 -2.7662877127293593e-07 2.6819009634814368e-05 0.00010855604033831474 -0.0006301813401390985 -0.00016718150826968827
5.159695713564097e-05 1.251371798626699e-06 7.774821978600075e-05 0.00011669835376196232 -0.0007528729911636259 -0.00015248125438400173 3.828073038540578e-05 3.1039358588904717e-06
0.00010253674392326836 0.00025012090069046475 -0.0007936424710722291 -0.00015264413547491198 2.544226395880404e-05 2.981329917946946e-06 0.00013191848256591775 0.00034651880335609316
-0.0008155511960685738 -0.0002544769194805528 6.638948474908995e-05 2.7591032500304044e-06 -1.0547521723333114e-05 3.02683652712421e-05 -0.000294243337212109 4.263307746304464e-05
3.5372186429763824e-05 -1.1922588755693398e-07 -4.7790168088262196e-05 7.913538295800941e-05 -0.0005640315509690297 4.316216268399498e-05 3.759004861582184e-05 5.823201729839934e-07
1.3345045154130147e-05 0.0001084381287854023 -0.0007582246418311745 5.1400791982965736e-05 4.9977707388434436e-05 3.472505292944622e-06 6.711057520810296e-05 0.0001183418461951045
-0.0008955305030682658 3.458170504862931e-05 4.037674139450869e-05 1.5911112251754657e-06 9.134499942857795e-05 0.0002505488799538391 -0.0009363972370050989 9.885768570616972e-05
2.4760866572236617e-05 2.5697654803511367e-06 0.00011942809899224156 0.0003432394561176821 -0.0009583173204695668 0.0002050731861167363 6.629070273610412e-05 2.639267661435698e-06
-1.2080147182827518e-05 3.05613380053401e-05 -0.00022117836112848434 -1.4736374093757884e-05 3.56359416206684e-05 -4.853126212839424e-07 -4.903310754869268e-05 7.926359161509806e-05
-0.0004092583842613735 -6.424560995561737e-06 3.704863218649702e-05 -2.448461547380318e-06 -2.8971818355115787e-05 0.00010844723737574409 -0.0005256103351084496 -1.8326619311558065e-06
4.099629104489502e-05 8.133024348591394e-07 7.953791293920757e-05 0.00011746866598549282 -0.0005809197578343254 1.0439297736610963e-05 8.925862057731608e-05 3.3463291552098825e-06
-1.1255550855090585e-05 3.0869297818603606e-05 -0.00022479678313672898 4.9170612432073525e-05 3.9726521071181726e-05 -1.8549627097192593e-06 -4.776922490087268e-06 7.935943015460402e-05
-0.00042294678793155187 4.8969792384423773e-05 4.0746920496722776e-05 -3.685571963592378e-06 1.6276993282230413e-06 0.0001084296624524049 -0.0005556458899137347 4.924995257482648e-05
4.668834726970717e-05 -1.9420175988281457e-06 2.4834355636749402e-05 0.00011661624570742208 -0.0006356201688345395 4.935462273271696e-05 3.846238409319757e-05 7.857412794434598e-06
4.885404067901139e-05 6.279745966710388e-05 -0.0006494256213581728 -2.816214308240224e-05 6.01622771359948e-05 8.161476041055174e-06 -2.8958867668068494e-06 3.0965739831206646e-05
-0.00020394024225861218 -1.2693279023689587e-05 4.1555006823598955e-05 -1.3120157238489344e-06 2.5897782274807798e-06 7.9392117362102e-05 -0.0003857423004730194 -8.926134918928235e-06
4.346013404966574e-05 -7.474933305367671e-07 8.311914732740824e-06 0.00010844417734068738 -0.0005086678856075962 -5.395555444477404e-06 4.830106929316872e-05 -1.9673880087908382e-07
1.5935916293485813e-06 0.00011645607257055639 -0.0005838540860025722 -2.8262149155839263e-07 4.284031775316025e-05 2.1819299572885595e-06 3.22687597145969e-05 6.268052371210172e-05
-0.0005981313491871399 5.675849425711327e-05 6.702171834455155e-05 6.377773230674397e-06 -3.0534269351636246e-06 3.109858311535001e-05 -0.00020750812086416093 -2.8118773126135304e-05
4.4457378663913584e-05 -2.7455738847058805e-07 7.182588057640427e-07 7.943496582849146e-05 -0.00038353046388997134 -2.3056946192470563e-05 5.154655391525543e-05 -5.32625475310697e-07
7.4140964896345956e-06 0.00010845395314719145 -0.0004921988391512787 -1.8740864236838415e-05 5.251973584072305e-05 -6.261597219567298e-07 3.251155315516597e-05 0.00011604226107298979
-0.0005429819202901887 -2.1046141626574236e-05 0.00011813509642115443 -4.211758664508317e-06 -1.445504116091148e-06 3.1314464017698206e-05 -0.00016179387531729721 9.831565835691004e-05
4.5030011279363234e-05 -8.359537533311019e-07 8.366055744146682e-06 7.949369012536498e-05 -0.00029887668739478134 9.986757770950472e-05 5.226444591804102e-05 -1.3535696031949093e-06
1.4278887675858613e-05 0.00010846614665674491 -0.0003823290685965163 0.00010396772669048944 5.221950089216855e-05 -4.349744584222839e-07 5.485440923903944e-05 0.00011534502124377314
-0.00041912693144977546 0.0001333409909165845 0.00012581907433279008 9.032344979301e-07 -9.109226516316075e-06 2.386839290936213e-05 -0.0002625300098375879 -0.00016140374091700235
-3.133587387486997e-06 -6.837848352853578e-07 -4.448755376010497e-05 7.45223050210076e-05 -0.0004992516020927497 -0.00016141509350589626 -5.22658575574728e-06 4.945528000170256e-07
2.6849150946904373e-05 0.00011316743209750741 -0.0006653476662884354 -0.00016753528243739768 -3.342421376177334e-05 1.4599584461519952e-06 7.89655862104416e-05 0.00013744255593949373
-0.0007881120006780362 -0.00015204860691103538 -2.2188301042179806e-05 3.1282625162842017e-06 0.00010285334599681713 0.00026785268891662753 -0.0008289075992229092 -0.00015230872816263938
-9.994026810238657e-06 2.9902089599467293e-06 0.00012938064711941717 0.0003611516713436088 -0.0008508242104731655 -0.0002542315864778897 -5.123196844430218e-05 2.7596288366720806e-06
-1.0063234457592374e-05 2.4272608455321172e-05 -0.00031656054926363985 4.147527462794908e-05 -4.152575755361022e-06 -4.349274783191232e-07 -4.799291194986898e-05 7.464571061958867e-05
-0.0005984215926689782 4.14656755549357e-05 -9.208780555099721e-06 6.54539763743037e-07 1.3376510523947615e-05 0.0001130247769651314 -0.0007929059986124827 5.0185428988202323e-05

b f8 [1530]
00000000: 0000 0000 0000 803d 0000 0000 0081 77bd
00000010: 9089 0600 695a d7c0 1001 5c24 fce2 b8c0
00000020: 439d 25b1 a93a b040 0000 0000 0000 143d
00000030: 0000 0000 0000 903d 0000 0000 804b 83bd
00000040: b27c 5b1c 45db d7c0 0c01 5c24 fce2 b8c0
00000050: 449d 25b1 a93a b040 0000 0000 0060 263d
00000060: 0000 0000 0000 903d 0000 0000 001a 7dbd
00000070: 2e12 b293 07e5 d7c0 1501 5c24 fce2 b8c0
00000080: 449d 25b1 a93a b040 0000 0000 0000 233d
00000090: 0000 0000 0000 a03d 0000 0000 8046 a53d
000000a0: 4950 70ba 2c41 d5c0 0f01 5c24 fce2 b8c0
000000b0: 479d 25b1 a93a b040 0000 0000 0000 f03c
000000c0: 0000 0000 0000 b83d 0000 0000 0051 a3bd
000000d0: da2f 6121 36f0 d2c0 1601 5c24 fce2 b8c0
000000e0: 429d 25b1 a93a b040 0000 0000 00e0 543d
000000f0: 0000 0000 0000 0000 0000 0000 6018 c63d
00000100: 4837 0d1b ca28 cfc0 0e01 5c24 fce2 b8c0
00000110: 459d 25b1 a93a b040 0000 0000 0000 3a3d
00000120: 0000 0000 0000 883d 0000 0000 009f 81bd
00000130: fc6e 1269 5569 ddc0 f2ef a9a8 8c33 8540
00000140: 459d 25b1 a93a b040 0000 0000 0000 0b3d
00000150: 0000 0000 0000 903d 0000 0000 7095 b3bd
00000160: e461 6785 31ea ddc0 1ef0 a9a8 8c33 8540
00000170: 469d 25b1 a93a b040 0000 0000 0000 113d
00000180: 0000 0000 0000 883d 0000 0000 40b3 cc3d
00000190: 63f7 bdfc f3f3 ddc0 f2ef a9a8 8c33 8540
000001a0: 4c9d 25b1 a93a b040 0000 0000 0000 303d
000001b0: 0000 0000 0000 b03d 0000 0000 002c acbd
000001c0: bb35 7c23 1950 dbc0 edef a9a8 8c33 8540
000001d0: 4a9d 25b1 a93a b040 0000 0000 0000 0abd
000001e0: 0000 0000 0000 0000 0000 0000 802d a9bd
000001f0: 3a2f 6121 36f0 d2c0 0c01 5c24 fce2 b840
00000200: 469d 25b1 a93a b040 0000 0000 0080 383d
00000210: 0000 0000 0000 c0bd 0000 0000 e09f c1bd
00000220: b037 0d1b ca28 cfc0 1501 5c24 fce2 b840
00000230: 479d 25b1 a93a b040 0000 0000 0020 513d
00000240: 0000 0000 0000 0000 0000 0000 8016 813d
00000250: 4986 9f01 5725 ddc0 e73c ec1c 1a2b 64c0
00000260: 449d 25b1 a93a b040 0000 0000 0000 c0bc
00000270: 0000 0000 0000 0000 0000 0000 00e2 a03d
00000280: 7179 f41d 33a6 ddc0 fa3c ec1c 1a2b 64c0
00000290: 439d 25b1 a93a b040 0000 0000 0000 2a3d
000002a0: 0000 0000 0000 803d 0000 0000 00eb a5bd
000002b0: c70e 4b95 f5af ddc0 743c ec1c 1a2b 64c0
000002c0: 419d 25b1 a93a b040 0000 0000 0000 383d
000002d0: 0000 0000 0000 a03d 0000 0000 0075 b5bd
000002e0: 56b9 2ea8 49b0 d7c0 443c ec1c 1a2b 64c0
000002f0: 319d 25b1 a93a b040 0000 0000 0000 5c3d
00000300: 0000 0000 0000 803d 0000 0000 0038 73bd
00000310: c43a 4ac9 c671 dac0 316f d9f4 260a b040
00000320: 3b9d 25b1 a93a b040 0000 0000 0080 29bd
00000330: 0000 0000 0000 703d 0000 0000 8027 a4bd
00000340: df2d 9fe5 a2f2 dac0 2a6f d9f4 260a b040
00000350: 419d 25b1 a93a b040 0000 0000 0000 36bd
00000360: 0000 0000 0000 0000 0000 0000 4088 cb3d
00000370: 42c3 f55c 65fc dac0 286f d9f4 260a b040
00000380: 469d 25b1 a93a b040 0000 0000 0000 0cbd
00000390: 0000 0000 0000 90bd 0000 0000 00ee aa3d
000003a0: eb01 b483 8a58 d8c0 1d6f d9f4 260a b040
000003b0: 479d 25b1 a93a b040 0000 0000 0000 3fbd
000003c0: 0000 0000 0000 a03d 0000 0000 00b0 9e3d
000003d0: 220b 79cf 49c8 c7c0 44d7 52ad f14e 9bc0
000003e0: 3f9d 25b1 a93a b040 0000 0000 0000 463d
000003f0: 0000 0000 0000 0000 0000 0000 00e3 823d
00000400: 854d 2664 108f d8c0 cd16 7c22 dca0 90c0
00000410: 459d 25b1 a93a b040 0000 0000 0000 0000
00000420: 0000 0000 0000 503d 0000 0000 60c5 a3bd
00000430: 9b40 7b80 ec0f d9c0 d116 7c22 dca0 90c0
00000440: 419d 25b1 a93a b040 0000 0000 0020 393d
00000450: 0000 0000 0000 0000 0000 0000 4003 c5bd
00000460: 23d6 d1f7 ae19 d9c0 c016 7c22 dca0 90c0
00000470: 449d 25b1 a93a b040 0000 0000 0000 41bd
00000480: 0000 0000 0000 78bd 0000 0000 008e b63d
00000490: 5514 901e d475 d6c0 d616 7c22 dca0 90c0
000004a0: 449d 25b1 a93a b040 0000 0000 0040 4abd
000004b0: 0000 0000 0000 80bd 0000 0000 00a0 693d
000004c0: 600b 79cf 49c8 c7c0 47d7 52ad f14e 9b40
000004d0: 459d 25b1 a93a b040 0000 0000 0000 35bd
000004e0: 0000 0000 0000 603d 0000 0000 0048 5a3d
000004f0: 95a2 ad6a f17a dac0 8bcb 8043 6b94 97c0
00000500: 429d 25b1 a93a b040 0000 0000 0000 e23c
00000510: 0000 0000 0000 403d 0000 0000 b0f6 9bbd
00000520: cd95 0287 cdfb dac0 94cb 8043 6b94 97c0
00000530: 419d 25b1 a93a b040 0000 0000 0000 fabc
00000540: 0000 0000 0000 0000 0000 0000 00d2 a0bd
00000550: 1c2b 59fe 8f05 dbc0 92cb 8043 6b94 97c0
00000560: 489d 25b1 a93a b040 0000 0000 00a0 43bd
00000570: 0000 0000 0000 a03d 0000 0000 0005 ae3d
00000580: b1d5 3c11 e405 d5c0 7bcb 8043 6b94 97c0
00000590: 459d 25b1 a93a b040 0000 0000 0000 213d
000005a0: 0000 0000 0000 0000 0000 0000 00b6 90bd
000005b0: 0c08 8400 e838 d6c0 69ee d344 0ee1 b040
000005c0: 449d 25b1 a93a b040 0000 0000 0000 c03c
000005d0: 0000 0000 0000 703d 0000 0000 800b 7b3d
000005e0: 27fb d81c c4b9 d6c0 66ee d344 0ee1 b040
000005f0: 439d 25b1 a93a b040 0000 0000 0040 203d
00000600: 0000 0000 0000 80bd 0000 0000 805b a73d
00000610: 6e90 2f94 86c3 d6c0 61ee d344 0ee1 b040
00000620: 409d 25b1 a93a b040 0000 0000 0000 293d
00000630: 0000 0000 0000 0000 0000 0000 8027 9abd
00000640: 403b 13a7 dac3 d0c0 65ee d344 0ee1 b040
00000650: 449d 25b1 a93a b040 0000 0000 0000 123d
00000660: 0000 0000 0000 80bd 0000 0000 002c 7f3d
00000670: d66e 8478 744f ddc0 0a01 5c24 fce2 b8c0
00000680: 055d 97ec f715 9540 0000 0000 0040 04bd
00000690: 0000 0000 0000 a03d 0000 0000 2466 973d
000006a0: f961 d994 50d0 ddc0 1401 5c24 fce2 b8c0
000006b0: 105d 97ec f715 9540 0000 0000 0000 073d
000006c0: 0000 0000 003c 713d 0000 0000 0000 0000
000006d0: 1b12 b293 07e5 d7c0 1001 5c24 fce2 b8c0
000006e0: 3e9d 25b1 a93a b0c0 0000 0000 0000 1abd
000006f0: 0000 0000 800f afbd 0000 0000 0000 b03d
00000700: 6e50 70ba 2c41 d5c0 0a01 5c24 fce2 b8c0
00000710: 429d 25b1 a93a b0c0 0000 0000 00c0 3d3d
00000720: 0000 0000 00e9 a0bd 0000 0000 0000 d4bd
00000730: d52f 6121 36f0 d2c0 1201 5c24 fce2 b8c0
00000740: 439d 25b1 a93a b0c0 0000 0000 0080 3abd
00000750: 0000 0000 801a a03d 0000 0000 0000 0000
00000760: 8837 0d1b ca28 cfc0 1001 5c24 fce2 b8c0
00000770: 469d 25b1 a93a b0c0 0000 0000 00a0 603d
00000780: 0000 0000 0000 88bd 0000 0000 00b9 56bd
00000790: 0a2a c870 30af e1c0 13f0 a9a8 8c33 8540
000007a0: 035d 97ec f715 9540 0000 0000 0090 1ebd
000007b0: 0000 0000 0000 a83d 0000 0000 d062 a1bd
000007c0: 9ba3 f27e 9eef e1c0 ffef a9a8 8c33 8540
000007d0: 085d 97ec f715 9540 0000 0000 00f0 363d
000007e0: 0000 0000 0012 71bd 0000 0000 0000 a03d
000007f0: 53f7 bdfc f3f3 ddc0 08f0 a9a8 8c33 8540
1.8189894035458565e-12 -1.3360423878339134e-12 -23913.640626558627 -6370.984929800281 4154.662859297651 1.7763568394002505e-14 3.637978807091713e-12 -2.1935786520543843e-12
-24429.079855796597 -6370.984929800277 4154.662859297652 3.9745984281580604e-14 3.637978807091713e-12 -1.6542323066914832e-12 -24468.118389623407 -6370.9849298002855
4154.662859297652 3.375077994860476e-14 7.275957614183426e-12 9.674927525793464e-12 -21764.698879316715 -6370.98492980028 4154.662859297655 3.552713678800501e-15
2.1827872842550278e-11 -8.784084570834239e-12 -19392.845787331324 -6370.984929800286 4154.66285929765 2.9665159217984183e-13 0.0 4.019096166985037e-11
-15953.578950550072 -6370.984929800279 4154.662859297653 9.237055564881302e-14 2.7284841053187847e-12 -2.0032864256336325e-12 -30117.334538086303 678.4436810757018
4154.662859297653 1.199040866595169e-14 3.637978807091713e-12 -1.7811307984061386e-11 -30632.773767324063 678.4436810757068 4154.662859297654 1.509903313490213e-14
2.7284841053187847e-12 5.220535115313396e-11 -30671.812301150883 678.4436810757018 4154.662859297659 5.684341886080802e-14 1.4551915228366852e-11 -1.2811085525754606e-11
-27968.392790844413 678.4436810757012 4154.662859297658 -1.1546319456101628e-14 0.0 -1.1449508008354314e-11 -19392.84578733074 6370.984929800277
4154.662859297654 8.704148513061227e-14 -2.9103830456733704e-11 -3.205880005907602e-11 -15953.578950550262 6370.9849298002855 4154.662859297655 2.433608869978343e-13
0.0 1.942668248489099e-12 -29845.359474068773 -161.3469376195928 4154.662859297652 -4.440892098500626e-16 0.0 7.677414259887883e-12
-30360.798703306766 -161.34693761959335 4154.662859297651 4.618527782440651e-14 1.8189894035458565e-12 -9.967138225874805e-12 -30399.837237133437 -161.34693761958954
4154.662859297649 8.526512829121202e-14 7.275957614183426e-12 -1.951505623765115e-11 -24257.150890046112 -161.34693761958818 4154.662859297635 3.979039320256561e-13
1.8189894035458565e-12 -1.092459456231154e-12 -27079.10603576411 4106.152173604628 4154.662859297644 -4.529709940470639e-14 9.094947017729282e-13 -9.165113112885592e-12
-27594.545265002056 4106.152173604622 4154.662859297649 -7.815970093361102e-14 0.0 5.008082837321126e-11 -27633.583798828775 4106.15217360462
4154.662859297654 -1.2434497875801753e-14 -3.637978807091713e-12 1.2246204050825327e-11 -24930.1642885226 4106.15217360461 4154.662859297655 -1.1013412404281553e-13
7.275957614183426e-12 6.977529665164184e-12 -12176.57664406818 -1747.7360127395523 4154.662859297648 1.5631940186722204e-13 0.0 2.1471713296250527e-12
-25148.256112647727 -1064.2149752987782 4154.662859297653 0.0 2.2737367544323206e-13 -8.990808098019443e-12 -25663.695341885654 -1064.214975298779
4154.662859297649 8.926193117986259e-14 0.0 -3.822187011337519e-11 -25702.733875712507 -1064.2149752987752 4154.662859297652 -1.2079226507921703e-13
-1.3642420526593924e-12 2.0513368781394092e-11 -22999.3143654059 -1064.2149752987802 4154.662859297652 -1.865174681370263e-13 -1.8189894035458565e-12 7.283063041541027e-13
-12176.576644068293 1747.736012739553 4154.662859297653 -7.460698725481052e-14 4.547473508864641e-13 3.7347902548390266e-13 -27115.772136124393 -1509.1047496914132
4154.66285929765 1.9984014443252818e-15 1.1368683772161603e-13 -6.35819175087704e-12 -27631.211365362444 -1509.1047496914152 4154.662859297649 -5.773159728050814e-15
0.0 -7.648992550457479e-12 -27670.24989918909 -1509.1047496914148 4154.662859297656 -1.3944401189291966e-13 7.275957614183426e-12 1.3651302310790925e-11
-21527.563552101787 -1509.1047496914096 4154.662859297653 3.019806626980426e-14 0.0 -3.799627279477136e-12 -22755.625031478747 4321.0557377297455
4154.662859297652 4.440892098500626e-16 9.094947017729282e-13 1.5373258221984543e-12 -23271.064260716692 4321.055737729743 4154.662859297651 2.886579864025407e-14
-1.8189894035458565e-12 1.0621725721193798e-11 -23310.10279454331 4321.055737729738 4154.6628592976485 4.440892098500626e-14 0.0 -5.9467986091021885e-12
-17167.416447456228 4321.055737729742 4154.662859297652 1.5987211554602254e-14 -1.8189894035458565e-12 1.7719159473017498e-12 -30013.819855793226 -6370.9849298002755
1349.4921134615445 -8.992806499463768e-15 7.275957614183426e-12 5.3203136340940205e-12 -30529.2590850312 -6370.984929800285 1349.492113461547 1.021405182655144e-14
9.796607969292381e-13 0.0 -24468.118389623338 -6370.984929800281 -4154.662859297647 -2.3092638912203256e-14 -1.4124701408491092e-11 1.4551915228366852e-11
-21764.69887931685 -6370.9849298002755 -4154.66285929765 1.056932319443149e-13 -7.689848757763684e-12 -7.275957614183426e-11 -19392.845787331305 -6370.984929800283
-4154.662859297651 -9.414691248821327e-14 7.323031070427533e-12 0.0 -15953.578950550189 -6370.984929800281 -4154.662859297654 4.725109192804666e-13
-2.7284841053187847e-12 -3.229083667122268e-13 -36217.513767320735 678.4436810757055 1349.492113461544 -2.7144952952085077e-14 1.0913936421275139e-11 -7.906231225263127e-12
-36732.952996558706 678.4436810757032 1349.4921134615452 8.149037000748649e-14 -9.703349235223868e-13 7.275957614183426e-12 -30671.812301150825 678.4436810757043
