python-Linux/neural-sparse-linear-solvers-master/stand_small_test/7690568266099121403_28a92b85874da377b05c70b19d6c53f21fdfb94c_b7f8df7dd3992d66fa788db0511615a5c123eab1.npz (npz, 60278 bytes, 3 tensors)

A_values f8 [14706]
0	0x41d565c43b6245cf	1435963629.5355108
1	0x41840b37d0251c70	42034938.01812065
2	0xc165aa727b622604	-11359123.855731018
3	0xc18271053838183d	-38674599.02738998
4	0x418dba977f9a4d9e	62345967.950343356
5	0xc15160871baf143e	-4555292.432560978
6	0xc165aa727b622604	-11359123.855731018
7	0xc1d4a60ec1bd0d47	-1385708294.9539354
8	0x41d0a3de4d6d3d2a	1116698933.7068582
9	0xc171686c8c7a9581	-18253512.779927734
10	0x41717250e6a89cbe	18294030.416165106
11	0xc16fa05f82392e81	-16581372.069480183
12	0xc1797df09c431238	-26730249.766374797
13	0xc1d035c8156e8235	-1087840341.7266972
14	0xc161d312fcf8787b	-9345175.905330887
15	0x41717250e6a89cbe	18294030.416165106
16	0x41e3c5fd1306a43b	2653939864.2075477
17	0x4179d85efae59371	27100655.681048814
18	0xc184996aa64b3bc5	-43199828.786735095
19	0xc1d9130eb14ce623	-1682717381.2015464
20	0xc164baa8fe1007eb	-10868039.9394569
21	0x4179d85efae59371	27100655.681048814
22	0xc1750ba8e5f1c642	-22067854.371526964
23	0xc184996aa64b3bc5	-43199828.786735095
24	0xc171686c8c7a9581	-18253512.779927734
25	0x4179d85efae59371	27100655.681048814
26	0x41a7b23d3090fda5	198778520.28318515
27	0x41797df09c431238	26730249.766374797
28	0x417aff112d961548	28307730.84914139
29	0xc179d85efae59371	-27100655.681048814
30	0x41852a1695f378dd	44384978.74388287
31	0xc17093c8c9d9ad94	-17382540.615644053
32	0x41840b37d0251c70	42034938.01812065
33	0xc184996aa64b3bc5	-43199828.786735095
34	0x41b46fb75fd2419f	342865759.8213138
35	0xc18dba977f9a4d9e	-62345967.950343356
36	0x418ed14aaf700baa	64629077.92970975
37	0xc16a071ad42c327c	-13646038.630395167
38	0x4184996aa64b3bc5	43199828.786735095
39	0x418a3cb7986c682d	55023347.052933075
40	0xc165aa727b622604	-11359123.855731018
41	0x41717250e6a89cbe	18294030.416165106
42	0x419c4fb77c50ceda	118746591.07891408
43	0xc1742162cd6fb1ff	-21108268.83976936
44	0x4165aa727b622604	11359123.855731018
45	0x4171e61649f2898e	18768228.621713214
46	0xc1717250e6a89cbe	-18294030.416165106
47	0x41768b160c2f745d	23638368.761585582
48	0xc18271053838183d	-38674599.02738998
49	0xc18dba977f9a4d9e	-62345967.950343356
50	0x41d54af7729a7d1d	1428938186.4138863
51	0xc18dba977f9a4d9e	-62345967.950343356
52	0xc165aa727b622604	-11359123.855731018
53	0xc15160871baf143e	-4555292.432560978
54	0xc165aa727b622604	-11359123.855731018
55	0xc1d4a60ec1bd0d47	-1385708294.9539354
56	0xc16fa05f82392e81	-16581372.069480183
57	0x41797df09c431238	26730249.766374797
58	0x41d098aefa6ce583	1113766889.7015083
59	0x41797df09c431238	26730249.766374797
60	0x41717250e6a89cbe	18294030.416165106
61	0xc1d035c8156e8235	-1087840341.7266972
62	0xc161d312fcf8787b	-9345175.905330887
63	0x41717250e6a89cbe	18294030.416165106
64	0xc1d9130eb14ce623	-1682717381.2015464
65	0x41d990b2a6e0cd4c	1715653275.5125303
66	0x4179d85efae59371	27100655.681048814
67	0xc184996aa64b3bc5	-43199828.786735095
68	0xc164baa8fe1007eb	-10868039.9394569
69	0x4179d85efae59371	27100655.681048814
70	0xc1750ba8e5f1c642	-22067854.371526964
71	0xc184996aa64b3bc5	-43199828.786735095
72	0xc1797df09c431238	-26730249.766374797
73	0x417aff112d961548	28307730.84914139
74	0x41797df09c431238	26730249.766374797
75	0x4179d85efae59371	27100655.681048814
76	0x41a3caca41c30c53	166028576.8809534
77	0xc179d85efae59371	-27100655.681048814
78	0x41852a1695f378dd	44384978.74388287
79	0xc17093c8c9d9ad94	-17382540.615644053
80	0x418dba977f9a4d9e	62345967.950343356
81	0x418ed14aaf700baa	64629077.92970975
82	0xc18dba977f9a4d9e	-62345967.950343356
83	0xc184996aa64b3bc5	-43199828.786735095
84	0x41af7cec0fece2c4	264140295.96266758
85	0xc16a071ad42c327c	-13646038.630395167
86	0x4184996aa64b3bc5	43199828.786735095
87	0x418a3cb7986c682d	55023347.052933075
88	0xc1742162cd6fb1ff	-21108268.83976936
89	0xc165aa727b622604	-11359123.855731018
90	0x41717250e6a89cbe	18294030.416165106
91	0x41998155080d58f7	106976578.01303469
92	0x4165aa727b622604	11359123.855731018
93	0x4171e61649f2898e	18768228.621713214
94	0xc1717250e6a89cbe	-18294030.416165106
95	0x41768b160c2f745d	23638368.761585582
96	0xc15160871baf143e	-4555292.432560978
97	0x4165aa727b622604	11359123.855731018
98	0x41d57c87a7d22f48	1441930911.2841358
99	0x41840b37d0251c70	42034938.01812065
100	0xc1410239bb9f4358	-2229363.465797823
101	0xc18271053838183d	-38674599.02738998
102	0x418dba977f9a4d9e	62345967.950343356
103	0xc156c36c6fe978dd	-5967281.748625007
104	0xc169eb00ea49f6da	-13588487.32152884
105	0xc1d4a60ec1bd0d47	-1385708294.9539354
106	0xc1d035c8156e8235	-1087840341.7266972
107	0x41e1320b2ad135c9	2307938646.5378156
108	0xc171686c8c7a9581	-18253512.779927734
109	0x41717250e6a89cbe	18294030.416165106
110	0xc16fa05f82392e81	-16581372.069480183
111	0xc1797df09c431238	-26730249.766374797
112	0xc1d1c03808352e68	-1191239712.8309574
113	0xc161d312fcf8787b	-9345175.905330887
114	0x41717250e6a89cbe	18294030.416165106
115	0xc164baa8fe1007eb	-10868039.9394569
116	0xc179d85efae59371	-27100655.681048814
117	0x41e3e10d9e8bf157	2668129524.3732104
118	0x4153e166bf5f2758	5211546.99018272
119	0xc184996aa64b3bc5	-43199828.786735095
120	0xc1d9130eb14ce623	-1682717381.2015464
121	0xc16b108b854d1c22	-14189660.165662829
122	0x417ed0b8aabd5d47	32312202.671231534
123	0xc1750ba8e5f1c642	-22067854.371526964
124	0xc184996aa64b3bc5	-43199828.786735095
125	0x4179d85efae59371	27100655.681048814
126	0x41852a1695f378dd	44384978.74388287
127	0xc171686c8c7a9581	-18253512.779927734
128	0x4153e166bf5f2758	5211546.99018272
129	0x41b1bf68738e2a70	297756787.55533504
130	0x41797df09c431238	26730249.766374797
131	0x417aff112d961548	28307730.84914139
132	0xc17ed0b8aabd5d47	-32312202.671231534
133	0x4186f99d727dabc8	48182190.3113628
134	0xc17093c8c9d9ad94	-17382540.615644053
135	0xc16a071ad42c327c	-13646038.630395167
136	0x41840b37d0251c70	42034938.01812065
137	0xc184996aa64b3bc5	-43199828.786735095
138	0x41b553bad843464e	357808856.2627915
139	0xc18dba977f9a4d9e	-62345967.950343356
140	0x418ed14aaf700baa	64629077.92970975
141	0xc16c806f0e2095d6	-14943096.441477697
142	0x4184996aa64b3bc5	43199828.786735095
143	0x418a3cb7986c682d	55023347.052933075
144	0xc165aa727b622604	-11359123.855731018
145	0x4171e61649f2898e	18768228.621713214
146	0xc1410239bb9f4358	-2229363.465797823
147	0x41717250e6a89cbe	18294030.416165106
148	0x41a3178ca1801d07	160155216.75022146
149	0xc1742162cd6fb1ff	-21108268.83976936
150	0x4169eb00ea49f6da	13588487.32152884
151	0x41738778fb68744d	20477839.713001538
152	0xc1717250e6a89cbe	-18294030.416165106
153	0x41768b160c2f745d	23638368.761585582
154	0xc15160871baf143e	-4555292.432560978
155	0x4165aa727b622604	11359123.855731018
156	0xc18271053838183d	-38674599.02738998
157	0xc18dba977f9a4d9e	-62345967.950343356
158	0x41d54af7729a7d1d	1428938186.4138863
159	0xc18dba977f9a4d9e	-62345967.950343356
160	0x4165aa727b622604	11359123.855731018
161	0xc1d4a60ec1bd0d47	-1385708294.9539354
162	0xc1d035c8156e8235	-1087840341.7266972
163	0xc16fa05f82392e81	-16581372.069480183
164	0x41797df09c431238	26730249.766374797
165	0x41d098aefa6ce583	1113766889.7015083
166	0x41797df09c431238	26730249.766374797
167	0x41717250e6a89cbe	18294030.416165106
168	0xc161d312fcf8787b	-9345175.905330887
169	0x41717250e6a89cbe	18294030.416165106
170	0xc164baa8fe1007eb	-10868039.9394569
171	0xc179d85efae59371	-27100655.681048814
172	0xc1d9130eb14ce623	-1682717381.2015464
173	0x41d990b2a6e0cd4c	1715653275.5125303
174	0xc179d85efae59371	-27100655.681048814
175	0xc184996aa64b3bc5	-43199828.786735095
176	0xc1750ba8e5f1c642	-22067854.371526964
177	0xc184996aa64b3bc5	-43199828.786735095
178	0x4179d85efae59371	27100655.681048814
179	0x41852a1695f378dd	44384978.74388287
180	0xc1797df09c431238	-26730249.766374797
181	0x417aff112d961548	28307730.84914139
182	0x41797df09c431238	26730249.766374797
183	0xc179d85efae59371	-27100655.681048814
184	0x41a3caca41c30c52	166028576.88095337
185	0xc17093c8c9d9ad94	-17382540.615644053
186	0xc16a071ad42c327c	-13646038.630395167
187	0x418dba977f9a4d9e	62345967.950343356
188	0x418ed14aaf700baa	64629077.92970975
189	0xc18dba977f9a4d9e	-62345967.950343356
190	0xc184996aa64b3bc5	-43199828.786735095
191	0x41af7cec0fece2c4	264140295.96266758
192	0x4184996aa64b3bc5	43199828.786735095
193	0x418a3cb7986c682d	55023347.052933075
194	0xc165aa727b622604	-11359123.855731018
195	0x4171e61649f2898e	18768228.621713214
196	0xc1742162cd6fb1ff	-21108268.83976936
197	0x4165aa727b622604	11359123.855731018
198	0x41717250e6a89cbe	18294030.416165106
199	0x41998155080d58f8	106976578.0130347
200	0xc1717250e6a89cbe	-18294030.416165106
201	0x41768b160c2f745d	23638368.761585582
202	0xc156c36c6fe978dd	-5967281.748625007
203	0x4169eb00ea49f6da	13588487.32152884
204	0x41d4f490de62ec9c	1406288761.5456915
205	0xc1735ebf5eea625d	-20311029.932222713
206	0xc141e7be79ca32d0	-2346876.951483108
207	0xc15cf1e76e2d2a17	-7587741.721506617
208	0xc16e64f088bc838e	-15935364.273011949
209	0xc1d4a60ec1bd0d47	-1385708294.9539354
210	0xc1d1c03808352e68	-1191239712.8309574
211	0x41e2972666280abb	2495165233.25131
212	0x41602b081f90f96e	8476736.986447062
213	0x41717250e6a89cbe	18294030.416165106
214	0xc1d33f3f4b209e76	-1291648300.5096717
215	0xc161d312fcf8787b	-9345175.905330887
216	0x41717250e6a89cbe	18294030.416165106
217	0xc16b108b854d1c22	-14189660.165662829
218	0xc17ed0b8aabd5d47	-32312202.671231534
219	0x41cd945c4a39aadd	992524436.4505268
220	0x4154c967df0a2cf4	5449119.484996069
221	0xc184996aa64b3bc5	-43199828.786735095
222	0xc17125bad37e3cb7	-17980333.21831962
223	0x41820189513ff442	37761322.1562276
224	0xc1750ba8e5f1c642	-22067854.371526964
225	0xc184996aa64b3bc5	-43199828.786735095
226	0x417ed0b8aabd5d47	32312202.671231534
227	0x4186f99d727dabc8	48182190.3113628
228	0x41602b081f90f96e	8476736.986447062
229	0x4154c967df0a2cf4	5449119.484996069
230	0x41ae831779ca071c	255953852.8945855
231	0xc1820189513ff442	-37761322.1562276
232	0x4188af06d24c03d0	51765466.28711665
233	0xc17093c8c9d9ad94	-17382540.615644053
234	0xc16c806f0e2095d6	-14943096.441477697
235	0xc1735ebf5eea625d	-20311029.932222713
236	0xc184996aa64b3bc5	-43199828.786735095
237	0x41aab36b639a1ebc	223983025.80101573
238	0xc16ee771acc96849	-16202637.39958586
239	0x4184996aa64b3bc5	43199828.786735095
240	0x418a3cb7986c682d	55023347.052933075
241	0xc169eb00ea49f6da	-13588487.32152884
242	0x41738778fb68744d	20477839.713001538
243	0xc141e7be79ca32d0	-2346876.951483108
244	0x41717250e6a89cbe	18294030.416165106
245	0x41a166eb8d3e74e0	145978822.62198544
246	0x416e64f088bc838e	15935364.273011949
247	0x4175182a50413b10	22119077.015925467
248	0xc1717250e6a89cbe	-18294030.416165106
249	0x41768b160c2f745d	23638368.761585582
250	0xc15cf1e76e2d2a17	-7587741.721506617
251	0x416e64f088bc838e	15935364.273011949
252	0x41d5870b083e9bae	1444686880.978252
253	0x41840b37d0251c70	42034938.01812065
254	0x41451e1988bf5600	2767923.0683391094
255	0xc18271053838183d	-38674599.02738998

x f8 [1362]
0	0xbef64090da9fa5b6	-2.1221361443146082e-05
1	0xbef154940e9e7ae1	-1.652754227842834e-05
2	0xbf1b240e8fd758b2	-0.00010353411558780798
3	0xbf2291e9dda12c89	-0.00014167766386416852
4	0x3f0cba400b0adb7e	5.479343361030393e-05
5	0xbea623a06249f564	-6.597985629655423e-07
6	0x3f056aaceb4b5dcc	4.084911544105125e-05
7	0x3f20e1450673d917	0.000128783870628709
8	0xbf21741f3fc89026	-0.000133160414308554
9	0xbf3041bcb56a1eed	-0.00024805886406696517
10	0x3f1950eaf783b373	9.657320140705836e-05
11	0xbeaf973ded314d7a	-9.414788685415027e-07
12	0xbefa0a5560845855	-2.4834027528696245e-05
13	0xbee5883a8c492857	-1.02673260552641e-05
14	0xbf24a6bdfc88e192	-0.00015755719347666487
15	0x3ee7ce1d2b4689e0	1.1351171772149124e-05
16	0x3f19e4fcad5c85e7	9.877960414119529e-05
17	0xbecdfebc9ad32b6e	-3.575690434053637e-06
18	0x3f09503410fb1a4a	4.8281277597751556e-05
19	0x3f1fcffe2b8380c3	0.00012135495024123963
20	0xbf28a51ccb4c87d2	-0.00018802620402263867
21	0x3f2bf2a3bd88d36e	0.000213224876249331
22	0x3f18fd0627d7314c	9.532308646171167e-05
23	0xbeb6191944e883d0	-1.3171459333288073e-06
24	0x3ee7cc655bd30e2c	1.1347971730641433e-05
25	0xbee7ec1c54d4a880	-1.1407045031736973e-05
26	0xbf1722559e27f74c	-8.824966020168113e-05
27	0x3ee58ccf6bc4d194	1.0275859829358265e-05
28	0x3f2230bd8cf4f435	0.00013878167963268939
29	0x3eb34a6284e9b175	1.149807321044932e-06
30	0xbf04be20fd6ed121	-3.956354310422268e-05
31	0xbee9dfb0f4328f24	-1.2337586332407018e-05
32	0xbf2f8e7611afaa47	-0.00024075690529852726
33	0xbf0632ea718d7520	-4.234102215748049e-05
34	0x3f19c0d813453a3e	9.824103182618727e-05
35	0x3ec9e004f1a001f6	3.084549359933177e-06
36	0xbeec06f23e48fbed	-1.3364378852574364e-05
37	0xbf00a5497a4fa7ab	-3.174906240828388e-05
38	0xbf3534f28f353140	-0.0003235904871033042
39	0xbf21d1547c3c01bb	-0.0001359382277925767
40	0x3f0919918996374a	4.787421603245788e-05
41	0xbed05a9b8dd6565f	-3.899082199684122e-06
42	0xbf0f6b34d759b638	-5.992655762275225e-05
43	0xbf034ea78cb75db2	-3.6825645647271975e-05
44	0xbf3b9878678c5ebd	-0.0004210752445472468
45	0xbf234ebb133d833a	-0.00014730485565463987
46	0x3f17645f781836e1	8.923371026289428e-05
47	0x3ecd6beff951f6c6	3.5073316647084007e-06
48	0x3f2f6b9e5db011ba	0.0002397185151893475
49	0xbf021e0c5b0a0b7c	-3.455615240446124e-05
50	0xbf3e09559b1ba5ce	-0.00045832004535259214
51	0xbf2ec9002410bb1f	-0.0002348721191380515
52	0x3f24f113c7f36696	0.00015977255313863865
53	0x3ee7204250d61238	1.102734179415323e-05
54	0xbf020cca5e89bb36	-3.442757207926807e-05
55	0xbee35a05f75c0109	-9.227587479454962e-06
56	0xbf3825d9540f9c16	-0.0003684669100593741
57	0x3efcaf9d22206978	2.7357093252169837e-05
58	0x3f199688e7958de4	9.761057471773627e-05
59	0xbec49a153a84f57e	-2.4559362438436303e-06
60	0xbecca6a997a5fe86	-3.4154683678509554e-06
61	0xbf01c0b748897c72	-3.386077247990387e-05
62	0xbf412e6962c72500	-0.0005243315295554718
63	0x3f00d8a1f983cca0	3.213161761719233e-05
64	0x3f1825b746e2ee71	9.211474545883239e-05
65	0xbed443685f57c390	-4.8311498992294986e-06
66	0xbf137a1e19f29183	-7.429894184213773e-05
67	0xbf021ef9fbb05b74	-3.4563068276031056e-05
68	0xbf47496717303d21	-0.0007106545803043132
69	0x3ef5cb67f45f01c1	2.07849073132775e-05
70	0x3f203731f3f92246	0.0001237152555282497
71	0xbeb465db63b6f3fc	-1.2158083241141796e-06
72	0x3f27d93b55801a79	0.00018195008556194986
73	0xbf0444ac40aedd1f	-3.86586253492921e-05
74	0xbf49b9121f3f65b6	-0.0007850016104342025
75	0x3f0a36421e4ad40e	4.999532010200462e-05
76	0x3f2f642c55b1c6e2	0.00023949662395099993
77	0xbed1dad9ff78c7c3	-4.256937237866483e-06
78	0xbef7f749020404a3	-2.285571838545455e-05
79	0xbedebb4dd83e82f7	-7.326997891882824e-06
80	0xbf3ac6b77e4f2381	-0.0004085729581758055
81	0xbf12fcb518f36cbf	-7.24301846618978e-05
82	0x3f19c45686947d34	9.8293095693415e-05
83	0xbebf6429afd72c21	-1.8710649663962794e-06
84	0x3eeaccd9f1f57fe0	1.2779331483414537e-05
85	0xbf02587c40566c84	-3.499154267246846e-05
86	0xbf430444550c5bd1	-0.0005803426412026529
87	0xbf13dc3e894a9311	-7.57611436009271e-05
88	0x3f186e8c23337114	9.320001918261919e-05
89	0xbed663e40abaf5c9	-5.338239286776242e-06
90	0xbf092cb61cbb0933	-4.801684153001237e-05
91	0xbf015658225048c7	-3.306824172723401e-05
92	0xbf49bc4d87062a12	-0.0007853869010870393
93	0xbf14c85d5f7d27bc	-7.927961257539381e-05
94	0x3f1f902143900c7e	0.0001204033186610765
95	0xbecafbe0a2a621f5	-3.2167311207512884e-06
96	0x3f31779fa2d984a1	0.0002665295349740336
97	0xbf05e084a7730410	-4.172711208517293e-05
98	0xbf4c6cec3e483114	-0.000867476800125585
99	0xbf1d498f74eb702a	-0.00011172235575024393
100	0x3f2f67cf236e51f1	0.0002396049837584259
101	0x3edbbed80a78edf6	6.615038877162945e-06
102	0xbee3b887668fab46	-9.403617882560615e-06
103	0xbeb0d6a4147b41d8	-1.0036493040440797e-06
104	0xbf31d23d0fdeafb5	-0.0002719306065681563
105	0x3f1f62e77e00f5b1	0.0001197294036509786
106	0x3f1b141788285438	0.00010329621913059215
107	0xbecf8190fa12647e	-3.755821993478363e-06
108	0x3f006b5da5589c61	3.1317515702782675e-05
109	0xbf04b2286fd9db1d	-3.947435287170716e-05
110	0xbf386aadc61638a5	-0.0003725694897064403
111	0x3f28f907939ca59e	0.00019052712905791037
112	0x3f0ed168f06a9b9b	5.878068445968402e-05
113	0xbedddf7bcb9718c8	-7.122274092668901e-06
114	0xbef9629d24470166	-2.420922307222583e-05
115	0xbeff646098f84366	-2.9937838517627052e-05
116	0xbf402c8e385db50f	-0.0004935926851722688
117	0x3f2b50d89269545e	0.00020840305042449636
118	0x3f12da81e62b4f45	7.192056504417867e-05
119	0x3ed248f8fc4c4024	4.359495453312742e-06
120	0xbee3d0ff19b26d98	-9.449192296443265e-06
121	0xbf09691870a08ed0	-4.84667380791483e-05
122	0xbf41bba55bc7061e	-0.0005411679663255874
123	0x3f3331ba9ec8b545	0.000292881070694435
124	0x3f23ea2810d18be3	0.00015193690379353063
125	0x3f010d2037fd825c	3.252272199350391e-05
126	0x3eec0c3bbe8b6383	1.3374226868577556e-05
127	0xbeb5511c370a4340	-1.270582483812492e-06
128	0xbf1366defdb5ebef	-7.401214627648899e-05
129	0xbeca2716f514ea13	-3.117644077702385e-06
130	0x3f24eaff32d6a717	0.0001595913430894539
131	0xbeb6edaa7f01f354	-1.366638112925568e-06
132	0x3ed15b816c2cd406	4.138337035543461e-06
133	0xbebc2eaad32d3bfc	-1.6797956276686553e-06
134	0xbf029376f0b4554d	-3.543097235529178e-05
135	0x3f13b56980fb788e	7.518249935453884e-05
136	0x3f1d7c283bd3500b	0.00011247630660032885
137	0x3ed1a4f21c57f242	4.206733540620751e-06
138	0xbef1d56dccc1bab2	-1.700754801031252e-05
139	0xbeffa147656deb29	-3.0164714498219468e-05
140	0xbf34e00cf7afb636	-0.00031853024091685626
141	0xbf3190cd3bbfe63a	-0.00026803026753405605
142	0x3eff1eefea7e8076	2.9679153754736243e-05
143	0xbecd6754fc90a233	-3.505187099257334e-06
144	0x3f02c054c9c08a5b	3.576525452355226e-05
145	0x3f1d91e43a494297	0.00011280017367566241
146	0xbf3cd54779a234eb	-0.00043995852468799054
147	0xbf34e9c21b7b38f3	-0.0003191088576216659
148	0x3f02af0ea96c603f	3.5636553709917234e-05
149	0xbee789e5b2029e49	-1.1224108277765133e-05
150	0x3edc10f1f00ebe6f	6.691501540353688e-06
151	0x3f0e7d076e6bfe86	5.81519978393149e-05
152	0xbf420a6ba61fdf79	-0.0005505586270819616
153	0xbf2559afacbd3bda	-0.0001628901430827657
154	0x3f138a597257ea29	7.45408147721302e-05
155	0xbee1fdbe956eb302	-8.578867591280043e-06
156	0x3f07c0289bd52f56	4.530071189864811e-05
157	0x3f29fbf23d922ff4	0.00019824344670771289
158	0xbf43706cff449ce6	-0.0005932361805535385
159	0xbf34d18731b018a7	-0.00031766462933581003
160	0x3f20493cf1ecbeba	0.00012425297696826658
161	0xbef73ebfe7f35d0b	-2.2168269876524304e-05
162	0xbef4dc3d4cd7afd6	-1.989394222860749e-05
163	0xbef5149089b91d41	-2.0103769754945383e-05
164	0xbf3c6b3e512f13d8	-0.0004336383000771971
165	0x3f0abfe4b324b964	5.102078138673435e-05
166	0x3f078affca70df46	4.4904643168695984e-05
167	0xbed1302cf5521c53	-4.097982885593079e-06
168	0x3f05cebfc5486239	4.159472215209789e-05
169	0x3f1b8483ff2abbbd	0.00010497146267128463
170	0xbf4249e97233e5b8	-0.0005581273912006945
171	0x3f327da55b14612d	0.00028214728361454744
172	0x3f0b86226a159e3b	5.249779247656598e-05
173	0xbeeab54e54978113	-1.2735474814229896e-05
174	0xbf04c06d0b73b4ec	-3.958065775031848e-05
175	0x3f0f4f5626d06be6	5.9718910826421325e-05
176	0xbf46119ae3abd6cf	-0.0006734854026421935
177	0x3f1dd0d1f911bdb8	0.00011373788426437866
178	0x3f1e437ab7cfec21	0.00011544643889742401
179	0xbee52cb73fb0824f	-1.0096870019239314e-05
180	0x3f26800752445dab	0.00017166222927110278
181	0x3f2953b6d4984e7a	0.00019322974030499038
182	0xbf4785374d0aed15	-0.0007177848838958745
183	0x3f2f458a268d35bf	0.00023858367355915168
184	0x3f285166d75262ba	0.00018553142914325642
185	0xbef9163672b33bd4	-2.392460662009237e-05
186	0x3ee469968dee0b38	9.733416332263081e-06
187	0xbef4bce634e3c071	-1.9777190851167187e-05
188	0xbf2a4d8f4c043b55	-0.00020067571859568958
189	0x3efb829263050924	2.623562449000876e-05
190	0x3f0561449510de09	4.077902361426459e-05
191	0x3e84c6241948c360	1.5477827432352206e-07
192	0xbf02ac9f7d0ad4b3	-3.56184169780031e-05
193	0xbef44d17fe814c7a	-1.9360682842095297e-05
194	0xbf3f91759e01eede	-0.0004816925193222697
195	0xbf135ace35e676f0	-7.383235558796795e-05
196	0x3efeea6bda2c8ace	2.948351687871269e-05
197	0x3ebeecaa9bc7782e	1.8432425427021483e-06
198	0xbef1c2f6618d735c	-1.6938755013174017e-05
199	0xbf0f73f2b891a0b8	-5.999168849585415e-05
200	0xbf45209f62e59fb3	-0.0006447580579278439
201	0xbf2dd3508e97b138	-0.00022755010949938328
202	0x3f05a35aec2d7218	4.127141212137783e-05
203	0x3eb550c7f5316e02	1.270505852321992e-06
204	0xbf0f272b1a8a75d5	-5.9419634742523667e-05
205	0xbefc4646c4880bad	-2.696468098585161e-05
206	0xbf4b95398cf64aee	-0.0008417635926199743
207	0xbf303a05f190d9f6	-0.00024759907825302964
208	0x3f14f20e1dadacc1	7.990084797675474e-05
209	0x3ed2e02132ea9499	4.500271457407193e-06
210	0x3f2f16f4f3dd6b9a	0.00023719539779673283
211	0x3eabee06d48c006f	8.323726571057961e-07
212	0xbf4e2607ca5dcb44	-0.0009200609244842469
213	0xbf38bedee4ba50bb	-0.0003775877164369325
214	0x3f180e4eac42cb80	9.17659299968631e-05
215	0x3ef1f5fc0d5c3fb8	1.7128827344114783e-05
216	0xbefdbbab2f52f65a	-2.83556755291597e-05
217	0xbee95e4b94868ed0	-1.2096567517278818e-05
218	0xbf45b16eb6bb0d84	-0.0006620207400022536
219	0x3f1025a2fcb3d7a7	6.159598631313869e-05
220	0x3ef377f290484804	1.8566651322222974e-05
221	0xbeb8588c8e98b0b1	-1.4511284071135083e-06
222	0xbedfeb9521f3bc47	-7.610379298513573e-06
223	0xbf10eac712196ed6	-6.453361540919729e-05
224	0xbf4e99050fd75fcf	-0.0009337687221728732
225	0x3f1232bec521a974	6.94207131190278e-05
226	0x3ef9e50b0d3dd4c2	2.4695110212265244e-05
227	0xbeb50a825738eb50	-1.2541443909069748e-06
228	0xbf12f1464f6f3e30	-7.225982322655515e-05
229	0xbef8a3d97e266498	-2.349857084879957e-05
230	0xbf546cdb40018432	-0.0012466565240390024
231	0x3f109eb05056901b	6.339980253372605e-05
232	0x3f1107b8ddc6f1d1	6.496492227987058e-05
233	0xbe740816c8e1bce6	-7.462351645099754e-08
234	0x3f2700a64dba3ad6	0.00017549543450852992
235	0xbedb189a6a186e53	-6.460215133976041e-06
236	0xbf563b0ec832ef18	-0.0013568539005026133
237	0x3f24afd53d800008	0.0001578281214733581
238	0x3ed02cc248894179	3.856382257597421e-06
239	0x3ec5844798acd984	2.56499260356118e-06
240	0xbef194a409c884d6	-1.6766193413290973e-05
241	0xbedf619c1994218f	-7.48188213007434e-06
242	0xbf466cbc238133db	-0.0006843489309261668
243	0xbf219610d3c1770d	-0.00013417201432990752
244	0x3ee38565825b1643	9.308376387361035e-06
245	0xbeb31aeb54d9400c	-1.13875588016524e-06
246	0x3ee1ff56c705ff80	8.581837591447932e-06
247	0xbf11c15490ef0837	-6.773070002366674e-05
248	0xbf4f547b809a7a4d	-0.0009561160124638785
249	0xbf20e0ed1363a092	-0.0001287736319632899
250	0x3ed6ff6eb07e0973	5.483098682536986e-06
251	0xbebbaf0d9b930b11	-1.650083147717352e-06
252	0xbf084a577b734061	-4.633025621958508e-05
253	0xbef6d37d3a9e3cc4	-2.1768693535370557e-05
254	0xbf5485b04b0d6762	-0.0012525769818325307
255	0xbf22d4752e084703	-0.0001436608354344269

b f8 [1362]
0	0xbd90000000000000	-3.637978807091713e-12
1	0xbd85c00000000000	-2.4726887204451486e-12
2	0xc0e7feafb5451435	-49141.490877665965
3	0xc0d83b5adebc57ee	-24813.41984470927
4	0x40c8955b4b2ef3ad	12586.713231915457
5	0xbd28000000000000	-4.263256414560601e-14
6	0xbda0000000000000	-7.275957614183426e-12
7	0xbda4d00000000000	-9.464429240324534e-12
8	0xc0e7feafb5451435	-49141.490877665965
9	0xc0d83b5adebc57ef	-24813.419844709275
10	0x40c8955b4b2ef3ab	12586.713231915453
11	0x0000000000000000	0.0
12	0x0000000000000000	0.0
13	0xbd78c00000000000	-1.4068746168049984e-12
14	0xc0f6f418294b2c46	-94017.51008145613
15	0x40b50f872e23624c	5391.528047763346
16	0x40d8955b4b2ef3ab	25173.426463830907
17	0x3d5e000000000000	4.263256414560601e-13
18	0x0000000000000000	0.0
19	0x3dd3ae0000000000	7.15942860551877e-11
20	0xc0e7feafb545143c	-49141.490877666016
21	0x40d83b5adebc57ef	24813.419844709275
22	0x40c8955b4b2ef3b1	12586.713231915464
23	0xbd50000000000000	-2.2737367544323206e-13
24	0xbd90000000000000	-3.637978807091713e-12
25	0xbd85e50000000000	-2.489120021209601e-12
26	0xc0f50f78559c1b31	-86263.52090082761
27	0x40aedfdac73c248b	3951.927301291905
28	0x40d8955b4b2ef3b0	25173.426463830925
29	0xbd44400000000000	-1.438849039914203e-13
30	0x3da0000000000000	7.275957614183426e-12
31	0x3d9ec00000000000	6.991740519879386e-12
32	0xc0f53c9b27a5f996	-86985.69717977042
33	0xc0b2d5789bdadd55	-4821.47112815765
34	0x40d8955b4b2ef3a8	25173.426463830896
35	0x3d61000000000000	4.831690603168681e-13
36	0x0000000000000000	0.0
37	0xbd74e00000000000	-1.1866063687193673e-12
38	0xc0e643c64165013b	-45598.19548273316
39	0xc0d3d0dbe142b21b	-20291.435623811656
40	0x40c8955b4b2ef3a5	12586.713231915443
41	0xbd42800000000000	-1.3145040611561853e-13
42	0x3db0000000000000	1.4551915228366852e-11
43	0xbdbf700000000000	-2.859223968698643e-11
44	0xc0e643c641650124	-45598.19548273299
45	0xc0d3d0dbe142b21b	-20291.435623811656
46	0x40c8955b4b2ef3b4	12586.71323191547
47	0xbd52000000000000	-2.5579538487363607e-13
48	0x3dd0000000000000	5.820766091346741e-11
49	0xbd99000000000000	-5.6843418860808015e-12
50	0xc0e643c641650130	-45598.19548273308
51	0xc0d3d0dbe142b21c	-20291.43562381166
52	0x40c8955b4b2ef3a4	12586.71323191544
53	0xbd64000000000000	-5.684341886080801e-13
54	0xbdb0000000000000	-1.4551915228366852e-11
55	0xbda06a0000000000	-7.464251439159852e-12
56	0xc0f4956274b57c63	-84310.15349339093
57	0x40bd95790c42bdbe	7573.472843333553
58	0x40d8955b4b2ef3ad	25173.426463830914
59	0x3d3c000000000000	9.947598300641403e-14
60	0xbd80000000000000	-1.8189894035458565e-12
61	0xbdbf6d0000000000	-2.858158154595003e-11
62	0xc0f4956274b57c33	-84310.15349339023
63	0x40bd95790c42bdc8	7573.472843333562
64	0x40d8955b4b2ef39b	25173.42646383085
65	0xbd63e00000000000	-5.648814749292796e-13
66	0xbdd0000000000000	-5.820766091346741e-11
67	0x3db7bcd000000000	2.158917489225587e-11
68	0xc0f4956274b57c8e	-84310.15349339155
69	0x40bd95790c42bdc6	7573.47284333356
70	0x40d8955b4b2ef3b4	25173.42646383094
71	0x3d1b000000000000	2.398081733190338e-14
72	0xbdc0000000000000	-2.9103830456733704e-11
73	0x3db6440000000000	2.0250467969162855e-11
74	0xc0f4956274b57c69	-84310.15349339102
75	0x40bd95790c42bdcd	7573.472843333567
76	0x40d8955b4b2ef3a8	25173.426463830896
77	0x3d65000000000000	5.968558980384842e-13
78	0xbd90000000000000	-3.637978807091713e-12
79	0x3d89880000000000	2.9025670755800093e-12
80	0xc0f66fc75d2ca204	-91900.46024764335
81	0xc0d15cf792bf2af1	-17779.868331710753
82	0x40d8955b4b2ef3ad	25173.426463830914
83	0x3d08000000000000	1.0658141036401503e-14
84	0xbd80000000000000	-1.8189894035458565e-12
85	0x3da3a20000000000	8.927969474825659e-12
86	0xc0f66fc75d2ca213	-91900.46024764357
87	0xc0d15cf792bf2ae9	-17779.868331710724
88	0x40d8955b4b2ef3ac	25173.42646383091
89	0xbd55000000000000	-2.984279490192421e-13
90	0x3db8000000000000	2.1827872842550278e-11
91	0xbd92e20000000000	-4.293454480830405e-12
92	0xc0f66fc75d2ca22e	-91900.46024764396
93	0xc0d15cf792bf2af1	-17779.868331710753
94	0x40d8955b4b2ef3ac	25173.42646383091
95	0xbd59000000000000	-3.552713678800501e-13
96	0x3de8000000000000	1.7462298274040222e-10
97	0xbdc0e80000000000	-3.0752289603697136e-11
98	0xc0f66fc75d2ca205	-91900.46024764336
99	0xc0d15cf792bf2af3	-17779.86833171076
100	0x40d8955b4b2ef3b7	25173.42646383095
101	0x3d78800000000000	1.3926637620897964e-12
102	0x3d90000000000000	3.637978807091713e-12
103	0xbd8df80000000000	-3.4070524179696804e-12
104	0xc0f4b0f794bd90bb	-84751.47381359611
105	0x40d538d9ec55b446	21731.405049730347
106	0x40d6258cc1ccddd5	22678.199328629144
107	0xbd5f000000000000	-4.405364961712621e-13
108	0xbda0000000000000	-7.275957614183426e-12
109	0x3d82ec0000000000	2.1511681325137033e-12
110	0xc0e9f89012534c94	-53188.50223698575
111	0x40ddc87530f12d9f	30497.831112188866
112	0x40c8955b4b2ef3b1	12586.713231915464
113	0xbd10800000000000	-1.4654943925052066e-14
114	0x3da8000000000000	1.0913936421275139e-11
115	0xbd8e700000000000	-3.460343123151688e-12
116	0xc0e9f89012534cc2	-53188.50223698608
117	0x40ddc87530f12d99	30497.831112188844
118	0x40c8955b4b2ef3a8	12586.713231915448
119	0xbd3a000000000000	-9.237055564881302e-14
120	0x3d90000000000000	3.637978807091713e-12
121	0xbd51c00000000000	-2.5224267119483557e-13
122	0xc0e9f89012534c97	-53188.50223698577
123	0x40ddc87530f12d99	30497.831112188844
124	0x40c8955b4b2ef3ae	12586.713231915459
125	0x3d46800000000000	1.5987211554602254e-13
126	0xbd80000000000000	-1.8189894035458565e-12
127	0xbd52f00000000000	-2.6911806116913795e-13
128	0xc0f0c0c4bfc52bf5	-68620.29681889697
129	0xc0a6647a7025c3e0	-2866.2391368676763
130	0x40d5a70e3b00ebf5	22172.22235129397
131	0x3d18800000000000	2.1760371282653068e-14
132	0xbd78000000000000	-1.3642420526593924e-12
133	0xbd4a800000000000	-1.8829382497642655e-13
134	0xc0e2182a686282e6	-37057.32524228636
135	0x40c6b85525406395	11632.665199326157
136	0x40c7985e3d970ff0	12080.73625458029
137	0x3d34000000000000	7.105427357601002e-14
138	0x3d90000000000000	3.637978807091713e-12
139	0xbda3e80000000000	-9.052314453583676e-12
140	0xc0f87f7666547b22	-100343.3999829111
141	0xc0e865d971990f85	-49966.795116930305
142	0x4099ca1bbe3d133a	1650.5270928900704
143	0xbd56000000000000	-3.126388037344441e-13
144	0x3db8000000000000	2.1827872842550278e-11
145	0xbdb5900000000000	-1.9610979506978765e-11
146	0xc0f87f7666547afd	-100343.39998291056
147	0xc0e865d971990f8c	-49966.795116930356
148	0x4099ca1bbe3d1320	1650.5270928900645
149	0x3d83c00000000000	2.2453150450019166e-12
150	0xbd90000000000000	-3.637978807091713e-12
151	0xbda9e80000000000	-1.1780798558902461e-11
152	0xc0e9003d1763e1e2	-51201.909105244806
153	0xc0d890580475c71e	-25153.37527222104
154	0x40cbce9ec2f69614	14237.240324805527
155	0x3d30000000000000	5.684341886080802e-14
156	0x3db8000000000000	2.1827872842550278e-11
157	0xbdb5500000000000	-1.9383605831535533e-11
158	0xc0e9003d1763e1ea	-51201.909105244864
159	0xc0d890580475c71c	-25153.375272221034
160	0x40cbce9ec2f6960a	14237.240324805509
161	0xbd80000000000000	-1.8189894035458565e-12
162	0x3da0000000000000	7.275957614183426e-12
163	0xbd9a680000000000	-6.0040861171728466e-12
164	0xc1076f481a0f1239	-191977.0127240585
165	0x40c562288427783c	10948.316533025463
166	0x40a9ca1bbe3d1348	3301.0541857801472
167	0x3d49000000000000	1.7763568394002505e-13
168	0x0000000000000000	0.0
169	0xbdbda80000000000	-2.6972202249453403e-11
170	0xc0f87f7666547b1d	-100343.39998291103
171	0x40e865d971990f79	49966.79511693022
172	0x4099ca1bbe3d1328	1650.5270928900663
173	0x3d7f800000000000	1.7905676941154525e-12
174	0x0000000000000000	0.0
175	0xbdc5f62000000000	-3.994760078285253e-11
176	0xc0e9003d1763e200	-51201.909105245024
177	0x40d890580475c719	25153.375272221023
178	0x40cbce9ec2f6960b	14237.24032480551
179	0x3d5e080000000000	4.2676973066591017e-13
180	0xbdd8000000000000	-8.731149137020111e-11
181	0x3dc6300000000000	4.035882739117369e-11
182	0xc0e9003d1763e1de	-51201.90910524478
183	0x40d890580475c719	25153.375272221023
184	0x40cbce9ec2f6961e	14237.240324805545
185	0x3d40000000000000	1.1368683772161603e-13
186	0x3d98000000000000	5.4569682106375694e-12
187	0x3db5850000000000	1.957189965651196e-11
188	0xc105807f6227af1a	-176143.9229272537
189	0x40bf53d447bdbc2f	8019.829219683116
190	0x40a9ca1bbe3d136a	3301.0541857801627
191	0xbd55000000000000	-2.984279490192421e-13
192	0xbdb0000000000000	-1.4551915228366852e-11
193	0xbda9e80000000000	-1.1780798558902461e-11
194	0xc105ae9470d59d48	-177618.5550949371
195	0xc0c31c8a7d709481	-9785.081953117859
196	0x40a9ca1bbe3d1358	3301.0541857801545
197	0x3d00000000000000	7.105427357601002e-15
198	0x0000000000000000	0.0
199	0x3dc9f00000000000	4.718003765447065e-11
200	0xc0f6bb43eb2585fd	-93108.24490883197
201	0xc0e3e9f766f39f0f	-40783.731317339574
202	0x4099ca1bbe3d1368	1650.527092890081
203	0x3d64000000000000	5.684341886080801e-13
204	0xbdb0000000000000	-1.4551915228366852e-11
205	0xbd8d620000000000	-3.340439036492171e-12
206	0xc0f6bb43eb2585f9	-93108.24490883191
207	0xc0e3e9f766f39f0e	-40783.73131733957
208	0x4099ca1bbe3d1368	1650.527092890081
209	0x3d4b600000000000	1.9451107391432743e-13
210	0x0000000000000000	0.0
211	0xbd88400000000000	-2.7569058147491887e-12
212	0xc0f6bb43eb2585fa	-93108.24490883193
213	0xc0e3e9f766f39f13	-40783.7313173396
214	0x4099ca1bbe3d1338	1650.52709289007
215	0x0000000000000000	0.0
216	0x3dc2000000000000	3.2741809263825417e-11
217	0x3d67e00000000000	6.785683126508957e-13
218	0xc10502ed491c7c8d	-172125.660698865
219	0x40cd0619a0c770b2	14860.200219087626
220	0x40a586c0a2a6de6c	2755.376240934993
221	0xbd53c00000000000	-2.8066438062523957e-13
222	0xbd80000000000000	-1.8189894035458565e-12
223	0x3dadf00000000000	1.361399881716352e-11
224	0xc10502ed491c7cc5	-172125.66069886662
225	0x40cd0619a0c770a6	14860.200219087605
226	0x40a586c0a2a6de44	2755.3762409349747
227	0x3d4a000000000000	1.8474111129762605e-13
228	0x3ddc000000000000	1.0186340659856796e-10
229	0x3d7d200000000000	1.6555645743210334e-12
230	0xc10502ed491c7c72	-172125.6606988642
231	0x40cd0619a0c770b3	14860.200219087628
232	0x40a586c0a2a6dea2	2755.3762409350174
233	0xbd4c000000000000	-1.9895196601282805e-13
234	0xbdec000000000000	-2.0372681319713593e-10
235	0xbda0000000000000	-7.275957614183426e-12
236	0xc10017619f9440d3	-131820.20291948933
237	0x40db68712fb53b74	28065.768536861477
238	0xc0c55c17d367515c	-10936.186139025427
239	0xbd6c000000000000	-7.958078640513122e-13
240	0x3d80000000000000	1.8189894035458565e-12
241	0x3d94280000000000	4.583000645652646e-12
242	0xc106e7442e87ebaa	-187624.5227201854
243	0xc0e16117b524ce69	-35592.74086227717
244	0x40a586c0a2a6ded2	2755.3762409350393
245	0xbd43000000000000	-1.3500311979441904e-13
246	0xbd70000000000000	-9.094947017729282e-13
247	0x3d9fc40000000000	7.222666909001418e-12
248	0xc106e7442e87ebc7	-187624.52272018624
249	0xc0e16117b524ce6b	-35592.74086227718
250	0x40a586c0a2a6de95	2755.3762409350115
251	0xbd00000000000000	-7.105427357601002e-15
252	0x3da0000000000000	7.275957614183426e-12
253	0xbda8f80000000000	-1.1354472917446401e-11
254	0xc106e7442e87ebf8	-187624.52272018767
255	0xc0e16117b524ce68	-35592.74086227716
