python-Linux/neural-sparse-linear-solvers-master/stand_small_test/7844295096321615587_b4e34eaae043e5452ffc2fabc4db2e0924645bcb_aae619bf67cf8f01c60224d5cdee48dd8dc5f8a9.npz (npz, 99137 bytes, 3 tensors)

A_values f8 [25144]
0	0x41c9107814b9cd7d	841019433.4515835
1	0x4168a937b69623df	12929469.705827652
2	0xc169bd182b694f38	-13494465.356605157
3	0xc167dc0ecf26760e	-12509302.473444965
4	0x4179338d9c5b00a8	26425561.772217423
5	0xc15726858589f931	-6068758.086546228
6	0xc169bd182b694f38	-13494465.356605157
7	0xc1c8602c3d1b05ea	-817911930.211118
8	0x41d0361d4dae4630	1087927606.723034
9	0xc15c0f39284ede68	-7355620.629813768
10	0x415df84d0cb2c497	7856436.1984111285
11	0xc15af3bd876a100a	-7065334.115848551
12	0xc16c77c1ce81be17	-14925326.453337712
13	0xc1d00738f167fe11	-1075635141.624882
14	0xc1447f5d9d6281a7	-2686651.2295686784
15	0x415df84d0cb2c497	7856436.1984111285
16	0x41dd1076fa974ee2	1950473194.3641896
17	0x4176d0f3a8d46897	23924538.551857557
18	0xc16ab5a3c042e7b6	-14003486.008167129
19	0xc1d0df10bf83ff45	-1132217086.0624554
20	0xc164859bf23fd7be	-10759391.570293304
21	0x4176d0f3a8d46897	23924538.551857557
22	0xc1524482aca9bd7e	-4788746.69786012
23	0xc16ab5a3c042e7b6	-14003486.008167129
24	0xc15c0f39284ede68	-7355620.629813768
25	0x4176d0f3a8d46897	23924538.551857557
26	0x41a2383bb84bd789	152837596.14812878
27	0x416c77c1ce81be17	14925326.453337712
28	0x4173dcc5a72ab77b	20827226.447928887
29	0xc176d0f3a8d46897	-23924538.551857557
30	0x4180a9189606760b	34939666.75315484
31	0xc1612d9f9a1425c7	-9006332.81495942
32	0x4168a937b69623df	12929469.705827652
33	0xc16ab5a3c042e7b6	-14003486.008167129
34	0x41a750035dc44a09	195559854.88337734
35	0xc179338d9c5b00a8	-26425561.772217423
36	0x4181744204ca847f	36603968.59888553
37	0xc166974f61e8d568	-11844219.059672073
38	0x416ab5a3c042e7b6	14003486.008167129
39	0x4179cfd47e27fd24	27065671.884762898
40	0xc169bd182b694f38	-13494465.356605157
41	0x415df84d0cb2c497	7856436.1984111285
42	0x4195fa87c72d3504	92185073.79414755
43	0xc167c787fd62a6e7	-12467263.918292476
44	0x4169bd182b694f38	13494465.356605157
45	0x4172eb7e5ae10202	19838949.679933555
46	0xc15df84d0cb2c497	-7856436.1984111285
47	0x416d12dc230b89f7	15242977.09515856
48	0xc167dc0ecf26760e	-12509302.473444965
49	0xc179338d9c5b00a8	-26425561.772217423
50	0x41c9915f2c830913	857914969.0237144
51	0x41656955b6fdaeb0	11225773.718467087
52	0xc169bd182b694f38	-13494465.356605157
53	0xc1746eb5240aabec	-21424978.252605364
54	0x4181f41c3becec00	37651335.49068451
55	0xc15726858589f931	-6068758.086546228
56	0xc169bd182b694f38	-13494465.356605157
57	0xc1c8602c3d1b05ea	-817911930.211118
58	0xc15af3bd876a100a	-7065334.115848551
59	0x416c77c1ce81be17	14925326.453337712
60	0x41d05addf48a46a9	1097562066.1605628
61	0xc158aebd0977d362	-6470388.147938581
62	0x415df84d0cb2c497	7856436.1984111285
63	0xc16738cb6616a394	-12174939.190263547
64	0xc1746790299ed3e4	-21395714.601276293
65	0xc1d00738f167fe11	-1075635141.624882
66	0xc1447f5d9d6281a7	-2686651.2295686784
67	0x415df84d0cb2c497	7856436.1984111285
68	0xc1d0df10bf83ff45	-1132217086.0624554
69	0x41e2b11b2dfb1987	2508773743.846866
70	0x4176d0f3a8d46897	23924538.551857557
71	0xc16ab5a3c042e7b6	-14003486.008167129
72	0xc1d447d5e1e10a5d	-1361008519.5162575
73	0xc164859bf23fd7be	-10759391.570293304
74	0x4176d0f3a8d46897	23924538.551857557
75	0xc1524482aca9bd7e	-4788746.69786012
76	0xc16ab5a3c042e7b6	-14003486.008167129
77	0xc16c77c1ce81be17	-14925326.453337712
78	0x4173dcc5a72ab77b	20827226.447928887
79	0xc158aebd0977d362	-6470388.147938581
80	0x4176d0f3a8d46897	23924538.551857557
81	0x41a4a46add19a69b	173159790.55009922
82	0x41746790299ed3e4	21395714.601276293
83	0x417796dc212bf5fa	24735170.07323263
84	0xc176d0f3a8d46897	-23924538.551857557
85	0x4180a9189606760b	34939666.75315484
86	0xc1612d9f9a1425c7	-9006332.81495942
87	0x4179338d9c5b00a8	26425561.772217423
88	0x4181744204ca847f	36603968.59888553
89	0x41656955b6fdaeb0	11225773.718467087
90	0xc16ab5a3c042e7b6	-14003486.008167129
91	0x41ab894435403a33	230990362.62544402
92	0xc181f41c3becec00	-37651335.49068451
93	0x418488cfe7202b96	43063804.89070813
94	0xc166974f61e8d568	-11844219.059672073
95	0x416ab5a3c042e7b6	14003486.008167129
96	0x4179cfd47e27fd24	27065671.884762898
97	0xc167c787fd62a6e7	-12467263.918292476
98	0xc169bd182b694f38	-13494465.356605157
99	0x415df84d0cb2c497	7856436.1984111285
100	0x419771c0e41db3cc	98332729.02900618
101	0xc16c95a972a8896d	-14986571.583073342
102	0x4169bd182b694f38	13494465.356605157
103	0x4172eb7e5ae10202	19838949.679933555
104	0xc15df84d0cb2c497	-7856436.1984111285
105	0x416d12dc230b89f7	15242977.09515856
106	0xc1746eb5240aabec	-21424978.252605364
107	0xc181f41c3becec00	-37651335.49068451
108	0x41c957a5ccdea703	850348953.7394718
109	0xc17644a9690047aa	-23349910.562568344
110	0xc169bd182b694f38	-13494465.356605157
111	0xc152db6dcc1be404	-4943287.189202312
112	0x416b471e1db320ac	14301424.928116165
113	0xc15726858589f931	-6068758.086546228
114	0xc169bd182b694f38	-13494465.356605157
115	0xc1c8602c3d1b05ea	-817911930.211118
116	0xc16738cb6616a394	-12174939.190263547
117	0x41746790299ed3e4	21395714.601276293
118	0x41d04a7f0086d8af	1093270530.1069753
119	0x416980bae00291d8	13370839.000313684
120	0x415df84d0cb2c497	7856436.1984111285
121	0xc145299307f82ba5	-2773798.062261062
122	0xc15e9ccae6762bdf	-8024875.600962608
123	0xc1d00738f167fe11	-1075635141.624882
124	0xc1447f5d9d6281a7	-2686651.2295686784
125	0x415df84d0cb2c497	7856436.1984111285
126	0xc1d447d5e1e10a5d	-1361008519.5162575
127	0x41e06a69aecf59c1	2203274614.4797063
128	0x4176d0f3a8d46897	23924538.551857557
129	0xc16ab5a3c042e7b6	-14003486.008167129
130	0xc1c8a35b8258ff72	-826717956.6952956
131	0xc164859bf23fd7be	-10759391.570293304
132	0x4176d0f3a8d46897	23924538.551857557
133	0xc1524482aca9bd7e	-4788746.69786012
134	0xc16ab5a3c042e7b6	-14003486.008167129
135	0xc1746790299ed3e4	-21395714.601276293
136	0x417796dc212bf5fa	24735170.07323263
137	0x416980bae00291d8	13370839.000313684
138	0x4176d0f3a8d46897	23924538.551857557
139	0x41a34e9ccb5157bc	161959525.6588725
140	0x415e9ccae6762bdf	8024875.600962608
141	0x416d60abebe82c4a	15402335.372091431
142	0xc176d0f3a8d46897	-23924538.551857557
143	0x4180a9189606760b	34939666.75315484
144	0xc1612d9f9a1425c7	-9006332.81495942
145	0x4181f41c3becec00	37651335.49068451
146	0x418488cfe7202b96	43063804.89070813
147	0xc17644a9690047aa	-23349910.562568344
148	0xc16ab5a3c042e7b6	-14003486.008167129
149	0x41a9321846ba2806	211356707.3635866
150	0xc16b471e1db320ac	-14301424.928116165
151	0x417a13491ec11771	27341969.922141496
152	0xc166974f61e8d568	-11844219.059672073
153	0x416ab5a3c042e7b6	14003486.008167129
154	0x4179cfd47e27fd24	27065671.884762898
155	0xc16c95a972a8896d	-14986571.583073342
156	0xc169bd182b694f38	-13494465.356605157
157	0x415df84d0cb2c497	7856436.1984111285
158	0x4196a46ef172edae	94968764.3622348
159	0xc1615cf8680c75f5	-9103299.25152109
160	0x4169bd182b694f38	13494465.356605157
161	0x4172eb7e5ae10202	19838949.679933555
162	0xc15df84d0cb2c497	-7856436.1984111285
163	0x416d12dc230b89f7	15242977.09515856
164	0xc152db6dcc1be404	-4943287.189202312
165	0xc16b471e1db320ac	-14301424.928116165
166	0x41c8b43023be51a4	828923975.4868665
167	0xc16b471e1db320ac	-14301424.928116165
168	0xc169bd182b694f38	-13494465.356605157
169	0xc15726858589f931	-6068758.086546228
170	0xc169bd182b694f38	-13494465.356605157
171	0xc1c8602c3d1b05ea	-817911930.211118
172	0xc145299307f82ba5	-2773798.062261062
173	0x415e9ccae6762bdf	8024875.600962608
174	0x41d01c0d69baab68	1081095590.9167118
175	0x415e9ccae6762bdf	8024875.600962608
176	0x415df84d0cb2c497	7856436.1984111285
177	0xc1d00738f167fe11	-1075635141.624882
178	0xc1447f5d9d6281a7	-2686651.2295686784
179	0x415df84d0cb2c497	7856436.1984111285
180	0xc1c8a35b8258ff72	-826717956.6952956
181	0x41c919faf77b524c	842266094.963449
182	0x4176d0f3a8d46897	23924538.551857557
183	0xc16ab5a3c042e7b6	-14003486.008167129
184	0xc164859bf23fd7be	-10759391.570293304
185	0x4176d0f3a8d46897	23924538.551857557
186	0xc1524482aca9bd7e	-4788746.69786012
187	0xc16ab5a3c042e7b6	-14003486.008167129
188	0xc15e9ccae6762bdf	-8024875.600962608
189	0x416d60abebe82c4a	15402335.372091431
190	0x415e9ccae6762bdf	8024875.600962608
191	0x4176d0f3a8d46897	23924538.551857557
192	0x419a951b78767c5d	111494878.11570878
193	0xc176d0f3a8d46897	-23924538.551857557
194	0x4180a9189606760b	34939666.75315484
195	0xc1612d9f9a1425c7	-9006332.81495942
196	0x416b471e1db320ac	14301424.928116165
197	0x417a13491ec11771	27341969.922141496
198	0xc16b471e1db320ac	-14301424.928116165
199	0xc16ab5a3c042e7b6	-14003486.008167129
200	0x419d1b96d160509f	122086836.34405755
201	0xc166974f61e8d568	-11844219.059672073
202	0x416ab5a3c042e7b6	14003486.008167129
203	0x4179cfd47e27fd24	27065671.884762898
204	0xc1615cf8680c75f5	-9103299.25152109
205	0xc169bd182b694f38	-13494465.356605157
206	0x415df84d0cb2c497	7856436.1984111285
207	0x419311b9c31ddc80	79982192.77916145
208	0x4169bd182b694f38	13494465.356605157
209	0x4172eb7e5ae10202	19838949.679933555
210	0xc15df84d0cb2c497	-7856436.1984111285
211	0x416d12dc230b89f7	15242977.09515856
212	0xc15726858589f931	-6068758.086546228
213	0x4169bd182b694f38	13494465.356605157
214	0x41c9832b5ad6f5db	856053429.6793779
215	0x4168a937b69623df	12929469.705827652
216	0xc1652b95caf7ef2a	-11099310.34276541
217	0xc167dc0ecf26760e	-12509302.473444965
218	0x4179338d9c5b00a8	26425561.772217423
219	0xc16cacd1874a1749	-15033996.227794306
220	0xc1777456fb309f31	-24593775.699370567
221	0xc1c8602c3d1b05ea	-817911930.211118
222	0xc1d00738f167fe11	-1075635141.624882
223	0x41e2ffbf255f110e	2550004010.970832
224	0xc15c0f39284ede68	-7355620.629813768
225	0x415df84d0cb2c497	7856436.1984111285
226	0xc15af3bd876a100a	-7065334.115848551
227	0xc16c77c1ce81be17	-14925326.453337712
228	0xc1d5c960fd0fdbec	-1462076404.247798
229	0xc1447f5d9d6281a7	-2686651.2295686784
230	0x415df84d0cb2c497	7856436.1984111285
231	0xc164859bf23fd7be	-10759391.570293304
232	0xc176d0f3a8d46897	-23924538.551857557
233	0x41dd7515c9e37d57	1976850215.5545251
234	0x4172559cc1d71761	19225036.11501253
235	0xc16ab5a3c042e7b6	-14003486.008167129
236	0xc1d0df10bf83ff45	-1132217086.0624554
237	0xc17927b3d30b9d26	-26377021.190335415
238	0x418493483555bffc	43149574.66687009
239	0xc1524482aca9bd7e	-4788746.69786012
240	0xc16ab5a3c042e7b6	-14003486.008167129
241	0x4176d0f3a8d46897	23924538.551857557
242	0x4180a9189606760b	34939666.75315484
243	0xc15c0f39284ede68	-7355620.629813768
244	0x4172559cc1d71761	19225036.11501253
245	0x41ad97cba640c9ac	248243667.12653863
246	0x416c77c1ce81be17	14925326.453337712
247	0x4173dcc5a72ab77b	20827226.447928887
248	0xc18493483555bffc	-43149574.66687009
249	0x4185d301d824b989	45768763.017932005
250	0xc1612d9f9a1425c7	-9006332.81495942
251	0xc166974f61e8d568	-11844219.059672073
252	0x4168a937b69623df	12929469.705827652
253	0xc16ab5a3c042e7b6	-14003486.008167129
254	0x41a93b547527fb8c	211659322.57809103
255	0xc179338d9c5b00a8	-26425561.772217423

x f8 [2268]
0	0xbeebb726e898aa2c	-1.3215750430968757e-05
1	0xbf03272295699a0d	-3.653120318318848e-05
2	0xbf32590db3a858c7	-0.0002799662067060168
3	0xbf26712ad64d804c	-0.0001712193290144291
4	0x3f234cdb36587b67	0.00014724899226422757
5	0xbec01a449751875f	-1.919580592744352e-06
6	0xbef22839b928badd	-1.7315989291495345e-05
7	0xbef6b4758f71963a	-2.16530979425726e-05
8	0xbf3c2429f239871c	-0.0004294016273204014
9	0xbf21d8f7b3618480	-0.00013616584482448527
10	0x3f174561504254c0	8.877188162366694e-05
11	0xbed3b617a6209979	-4.699539745833786e-06
12	0xbf008018d5b29f32	-3.1471975227957686e-05
13	0x3ee6ed8a21443c06	1.0932869408479203e-05
14	0xbf40c73cd05dcb9e	-0.0005120322173140961
15	0xbf22516b614a7fdc	-0.00013975559035816945
16	0x3f15d87072f92731	8.33338387959098e-05
17	0xbed6cc18eede8c8e	-5.4352892514846785e-06
18	0xbf12bdb7126dcabe	-7.149152643907538e-05
19	0x3f2a24bd33910998	0.00019945916736403553
20	0xbf4303702b7f3118	-0.0005802438454281271
21	0xbf36134505c56a1a	-0.0003368419181889751
22	0x3f3238f395c9aa44	0.0002780527773099987
23	0xbef01a6f5881daf6	-1.535726690390489e-05
24	0xbeedb8d9fab72fcb	-1.4172590303916565e-05
25	0xbf01a42086afe90a	-3.364776861043875e-05
26	0xbf39993494a03452	-0.0003906014795809809
27	0x3f14c10c80413767	7.917059707659783e-05
28	0x3f28f7bf0ecf309e	0.00019048888444073581
29	0x3ec3d5331a663a47	2.3642553116994715e-06
30	0x3e519cf85e507dbc	1.6403537989840764e-08
31	0xbef5b85c813afc25	-2.0713960181547573e-05
32	0xbf4365aa28c5cfba	-0.0005919533592035821
33	0x3f11eab6dc977829	6.834736918601203e-05
34	0x3f20df5bb1215628	0.00012872690473624102
35	0x3ea804e2bcabb502	7.158245066398385e-07
36	0xbe635b86448308c2	-3.605618609368615e-08
37	0x3ee27d4499986098	8.816398621866708e-06
38	0xbf46e38ff97cb4b2	-0.0006985142708565621
39	0x3effad393b60b57f	3.0209211864631096e-05
40	0x3f211059457df9e4	0.0001301869367544415
41	0xbed24b7af15e3f11	-4.361830880386461e-06
42	0xbf02f7bde3c6cabf	-3.617809531721504e-05
43	0x3f29c41d6111b640	0.00019657953865552698
44	0xbf491f72d1e01321	-0.0007666884082487593
45	0x3f304b22d523e622	0.0002486190834499487
46	0x3f3238367319e577	0.0002780087407710722
47	0xbef609da0eefec85	-2.1017535740225114e-05
48	0xbf034be00ee45da6	-3.680493851925962e-05
49	0xbf0123d39094149d	-3.26918544235968e-05
50	0xbf324105890d76ef	-0.0002785337938372286
51	0xbf0e06a8befa54c9	-5.727007362314182e-05
52	0x3f2ba98db5559cd0	0.00021104674184899705
53	0x3ed334c010ddd314	4.579080508428064e-06
54	0xbef4f09b7bd284ba	-1.9969818585101265e-05
55	0xbef510954daecef1	-2.0088937940434174e-05
56	0xbf39b7cb122d2944	-0.00039242465770840764
57	0xbf088568dad86831	-4.6770346085093005e-05
58	0x3f27a1ff938e7c25	0.0001803040011311995
59	0x3e4c5ea2343f3f00	1.3210653577929028e-08
60	0x3ed8aa5e304dfd06	5.880713392580249e-06
61	0x3edd91b95a1d7102	7.049854873955121e-06
62	0xbf3b3c7361404fdc	-0.00041559044734751165
63	0x3f2395628977bfbf	0.00014941051334415968
64	0x3f1415b6b8784e7c	7.661750543546704e-05
65	0xbec03a01b8d8eb90	-1.9343601198851303e-06
66	0xbf102153cce0b8a7	-6.153177238907519e-05
67	0xbeffb41420a08db4	-3.023474895526091e-05
68	0xbf3150c4ff427fc0	-0.00026421365260808835
69	0x3f04aa992fe032d3	3.941802968663245e-05
70	0x3f2c94e03edc590c	0.00021805989620622029
71	0xbebe0295b4d7aa5f	-1.788741161741013e-06
72	0xbed908259ff4831f	-5.968051936450902e-06
73	0xbef838f4022e31e1	-2.310035064172374e-05
74	0xbf37892c859e5b43	-0.0003591283508454399
75	0x3ecc7581a5a18398	3.392578304548367e-06
76	0x3f368cb407456b89	0.0003440799257725049
77	0x3eda74af740272c1	6.307554770182314e-06
78	0xbf01a923510ad1e6	-3.3685102726197476e-05
79	0xbefe2843ccbe65d3	-2.8760227720780518e-05
80	0xbf4188ed882cb5ec	-0.0005351219009292452
81	0xbf1ad2a51a323116	-0.00010232098297730351
82	0x3f2d496be2941b49	0.00022344057041597868
83	0xbed4f4fdc13ed22b	-4.996537445057845e-06
84	0xbf13763d176cf33d	-7.424114106142645e-05
85	0xbef9e92dfeade10f	-2.4710519862720467e-05
86	0xbf4b423a314972d9	-0.00083186952049238
87	0xbf1b9cc3a1d9f9cc	-0.00010533279461275648
88	0x3f268e0a989baec6	0.00017207984301791638
89	0x3ee0ceb53ccd84c8	8.014418108439467e-06
90	0xbf1beec7f6cfaf9d	-0.0001065549419789189
91	0xbefa87aff58ce989	-2.5301006959946248e-05
92	0xbf508fc51a714922	-0.001010839923556058
93	0xbf2686db146ab147	-0.00017186569512740222
94	0x3f1f19124c065188	0.0001186292092881289
95	0x3ed87baf43e685e8	5.837236186330312e-06
96	0xbf30e77349cea9fd	-0.00025793614059446674
97	0xbef6d444fd8329da	-2.177160044495607e-05
98	0xbf542f68b80c089c	-0.0012320063253246421
99	0xbf279a8fd2c68449	-0.00018008237510705658
100	0x3f234ee4f71c2f84	0.00014730973230603014
101	0x3ee5d4fb52e7379c	1.041028971551419e-05
102	0xbf33c82a5a33f6c4	-0.0003018477820687477
103	0xbf0ea08b69015f2a	-5.841660925004343e-05
104	0xbf55c2b325ffc107	-0.0013281583305762583
105	0xbf2395f7e0a96689	-0.00014942789887833024
106	0x3f21062c49ba21f8	0.00012988367676693125
107	0x3f0179b12de8deb9	3.333160360735388e-05
108	0x3e818082e486ee42	1.304000412214781e-07
109	0x3f277565d6bd7749	0.0001789748015381071
110	0xbf566fef74281573	-0.001369460908450773
111	0xbf34ba3a5208e3d5	-0.00031627582396570364
112	0x3f34f0f269f6e5ca	0.0003195373373859582
113	0x3f0473d6af7706ae	3.9010037592668786e-05
114	0xbeeeb3355a54420e	-1.4638916420868012e-05
115	0xbef9fa776ab9fcf6	-2.4774918229383964e-05
116	0xbf45723e6395b6b4	-0.0006544880517773328
117	0x3f0fdd4a85190b08	6.077655474403225e-05
118	0x3f2d21725d83629e	0.0002222492319166229
119	0xbe9116bd95e4b748	-2.546434155922676e-07
120	0xbf14f198953062c2	-7.989400664632897e-05
121	0xbef9100f3548fed6	-2.3901683862569512e-05
122	0xbf50fcbd865f50ea	-0.001036820490743879
123	0x3f02a726dd64d4e4	3.5577653465438e-05
124	0x3f2219b047b9f697	0.0001380946813362329
125	0xbea62f54e4cf36b7	-6.611612178798307e-07
126	0xbf21a05f8eeca64d	-0.0001344792030633528
127	0xbefd9f97f8affa16	-2.8251087808678776e-05
128	0xbf5510e013a69c12	-0.0012857616662616017
129	0x3f084f50153e23e6	4.636729377611292e-05
130	0x3f2796ff443bce54	0.00017997613951302677
131	0x3ed28a9ebdc42968	4.420634436517287e-06
132	0xbf33d457b0f29e2b	-0.00030257359407889994
133	0xbef3343426bf4778	-1.831428600935307e-05
134	0xbf59e84208dccfce	-0.001581253516133241
135	0x3f09c274c14f1df7	4.913252647714341e-05
136	0x3f2710bf26414368	0.00017597516409975232
137	0x3eeff1264ae3472a	1.5231128000090298e-05
138	0xbf3f67d5034f9412	-0.0004792113352876669
139	0xbf0de994f7605a9f	-5.705343112099203e-05
140	0xbf5bdaad4502ee30	-0.0017000858388617306
141	0x3eea8a0f8f7c6a94	1.265492436135677e-05
142	0x3f26c1bbdd3716d4	0.0001736203981705294
143	0x3ef33d458d628688	1.8348066838874802e-05
144	0xbf2c441628e69703	-0.00021565218453394744
145	0x3f2682a29a486efe	0.00017173991103979625
146	0xbf5c86bc76a7d636	-0.0017411079849102402
147	0x3f251032b8524f1c	0.00016070002690026723
148	0x3f332a4eec659887	0.00029243876305996185
149	0x3f02976044b17b90	3.5460114838007446e-05
150	0xbefb08ee9e46b433	-2.5782481218140397e-05
151	0xbef79b3a54fbd3b6	-2.2512778115452602e-05
152	0xbf46fb18c836282d	-0.0007013197904808304
153	0xbf1f8ff30bdeeca4	-0.00012040062844580424
154	0x3f316d9184587b5b	0.00026593020115399873
155	0x3ec9e89533f1c11e	3.088537055932882e-06
156	0xbf15b1ac3447a03f	-8.275617171416091e-05
157	0xbef896751e2c7d23	-2.3448681427782073e-05
158	0xbf521320511d281e	-0.0011031928629159425
159	0xbf1bda1e437bbaea	-0.00010624704088589188
160	0x3f2557e1b64d6614	0.0001628363635528962
161	0x3eaa1d405c05ab40	7.782656937076814e-07
162	0xbf2325371b1f851d	-0.0001460675971989644
163	0xbeff3f390205d0e9	-2.979942667154313e-05
164	0xbf5636cd0845478f	-0.0013558389919876323
165	0xbf20cda4338001e3	-0.00012819890412175882
166	0x3f2c79fbb354e394	0.00021725842968025862
167	0x3eb4de59bddecf90	1.2438629179824355e-06
168	0xbf388bc3648be556	-0.00037454147654577186
169	0xbef05d426a674d39	-1.5606207535002004e-05
170	0xbf5ace8c04956b10	-0.0016361586916306438
171	0xbf2105c4ef3c1f4b	-0.00012987164483768197
172	0x3f29a0c650ba9419	0.00019552632180822106
173	0x3eddbebe14cd0436	7.091781594693394e-06
174	0xbf3dd1fc3842c28e	-0.0004550209780616398
175	0xbf0feae9f60db136	-6.0878052642406746e-05
176	0xbf5c5680313b363e	-0.0017296077611946982
177	0xbf268a99ebb467b9	-0.00017197731890733288
178	0x3f383e48b40829b0	0.00036992335302046386
179	0xbee2bf9bfa9e8fb8	-8.93996896762077e-06
180	0xbf0c17dc2dbae6b2	-5.358353311408821e-05
181	0xbef0f8be083f5706	-1.6185426389223586e-05
182	0xbf510a07c6559f24	-0.0010399890828355985
183	0xbeffb1e7a594947c	-3.0226651095994765e-05
184	0x3f3a6cf65c51d6bc	0.00040322317756334345
185	0x3ebe15bebefe34c6	1.7932022693152048e-06
186	0xbf188032f9c3703d	-9.346305018048756e-05
187	0xbef5c5ae6d54ee1e	-2.076358108136892e-05
188	0xbf5af5e8af26d0e8	-0.001645543318415094
189	0xbf089d9ce62d5fef	-4.69506747068914e-05
190	0x3f30df51f6d2f4c8	0.0002574515445522116
191	0x3e9ab0606e3cf4a0	3.9769666514476015e-07
192	0xbf215a16f5350509	-0.0001323845886905056
193	0xbf02b48c9c8fe169	-3.56774722333777e-05
194	0xbf60b2b357969f56	-0.0020383360649311273
195	0xbf0edd917687bb0a	-5.887127082703475e-05
196	0x3f35bd9b50719101	0.0003317360100878603
197	0xbeaea8b657f5f7da	-9.137103659654378e-07
198	0xbf35e32655c6ba1b	-0.0003339737502540422
199	0xbedd1b2837bd1d9d	-6.939430814707252e-06
200	0xbf647f90c0526afb	-0.0025022341893196054
201	0xbf1649fab8cfff8f	-8.502571854762511e-05
202	0x3f37f7ea88c9cb29	0.0003657291024758308
203	0xbec253a84ab83cc8	-2.184723219895641e-06
204	0xbf357e8dd45c1c8a	-0.0003279777778150769
205	0xbf136881734d86f1	-7.403650381612358e-05
206	0xbf6602a3d0974788	-0.0026868056781745343
207	0xbed5266dfd3fe2ec	-5.042580557550825e-06
208	0x3f331e96ace24c1c	0.000291740213364368
209	0x3eb3b21d828debe0	1.1739589444714952e-06
210	0xbf35b39115be366f	-0.0003311375819457845
211	0xbed1a43fb95d4e00	-4.206084573815921e-06
212	0xbf667918a25f3741	-0.00274329005603749
213	0xbf40a8b1cf72212b	-0.0005083912100341306
214	0x3f34ed044e57068b	0.0003193030846341058
215	0xbedbe099afa9afcc	-6.646476999532619e-06
216	0xbf0e6d6d8ce9db35	-5.803576060696981e-05
217	0xbee166045c502544	-8.296253222200353e-06
218	0xbf51d6711038ba60	-0.0010887245306424806
219	0xbef65c78bfd973cb	-2.1325318803600516e-05
220	0x3f3b2b448932bfdf	0.00041456626167768283
221	0x3ea9f149f0020fe8	7.731477751492392e-07
222	0xbf1b4cb88bf9725f	-0.00010414005645870962
223	0xbef11fd5f88934fe	-1.6331061063736163e-05
224	0xbf5c306f235b571e	-0.0017205319722299393
225	0x3ef72aab8c654fe4	2.209346782795764e-05
226	0x3f31558b3c94b3d4	0.00026449822742585544
227	0x3ec3f6e780385476	2.379950275752938e-06
228	0xbf21e86046d0c15e	-0.00013662505389922924
229	0xbf06df726aab68da	-4.362647935858702e-05
230	0xbf6172b123dd1b5e	-0.0021298846976693228
231	0x3ef600d2370b3544	2.0983893992012186e-05
232	0x3f367ee2e38b36b3	0.0003432563712920486
233	0x3ebff83ee0e3f9c6	1.905543175306441e-06
234	0xbf34efc3204b5a22	-0.0003194667226983657
235	0x3ece4821c0fba4d8	3.6098676970864863e-06
236	0xbf6565ea8be6e35f	-0.0026120739923637805
237	0x3f0f35f5fb562b6e	5.952984740094964e-05
238	0x3f3795937c9a6b71	0.0003598675799396023
239	0x3e9d04395915c1be	4.323795446880996e-07
240	0xbf39ae2690bbb513	-0.00039184991395198424
241	0xbf145320b8aa49ba	-7.753264632474099e-05
242	0xbf66f6db27862ea3	-0.002803257022781684
243	0xbf066f8daa9feb56	-4.2792807406008784e-05
244	0x3f340d367ba5f4d4	0.00030596332694428113
245	0xbed2f4f3d3a55510	-4.519664168552555e-06
246	0xbf32b0ea81aa5aa2	-0.0002852032209061194
247	0xbef2950bd225aa17	-1.7721377966331978e-05
248	0xbf676b935c2d35e3	-0.0028589132429377314
249	0x3f3f090f8a0cbaa8	0.0004735625207556251
250	0x3f357cca3a9cb10c	0.0003278726313620396
251	0xbee3887c166e850e	-9.314128602446708e-06
252	0xbf1136d9a9ca5093	-6.566718588835373e-05
253	0xbe990187e7448a00	-3.726181383602973e-07
254	0xbf4057f1ec49fea1	-0.0004987651123684219
255	0x3f371dda57366002	0.00035273151953552084

b f8 [2268]
0	0xbd88000000000000	-2.7284841053187847e-12
1	0xbda4640000000000	-9.272582701669307e-12
2	0xc0eb9f1e96b49882	-56568.95589666163
3	0xc0d58ae213862b55	-22059.532441656414
4	0x40d984861d99d099	26130.095556691846
5	0x3d28000000000000	4.263256414560601e-14
6	0x3da0000000000000	7.275957614183426e-12
7	0xbd9d800000000000	-6.707523425575346e-12
8	0xc0eb9f1e96b49870	-56568.9558966615
9	0xc0d58ae213862b56	-22059.532441656418
10	0x40d984861d99d09d	26130.09555669186
11	0x0000000000000000	0.0
12	0xbda0000000000000	-7.275957614183426e-12
13	0xbd78c00000000000	-1.4068746168049984e-12
14	0xc0eb9f1e96b4987d	-56568.955896661595
15	0xc0d58ae213862b57	-22059.53244165642
16	0x40d984861d99d09a	26130.09555669185
17	0x3d44000000000000	1.4210854715202004e-13
18	0x3da0000000000000	7.275957614183426e-12
19	0x3db1580000000000	1.5774048733874224e-11
20	0xc0eb9f1e96b49882	-56568.95589666163
21	0xc0d58ae213862b57	-22059.53244165642
22	0x40d984861d99d09a	26130.09555669185
23	0x3d6a000000000000	7.389644451905042e-13
24	0x3d98000000000000	5.4569682106375694e-12
25	0xbda6c80000000000	-1.035971308738226e-11
26	0xc0f52faf74066414	-86778.96582640737
27	0x40c3c4042e9c9aa8	10120.03267247726
28	0x40e0b75261ac177d	34234.574422880054
29	0x3d59800000000000	3.623767952376511e-13
30	0x0000000000000000	0.0
31	0x3d9b4c0000000000	6.206590796864475e-12
32	0xc0f52faf74066420	-86778.96582640754
33	0x40c3c4042e9c9ab0	10120.032672477275
34	0x40e0b75261ac177f	34234.57442288007
35	0x3d26000000000000	3.907985046680551e-14
36	0xbd98000000000000	-5.4569682106375694e-12
37	0x3d857e0000000000	2.4433788325950445e-12
38	0xc0f52faf74066438	-86778.96582640789
39	0x40c3c4042e9c9aa5	10120.032672477255
40	0x40e0b75261ac177d	34234.574422880054
41	0xbd66300000000000	-6.306066779870889e-13
42	0x0000000000000000	0.0
43	0xbdd0ae2000000000	-6.068212599075196e-11
44	0xc0eb9f1e96b4987a	-56568.95589666157
45	0x40d58ae213862b5c	22059.53244165644
46	0x40d984861d99d098	26130.095556691842
47	0xbd33000000000000	-6.750155989720952e-14
48	0x3d90000000000000	3.637978807091713e-12
49	0x3dbf5b0000000000	2.851763269973162e-11
50	0xc0f6bb01ad1bbcfe	-93104.10476278138
51	0xc0cb19cdd1194d7d	-13875.607943690144
52	0x40e2917115dffae5	38027.533920278576
53	0x3d38000000000000	8.526512829121202e-14
54	0x3d90000000000000	3.637978807091713e-12
55	0x3d9df80000000000	6.814104835939361e-12
56	0xc0f6bb01ad1bbd0f	-93104.10476278163
57	0xc0cb19cdd1194d88	-13875.607943690164
58	0x40e2917115dffae4	38027.53392027857
59	0xbd41000000000000	-1.2079226507921703e-13
60	0xbd80000000000000	-1.8189894035458565e-12
61	0x3d6bc00000000000	7.887024366937112e-13
62	0xc0dd8080a2b05fdd	-30210.009929746262
63	0x40c751bff86fbc0a	11939.499769179169
64	0x40bfa87a96f9797c	8104.478866188201
65	0xbd10000000000000	-1.4210854715202004e-14
66	0x0000000000000000	0.0
67	0xbdaac80000000000	-1.2178702490928117e-11
68	0xc0f88fccdb368060	-100604.80351877352
69	0x40c6de86ea23dc34	11709.054020388146
70	0x40e53b6293112af5	43483.08045252218
71	0x3d42c00000000000	1.3322676295501878e-13
72	0x0000000000000000	0.0
73	0xbd99d80000000000	-5.8761884247360285e-12
74	0xc0f88fccdb368060	-100604.80351877352
75	0x40c6de86ea23dc2c	11709.054020388132
76	0x40e53b6293112af5	43483.08045252218
77	0x0000000000000000	0.0
78	0x3d90000000000000	3.637978807091713e-12
79	0x3da83c0000000000	1.1020517831639154e-11
80	0xc0f78ff73babcba4	-96511.4520681338
81	0xc0c1fa0858f890e2	-9204.065215178245
82	0x40e40bd22bef28c3	41054.56786306344
83	0xbd4e000000000000	-2.1316282072803006e-13
84	0x3da0000000000000	7.275957614183426e-12
85	0x3db41c0000000000	1.828937001846498e-11
86	0xc0f78ff73babcba0	-96511.45206813375
87	0xc0c1fa0858f890eb	-9204.065215178261
88	0x40e40bd22bef28c6	41054.567863063465
89	0x3d69800000000000	7.247535904753022e-13
90	0xbdb0000000000000	-1.4551915228366852e-11
91	0xbdc2ae0000000000	-3.397815362404799e-11
92	0xc0ecb617c9c9e0be	-58800.743382395696
93	0xc0d6c3879c2edf16	-23310.118907659395
94	0x40dad9a2b7bd9308	27494.54246463164
95	0x3d38000000000000	8.526512829121202e-14
96	0x0000000000000000	0.0
97	0xbd7f600000000000	-1.7834622667578515e-12
98	0xc0ecb617c9c9e0f3	-58800.74338239608
99	0xc0d6c3879c2edf22	-23310.11890765944
100	0x40dad9a2b7bd930f	27494.542464631664
101	0x3d59000000000000	3.552713678800501e-13
102	0x3dd0000000000000	5.820766091346741e-11
103	0x3db2a00000000000	1.693933882052079e-11
104	0xc0ecb617c9c9e12a	-58800.74338239648
105	0xc0d6c3879c2edf1e	-23310.118907659424
106	0x40dad9a2b7bd930f	27494.542464631664
107	0xbd95800000000000	-4.888534022029489e-12
108	0xbd80000000000000	-1.8189894035458565e-12
109	0x3db9200000000000	2.2851054382044822e-11
110	0xc0ecb617c9c9e0c5	-58800.74338239575
111	0xc0d6c3879c2edf24	-23310.118907659446
112	0x40dad9a2b7bd930a	27494.542464631646
113	0x3d64000000000000	5.684341886080801e-13
114	0x3d80000000000000	1.8189894035458565e-12
115	0xbda0468000000000	-7.401190771361144e-12
116	0xc0f6e2938262950a	-93737.21933229655
117	0x40c3a52a332c1433	10058.3296866511
118	0x40e312f9d20122ca	39063.80688530726
119	0x3d21800000000000	3.108624468950438e-14
120	0xbda0000000000000	-7.275957614183426e-12
121	0xbd76c40000000000	-1.2940759575030825e-12
122	0xc0f6e2938262951d	-93737.21933229682
123	0x40c3a52a332c143a	10058.329686651112
124	0x40e312f9d20122ca	39063.80688530726
125	0x3d74e80000000000	1.1883827255587676e-12
126	0x3dc0000000000000	2.9103830456733704e-11
127	0x3da55c0000000000	9.71311919784057e-12
128	0xc0f6e29382629567	-93737.2193322979
129	0x40c3a52a332c1435	10058.329686651103
130	0x40e312f9d20122cc	39063.80688530728
131	0x3d40000000000000	1.1368683772161603e-13
132	0x3dc0000000000000	2.9103830456733704e-11
133	0x3da2e80000000000	8.597567102697212e-12
134	0xc0f6e293826294f0	-93737.21933229617
135	0x40c3a52a332c1422	10058.329686651068
136	0x40e312f9d20122ca	39063.80688530726
137	0xbd95000000000000	-4.774847184307873e-12
138	0xbdd0000000000000	-5.820766091346741e-11
139	0xbdba680000000000	-2.4016344468691386e-11
140	0xc0f6e293826294eb	-93737.2193322961
141	0x40c3a52a332c1424	10058.329686651072
142	0x40e312f9d20122cc	39063.80688530728
143	0x3d83800000000000	2.2168933355715126e-12
144	0x3dc0000000000000	2.9103830456733704e-11
145	0xbdb2200000000000	-1.6484591469634324e-11
146	0xc0ecb617c9c9e151	-58800.743382396766
147	0x40d6c3879c2edf1f	23310.118907659427
148	0x40dad9a2b7bd9310	27494.542464631668
149	0x3d74000000000000	1.1368683772161603e-12
150	0x3d90000000000000	3.637978807091713e-12
151	0x3dadc40000000000	1.3535839116229909e-11
152	0xc0fa15d565e6765f	-106845.33737798918
153	0xc0d2b9a64fc0d795	-19174.598617754487
154	0x40e6b335c85364cb	46489.680703827726
155	0x3d49000000000000	1.7763568394002505e-13
156	0xbdb0000000000000	-1.4551915228366852e-11
157	0xbd18000000000000	-2.1316282072803006e-14
158	0xc0fa15d565e675fe	-106845.33737798777
159	0xc0d2b9a64fc0d79f	-19174.598617754524
160	0x40e6b335c85364d6	46489.680703827806
161	0x3d1c000000000000	2.4868995751603507e-14
162	0xbdb0000000000000	-1.4551915228366852e-11
163	0x3dbea80000000000	2.788169695122633e-11
164	0xc0fa15d565e6763a	-106845.33737798865
165	0xc0d2b9a64fc0d799	-19174.598617754502
166	0x40e6b335c85364d4	46489.68070382779
167	0xbd59000000000000	-3.552713678800501e-13
168	0x0000000000000000	0.0
169	0xbd8b980000000000	-3.1370461783808423e-12
170	0xc0fa15d565e6763d	-106845.33737798869
171	0xc0d2b9a64fc0d798	-19174.5986177545
172	0x40e6b335c85364da	46489.680703827835
173	0x3d73e00000000000	1.1297629498585593e-12
174	0x0000000000000000	0.0
175	0x3db2a74000000000	1.6965095994692092e-11
176	0xc0fa15d565e6760c	-106845.33737798798
177	0xc0d2b9a64fc0d79b	-19174.59861775451
178	0x40e6b335c85364d5	46489.6807038278
179	0xbd46800000000000	-1.5987211554602254e-13
180	0x3da0000000000000	7.275957614183426e-12
181	0xbd8fb00000000000	-3.602451670303708e-12
182	0xc1022f124cb91977	-148962.28746242422
183	0xc0b1c459ad0fe437	-4548.350296967713
184	0x40f1b15a14994a5c	72469.63002900168
185	0xbd38000000000000	-8.526512829121202e-14
186	0x3dc8000000000000	4.3655745685100555e-11
187	0xbd96660000000000	-5.092815058560518e-12
188	0xc1022f124cb91953	-148962.28746242318
189	0xc0b1c459ad0fe41f	-4548.350296967691
190	0x40f1b15a14994a5c	72469.63002900168
191	0x3d55000000000000	2.984279490192421e-13
192	0x0000000000000000	0.0
193	0xbdb1f08000000000	-1.63158375698913e-11
194	0xc1022f124cb9197c	-148962.28746242437
195	0xc0b1c459ad0fe43e	-4548.350296967719
196	0x40f1b15a14994a5b	72469.63002900167
197	0x3d50400000000000	2.3092638912203256e-13
198	0x0000000000000000	0.0
199	0xbd94900000000000	-4.675371201301459e-12
200	0xc1022f124cb91965	-148962.2874624237
201	0xc0b1c459ad0fe41d	-4548.350296967689
202	0x40f1b15a14994a5c	72469.63002900168
203	0xbd83600000000000	-2.2026824808563106e-12
204	0xbdd0000000000000	-5.820766091346741e-11
205	0x3daa580000000000	1.1979750524915289e-11
206	0xc1022f124cb919e6	-148962.28746242746
207	0xc0b1c459ad0fe42c	-4548.350296967703
208	0x40f1b15a14994a5f	72469.63002900172
209	0xbd7e000000000000	-1.7053025658242404e-12
210	0xbde8000000000000	-1.7462298274040222e-10
211	0x3d57c80000000000	3.3795188869589765e-13
212	0xc0f2cfd6d109614a	-77053.42603433612
213	0xc0e20dd79eced2d6	-36974.73813573054
214	0x40e255a6d7018926	37549.21374584948
215	0xbd6ce00000000000	-8.206768598029157e-13
216	0xbdc4000000000000	-3.637978807091713e-11
217	0x3da4b70000000000	9.420020319339528e-12
218	0xc1030cbd0917cd02	-156055.6294399277
219	0xc0a17f0db84410e1	-2239.5267964621166
220	0x40f27b4d9e6d443e	75700.85117842347
221	0xbd45000000000000	-1.4921397450962104e-13
222	0x0000000000000000	0.0
223	0xbd82200000000000	-2.0605739337042905e-12
224	0xc1030cbd0917cd56	-156055.62943993014
225	0xc0a17f0db84410c4	-2239.5267964621034
226	0x40f27b4d9e6d4440	75700.8511784235
227	0x3d10000000000000	1.4210854715202004e-14
228	0x3dc8000000000000	4.3655745685100555e-11
229	0xbdb54a0000000000	-1.936228954946273e-11
230	0xc1030cbd0917cd3e	-156055.62943992944
231	0xc0a17f0db84410dc	-2239.5267964621144
232	0x40f27b4d9e6d443e	75700.85117842347
233	0xbd5f000000000000	-4.405364961712621e-13
234	0xbdd0000000000000	-5.820766091346741e-11
235	0x3d83c80000000000	2.248867758680717e-12
236	0xc1030cbd0917cd39	-156055.6294399293
237	0xc0a17f0db84410d5	-2239.526796462111
238	0x40f27b4d9e6d4440	75700.8511784235
239	0xbd54800000000000	-2.913225216616411e-13
240	0x3dd0000000000000	5.820766091346741e-11
241	0xbdb2d00000000000	-1.7109869077103212e-11
242	0xc1030cbd0917ccf5	-156055.62943992732
243	0xc0a17f0db84410fc	-2239.526796462129
244	0x40f27b4d9e6d443d	75700.85117842346
245	0x3d8cc00000000000	3.268496584496461e-12
246	0x0000000000000000	0.0
247	0x3d5b000000000000	3.836930773104541e-13
248	0xc0f2cfd6d1096175	-77053.42603433675
249	0x40e20dd79eced2d6	36974.73813573054
250	0x40e255a6d7018922	37549.213745849454
251	0xbd08000000000000	-1.0658141036401503e-14
252	0x0000000000000000	0.0
253	0xbd64600000000000	-5.790923296444817e-13
254	0xc0f349a3412638ef	-79002.20340559234
255	0x40e325c87a5313e2	39214.264932192644
