python-Linux/neural-sparse-linear-solvers-master/stand_small_test/8328557305680200321_b89f1cc89f6e94c5eb9f9f0478469b6997e7fd54_957ae82680a24e3708e96bd1075311119612da96.npz (npz, 111757 bytes, 3 tensors)

A_values f8 [28200]
0	0x41cad28a69645efb	900011218.7841486
1	0xc153735a2f948b08	-5098856.743441351
2	0xc177041668641a90	-24133990.524439394
3	0xc16337cf7adab42a	-10075771.839197237
4	0x4174f7bb071c4f16	21986224.44441136
5	0xc16a0df1bed3f867	-13660045.963375283
6	0xc177041668641a90	-24133990.524439394
7	0xc1c9b400ebe68d3d	-862454231.8011853
8	0x41d428ea6986d78a	1352903078.1069055
9	0x414c8b5affc28d80	3741365.9981247783
10	0x4163a49a616e8673	10298579.044741845
11	0xc15bf152aeb6d2a4	-7325002.729908619
12	0xc16e7c97661d1e1c	-15983803.191054396
13	0xc1d3d82cf8011577	-1331737568.016935
14	0xc14ccd0f63849e71	-3775006.777484708
15	0x4163a49a616e8673	10298579.044741845
16	0x41e12846834b09d6	2302817306.3449507
17	0x417f89e68378e4ee	33070696.2170152
18	0xc16b177cf092b779	-14203879.517909752
19	0xc1d0113bccb46410	-1078259506.8186073
20	0xc171d9e5a284de16	-18718298.15743836
21	0x417f89e68378e4ee	33070696.2170152
22	0xc153dc7d9a92639c	-5206518.415184882
23	0xc16b177cf092b779	-14203879.517909752
24	0x414c8b5affc28d80	3741365.9981247783
25	0x417f89e68378e4ee	33070696.2170152
26	0x41a64324cd254a8e	186749542.57283443
27	0x416e7c97661d1e1c	15983803.191054396
28	0x4175f420e8b2e37a	23020046.54367397
29	0xc17f89e68378e4ee	-33070696.2170152
30	0x41822e938ec1bc4b	38130289.84459742
31	0xc161fc0acd75c96d	-9429078.420628274
32	0xc153735a2f948b08	-5098856.743441351
33	0xc16b177cf092b779	-14203879.517909752
34	0x41a81beee93d3b06	202241908.61959094
35	0xc174f7bb071c4f16	-21986224.44441136
36	0x417e1498b14ad3f4	31541643.08076854
37	0xc16bc5380c6ca26d	-14559680.388261044
38	0x416b177cf092b779	14203879.517909752
39	0x41786b1848315faa	25604484.512054123
40	0xc177041668641a90	-24133990.524439394
41	0x4163a49a616e8673	10298579.044741845
42	0x419c8ec37065659a	119779548.09902039
43	0xc1667c13813d8711	-11788444.038760694
44	0x4177041668641a90	24133990.524439394
45	0x417ab24ce6215f15	27993294.383147318
46	0xc163a49a616e8673	-10298579.044741845
47	0x4171bfa567fae5bc	18610774.498754248
48	0xc16337cf7adab42a	-10075771.839197237
49	0xc174f7bb071c4f16	-21986224.44441136
50	0x41cad57c762b137d	900397292.3365322
51	0x415558026387a370	5595145.555153713
52	0xc177041668641a90	-24133990.524439394
53	0xc16b19215772e348	-14207242.732774392
54	0x417a4dbb9ffe37f2	27581369.999565072
55	0xc16a0df1bed3f867	-13660045.963375283
56	0xc177041668641a90	-24133990.524439394
57	0xc1c9b400ebe68d3d	-862454231.8011853
58	0xc15bf152aeb6d2a4	-7325002.729908619
59	0x416e7c97661d1e1c	15983803.191054396
60	0x41d429feb6619bc4	1353186009.5251322
61	0xc14f53f9606f4530	-4106226.753395699
62	0x4163a49a616e8673	10298579.044741845
63	0xc163bcf2000695a6	-10348432.00080378
64	0xc17328cadf1c77b4	-20090029.944450095
65	0xc1d3d82cf8011577	-1331737568.016935
66	0xc14ccd0f63849e71	-3775006.777484708
67	0x4163a49a616e8673	10298579.044741845
68	0xc1d0113bccb46410	-1078259506.8186073
69	0x41e13de310c830b1	2314147974.255944
70	0x417f89e68378e4ee	33070696.2170152
71	0xc16b177cf092b779	-14203879.517909752
72	0xc1d20f4640b75776	-1211963650.8647132
73	0xc171d9e5a284de16	-18718298.15743836
74	0x417f89e68378e4ee	33070696.2170152
75	0xc153dc7d9a92639c	-5206518.415184882
76	0xc16b177cf092b779	-14203879.517909752
77	0xc16e7c97661d1e1c	-15983803.191054396
78	0x4175f420e8b2e37a	23020046.54367397
79	0xc14f53f9606f4530	-4106226.753395699
80	0x417f89e68378e4ee	33070696.2170152
81	0x41a65188c3392db3	187221089.61167678
82	0x417328cadf1c77b4	20090029.944450095
83	0x41787bf55a9e97de	25673557.66371905
84	0xc17f89e68378e4ee	-33070696.2170152
85	0x41822e938ec1bc4b	38130289.84459742
86	0xc161fc0acd75c96d	-9429078.420628274
87	0x4174f7bb071c4f16	21986224.44441136
88	0x417e1498b14ad3f4	31541643.08076854
89	0x415558026387a370	5595145.555153713
90	0xc16b177cf092b779	-14203879.517909752
91	0x41a82f7676e0899e	202881851.43854994
92	0xc17a4dbb9ffe37f2	-27581369.999565072
93	0x4180b967e2f8174d	35073276.37113819
94	0xc16bc5380c6ca26d	-14559680.388261044
95	0x416b177cf092b779	14203879.517909752
96	0x41786b1848315faa	25604484.512054123
97	0xc1667c13813d8711	-11788444.038760694
98	0xc177041668641a90	-24133990.524439394
99	0x4163a49a616e8673	10298579.044741845
100	0x419c96530223ac6c	119903424.53483742
101	0xc16945d45702f424	-13250210.719110556
102	0x4177041668641a90	24133990.524439394
103	0x417ab24ce6215f15	27993294.383147318
104	0xc163a49a616e8673	-10298579.044741845
105	0x4171bfa567fae5bc	18610774.498754248
106	0xc16b19215772e348	-14207242.732774392
107	0xc17a4dbb9ffe37f2	-27581369.999565072
108	0x41cb60ed959e06a2	918674219.2345774
109	0x416e38048b7e3854	15843364.359157719
110	0xc177041668641a90	-24133990.524439394
111	0xc17b0a0babcbbeca	-28352698.737242498
112	0x4184b4def2deaa0e	43424734.35872279
113	0xc16a0df1bed3f867	-13660045.963375283
114	0xc177041668641a90	-24133990.524439394
115	0xc1c9b400ebe68d3d	-862454231.8011853
116	0xc163bcf2000695a6	-10348432.00080378
117	0x417328cadf1c77b4	20090029.944450095
118	0x41d45d43c3d14e09	1366626063.270388
119	0xc16657809b0edfaa	-11713540.845565636
120	0x4163a49a616e8673	10298579.044741845
121	0xc173cd98079a45c3	-20765056.475164186
122	0xc17e548b2ca3e789	-31803570.79001573
123	0xc1d3d82cf8011577	-1331737568.016935
124	0xc14ccd0f63849e71	-3775006.777484708
125	0x4163a49a616e8673	10298579.044741845
126	0xc1d20f4640b75776	-1211963650.8647132
127	0x41e4a75fa1af61c6	2772106509.480685
128	0x417f89e68378e4ee	33070696.2170152
129	0xc16b177cf092b779	-14203879.517909752
130	0xc1d6e434ee82c63b	-1536218042.043349
131	0xc171d9e5a284de16	-18718298.15743836
132	0x417f89e68378e4ee	33070696.2170152
133	0xc153dc7d9a92639c	-5206518.415184882
134	0xc16b177cf092b779	-14203879.517909752
135	0xc17328cadf1c77b4	-20090029.944450095
136	0x41787bf55a9e97de	25673557.66371905
137	0xc16657809b0edfaa	-11713540.845565636
138	0x417f89e68378e4ee	33070696.2170152
139	0x41a89159960c9092	206089419.02454048
140	0x417e548b2ca3e789	31803570.79001573
141	0x417e5780c4bb1774	31815692.295676664
142	0xc17f89e68378e4ee	-33070696.2170152
143	0x41822e938ec1bc4b	38130289.84459742
144	0xc161fc0acd75c96d	-9429078.420628274
145	0x417a4dbb9ffe37f2	27581369.999565072
146	0x4180b967e2f8174d	35073276.37113819
147	0x416e38048b7e3854	15843364.359157719
148	0xc16b177cf092b779	-14203879.517909752
149	0x41ab3a0ebda09d32	228394846.8136993
150	0xc184b4def2deaa0e	-43424734.35872279
151	0x41848c965d747075	43094731.68185512
152	0xc16bc5380c6ca26d	-14559680.388261044
153	0x416b177cf092b779	14203879.517909752
154	0x41786b1848315faa	25604484.512054123
155	0xc16945d45702f424	-13250210.719110556
156	0xc177041668641a90	-24133990.524439394
157	0x4163a49a616e8673	10298579.044741845
158	0x419dc7ea18d5ca64	124910214.20877987
159	0xc17004661b673b6a	-16795233.712703146
160	0x4177041668641a90	24133990.524439394
161	0x417ab24ce6215f15	27993294.383147318
162	0xc163a49a616e8673	-10298579.044741845
163	0x4171bfa567fae5bc	18610774.498754248
164	0xc17b0a0babcbbeca	-28352698.737242498
165	0xc184b4def2deaa0e	-43424734.35872279
166	0x41caf48910403b15	904466976.501803
167	0xc184b4def2deaa0e	-43424734.35872279
168	0xc177041668641a90	-24133990.524439394
169	0xc16a0df1bed3f867	-13660045.963375283
170	0xc177041668641a90	-24133990.524439394
171	0xc1c9b400ebe68d3d	-862454231.8011853
172	0xc173cd98079a45c3	-20765056.475164186
173	0x417e548b2ca3e789	31803570.79001573
174	0x41d435c9dfd140dd	1356277631.269584
175	0x417e548b2ca3e789	31803570.79001573
176	0x4163a49a616e8673	10298579.044741845
177	0xc1d3d82cf8011577	-1331737568.016935
178	0xc14ccd0f63849e71	-3775006.777484708
179	0x4163a49a616e8673	10298579.044741845
180	0xc1d6e434ee82c63b	-1536218042.043349
181	0x41d73f7902a76c17	1560142858.6159723
182	0x417f89e68378e4ee	33070696.2170152
183	0xc16b177cf092b779	-14203879.517909752
184	0xc171d9e5a284de16	-18718298.15743836
185	0x417f89e68378e4ee	33070696.2170152
186	0xc153dc7d9a92639c	-5206518.415184882
187	0xc16b177cf092b779	-14203879.517909752
188	0xc17e548b2ca3e789	-31803570.79001573
189	0x417e5780c4bb1774	31815692.295676664
190	0x417e548b2ca3e789	31803570.79001573
191	0x417f89e68378e4ee	33070696.2170152
192	0x41a2545a5ecfc000	153759023.40576172
193	0xc17f89e68378e4ee	-33070696.2170152
194	0x41822e938ec1bc4b	38130289.84459742
195	0xc161fc0acd75c96d	-9429078.420628274
196	0x4184b4def2deaa0e	43424734.35872279
197	0x41848c965d747075	43094731.68185512
198	0xc184b4def2deaa0e	-43424734.35872279
199	0xc16b177cf092b779	-14203879.517909752
200	0x41a2a44269e44bb6	156377396.94589013
201	0xc16bc5380c6ca26d	-14559680.388261044
202	0x416b177cf092b779	14203879.517909752
203	0x41786b1848315faa	25604484.512054123
204	0xc17004661b673b6a	-16795233.712703146
205	0xc177041668641a90	-24133990.524439394
206	0x4163a49a616e8673	10298579.044741845
207	0x419a9f2f8df56be0	111660003.48966932
208	0x4177041668641a90	24133990.524439394
209	0x417ab24ce6215f15	27993294.383147318
210	0xc163a49a616e8673	-10298579.044741845
211	0x4171bfa567fae5bc	18610774.498754248
212	0xc16a0df1bed3f867	-13660045.963375283
213	0x4177041668641a90	24133990.524439394
214	0x41caf063225e52ac	903923268.736898
215	0xc153735a2f948b08	-5098856.743441351
216	0x4169eb1ec8e16072	13588726.277511809
217	0xc16337cf7adab42a	-10075771.839197237
218	0x4174f7bb071c4f16	21986224.44441136
219	0xc14dd8b8f9f3b1ab	-3912049.952749451
220	0xc1641d0e07e6d4ae	-10545264.246927585
221	0xc1c9b400ebe68d3d	-862454231.8011853
222	0xc1d3d82cf8011577	-1331737568.016935
223	0x41e0954c609b4fb1	2225758980.853478
224	0x414c8b5affc28d80	3741365.9981247783
225	0x4163a49a616e8673	10298579.044741845
226	0xc15bf152aeb6d2a4	-7325002.729908619
227	0xc16e7c97661d1e1c	-15983803.191054396
228	0xc1ca035caf5f8fb3	-872855902.7465729
229	0xc14ccd0f63849e71	-3775006.777484708
230	0x4163a49a616e8673	10298579.044741845
231	0xc171d9e5a284de16	-18718298.15743836
232	0xc17f89e68378e4ee	-33070696.2170152
233	0x41e13290be4494f8	2308212210.1431847
234	0xc171ab810fac1679	-18528272.97951362
235	0xc16b177cf092b779	-14203879.517909752
236	0xc1d0113bccb46410	-1078259506.8186073
237	0xc1549475f31643f5	-5394903.798233976
238	0x416bbccae7999cea	14542423.23750158
239	0xc153dc7d9a92639c	-5206518.415184882
240	0xc16b177cf092b779	-14203879.517909752
241	0x417f89e68378e4ee	33070696.2170152
242	0x41822e938ec1bc4b	38130289.84459742
243	0x414c8b5affc28d80	3741365.9981247783
244	0xc171ab810fac1679	-18528272.97951362
245	0x41ac856fc91059dc	239253476.53193557
246	0x416e7c97661d1e1c	15983803.191054396
247	0x4175f420e8b2e37a	23020046.54367397
248	0xc16bbccae7999cea	-14542423.23750158
249	0x4178b272deb392ca	25896749.91884116
250	0xc161fc0acd75c96d	-9429078.420628274
251	0xc16bc5380c6ca26d	-14559680.388261044
252	0xc153735a2f948b08	-5098856.743441351
253	0xc16b177cf092b779	-14203879.517909752
254	0x41a93f2805cadda4	211784706.89622223
255	0xc174f7bb071c4f16	-21986224.44441136

x f8 [2520]
0	0x3e8ca10c7bdc6c4b	2.1330339266479977e-07
1	0x3dfb6ac0f8a046cd	3.989699617780454e-10
2	0x3e2b737a893a4369	3.1957273024212855e-09
3	0xbde5c5eac3a07c1e	-1.584202507140591e-10
4	0x3e6ddf58809b93ef	5.564176326441639e-08
5	0xbe505a9784eb32d4	-1.5230732504020424e-08
6	0x3ea1b20635db8b19	5.273642320304205e-07
7	0x3e43473463786b72	8.977084949579314e-09
8	0x3e37c96982ed0916	5.538288090993769e-09
9	0xbdeaa43253ce9a4f	-1.9384164577598929e-10
10	0x3e6a059cca985eda	4.846960994733222e-08
11	0xbe580e1f4003c120	-2.2403117584094723e-08
12	0x3ea8fc0cfca06490	7.44598304128158e-07
13	0x3e04f48d9e3d6878	6.098790886197638e-10
14	0x3e3ca49c03e98c71	6.668969431027061e-09
15	0xbe10afa5ce01477f	-9.712602319807042e-10
16	0x3e615dacf8034415	3.2346547664014746e-08
17	0xbe57ead1de800044	-2.2274688676882318e-08
18	0x3eabeaf03c2dd7d4	8.320131360389996e-07
19	0x3e4e170817d9a310	1.401173288090708e-08
20	0x3e3e1b0212b21b33	7.009483031446655e-09
21	0xbe2e5657973dec00	-3.5317235194806834e-09
22	0x3e4fcaef7015c636	1.4804637074179886e-08
23	0xbe59eb149a7d3ddf	-2.413828217802257e-08
24	0x3e90443d5f96be09	2.423906547378227e-07
25	0x3e19f3784f218401	1.5105501819202854e-09
26	0x3e2d827c44eedfaf	3.4353822351639074e-09
27	0xbe06b70ba268bcb3	-6.610941280674349e-10
28	0x3e70e1eafe607e84	6.289218354481163e-08
29	0xbe3e02f497aeb899	-6.98760726617487e-09
30	0x3ea3d5469f9052b7	5.910727046720903e-07
31	0x3e45d5c7af39eec7	1.0167750619968766e-08
32	0x3e397f2cc6a55256	5.936430994637859e-09
33	0x3dfb9bd7c8d80796	4.017603548836736e-10
34	0x3e6a6ca61ea76cc9	4.921929870938021e-08
35	0xbe48106a5a7e46a0	-1.1205730412835045e-08
36	0x3eab99789d835228	8.225290981886466e-07
37	0x3e12799f23f7173a	1.0753914563191239e-09
38	0x3e3eab50018bc63c	7.140727142168534e-09
39	0xbe0c79b4907780c1	-8.287435468205962e-10
40	0x3e64f2c8bac64cfd	3.9019389805285104e-08
41	0xbe40696c26c4d2e0	-7.642342946502309e-09
42	0x3eafb76edad002de	9.452264088106399e-07
43	0x3e4e6d4d0e4044d9	1.4168655977671322e-08
44	0x3e402ad38309391d	7.528481034025584e-09
45	0xbe107ac31fec9b75	-9.59235468570876e-10
46	0x3e53be4dbc10d472	1.8387449566600414e-08
47	0xbe4e0c205a9735f0	-1.3991896380146273e-08
48	0x3e92ff9d4f80244d	2.830996232999129e-07
49	0x3e2a02dba1ffa725	3.0280980084413113e-09
50	0x3e2548ff33ff29ca	2.477916899423306e-09
51	0xbe088624ded2d43f	-7.137423409651052e-10
52	0x3e73e93e5c53eb9b	7.417465671184815e-08
53	0xbe3169b573a4fad8	-4.054262531866978e-09
54	0x3ea6b54f49326e9e	6.767583208446844e-07
55	0x3e499af5aaca3df3	1.192340212091713e-08
56	0x3e2f50ef19142e04	3.645679488009834e-09
57	0xbe13fa7fbcbd3cac	-1.1629024296966572e-09
58	0x3e6517bee96e0738	3.928832119968169e-08
59	0xbe427a1892158ddf	-8.603994463679433e-09
60	0x3e93fa8b833d9e1f	2.977056994175111e-07
61	0x3e332c77e1313518	4.464225894399104e-09
62	0x3e27bccf41904591	2.763413064790509e-09
63	0xbe029c3d9aadb785	-5.416314526721462e-10
64	0x3e7506bfc52a639d	7.832930863162668e-08
65	0x3dd77b0fbdc16100	8.542232150698814e-11
66	0x3ea81604ae402a2b	7.178190029056058e-07
67	0x3e4d220ccbf1c6bc	1.3566113897368578e-08
68	0x3e31a72472af6c32	4.11013604658179e-09
69	0x3e08c3b75d806ac3	7.207422948421975e-10
70	0x3e66f73eebe64716	4.277714314987715e-08
71	0xbe23a4a26ce7a810	-2.286758205744728e-09
72	0x3e94094f33a0c966	2.985651012004747e-07
73	0x3e3831cd7f4f9fab	5.63323076117936e-09
74	0x3e40f4cdeabffa64	7.895877139616325e-09
75	0xbdf265141c31513a	-2.676801247608656e-10
76	0x3e74e6ed390bfd2d	7.786623102897392e-08
77	0xbdecaa45de2455a8	-2.0856626067788063e-10
78	0x3ea88283c86102b7	7.304496569896693e-07
79	0x3e501255057dba56	1.4967853039844742e-08
80	0x3e502fd4a0cbb6d7	1.5075167824938266e-08
81	0xbdf8f32eebfd1f4d	-3.630693350034274e-10
82	0x3e7062a4354a8a2f	6.104006662148076e-08
83	0xbe27b5487fc98bdc	-2.7599904569248375e-09
84	0x3eb108e76d9a9968	1.0153520889982676e-06
85	0x3e58f633ec82ab89	2.3247422459872764e-08
86	0x3e55c70e9fdd8c2b	2.028193967581582e-08
87	0x3e31bfaf2d5954e4	4.13245678439133e-09
88	0x3e6e2fb7569cb44e	5.622653527349877e-08
89	0xbe324cf0985441e0	-4.2609279483786535e-09
90	0x3eb57de6cf42db34	1.2810112908608931e-06
91	0xbe593337a357e7de	-2.3469391948937144e-08
92	0x3e5959cb537e9520	2.3609733917599072e-08
93	0x3e527226d81bac04	1.7179087935975307e-08
94	0x3e7ad130adcbb6f2	9.990166511725468e-08
95	0xbe2e041f7a8259c0	-3.4943345613518277e-09
96	0x3ec1a151056e9faa	2.1016767663590754e-06
97	0xbe86b828d24f5060	-1.6927251880619395e-07
98	0x3e5d0e1b5f9f0f0f	2.7059675368275223e-08
99	0x3e55c13f6a8ee8a8	2.0260805175711247e-08
100	0x3e7e70d91a82ebaa	1.1340086436804252e-07
101	0xbe2d2940c7f79bd0	-3.394804048756509e-09
102	0x3ec7eabdb398adef	2.8511234660044523e-06
103	0xbe954aef7b464373	-3.172862037765493e-07
104	0x3e5e40616970d673	2.8173892188164253e-08
105	0xbe104c3462bac969	-9.486495017642225e-10
106	0x3e6da4a5aedc3aec	5.521467537187009e-08
107	0x3e47b398812ec4a0	1.1036892321810925e-08
108	0x3e93fe697685ccfe	2.9793078806031586e-07
109	0x3e3d1dbf9e91aab2	6.7791447812133706e-09
110	0x3e44fd658a673cbb	9.774151554877442e-09
111	0xbe1370fc61e74b34	-1.1316355696382565e-09
112	0x3e74b686942199b1	7.716190445067359e-08
113	0xbe04edb4a14e50b3	-6.091006055536344e-10
114	0x3ea8624c8ff62028	7.26699255369262e-07
115	0x3e516f713b97391b	1.623790855058233e-08
116	0x3e548011c1413572	1.9092365091939554e-08
117	0xbe1fbb6532f9a082	-1.8470462485011878e-09
118	0x3e70eb64fb0c4492	6.303008493977942e-08
119	0x3e1e8e19e510bba0	1.7785398885075789e-09
120	0x3eb0d5f3c44c848e	1.0034889481108338e-06
121	0x3e5967bbd842182d	2.3660445617089764e-08
122	0x3e5c3e26822a5eed	2.6303134013389626e-08
123	0x3e29695734358a51	2.9582864228351726e-09
124	0x3e6ae9c313a82238	5.012961641978865e-08
125	0x3e4017795216fe20	7.493279388365724e-09
126	0x3eb4c85847a2523f	1.2387393142676738e-06
127	0xbe58556eeca5934b	-2.2662546319928076e-08
128	0x3e60c8aef3e82a0f	3.12624863670776e-08
129	0x3e4bb7e6ba490192	1.2907369236902505e-08
130	0x3e783bd9c3068875	9.027790848781684e-08
131	0x3e5928bb58d61998	2.3431245878909214e-08
132	0x3ec08a91d443c5b6	1.9718751521561414e-06
133	0xbe86712c014c3a7b	-1.6720650877111935e-07
134	0x3e6386bb79c5d3c2	3.637056453484471e-08
135	0x3e4f37c6e6cdce47	1.4536957604447642e-08
136	0x3e7c822d6f03b16a	1.0620245994062435e-07
137	0x3e681a93457a7dc0	4.489684418445897e-08
138	0x3ec68fa690d59f40	2.689496915553926e-06
139	0xbe9539e2501bcf9f	-3.1629367934428103e-07
140	0x3e648cb081b5cf65	3.8276553672189166e-08
141	0x3e553a7b0d0defdf	1.977052549753341e-08
142	0x3e6c65e842116b78	5.289553706911377e-08
143	0x3e66c0c6eaecd144	4.2380830725393464e-08
144	0x3e936345eecf1120	2.889005220020158e-07
145	0x3e41931c885dfc3e	8.183836063467014e-09
146	0x3e2fcffe42bf8563	3.703459336063871e-09
147	0xbe175dc9e6ba1470	-1.3601012771829816e-09
148	0x3e73d13249817984	7.382472444600561e-08
149	0x3e27a7f0c483c80c	2.7539228988541444e-09
150	0x3ea775120b7d10c0	6.990822134308005e-07
151	0x3e53052c1ffabe47	1.7713945864553987e-08
152	0x3e3a983841ea486b	6.192039796392816e-09
153	0xbe1748a70eecfc4d	-1.3552954832217634e-09
154	0x3e70854a88373984	6.154428615972515e-08
155	0x3e2f1a52d4b819d0	3.6208455450544288e-09
156	0x3eb027e02cffefb7	9.629585981931808e-07
157	0x3e5ab5d367158854	2.487586531674865e-08
158	0x3e3e928c5bc924a0	7.1182041897726465e-09
159	0xbe246819ee61f774	-2.375646224064013e-09
160	0x3e6212d30a976ca6	3.366457807979524e-08
161	0x3e2bfd98742daff0	3.2585355814911527e-09
162	0x3e9318380be9ef6a	2.8453179005244193e-07
163	0x3e4418cd230f6c0a	9.3583390775654e-09
164	0x3e3182a221c9977d	4.0769312618575384e-09
165	0xbe111b16c211d22a	-9.956895380053742e-10
166	0x3e73bc31bbff4d38	7.35191028050135e-08
167	0x3de793c53232808c	1.715469095756707e-10
168	0x3ea76c40dbbb388e	6.980557638260118e-07
169	0x3e545aa803ade18b	1.895625721277787e-08
170	0x3e3e414594274c85	7.04428365851816e-09
171	0xbe07e626a3c666bc	-6.955532326751673e-10
172	0x3e703ebb7b9d5e0d	6.05175206868572e-08
173	0xbdf1933f9cec91bf	-2.557526663748447e-10
174	0x3eb020a80419330d	9.612777066736386e-07
175	0x3e5bcbef06def1a0	2.588761598814462e-08
176	0x3e4239efcd656adf	8.487289465568592e-09
177	0xbe0911d1c65bd399	-7.296215964019579e-10
178	0x3e65ab8a5a281282	4.036366909116267e-08
179	0xbe11697f54860b60	-1.013517563359972e-09
180	0x3eb24242017f66f2	1.088310460409277e-06
181	0x3e62d68a90d41074	3.508860589067365e-08
182	0x3e434db060b77b44	8.988879882563379e-09
183	0xbe2564ad7147a975	-2.4905045892249057e-09
184	0x3e562abcfb483e98	2.0644577341089327e-08
185	0xbe0ac26b2890da00	-7.788024263090152e-10
186	0x3e92d30d55d2f95a	2.805057500269091e-07
187	0x3e46ad4a0a9e54bf	1.0559759583930201e-08
188	0x3e318eeca6fa10a5	4.088109947464564e-09
189	0xbe13d4d90bbf8267	-1.1543415520262735e-09
190	0x3e739048fbaf8209	7.288014007524389e-08
191	0x3e2336fdcbfe24dc	2.2368983054240477e-09
192	0x3ea73612ea7abc59	6.917484442671133e-07
193	0x3e55ae28b8a52134	2.0191361063406237e-08
194	0x3e3e59419c9edadc	7.066097438009442e-09
195	0xbe0a3e889ca55802	-7.638088436836314e-10
196	0x3e70226f45631cbd	6.010573491969257e-08
197	0x3e2bedbb2b337eff	3.2513212899845417e-09
198	0x3eb00938a70692c5	9.558213172968416e-07
199	0x3e5cd3d462464a16	2.6847663774063777e-08
200	0x3e4242f64247f24a	8.503706246971742e-09
201	0xbe130a7bcf258f0f	-1.1083292587404722e-09
202	0x3e66c321c83c4d47	4.2397965164870284e-08
203	0x3e273346a26684b8	2.7008699887730485e-09
204	0x3eb23e6e2d1408f9	1.087419310430924e-06
205	0x3e62db7728aa30f3	3.5124434101786384e-08
206	0x3e433a0d4129a9fe	8.953160023437993e-09
207	0xbe117c977f55399a	-1.0178591280000585e-09
208	0x3e563a1394076a2f	2.0700377635849642e-08
209	0x3e1b3a87775bdf35	1.5849148360352707e-09
210	0x3e928a14eab3e068	2.7625831462664767e-07
211	0x3e49165d410defc0	1.1682212559939163e-08
212	0x3e313be760aabc64	4.012603147903431e-09
213	0xbe127e28fab55498	-1.0764233765042723e-09
214	0x3e7332c6f87e54d3	7.151942160576615e-08
215	0xbe207e8df2af1a80	-1.920195465715522e-09
216	0x3ea6cec6855ed7cd	6.797229257146859e-07
217	0x3e56e6af8f46507f	2.132832662008842e-08
218	0x3e3dd2e24b1d28e1	6.943886509040778e-09
219	0xbe0cad6f243795b4	-8.346244324433789e-10
220	0x3e6faac84697e3ce	5.898460459988983e-08
221	0x3df8b73f6b5ea758	3.596623930708477e-10
222	0x3eaf9770f5a4fc2d	9.415020756699606e-07
223	0x3e5db65f1b9c6fad	2.7671818370660297e-08
224	0x3e4202367ad32a06	8.385928252498397e-09
225	0xbe115af0970c9688	-1.010207553196654e-09
226	0x3e6724635087ef6d	4.310559559639294e-08
227	0x3e2e6091047f5cf0	3.5363730034426157e-09
228	0x3eb217c0ad7e064f	1.0784139501122203e-06
229	0x3e62ea5fa73079f8	3.523290539201985e-08
230	0x3e430572f4683101	8.857476208240448e-09
231	0xbe14bd5c97fde31e	-1.207209082670034e-09
232	0x3e577a46706065ca	2.1865253628603097e-08
233	0x3e32d299694a2120	4.382490499521107e-09
234	0x3e90f66dfd86c35d	2.5276267259359254e-07
235	0x3e4c53e30701a055	1.3191105291586534e-08
236	0x3e308625e4776596	3.847297209513737e-09
237	0xbe28911acdad78e5	-2.859953702178022e-09
238	0x3e71d42570c145e4	6.641706934539753e-08
239	0x3e545c2f74dcd9c8	1.896181993991653e-08
240	0x3ea52f962a71e0a7	6.31388577767272e-07
241	0x3e5889c9585dd08e	2.2853006174464926e-08
242	0x3e3d142884da15e2	6.770422512235258e-09
243	0xbe0407648afd9f27	-5.829170670301575e-10
244	0x3e6dbed6476c710d	5.5405231449823235e-08
245	0x3e58f227533e62ac	2.323269150637481e-08
246	0x3ead6948892a2776	8.765239434976462e-07
247	0x3e5ee16d6eaea8ad	2.8759777597323693e-08
248	0x3e41cb0cfb93e117	8.285588980962248e-09
249	0xbe0b08b759b11829	-7.86794340949413e-10
250	0x3e67c516c891646c	4.4274849627427955e-08
251	0x3e546f0b07b0d1f4	1.903042388621843e-08
252	0x3eb1479545077212	1.0299456968322017e-06
253	0x3e630cf2a59d0fa8	3.548446576723487e-08
254	0x3e42e8c871cc3149	8.805332957152108e-09
255	0xbe158e2a66001cb8	-1.2546855984744914e-09

b f8 [2520]
0	0x3fefb738c292c300	0.9911159324893504
1	0xbffa8606bdea327b	-1.6577212732837825
2	0xbcb8000000000000	-3.3306690738754696e-16
3	0x3fb09bdb8035eac8	0.06487819557325303
4	0x3fad98b1801f61c0	0.05780558289524462
5	0xbfeebda23cb39182	-0.9606486497473699
6	0x3fef934e6ff75800	0.986731737789114
7	0xbffa5726cb527872	-1.6462772314330576
8	0x3cd3000000000000	1.0547118733938987e-15
9	0xbfb1e5c083e6907e	-0.06991198749762081
10	0xbfafdab8bd04cfc0	-0.06221558863981569
11	0xbfee853814f887ce	-0.9537620935045596
12	0x3fea74b9f8353000	0.8267488334472546
13	0xbff33e790858dd98	-1.2027521444377722
14	0x3cc2000000000000	4.996003610813204e-16
15	0xbfb9a8b9a01a7608	-0.10023079069875263
16	0xbfb1fda6ec3917d0	-0.07027667300380291
17	0xbfe5007b96642d11	-0.656308931096108
18	0x3fd72e0d9b5e7800	0.3621858613277027
19	0xbfdcc852586d1caf	-0.4497266639268202
20	0xbce3c00000000000	-2.192690473634684e-15
21	0xbfc525c279a6834c	-0.16521483364069878
22	0xbfb7f34d8b437fc8	-0.09355625772468479
23	0xbfcc2ae6d1198a80	-0.22005925378751456
24	0x4003723c2ae75f80	2.4307788230761957
25	0xbc78000000000000	-2.0816681711721685e-17
26	0x3cd8000000000000	1.3322676295501878e-15
27	0xbc3a000000000000	-1.4094628242311558e-18
28	0x3fbd25d59cf39578	0.1138585575277683
29	0xbfd75fef308977c6	-0.36523036708774403
30	0x3ffc2e860118a800	1.7613582651924844
31	0xbcdd800000000000	-1.6375789613221059e-15
32	0x0000000000000000	0.0
33	0xbc75400000000000	-1.8431436932253575e-17
34	0xbfd6866fa7b80c90	-0.35195533160021686
35	0xbfb6d06b1b528440	-0.08911771218346676
36	0x3fea74b9f8353c00	0.8267488334475956
37	0xbce7c00000000000	-2.6367796834847468e-15
38	0x3cdf000000000000	1.7208456881689926e-15
39	0xbce0c00000000000	-1.8596235662471372e-15
40	0xbfb1fda6ec3918d8	-0.07027667300380658
41	0x3fcd6c57ffefb9c0	0.22986888882537748
42	0x3fd72e0d9b5e6800	0.3621858613274753
43	0x3ceb800000000000	3.0531133177191805e-15
44	0x3cb4000000000000	2.7755575615628914e-16
45	0xbc90000000000000	-5.551115123125783e-17
46	0xbfb7f34d8b437d78	-0.09355625772467657
47	0x3fbaf9fbb3b1b3f0	0.10537694108070617
48	0x40070263ab8e8a80	2.87616666821242
49	0x3cd0300000000000	8.98586760555986e-16
50	0x3cc8000000000000	6.661338147750939e-16
51	0x3c97100000000000	8.001412032943023e-17
52	0x3fbca5400eaeb420	0.11189651831109915
53	0x3f654009ee61f540	0.0025940126388933893
54	0x3ff8c161d61afe00	1.5472124446386033
55	0x3cf6900000000000	5.009881398621019e-15
56	0xbcb0000000000000	-2.220446049250313e-16
57	0xbc92400000000000	-6.331740687315346e-17
58	0xbfe2823a47643104	-0.5783969301569702
59	0x3f5ccc0f1b519f40	0.0017576358343606852
60	0x40057fc7b8878840	2.6873926559792665
61	0xbcd3500000000000	-1.0720591081536668e-15
62	0x3cc0000000000000	4.440892098500626e-16
63	0xbca0800000000000	-1.1449174941446927e-16
64	0x3fba3a070099ddd0	0.10244792713807915
65	0x3fc2c8db0edfb0b3	0.1467546293855598
66	0x3ff6f4ac8c242c00	1.4347348665494337
67	0x3ce2600000000000	2.040034807748725e-15
68	0xbcc8000000000000	-6.661338147750939e-16
69	0x3c8c000000000000	4.85722573273506e-17
70	0xbfe0f2212f3ba388	-0.529556839229472
71	0x3fb6cf3d99d6c453	0.08909974103768663
72	0x4003d66e4b635580	2.4797025575341536
73	0x3cd9fa0000000000	1.4419888894057209e-15
74	0x3cd8000000000000	1.3322676295501878e-15
75	0x3ca2000000000000	1.249000902703301e-16
76	0x3fb7a1f18f12bf10	0.0923148130702851
77	0x3f90a59733724b45	0.016256678118746554
78	0x3ffe2805a9383c00	1.8847710237639603
79	0x3ce3340000000000	2.131975151975496e-15
80	0xbcfa800000000000	-5.88418203051333e-15
81	0x3cb5800000000000	2.983724378680108e-16
82	0xbfd291ed5100b1fc	-0.2901566782991549
83	0xbfc9732486fec9c3	-0.19882637588086824
84	0x3fef8b6d4d62ec00	0.985769892831172
85	0xbcf55c0000000000	-4.7427339833205906e-15
86	0xbd05800000000000	-9.547918011776346e-15
87	0x3c84000000000000	3.469446951953614e-17
88	0xbfb2140bab26a9d0	-0.07061837128154669
89	0xbfd5fb8788b37dde	-0.34347713803978575
90	0x3ff1c7e2f36b8400	1.1113004215806086
91	0xbfef4da7aaf492c4	-0.9782293642971003
92	0x3d06000000000000	9.769962616701378e-15
93	0x3fd8cee1905bc0da	0.38762702081204525
94	0x3fc64284e57c9b30	0.17390500264556286
95	0xbfea0c5757a4917a	-0.8140064918302834
96	0x3ff8fd10434cb400	1.5617830876246899
97	0xc001a0d74b9c9e49	-2.203535643307792
98	0xbce4000000000000	-2.220446049250313e-15
99	0x3fcea8bdeb70e0b4	0.23952459331645104
100	0x3fcd2876489406e0	0.22779730361803896
101	0xbff714b3ffe24ca2	-1.4425544734447517
102	0x3feba02510909000	0.8632989238290065
103	0xbff39adac1bef504	-1.2253062790107956
104	0x3ce5000000000000	2.3314683517128287e-15
105	0xbfe411a0430a1891	-0.6271516141284953
106	0xbfe094525e66573e	-0.5181056827302439
107	0xbfe8726959c0312d	-0.7639662507004111
108	0x400530f21c3f36c0	2.648899288825163
109	0xbcda100000000000	-1.4467593789646571e-15
110	0x3cf2000000000000	3.9968028886505635e-15
111	0x3c9e800000000000	1.0581813203458523e-16
112	0x3fb9bb6d030baca0	0.10051614117007768
113	0xbfc32372c92c432c	-0.14951929877181536
114	0x40051157071d9200	2.6334667735957282
115	0xbcf1560000000000	-3.849351393192535e-15
116	0xbd11c00000000000	-1.5765166949677223e-14
117	0x3c79000000000000	2.168404344971009e-17
118	0xbfbbba8886bdc1f0	-0.1083150223692042
119	0xbfc2cabd04155fee	-0.14681208323850065
120	0x3ffa26d4c0265e00	1.6344802385191315
121	0x3d149c8000000000	1.8306536841983245e-14
122	0x3cf6000000000000	4.884981308350689e-15
123	0xbcdaf80000000000	-1.4970663597679845e-15
124	0xbfd2dedf00abb960	-0.29485297265536836
125	0x3fb3f6d45ac0c10c	0.07798506942413413
126	0x3ff1c7e2f36b8c00	1.1113004215810633
127	0x3fef4da7aaf49291	0.9782293642970946
128	0x3d12a00000000000	1.6542323066914832e-14
129	0xbfd8cee1905bc0db	-0.3876270208120453
130	0x3fc64284e57c9900	0.1739050026455473
131	0x3fea0c5757a4911b	0.8140064918302728
132	0x3ff8fd10434cb000	1.5617830876244625
133	0x4001a0d74b9c9e13	2.203535643307768
134	0xbcb0000000000000	-2.220446049250313e-16
135	0xbfcea8bdeb70e0bd	-0.2395245933164513
136	0x3fcd287648940720	0.22779730361804074
137	0x3ff714b3ffe24d44	1.4425544734447877
138	0x3feba0251090a000	0.8632989238294613
139	0x3ff39adac1bef5ce	1.2253062790108404
140	0xbcf1800000000000	-3.885780586188048e-15
141	0x3fe411a0430a189d	0.6271516141284966
142	0xbfe094525e665798	-0.5181056827302539
143	0x3fe8726959c031a3	0.7639662507004242
144	0x4004c7fd025774c0	2.597650545400569
145	0xbcf0888000000000	-3.671108556035918e-15
146	0x3cdc000000000000	1.5543122344752192e-15
147	0x3c96c00000000000	7.892991815694472e-17
148	0x3fbb5924b0d52df0	0.10682896916585327
149	0x3fc8da724f931270	0.19416645894502294
150	0x4004a9857cd90f00	2.5827741388073946
151	0x3d05668000000000	9.503682563138938e-15
152	0xbcd4000000000000	-1.1102230246251565e-15
153	0xbca5b00000000000	-1.5048726154098802e-16
154	0xbfbd4e0ca9860940	-0.11447219027289623
155	0x3fc874114ed4369f	0.19104210232801663
156	0x3ff33105b3a9d400	1.19946832829487
157	0x3cd5500000000000	1.1830814106161824e-15
158	0x3cb8000000000000	3.3306690738754696e-16
159	0x3c84000000000000	3.469446951953614e-17
160	0xbfd9cb89b2ab8900	-0.40304796646354646
161	0x3fb2bf158fcb45da	0.07322821388813541
162	0x4002d0f86ab36d80	2.352036317444515
163	0xbcef940000000000	-3.505876144949127e-15
164	0x3cd8000000000000	1.3322676295501878e-15
165	0x3c94800000000000	7.112366251504909e-17
166	0x3fbac04182c73940	0.10449609225108691
167	0x3f66010bb507f7d4	0.0026860455184296392
168	0x4002b9f3d6dab000	2.340797117756665
169	0xbd07f84800000000	-1.0644751139571307e-14
170	0xbca0000000000000	-1.1102230246251565e-16
171	0x3c9d400000000000	1.0148132334464322e-16
172	0xbfbc7c1b6d0f4140	-0.11126872456157333
173	0x3f65d0c0aa0359f1	0.0026630175562829474
174	0x3ff8163dd606ee00	1.5054300651962649
175	0x3d08fe0000000000	1.1098760799299612e-14
176	0xbcf9c00000000000	-5.717648576819556e-15
177	0x3cb9300000000000	3.4954678040932663e-16
178	0xbfcf81c993b64d10	-0.24614829742913757
179	0xbfc0ae093adfef10	-0.1303111588930439
180	0x3fd9f0286c5a8000	0.4052830751552392
181	0x3cefa80000000000	3.514549762329011e-15
182	0x3cb0000000000000	2.220446049250313e-16
183	0x3c9c000000000000	9.71445146547012e-17
184	0xbfbc69ea51198498	-0.11099113922093051
185	0xbfc0cd4e75047be2	-0.13126545633073677
186	0x4001cf86aeb1cfc0	2.226331105042817
187	0xbcf3740000000000	-4.31946145518225e-15
188	0x3ca0000000000000	1.1102230246251565e-16
189	0xbc86000000000000	-3.8163916471489756e-17
190	0x3fbce0955526acf0	0.11280186966785144
191	0x3fba88c4556beaa0	0.10364939771163018
192	0x4001ba8545686200	2.216074506996165
193	0xbcf99a0000000000	-5.684688830775997e-15
194	0x3cf0800000000000	3.6637359812630166e-15
195	0xbcbe000000000000	-4.163336342344337e-16
196	0xbfbeeb6e2cebf2f0	-0.12077988239975546
197	0x3fb9ff42f00930fe	0.10155123100520666
198	0x3ffd3af7c1a5b800	1.8268964351987051
199	0xbd05a38000000000	-9.609500695173523e-15
200	0x3ca8000000000000	1.6653345369377348e-16
201	0x3c99800000000000	8.847089727481716e-17
202	0xbfc106d4cc1b7c68	-0.13302097288303405
203	0x3faddbfbbc7cb4b8	0.05831896472805326
204	0x3fe91a656c223c00	0.7844721900927425
205	0xbd00e80000000000	-7.507883204027621e-15
206	0x3ce6000000000000	2.4424906541753444e-15
207	0xbc94000000000000	-6.938893903907228e-17
208	0xbfcaea7f633d0954	-0.21028129907251503
209	0x3f9033cb2a373eda	0.01582257695355236
210	0x4003266a99c10000	2.3937580120109487
211	0x3cf9e00000000000	5.745404152435185e-15
212	0xbce8000000000000	-2.6645352591003757e-15
213	0x3c97800000000000	8.153200337090993e-17
214	0x3fbc67539b2110f0	0.11095163857777712
215	0xbfce5c386c874f18	-0.23718934344525944
216	0x40030d10959cc700	2.381379288527455
217	0x3d12780000000000	1.6403545188836688e-14
218	0x3d00000000000000	7.105427357601002e-15
219	0xbc84000000000000	-3.469446951953614e-17
220	0xbfbe95f548dc5770	-0.11947567967248829
221	0xbfcddf1a8494a134	-0.2333710811010491
222	0x3ffe8b290ef93800	1.908974703302647
223	0xbd08300000000000	-1.074140776324839e-14
224	0x3cf5800000000000	4.773959005888173e-15
225	0x3cd4b80000000000	1.1501216645726231e-15
226	0xbfc26b1830ea6244	-0.14389326466040775
227	0xbfbcc750fe9f40bc	-0.11241632667884266
228	0x3fe97c9788aae000	0.7964589757239082
229	0x3d08d40000000000	1.1025902413308586e-14
230	0xbceb800000000000	-3.0531133177191805e-15
231	0x3cac000000000000	1.942890293094024e-16
232	0xbfcd35bdf6f94130	-0.22820257720241832
233	0xbf92b2770eaf9ca0	-0.018258915206300075
234	0x3ff5786a57056d80	1.341898288656779
235	0x3ffa8606bdea327a	1.6577212732837823
236	0x3cd6000000000000	1.2212453270876722e-15
237	0xbfb09bdb8035eac1	-0.06487819557325293
238	0x3fa9eb34b568d0c0	0.0506226035544457
239	0x3ff3f195786e03be	1.2464804367339037
240	0x3ff558c538951600	1.3341724596260747
241	0x3ffa5726cb527854	1.646277231433051
242	0xbce1000000000000	-1.887379141862766e-15
243	0x3fb1e5c083e6908c	0.06991198749762101
244	0xbfabee05429bf4a0	-0.05455032766438106
245	0x3ff3c5bca79228fd	1.2357756181468738
246	0x3ff0968789259800	1.0367503506945468
247	0x3ff33e790858dd8b	1.2027521444377693
248	0xbcf2c00000000000	-4.163336342344337e-15
249	0x3fb9a8b9a01a7680	0.10023079069875429
250	0xbfb405637de48630	-0.07820722411681724
251	0x3fe9b318d03495b4	0.8031124178420925
252	0x3fdab48ca56b9800	0.4172698607857228
253	0x3fdcc852586d1d9a	0.44972666392683325
254	0x3ce1800000000000	1.942890293094024e-15
255	0x3fc525c279a68373	0.16521483364069986
