python-Linux/neural-sparse-linear-solvers-master/stand_small_test/8551605585479374279_b8371218abc5ec6a88d47467d6650935320fcece_be8e0609b8475157993a946bc6352f8d28499fbf.npz (npz, 43607 bytes, 3 tensors)

A_values f8 [10310]
1428007289.6497202 -3618229.478210047 -23481962.10146162 -6659695.741517337 19501066.71251824 -12650566.07258074 -23481962.10146162 -1400085854.1812506
1709469275.972025 1793030.207682848 16135553.038849361 -3264315.642244375 -9558640.451586261 -1694795642.547535 -7181195.675595967 16135553.038849361
2286092608.71469 47274426.04581326 -32712280.016612083 -1074330195.8291333 -25468410.503850847 47274426.04581326 -14558737.666355867 -32712280.016612083
1793030.207682848 47274426.04581326 212103631.70840633 9558640.451586261 18577514.979863048 -47274426.04581326 57177293.33474421 -15634692.329330923
-3618229.478210047 -32712280.016612083 277376766.2826282 -19501066.71251824 37722968.628102385 -18925702.55830263 32712280.016612083 48244807.52206907
-23481962.10146162 16135553.038849361 132038683.36589326 -11996994.342693985 23481962.10146162 28738923.9343955 -16135553.038849361 23988973.684430808
-6659695.741517337 -19501066.71251824 1419396115.9953487 -19501066.71251824 -23481962.10146162 -12650566.07258074 -23481962.10146162 -1400085854.1812506
-3264315.642244375 9558640.451586261 1705241153.8653753 9558640.451586261 16135553.038849361 -1694795642.547535 -7181195.675595967 16135553.038849361
-1074330195.8291333 1114357343.99934 47274426.04581326 -32712280.016612083 -25468410.503850847 47274426.04581326 -14558737.666355867 -32712280.016612083
-9558640.451586261 18577514.979863048 9558640.451586261 47274426.04581326 171360963.9558913 -47274426.04581326 57177293.33474421 -15634692.329330923
19501066.71251824 37722968.628102385 -19501066.71251824 -32712280.016612083 194168404.42486662 -18925702.55830263 32712280.016612083 48244807.52206907
-11996994.342693985 -23481962.10146162 16135553.038849361 118953971.23874679 23481962.10146162 28738923.9343955 -16135553.038849361 23988973.684430808
-12650566.07258074 23481962.10146162 1431610644.7691507 -3618229.478210047 13274464.33138686 -6659695.741517337 19501066.71251824 -3603355.1194308586
-10207497.770074759 -1400085854.1812506 -1694795642.547535 2819997328.5833364 1793030.207682848 16135553.038849361 -3264315.642244375 -9558640.451586261
-1110528052.6113114 -7181195.675595967 16135553.038849361 -25468410.503850847 -47274426.04581326 2293439416.636218 -26462565.15767245 -32712280.016612083
-1074330195.8291333 -7346807.921528041 20811860.888140813 -14558737.666355867 -32712280.016612083 47274426.04581326 57177293.33474421 1793030.207682848
-26462565.15767245 291092447.0472894 9558640.451586261 18577514.979863048 -20811860.888140813 38921863.21802658 -15634692.329330923 -18925702.55830263
-3618229.478210047 -32712280.016612083 289777980.3751899 -19501066.71251824 37722968.628102385 -12401214.092561748 32712280.016612083 48244807.52206907
-23481962.10146162 28738923.9343955 13274464.33138686 16135553.038849361 170683675.4575839 -11996994.342693985 10207497.770074759 19186116.568250783
-16135553.038849361 23988973.684430808 -12650566.07258074 23481962.10146162 -6659695.741517337 -19501066.71251824 1422999471.1147795 -19501066.71251824
13274464.33138686 -3603355.1194308586 -10207497.770074759 -1400085854.1812506 -1694795642.547535 -3264315.642244375 9558640.451586261 2815769206.4766865
9558640.451586261 16135553.038849361 -1110528052.6113114 -7181195.675595967 16135553.038849361 -25468410.503850847 -47274426.04581326 -1074330195.8291333
1121704151.9208682 -26462565.15767245 -32712280.016612083 -7346807.921528041 20811860.888140813 -14558737.666355867 -32712280.016612083 47274426.04581326
57177293.33474421 -9558640.451586261 18577514.979863048 9558640.451586261 -26462565.15767245 250349779.29477438 -20811860.888140813 38921863.21802658
-15634692.329330923 -18925702.55830263 19501066.71251824 37722968.628102385 -19501066.71251824 -32712280.016612083 206569618.51742837 -12401214.092561748
32712280.016612083 48244807.52206907 -23481962.10146162 28738923.9343955 -11996994.342693985 13274464.33138686 16135553.038849361 157598963.33043748
10207497.770074759 19186116.568250783 -16135553.038849361 23988973.684430808 -3603355.1194308586 10207497.770074759 1425530391.7932127 -3618229.478210047
-5003848.752953976 -6659695.741517337 19501066.71251824 -6570313.096642459 -15211346.523028735 -1400085854.1812506 -1110528052.6113114 2484016171.431054
1793030.207682848 16135553.038849361 -3264315.642244375 -9558640.451586261 -1358814485.3952525 -7181195.675595967 16135553.038849361 -7346807.921528041
-20811860.888140813 2281303038.4074345 10053968.458087087 -32712280.016612083 -1074330195.8291333 -13332032.275067328 30865829.3462279 -14558737.666355867
-32712280.016612083 20811860.888140813 38921863.21802658 1793030.207682848 10053968.458087087 268740192.7166519 9558640.451586261 18577514.979863048
-30865829.3462279 46946966.86128813 -15634692.329330923 -12401214.092561748 -3618229.478210047 -32712280.016612083 286026094.7284341 -19501066.71251824
00000000: 0495 695e 6a47 d541 a0fc 35bd da9a 4bc1
00000010: 3896 9fa1 e664 76c1 2205 75ef 9b67 59c1
00000020: 8779 66ab 0099 7241 d894 52c2 0821 68c1
00000030: 3896 9fa1 e664 76c1 9c99 8b57 e7dc d4c1
00000040: a835 fe96 1b79 d941 00b4 2a35 065c 3b41
00000050: 0441 3e21 b0c6 6e41 4d10 35d2 9de7 48c1
00000060: 0865 730e 4e3b 62c1 d00a a3de 2141 d9c1
00000070: def6 3ceb e264 5bc1 0441 3e21 b0c6 6e41
00000080: bede 1628 6008 e141 58d3 5dd0 cd8a 8641
00000090: 080b 4480 6532 7fc1 8510 f594 3e02 d0c1
000000a0: e8c5 0fa8 df49 78c1 58d3 5dd0 cd8a 8641
000000b0: 8ac9 5235 c2c4 6bc1 080b 4480 6532 7fc1
000000c0: 00b4 2a35 065c 3b41 58d3 5dd0 cd8a 8641
000000d0: 3cb4 6a9f e348 a941 0865 730e 4e3b 6241
000000e0: e084 adaf 86b7 7141 58d3 5dd0 cd8a 86c1
000000f0: 5f8e ad6a a643 8b41 01e1 898a 20d2 6dc1
00000100: a0fc 35bd da9a 4bc1 080b 4480 6532 7fc1
00000110: 525a 48fe 6e88 b041 8779 66ab 0099 72c1
00000120: 8b5a 06c5 dafc 8141 bdce ee68 880c 72c1
00000130: 080b 4480 6532 7f41 8c32 2d3c 4201 8741
00000140: 3896 9fa1 e664 76c1 0441 3e21 b0c6 6e41
00000150: b9ac 766d 007b 9f41 6059 f74a e8e1 66c1
00000160: 3896 9fa1 e664 7641 b248 f3be 5668 7b41
00000170: 0441 3e21 b0c6 6ec1 b86d f3da aee0 7641
00000180: 2205 75ef 9b67 59c1 8779 66ab 0099 72c1
00000190: cbb3 ff04 9126 d541 8779 66ab 0099 72c1
000001a0: 3896 9fa1 e664 76c1 d894 52c2 0821 68c1
000001b0: 3896 9fa1 e664 76c1 9c99 8b57 e7dc d4c1
000001c0: 4d10 35d2 9de7 48c1 0865 730e 4e3b 6241
000001d0: 4f62 7790 fa68 d941 0865 730e 4e3b 6241
000001e0: 0441 3e21 b0c6 6e41 d00a a3de 2141 d9c1
000001f0: def6 3ceb e264 5bc1 0441 3e21 b0c6 6e41
00000200: 8510 f594 3e02 d0c1 30f5 ff97 ef9a d041
00000210: 58d3 5dd0 cd8a 8641 080b 4480 6532 7fc1
00000220: e8c5 0fa8 df49 78c1 58d3 5dd0 cd8a 8641
00000230: 8ac9 5235 c2c4 6bc1 080b 4480 6532 7fc1
00000240: 0865 730e 4e3b 62c1 e084 adaf 86b7 7141
00000250: 0865 730e 4e3b 6241 58d3 5dd0 cd8a 8641
00000260: 966a e987 856d a441 58d3 5dd0 cd8a 86c1
00000270: 5f8e ad6a a643 8b41 01e1 898a 20d2 6dc1
00000280: 8779 66ab 0099 7241 8b5a 06c5 dafc 8141
00000290: 8779 66ab 0099 72c1 080b 4480 6532 7fc1
000002a0: 1e88 d9a8 8c25 a741 bdce ee68 880c 72c1
000002b0: 080b 4480 6532 7f41 8c32 2d3c 4201 8741
000002c0: 6059 f74a e8e1 66c1 3896 9fa1 e664 76c1
000002d0: 0441 3e21 b0c6 6e41 0a7a f4cc 5f5c 9c41
000002e0: 3896 9fa1 e664 7641 b248 f3be 5668 7b41
000002f0: 0441 3e21 b0c6 6ec1 b86d f3da aee0 7641
00000300: d894 52c2 0821 68c1 3896 9fa1 e664 7641
00000310: c439 3145 2955 d541 a0fc 35bd da9a 4bc1
00000320: 9eb8 9a0a ac51 6941 2205 75ef 9b67 59c1
00000330: 8779 66ab 0099 7241 a882 498f cd7d 4bc1
00000340: d273 a438 2178 63c1 9c99 8b57 e7dc d4c1
00000350: d00a a3de 2141 d9c1 b1aa 12d2 b702 e541
00000360: 00b4 2a35 065c 3b41 0441 3e21 b0c6 6e41
00000370: 4d10 35d2 9de7 48c1 0865 730e 4e3b 62c1
00000380: ba1f 270d 548c d0c1 def6 3ceb e264 5bc1
00000390: 0441 3e21 b0c6 6e41 e8c5 0fa8 df49 78c1
000003a0: 58d3 5dd0 cd8a 86c1 e65b 1477 6316 e141
000003b0: 8cd3 8552 963c 79c1 080b 4480 6532 7fc1
000003c0: 8510 f594 3e02 d0c1 c050 fafa 9d06 5cc1
000003d0: 24d3 354e 05d9 7341 8ac9 5235 c2c4 6bc1
000003e0: 080b 4480 6532 7fc1 58d3 5dd0 cd8a 8641
000003f0: 5f8e ad6a a643 8b41 00b4 2a35 065c 3b41
00000400: 8cd3 8552 963c 79c1 281b 0cdf b759 b141
00000410: 0865 730e 4e3b 6241 e084 adaf 86b7 7141
00000420: 24d3 354e 05d9 73c1 b884 be39 348f 8241
00000430: 01e1 898a 20d2 6dc1 bdce ee68 880c 72c1
00000440: a0fc 35bd da9a 4bc1 080b 4480 6532 7fc1
00000450: 720c 603c a945 b141 8779 66ab 0099 72c1
00000460: 8b5a 06c5 dafc 8141 0e44 f6c2 47a7 67c1
00000470: 080b 4480 6532 7f41 8c32 2d3c 4201 8741
00000480: 3896 9fa1 e664 76c1 b248 f3be 5668 7b41
00000490: 9eb8 9a0a ac51 6941 0441 3e21 b0c6 6e41
000004a0: 7048 ea36 da58 a441 6059 f74a e8e1 66c1
000004b0: d273 a438 2178 6341 228e 1749 1c4c 7241
000004c0: 0441 3e21 b0c6 6ec1 b86d f3da aee0 7641
000004d0: d894 52c2 0821 68c1 3896 9fa1 e664 7641
000004e0: 2205 75ef 9b67 59c1 8779 66ab 0099 72c1
000004f0: 8c58 c7eb 4f34 d541 8779 66ab 0099 72c1
00000500: 9eb8 9a0a ac51 6941 a882 498f cd7d 4bc1
00000510: d273 a438 2178 63c1 9c99 8b57 e7dc d4c1
00000520: d00a a3de 2141 d9c1 4d10 35d2 9de7 48c1
00000530: 0865 730e 4e3b 6241 0441 cf4e a7fa e441
00000540: 0865 730e 4e3b 6241 0441 3e21 b0c6 6e41
00000550: ba1f 270d 548c d0c1 def6 3ceb e264 5bc1
00000560: 0441 3e21 b0c6 6e41 e8c5 0fa8 df49 78c1
00000570: 58d3 5dd0 cd8a 86c1 8510 f594 3e02 d0c1
00000580: 81ef fa35 f6b6 d041 8cd3 8552 963c 79c1
00000590: 080b 4480 6532 7fc1 c050 fafa 9d06 5cc1
000005a0: 24d3 354e 05d9 7341 8ac9 5235 c2c4 6bc1
000005b0: 080b 4480 6532 7fc1 58d3 5dd0 cd8a 8641
000005c0: 5f8e ad6a a643 8b41 0865 730e 4e3b 62c1
000005d0: e084 adaf 86b7 7141 0865 730e 4e3b 6241
000005e0: 8cd3 8552 963c 79c1 abec 96a6 11d8 ad41
000005f0: 24d3 354e 05d9 73c1 b884 be39 348f 8241
00000600: 01e1 898a 20d2 6dc1 bdce ee68 880c 72c1
00000610: 8779 66ab 0099 7241 8b5a 06c5 dafc 8141
00000620: 8779 66ab 0099 72c1 080b 4480 6532 7fc1
00000630: 5fec 0825 01a0 a841 0e44 f6c2 47a7 67c1
00000640: 080b 4480 6532 7f41 8c32 2d3c 4201 8741
00000650: 3896 9fa1 e664 76c1 b248 f3be 5668 7b41
00000660: 6059 f74a e8e1 66c1 9eb8 9a0a ac51 6941
00000670: 0441 3e21 b0c6 6e41 1a2f a9e6 89c9 a241
00000680: d273 a438 2178 6341 228e 1749 1c4c 7241
00000690: 0441 3e21 b0c6 6ec1 b86d f3da aee0 7641
000006a0: a882 498f cd7d 4bc1 d273 a438 2178 6341
000006b0: ffc3 f285 f73d d541 a0fc 35bd da9a 4bc1
000006c0: e065 3030 9216 53c1 2205 75ef 9b67 59c1
000006d0: 8779 66ab 0099 7241 da63 2f46 5210 59c1
000006e0: c2a6 bc50 6a03 6dc1 9c99 8b57 e7dc d4c1
000006f0: ba1f 270d 548c d0c1 32cb 6d85 e281 e241
00000700: 00b4 2a35 065c 3b41 0441 3e21 b0c6 6e41
00000710: 4d10 35d2 9de7 48c1 0865 730e 4e3b 62c1
00000720: d14b 5945 773f d4c1 def6 3ceb e264 5bc1
00000730: 0441 3e21 b0c6 6e41 c050 fafa 9d06 5cc1
00000740: 24d3 354e 05d9 73c1 b409 cd7f 3dff e041
00000750: 40a6 a80e 2a2d 6341 080b 4480 6532 7fc1
00000760: 8510 f594 3e02 d0c1 ff59 cd08 c86d 69c1
00000770: 4426 8a55 9a6f 7d41 8ac9 5235 c2c4 6bc1
00000780: 080b 4480 6532 7fc1 24d3 354e 05d9 7341
00000790: b884 be39 348f 8241 00b4 2a35 065c 3b41
000007a0: 40a6 a80e 2a2d 6341 8076 b760 a604 b041
000007b0: 0865 730e 4e3b 6241 e084 adaf 86b7 7141
000007c0: 4426 8a55 9a6f 7dc1 08eb e3b6 d462 8641
000007d0: 01e1 898a 20d2 6dc1 0e44 f6c2 47a7 67c1
000007e0: a0fc 35bd da9a 4bc1 080b 4480 6532 7fc1
000007f0: a87a ba6e 690c b141 8779 66ab 0099 72c1

x f8 [990]
-2.4396079212058525e-06 9.786130835348386e-07 -3.7752373970122145e-06 -1.397904873798852e-06 -2.0672687608491957e-06 2.0929795993841002e-08 2.7181312640789598e-06 2.068550903774333e-06
-7.659594917181982e-06 -9.769324080607135e-06 1.651892720774713e-05 6.917532359724798e-08 -2.3162831099735994e-06 1.0301750226320176e-06 -1.2537616063445408e-05 2.34975568791736e-07
-3.159215722162925e-06 5.929643170377418e-09 -4.064694382498133e-07 2.021775549070656e-06 -2.6193486358885414e-05 -2.073414990804409e-05 3.005785900577964e-05 2.9828764641648535e-07
-1.98476772799673e-06 1.2858147328592005e-06 -1.3333638643767111e-05 -1.3705699141072792e-06 -5.0836242948572144e-08 -2.915525041628725e-08 -3.85035079223553e-06 1.806361358263968e-06
-2.791504151606959e-05 3.068986592228772e-05 1.0143537200571149e-05 -2.7138488712180374e-07 9.993227425692838e-06 -3.48960620170228e-05 -3.3020918993806034e-05 -3.2518750500623476e-05
1.8555678350699903e-05 1.1813171654836005e-06 -8.601980414133783e-07 1.275205533349562e-06 -9.678669580119136e-06 -3.5724831751907566e-06 1.0788307388419281e-05 -4.478091153237756e-07
-9.040713225626182e-07 2.0510027134498545e-06 -1.5526109450883473e-05 -7.977695981174976e-06 -3.3983750359763873e-06 -7.266092834397439e-07 2.620226590180502e-06 -3.5081694544296694e-05
-2.051653944455674e-05 3.964019684290355e-05 1.9622952009542714e-05 1.09549638400784e-06 1.9412139797391855e-06 1.2992712635757368e-06 -1.0555207533833278e-05 -5.430266609722452e-06
2.678833393878988e-05 6.205981292483085e-08 -1.9880051409582127e-06 1.2853181741813483e-06 -1.2452241346702013e-05 1.6734222941967604e-05 1.087318674889298e-05 5.58360814860438e-07
2.355405563611757e-06 -6.033716722887284e-06 -2.0231745009312234e-05 -6.701509167594802e-05 1.626935296608157e-05 -6.270757670151732e-08 -3.9767476654474324e-06 1.911297204901302e-06
-7.044535080873551e-06 -1.1338234303587453e-05 -7.500861835368066e-07 2.16265167414544e-07 9.6718153196206e-06 -6.520595941873397e-06 -1.4676508750505252e-05 7.260501384284716e-05
1.9216434576840087e-05 -2.2481833553294918e-07 -2.245284943580374e-06 6.947230347196321e-07 -7.661568992311289e-06 -1.8415174356718804e-06 1.2807417501146399e-06 -3.993788943929619e-07
2.5634446317950087e-06 -2.1321620811913656e-06 -1.5825966639426938e-05 -1.8104776115203407e-05 -4.30743451860199e-06 -4.5683999783386656e-07 -1.9119080967615483e-06 8.145076311870672e-07
-2.3508637976000007e-05 1.2234170987530672e-07 1.7499135798097527e-06 -3.016146359687787e-07 -7.854445961205835e-07 -2.2386460871763265e-06 -4.9796523204093334e-05 -3.338691261366674e-05
-7.103302424486437e-06 -1.6419964662132084e-07 -1.8460971201176314e-06 1.3224418229231752e-06 -2.3939766837849285e-05 -2.13834831574964e-06 4.3737742364856157e-07 -3.4111178131511867e-07
-3.511367070370762e-06 -2.686446107574223e-06 -5.038071799403168e-05 4.8344399231109865e-05 1.2885373875552466e-06 -3.9890999815098464e-07 9.50300641602869e-06 -2.6863826518914304e-05
-5.915415948977454e-05 -4.986381037322548e-05 -5.713695716667292e-06 3.3854069128142836e-06 -9.606340282283463e-07 1.4306286805005566e-06 -1.8050786931744348e-05 -2.7269817551689232e-06
-7.119367008273389e-06 -5.127281167120195e-07 -6.806619629224338e-07 -2.596281501280021e-06 -3.269915976400218e-05 -1.3137729853876188e-05 9.720388716565294e-06 -5.425218016026056e-07
2.2867981722793544e-06 -2.7113406141701104e-05 -4.1834985047131774e-05 5.628613354499974e-05 -7.3793178667984234e-06 3.367717574570317e-06 1.5458372066318806e-06 1.6155443044235406e-06
-1.88528536050621e-05 -4.725120777381474e-06 -1.6325581964503833e-05 -2.807340981292836e-07 7.740985951384805e-07 -2.900419348506357e-06 -2.7097749441512753e-05 8.31427256843852e-06
2.1624639249457393e-05 -5.245063710035231e-07 -1.8377718151719406e-06 1.8136250578229732e-06 -2.5090713173103914e-05 1.2745413587749725e-05 -9.031275391153014e-06 -1.7691562370389836e-08
1.982058073341939e-06 -3.2346202756320758e-06 -4.703858296941043e-05 -5.320702917276373e-05 5.195790152764754e-06 -4.2298897825210845e-07 -3.795944567188149e-06 2.6159281736136866e-06
-1.2838314759764912e-05 -7.862942421716932e-06 -5.253730654759987e-07 -2.6428538604158247e-07 9.49548159082619e-06 -4.002207748088399e-06 -2.7440812182284332e-05 9.613925690731981e-05
-3.6729990465698558e-06 -2.4442435957158233e-07 -2.1602151405162924e-06 -3.555919236430699e-06 -8.28651147370001e-06 -1.5539081397608662e-07 -2.2703464200230932e-07 -1.1693733608673657e-06
2.5230212160107625e-06 -5.135543327293332e-06 -1.7021737503646066e-05 -2.763447377330552e-05 3.7151650003434076e-06 6.78845704365897e-07 -1.6811831059663984e-06 -3.3917434336724e-06
-2.25027232666322e-05 -1.916910229933963e-06 4.3175713111273555e-07 -9.007475834367149e-07 -1.0566395476704464e-06 -5.339991055134198e-06 -4.714092437945331e-05 -5.395446146844145e-06
-4.850287680369799e-06 3.560542039348374e-07 -2.4614489140095355e-06 -4.293961489903439e-06 -5.345475574570914e-05 -4.0267127416616916e-05 2.6019963902225252e-05 -2.1625654052993038e-06
-1.720109304175135e-06 -3.0837391120189403e-06 -2.642703269817567e-05 -7.911468303664065e-07 1.4017950094239822e-06 -1.0167966697302121e-06 -3.4520436999552727e-06 -5.1725551636061015e-06
-5.523493252382466e-05 2.2050044944200377e-05 -8.45144544646675e-06 3.841932262636723e-07 9.248188722977345e-06 -4.8944689394433095e-06 -7.362871971709929e-05 -4.88330502344648e-06
2.8803464999111253e-05 2.4416864480904515e-06 -9.352720538742185e-07 -2.975561246094874e-06 -1.962076235125904e-05 8.702776019985926e-07 2.544936649522997e-06 -1.1516366100653142e-06
-4.994594891856827e-07 -5.142344220680431e-06 -4.1042778035331424e-05 -7.8449872502204e-06 -8.179600238914246e-06 1.4444416346222315e-07 2.0249672030588267e-06 -5.0954110940503165e-06
-5.5276396215422475e-05 2.296133276954074e-05 2.1971611477722776e-05 2.5312545908533103e-06 1.5413096287885514e-06 -2.833301952447001e-06 -1.7960612216643016e-05 2.9468407349631756e-06
00000000: 78fb 66a3 0477 c4be ea8e e576 1c6b b03e
00000010: df5a 33b5 42ab cfbe acd6 cba9 f473 b7be
00000020: e547 2805 6d57 c1be 8855 c175 2379 563e
00000030: 9a66 2077 24cd c63e db7a bbe2 2d5a c13e
00000040: d1a8 9db5 3610 e0be f62a 82ad dd7c e4be
00000050: cd5e b108 4452 f13e 9867 9329 b191 723e
00000060: 83b1 371b 2e6e c3be c6d4 806a 9148 b13e
00000070: e8e4 aed4 144b eabe e69b 06f6 b289 8f3e
00000080: 7ded e835 5d80 cabe 385f 5c2c b677 393e
00000090: 2deb a87e 1747 9bbe 005f cbdc baf5 c03e
000000a0: 1869 2dad 4277 fbbe 1cb6 a7ee c7bd f5be
000000b0: eefb b957 9884 ff3e 4908 50f1 8a04 943e
000000c0: d3c8 0199 41a6 c0be e35a fc3f 8892 b53e
000000d0: f41f 5757 71f6 ebbe 1057 a78e 8dfe b6be
000000e0: 6ea7 9949 e14a 6bbe 8c8a a45b 224e 5fbe
000000f0: 69a1 e45d 4826 d0be ca95 3f51 434e be3e
00000100: 8dcd c90b 6345 fdbe 2ed5 7dc3 1f17 003f
00000110: 076c 2923 c545 e53e e001 215b 5b36 92be
00000120: 6428 1db8 12f5 e43e e347 9c8f ab4b 02bf
00000130: d5f7 2523 fe4f 01bf bd94 5ec2 970c 01bf
00000140: a1d1 b981 0075 f33e f973 a4f5 b7d1 b33e
00000150: 99c5 587f 0bdd acbe a905 cd4f f764 b53e
00000160: f3ee d437 324c e4be 969c 4465 d9f7 cdbe
00000170: 0be3 5cad ed9f e63e e6ef 3951 4d0d 9ebe
00000180: 7819 eddc e955 aebe a83a 80aa 7e34 c13e
00000190: 2983 011e c247 f0be 8030 d02f feba e0be
000001a0: f481 0d6f f481 ccbe e194 44b6 8661 a8be
000001b0: 2e4e 39cd e4fa c53e 2e9c 96d8 9564 02bf
000001c0: 1570 e5da 5d83 f5be f94b d9ca 6ac8 043f
000001d0: f015 7efe 7e93 f43e deda 2c03 1f61 b23e
000001e0: fa65 deab b948 c03e d8e2 a7dc 53cc b53e
000001f0: 2e61 58ad c822 e6be 2046 e051 b4c6 d6be
00000200: 4b9c 784a f016 fc3e 5aea 5cc6 b7a8 703e
00000210: 843d 6062 35ad c0be f8ba 2447 6690 b53e
00000220: 8dde e104 3f1d eabe b5c7 4d0b 0f8c f13e
00000230: da49 5d68 7fcd e63e d7cc b76a 48bc a23e
00000240: d8b4 14e7 31c2 c33e ce6a 836c a74e d9be
00000250: 54fe 34ee ea36 f5be f2ff 2282 4e91 11bf
00000260: a29a 336c 450f f13e 6ef6 105b 3bd5 70be
00000270: ae05 2113 00ae d0be 5d4d 1ec0 7a08 c03e
00000280: cee1 f40e 038c ddbe 065a 910e 2bc7 e7be
00000290: 0182 15f6 302b a9be 59d0 b087 d006 8d3e
000002a0: 12e1 fa2c 8448 e43e e937 b8c3 6f59 dbbe
000002b0: 24c0 d700 64c7 eebe 13f8 d1a3 7008 133f
000002c0: 83a5 2f54 5f26 f43e 68ed 10fe b22c 8ebe
000002d0: 46fe 9973 b6d5 c2be c73f 091c a04f a73e
000002e0: 64b1 3506 4611 e0be 1269 51d5 41e5 bebe
000002f0: a22f 4972 be7c b53e 2cf0 fdf3 46cd 9abe
00000300: 924b 0497 f480 c53e 86c6 1280 c8e2 c1be
00000310: df19 7425 4098 f0be 6b0e b6bd f6fb f2be
00000320: 4e98 b395 1211 d2be 73cd 008f 73a8 9ebe
00000330: b322 8197 ca09 c0be 79be 0939 9154 ab3e
00000340: 97b3 ec4c 8da6 f8be 76ce 800f a16b 803e
00000350: 6c63 1f54 d25b bd3e 8724 8a32 b33d 94be
00000360: 2215 cdee ea5a aabe 7d2c a0b3 74c7 c2be
00000370: 8726 4982 931b 0abf fdfa 1295 1d81 01bf
00000380: 7811 20e7 1ccb ddbe 6c48 ab5d db09 86be
00000390: 3006 e43f edf8 bebe bdf9 4e29 d82f b63e
000003a0: 4c46 1240 481a f9be bdfc 2f6b 11f0 c1be
000003b0: d27d 8a40 165a 9d3e b23c ce7a 41e4 96be
000003c0: 5d76 2d76 9a74 cdbe 722d c85d 1989 c6be
000003d0: 204a 004a fc69 0abf a456 bde8 ac58 093f
000003e0: ef25 27d7 399e b53e a8bc c1b9 38c5 9abe
000003f0: a340 b441 e3ed e33e ff53 fc19 342b fcbe
00000400: 21c8 8571 8903 0fbf d010 7c7a 9b24 0abf
00000410: 01f7 31b8 08f7 d7be 1e62 f821 1b66 cc3e
00000420: fb18 b948 e41d b0be 8f86 86de 8000 b83e
00000430: 4e8c f3a1 78ed f2be 3466 0313 26e0 c6be
00000440: 9c4b b6b3 5cdc ddbe 69bb 6b0d 4d34 a1be
00000450: d5a5 527c d7d6 a6be 7cb5 8dd9 78c7 c5be
00000460: 883e 0893 ce24 01bf 74d2 94d7 438d ebbe
00000470: c1a3 730d 9862 e43e 3036 f10e 3a34 a2be
00000480: 0264 2497 dc2e c33e 9082 2415 336e fcbe
00000490: 0ea8 0e24 ffee 05bf 83b1 85d2 9882 0d3f
000004a0: b5a5 2c73 7bf3 debe 4064 ef50 1e40 cc3e
000004b0: 5f34 bcfb 51ef b93e 2b70 76bf b51a bb3e
000004c0: d1a0 163c c6c4 f3be e52e 314f 8fd1 d3be
000004d0: 2af2 3373 5d1e f1be 3b6a ee9e f9d6 92be
000004e0: 4fa3 13d0 74f9 a93e 1436 4966 9a54 c8be
000004f0: 3b60 8f29 ff69 fcbe 2527 b2eb b06f e13e
00000500: b2e0 d1e4 d1ac f63e 4928 20b5 7999 a1be
00000510: 7101 e07a 2bd5 bebe 139f e9d6 756d be3e
00000520: cdd9 20ae 3c4f fabe eef1 184e a4ba ea3e
00000530: d98d cc09 a1f0 e2be b4a9 cb06 05ff 52be
00000540: 4b3c 04f3 6fa0 c03e 602c 604d 4b22 cbbe
00000550: 5789 6e67 69a9 08bf 95f9 099a 53e5 0bbf
00000560: eb8b 0fec efca d53e 29a2 3533 e562 9cbe
00000570: fa75 5298 bad7 cfbe 1051 dfb8 a9f1 c53e
00000580: e848 808b 84ec eabe c8f5 e093 627d e0be
00000590: 0010 bd96 eba0 a1be 692a 866b 63bc 91be
000005a0: e54b 740d d9e9 e33e 08cd 2b7d 56c9 d0be
000005b0: 26e1 1e41 16c6 fcbe d7de 6bdb cb33 193f
000005c0: a9b6 8b94 b4cf cebe 5bf5 abb3 2d67 90be
000005d0: 48f4 2ed5 061f c2be e530 2146 47d4 cdbe
000005e0: 3c50 0277 c960 e1be 3cb2 f50d 30db 84be
000005f0: f496 8fd4 d978 8ebe e625 849b 6b9e b3be
00000600: 0031 0295 252a c53e ba92 9c66 3f8a d5be
00000610: 6b9e f6e4 3cd9 f1be da09 dc93 12fa fcbe
00000620: f354 f98e 412a cf3e 982d a77d 3dc7 a63e
00000630: 4726 995f a034 bcbe d12f 00ac b673 ccbe
00000640: 196d 365e 8798 f7be c6dd 298b 8814 c0be
00000650: c5ce b2f1 87f9 9c3e d7da 23e2 5c39 aebe
00000660: f374 1278 3bba b1be b241 7890 c565 d6be
00000670: 749a fed3 25b7 08bf 11b3 a1f1 50a1 d6be
00000680: 02d0 f7ec f457 d4be 5689 0af3 f6e4 973e
00000690: 1b66 dfd9 eba5 c4be 537d 9725 9b02 d2be
000006a0: 3dc7 046c 9306 0cbf cc60 7ef6 8f1c 05bf
000006b0: 6241 d64d ae48 fb3e 1dc3 8be7 1224 c2be
000006c0: 551d 552e d0db bcbe df5e 5e81 47de c9be
000006d0: 0903 d4db f3b5 fbbe 36df 4d47 e68b aabe
000006e0: 7877 a1e9 a984 b73e 6689 eec2 1b0f b1be
000006f0: 2948 0618 35f5 ccbe a67a 0d23 fdb1 d5be
00000700: cc10 8ed4 81f5 0cbf 1934 f28c 031f f73e
00000710: 43e6 46d1 55b9 e1be 00eb a8ad 63c8 993e
00000720: 3b4e 2d61 1565 e33e d669 af60 6587 d4be
00000730: 7c6c dec5 234d 13bf 5cb8 efa9 687b d4be
00000740: 00fa fc0a df33 fe3e bb34 0e52 7b7b c43e
00000750: cd2c 2aff ec61 afbe 360c 3918 f8f5 c8be
00000760: f3da 9d85 e892 f4be 653b 82af a033 ad3e
00000770: 4bc9 13b8 3559 c53e 4b4d ffd7 3d52 b3be
00000780: fc43 2c08 53c2 a0be d344 f0d0 8c91 d5be
00000790: 9415 7d1d ab84 05bf 45a3 71d6 be73 e0be
000007a0: 1307 58b2 6327 e1be 9745 5f4c 1063 833e
000007b0: cf10 297e 95fc c03e a5db c1ef 275f d5be
000007c0: 8d14 0b83 12fb 0cbf 69d5 e8c5 a213 f83e
000007d0: 36cd cfa4 f509 f73e b32c 81ed d33b c53e
000007e0: aefe dddb dfdb b93e b525 8a38 78c4 c7be
000007f0: 2f38 96df 43d5 f2be ee33 9fd3 4ab8 c83e

b f8 [990]
-9.094947017729282e-13 1.4477308241112041e-13 -7.673861546209082e-13 3.907985046680551e-14 -5.684341886080802e-14 1.9539925233402755e-14 4.547473508864641e-13 -1.4654943925052066e-13
-5423.661749738139 -1715.912953429739 1985.0707213449261 1.5987211554602254e-14 -1.3642420526593924e-12 3.82804898890754e-13 -7.595701845275471e-12 2.4491519923230953e-13
-6.963318810448982e-13 1.3322676295501878e-14 0.0 1.758593271006248e-13 -13888.328888160835 -3107.021030037384 4499.390980717754 -2.930988785010413e-14
-9.094947017729282e-13 -1.8918200339612667e-13 3.955946681344358e-12 -9.237055564881302e-14 2.1316282072803006e-14 3.552713678800501e-15 2.7284841053187847e-12 -1.943334382303874e-12
-8464.66713842274 4822.933983467122 2514.320259372829 2.3092638912203256e-14 0.0 4.803268893738277e-12 -6917.979175428892 -2748.0621810804473
2514.3202593728274 -1.4210854715202004e-14 9.094947017729282e-13 6.572520305780927e-14 -5275.389639966804 -1643.2289258281023 1918.486785342363 2.3092638912203256e-14
4.547473508864641e-13 -8.473222123939195e-13 1.2448708730516955e-11 -1.9895196601282805e-13 1.7053025658242404e-13 2.842170943040401e-14 4.547473508864641e-13 -5.8761884247360285e-12
-6917.979175428915 2748.0621810804473 2514.3202593728283 -8.526512829121202e-14 0.0 -4.156675004196586e-13 -11741.590177427328 -692.1831741121588
4338.277185269737 1.1546319456101628e-14 4.547473508864641e-13 8.897327319346005e-13 -6466.200537460498 2335.41209994026 2419.7903999273694 -9.048317650695026e-15
0.0 -1.5614176618328202e-12 -8595.772290733903 -5023.348694506589 2514.320259372828 0.0 9.094947017729282e-13 5.089262344881718e-13
-1.531219595563016e-12 7.105427357601002e-13 -3.552713678800501e-14 -9.769962616701378e-15 -3.637978807091713e-12 1.8252066524837574e-13 -8595.772290733903 5023.348694506584
2514.3202593728283 7.105427357601002e-15 -4.547473508864641e-13 3.623767952376511e-13 -5.4143356464919634e-12 -1.9095836023552692e-13 -3.197442310920451e-14 3.552713678800501e-14
9.094947017729282e-13 2.575717417130363e-13 -10001.15392710305 -3133.4426073115806 -571.7615136030455 2.4868995751603507e-14 4.547473508864641e-13 3.552713678800501e-13
9.187317573378095e-12 -9.237055564881302e-14 2.8066438062523957e-13 1.7763568394002505e-14 -4.547473508864641e-13 -1.7905676941154525e-12 -25451.60929280322 -6126.861742153073
-1672.772565233994 -2.3092638912203256e-14 1.3642420526593924e-12 4.085620730620576e-13 -3.409184046176961e-11 -2.1316282072803006e-13 -5.258016244624741e-13 -3.197442310920451e-14
-1.8189894035458565e-12 9.237055564881302e-14 -15450.455365700158 9260.304349464639 -1101.0110516309473 4.085620730620576e-14 0.0 -2.5863755581667647e-12
-12627.304384555517 -5389.550296165247 -1101.0110516309492 -4.263256414560601e-14 -6.821210263296962e-13 -2.7000623958883807e-13 -5275.389639966829 -1643.2289258281023
-1918.4867853423666 -2.1316282072803006e-14 -2.2737367544323206e-13 -1.0862422072932532e-12 -4478.519891520551 -1356.1371164455245 1383.8255656329036 -9.85878045867139e-14
0.0 -3.296918293926865e-12 -12627.304384555493 5389.5502961652455 -1101.0110516309478 5.684341886080802e-14 9.094947017729282e-13 8.988365607365267e-13
-11741.590177427339 -692.1831741121598 -4338.2771852697415 2.842170943040401e-14 2.2737367544323206e-13 2.368327756130384e-12 -9818.771843279512 -848.1852002867925
2797.134773374785 1.7763568394002505e-14 -9.094947017729282e-13 -6.963318810448982e-13 -6466.200537460518 2335.41209994026 -2419.7903999273703 -2.842170943040401e-14
-9.094947017729282e-13 6.59916565837193e-13 -21030.011978926912 -7428.875794993451 312.2981561109349 2.6645352591003757e-14 0.0 -1.4210854715202004e-14
6.139089236967266e-12 -1.1368683772161603e-13 0.0 0.0 1.8189894035458565e-12 1.680433570072637e-12 -15689.760027167946 9633.198111725778
-1101.0110516309473 -9.947598300641403e-14 9.094947017729282e-13 -6.128431095930864e-13 -4.652278562389256e-12 2.5757174171303632e-14 -1.900701818158268e-13 -3.197442310920451e-14
9.094947017729282e-13 -7.105427357601002e-13 -10369.616649564725 -3321.547449946947 842.9324604463832 -3.552713678800501e-14 0.0 1.5578649481540197e-12
4.0614622776047327e-11 1.7763568394002505e-13 -2.5579538487363607e-13 -1.2434497875801753e-14 -1.1368683772161603e-12 -1.666222715357435e-12 -17355.40487684221 -1115.8229160505769
-570.3767472954981 2.4868995751603507e-14 -9.094947017729282e-13 1.3926637620897964e-12 -9392.595840663247 -4966.051785778519 3435.166930352935 0.0
4.547473508864641e-13 1.609379296496627e-12 -1.4438228390645236e-11 -8.348877145181177e-14 -1.8474111129762605e-13 1.4210854715202004e-14 -3.637978807091713e-12 7.45092876286435e-12
-6985.7882272775205 4437.370365997525 -1413.3092077418844 -2.3092638912203256e-14 5.4569682106375694e-12 -5.133671265866724e-13 -22755.5690849007 -637.4383114292988
5192.810282856557 5.950795411990839e-13 2.2737367544323206e-13 -1.964650664376677e-12 -3.1455726912099635e-11 -6.039613253960852e-14 -1.8474111129762605e-13 6.039613253960852e-14
5.115907697472721e-13 -3.749001109554229e-12 -4478.519891520537 -1356.1371164455272 -1383.8255656329025 1.5987211554602254e-14 6.821210263296962e-13 6.956657472301231e-12
-18967.758107032452 3780.1242256861888 3912.9428903294165 -6.217248937900877e-15 2.2737367544323206e-13 -5.220712750997336e-12 7.780442956573097e-13 -4.121147867408581e-13
00000000: 0000 0000 0000 70bd 0000 0000 0060 443d
00000010: 0000 0000 0000 6bbd 0000 0000 0000 263d
00000020: 0000 0000 0000 30bd 0000 0000 0000 163d
00000030: 0000 0000 0000 603d 0000 0000 00a0 44bd
00000040: 724b 6e68 a92f b5c0 008e 43dd a6cf 9ac0
00000050: 591e 2d6b 4804 9f40 0000 0000 0000 123d
00000060: 0000 0000 0000 78bd 0000 0000 00f0 5a3d
00000070: 0000 0000 00b4 a0bd 0000 0000 003c 513d
00000080: 0000 0000 0080 68bd 0000 0000 0000 0e3d
00000090: 0000 0000 0000 0000 0000 0000 00c0 483d
000000a0: 6adb 0119 2a20 cbc0 99f5 72c4 0a46 a8c0
000000b0: 1ff4 4f17 6493 b140 0000 0000 0080 20bd
000000c0: 0000 0000 0000 70bd 0000 0000 00a0 4abd
000000d0: 0000 0000 0066 913d 0000 0000 0000 3abd
000000e0: 0000 0000 0000 183d 0000 0000 0000 f03c
000000f0: 0000 0000 0000 883d 0000 0000 0018 81bd
00000100: c9b5 ca64 5588 c0c0 4b5e 8a19 efd6 b240
00000110: 1359 09f9 a3a4 a340 0000 0000 0000 1a3d
00000120: 0000 0000 0000 0000 0000 0000 0020 953d
00000130: 23ac 3dab fa05 bbc0 e7d5 32d6 1f78 a5c0
00000140: 1059 09f9 a3a4 a340 0000 0000 0000 10bd
00000150: 0000 0000 0000 703d 0000 0000 0080 323d
00000160: a3e2 71bf 639b b4c0 a343 886b eaac 99c0
00000170: 7c56 db77 f2f9 9d40 0000 0000 0000 1a3d
00000180: 0000 0000 0000 603d 0000 0000 00d0 6dbd
00000190: 0000 0000 0060 ab3d 0000 0000 0000 4cbd
000001a0: 0000 0000 0000 483d 0000 0000 0000 203d
000001b0: 0000 0000 0000 603d 0000 0000 00d8 99bd
000001c0: 3dac 3dab fa05 bbc0 e7d5 32d6 1f78 a540
000001d0: 1259 09f9 a3a4 a340 0000 0000 0000 38bd
000001e0: 0000 0000 0000 0000 0000 0000 0040 5dbd
000001f0: 9b16 ef8a cbee c6c0 9129 fd23 77a1 85c0
00000200: 7424 9df5 46f2 b040 0000 0000 0000 0a3d
00000210: 0000 0000 0000 603d 0000 0000 004e 6f3d
00000220: 764a 6c56 3342 b9c0 336c c3fe d23e a240
00000230: a09d 4caf 94e7 a240 0000 0000 0060 04bd
00000240: 0000 0000 0000 0000 0000 0000 0078 7bbd
00000250: 8f3a 6cda e2c9 c0c0 180e 0b44 599f b3c0
00000260: 1159 09f9 a3a4 a340 0000 0000 0000 0000
00000270: 0000 0000 0000 703d 0000 0000 00e8 613d
00000280: 0000 0000 00f0 7abd 0000 0000 0000 693d
00000290: 0000 0000 0000 24bd 0000 0000 0000 06bd
000002a0: 0000 0000 0000 90bd 0000 0000 00b0 493d
000002b0: 8f3a 6cda e2c9 c0c0 130e 0b44 599f b340
000002c0: 1259 09f9 a3a4 a340 0000 0000 0000 003d
000002d0: 0000 0000 0000 60bd 0000 0000 0080 593d
000002e0: 0000 0000 00d0 97bd 0000 0000 00e0 4abd
000002f0: 0000 0000 0000 22bd 0000 0000 0000 243d
00000300: 0000 0000 0000 703d 0000 0000 0020 523d
00000310: c920 e2b3 9388 c3c0 6bf0 6c9d e27a a8c0
00000320: 51a4 7194 17de 81c0 0000 0000 0000 1c3d
00000330: 0000 0000 0000 603d 0000 0000 0000 593d
00000340: 0000 0000 0034 a43d 0000 0000 0000 3abd
00000350: 0000 0000 00c0 533d 0000 0000 0000 143d
00000360: 0000 0000 0000 60bd 0000 0000 0080 7fbd
00000370: e13d a7fe e6da d8c0 083d 229b dcee b7c0
00000380: 2038 571b 1723 9ac0 0000 0000 0000 1abd
00000390: 0000 0000 0000 783d 0000 0000 00c0 5c3d
000003a0: 0000 0000 00be c2bd 0000 0000 0000 4ebd
000003b0: 0000 0000 0080 62bd 0000 0000 0000 22bd
000003c0: 0000 0000 0000 80bd 0000 0000 0000 3a3d
000003d0: f35a 6c49 3a2d cec0 975a ecf4 2616 c240
000003e0: f265 1e51 0b34 91c0 0000 0000 0000 273d
000003f0: 0000 0000 0000 0000 0000 0000 00c0 86bd
00000400: adb7 12f6 a6a9 c8c0 daa0 35e0 8c0d b5c0
00000410: fa65 1e51 0b34 91c0 0000 0000 0000 28bd
00000420: 0000 0000 0000 68bd 0000 0000 0000 53bd
00000430: bfe2 71bf 639b b4c0 a343 886b eaac 99c0
00000440: 8c56 db77 f2f9 9dc0 0000 0000 0000 18bd
00000450: 0000 0000 0000 50bd 0000 0000 001c 73bd
00000460: 3c56 9c17 857e b1c0 16e5 4068 8c30 95c0
00000470: 17c8 1361 4d9f 9540 0000 0000 00c0 3bbd
00000480: 0000 0000 0000 0000 0000 0000 0000 8dbd
00000490: a0b7 12f6 a6a9 c8c0 d8a0 35e0 8c0d b540
000004a0: f465 1e51 0b34 91c0 0000 0000 0000 303d
000004b0: 0000 0000 0000 703d 0000 0000 00a0 6f3d
000004c0: a116 ef8a cbee c6c0 9a29 fd23 77a1 85c0
000004d0: 7924 9df5 46f2 b0c0 0000 0000 0000 203d
000004e0: 0000 0000 0000 503d 0000 0000 00d5 843d
000004f0: 92b5 c2cb 622d c3c0 deb7 494a 7b81 8ac0
00000500: 250a 0401 45da a540 0000 0000 0000 143d
00000510: 0000 0000 0000 70bd 0000 0000 0080 68bd
00000520: 8c4a 6c56 3342 b9c0 336c c3fe d23e a240
00000530: a29d 4caf 94e7 a2c0 0000 0000 0000 20bd
00000540: 0000 0000 0000 70bd 0000 0000 0038 673d
00000550: d542 43c4 8089 d4c0 dfc6 1934 e004 bdc0
00000560: 1699 573f c584 7340 0000 0000 0000 1e3d
00000570: 0000 0000 0000 0000 0000 0000 0000 10bd
00000580: 0000 0000 0000 9b3d 0000 0000 0000 40bd
00000590: 0000 0000 0000 0000 0000 0000 0000 0000
000005a0: 0000 0000 0000 803d 0000 0000 0090 7d3d
000005b0: 33fb 9148 e1a4 cec0 969b b95b 99d0 c240
000005c0: f265 1e51 0b34 91c0 0000 0000 0000 3cbd
000005d0: 0000 0000 0000 703d 0000 0000 0090 65bd
000005e0: 0000 0000 0076 94bd 0000 0000 0000 1d3d
000005f0: 0000 0000 00c0 4abd 0000 0000 0000 22bd
00000600: 0000 0000 0000 703d 0000 0000 0000 69bd
00000610: cb78 5fee ce40 c4c0 ab04 5c4b 18f3 a9c0
00000620: 3c90 d2ad 7557 8a40 0000 0000 0000 24bd
00000630: 0000 0000 0000 0000 0000 0000 0068 7b3d
00000640: 0000 0000 0054 c63d 0000 0000 0000 493d
00000650: 0000 0000 0000 52bd 0000 0000 0000 0cbd
00000660: 0000 0000 0000 74bd 0000 0000 0050 7dbd
00000670: 0d8f 80e9 d9f2 d0c0 5352 81aa 4a6f 91c0
00000680: 2b08 1694 03d3 81c0 0000 0000 0000 1c3d
00000690: 0000 0000 0000 70bd 0000 0000 0080 783d
000006a0: 23c1 8144 4c58 c2c0 2331 d541 0d66 b3c0
000006b0: 222d e577 55d6 aa40 0000 0000 0000 0000
000006c0: 0000 0000 0000 603d 0000 0000 0050 7c3d
000006d0: 0000 0000 00c0 afbd 0000 0000 0080 37bd
000006e0: 0000 0000 0000 4abd 0000 0000 0000 103d
000006f0: 0000 0000 0000 90bd 0000 0000 8062 a03d
00000700: c44a 43c9 c949 bbc0 ec56 4ed0 5e55 b140
00000710: 414c f4a0 3c15 96c0 0000 0000 0000 1abd
00000720: 0000 0000 0000 983d 0000 0000 0010 62bd
00000730: 4a13 e36b e438 d6c0 6932 6ca9 81eb 83c0
00000740: 6c81 b26e cf48 b440 0000 0000 00f0 643d
00000750: 0000 0000 0000 503d 0000 0000 0048 81bd
00000760: 0000 0000 004b c1bd 0000 0000 0000 31bd
00000770: 0000 0000 0000 4abd 0000 0000 0000 313d
00000780: 0000 0000 0000 623d 0000 0000 007d 90bd
00000790: 2d56 9c17 857e b1c0 22e5 4068 8c30 95c0
000007a0: 12c8 1361 4d9f 95c0 0000 0000 0000 123d
000007b0: 0000 0000 0000 683d 0000 0000 8098 9e3d
000007c0: d05b d384 f085 d2c0 0257 829a 3f88 ad40
000007d0: 1e71 85c2 e291 ae40 0000 0000 0000 fcbc
000007e0: 0000 0000 0000 503d 0000 0000 00f6 96bd
000007f0: 0000 0000 0060 6b3d 0000 0000 0000 5dbd
